01_Testing_PyTorch/cifar_net.pth (torch, 251604 bytes, 10 tensors)

conv1.weight f4 [6, 3, 5, 5]
000000 b2 78 12 bc 91 63 97 bc 75 28 e3 3b 6e b9 72 bd
       -0.008939909 -0.018480094 0.006932313 -0.05925887
000010 8e 81 51 be 97 30 7c 3d b2 ad 0d 3e ec b7 21 3b
       -0.20459577 0.061569776 0.13835791 0.0024676276
000020 46 f1 8c 3d 6c db 3d ba 87 2e 13 3e 1a d9 6c 3e
       0.06881957 -0.0007242474 0.14373218 0.23129693
000030 d1 81 b8 3d 61 d6 b3 bb 0c d8 85 bd 30 79 37 3e
       0.090091355 -0.0054882024 -0.06535348 0.17917323
000040 ed 5d 24 3e 3c 25 32 3e 08 3b ec 3d 42 27 f2 3d
       0.16051455 0.17397016 0.11534697 0.11823894
000050 8c 19 0c 3e c3 4e 1b 3e 36 3d 4c 3e 4d 5a 78 3e
       0.1368162 0.15166764 0.19945225 0.24253197
000060 b9 1a 05 3e 9e 8f 29 bc 51 3f aa bc 25 90 c5 bd
       0.12998475 -0.010349182 -0.020782145 -0.09646634
000070 c0 cd 14 be 24 dc 68 bd 41 7c 8a 3d 5d 47 3a 3d
       -0.14531612 -0.056850567 0.06761981 0.045478214
000080 98 ca f2 3c 96 21 45 be d7 77 66 be 0a f1 85 3d
       0.02963762 -0.19251093 -0.22506653 0.06540115
000090 fb 33 45 3e 62 43 dd bb 7f 1a 34 be cf 96 a4 be
       0.1925811 -0.0067524174 -0.17588232 -0.32146308
0000a0 c0 e9 93 bd 68 f7 df 3d 30 81 66 bd 0d 4a 90 bd
       -0.07222319 0.10935861 -0.056275547 -0.07045374
0000b0 85 84 ba be 44 09 18 bd 9d 72 5a bd 3e f5 3b 3d
       -0.3642923 -0.03711821 -0.05333196 0.045888178
0000c0 ed 5b fa bd ec 4b 10 be ac 79 4e 3e 9e 11 d3 3e
       -0.12224565 -0.14091462 0.20163602 0.41224378
0000d0 04 c0 8b 3e f3 06 c7 3d e9 9d b3 bd d1 0c 42 3e
       0.27294934 0.09718122 -0.08770353 0.18950202
0000e0 d7 ea ce 3e 8a f0 dc 3d 6a 15 da bd de a2 93 be
       0.40413544 0.10788067 -0.10648616 -0.28835195
0000f0 7a 0f 81 3e 85 44 78 3e 30 28 48 3e b6 c7 b3 bd
       0.2520712 0.24244888 0.1954658 -0.08778326
000100 27 b1 8f be 3d 35 e5 3d 48 74 13 3e 7a 7a 0c 3e
       -0.28064844 0.11191795 0.14399827 0.13718596
000110 96 a5 00 be 68 18 2a be 09 fa 8f 3d 12 c1 09 3e
       -0.12563166 -0.16610873 0.07030112 0.13452557
000120 97 0c 02 3d 8d fa cb 3d 87 34 d9 bd 6b ed d0 be
       0.031750288 0.09959898 -0.10605722 -0.40806136
000130 86 21 d9 be e3 d8 0a bf 61 29 ed be 62 e4 ff be
       -0.4240839 -0.5423719 -0.46320632 -0.4997893
000140 51 6f a2 be de 51 ad be 15 48 9f be 74 8d 43 be
       -0.31725553 -0.33851522 -0.31109682 -0.19096929
000150 e8 d8 5b be e7 55 7d 3c a7 8d f3 3d 7d 6f 5d 3e
       -0.21469462 0.015462375 0.118922524 0.2162456
000160 8b 15 62 3e 05 8e 7b 3e ea 70 b8 3e e1 e5 9a 3e
       0.2207853 0.24565895 0.36023647 0.3025351
000170 a0 3b b3 3e 6a b5 a2 3e 53 6f 88 3e 37 e5 5c 3e
       0.35006428 0.31779033 0.26647434 0.21571814
000180 93 12 8b 3e 52 66 03 3e 02 ba 26 3e 13 8c b2 3e
       0.27162609 0.12832001 0.16281894 0.34872493
000190 87 fc 90 be 64 2c 89 be c5 02 c6 be 62 50 84 bd
       -0.28317663 -0.2679168 -0.38673988 -0.06460644
0001a0 93 cd 75 bd 04 f7 34 be b8 60 e2 bd 3e f3 69 bd
       -0.060010504 -0.17672354 -0.11053604 -0.05711674
0001b0 1a 81 eb bd ea 58 bf bc c3 ec f9 bc 77 8a 52 3e
       -0.114992335 -0.023357827 -0.030508405 0.20560633
0001c0 2d c6 31 3e c6 d2 f8 3d 92 53 e2 3d 0d a2 aa 3d
       0.17360754 0.12149577 0.11051096 0.0833169
0001d0 fb 92 db 3d 31 f7 df 3d 62 a2 d5 3d be 19 ba 3c
       0.10721394 0.1093582 0.10431363 0.022717353
0001e0 91 67 44 3d 3e aa 91 bd 03 27 27 bd 47 fc f4 bd
       0.04795033 -0.07112549 -0.04080869 -0.119621806
0001f0 df b2 ca bd 57 c7 ae bd 5d 06 7e bd 71 d7 92 bd
       -0.09897398 -0.08534115 -0.062017787 -0.071699984
000200 d2 53 b5 3d 43 b9 9f 3e bd 1b 00 be 55 af 99 bd
       0.08853878 0.3119603 -0.12510581 -0.07504145
000210 75 ef 07 bb ad 9c 01 3e 88 e2 1b 3e f5 6d 57 3d
       -0.0020742093 0.12657423 0.15223134 0.052595098
000220 0e be 62 3e ac a0 95 3e 35 15 85 3e 9c 00 99 3d
       0.22142813 0.29224145 0.25992742 0.07470819
000230 98 3d 9b 3d a0 50 a0 3d df a1 d3 3d 7a de fb bb
       0.075801075 0.07827878 0.10333609 -0.0076864334
000240 fe b1 36 bd 26 12 18 bc 48 21 2f be 51 32 1f be
       -0.04460334 -0.009281671 -0.1710254 -0.15546538
000250 ed 57 6c bd 2d da c2 bd eb d4 76 be e5 9d 32 3d
       -0.05770104 -0.0951427 -0.2410466 0.04360761
000260 da a6 0a 3f c0 5d 36 3f 64 d6 80 3e 56 d4 ae bd
       0.54160845 0.712368 0.25163567 -0.085365936
000270 7c 1c 3e 3e 20 09 27 3f 82 58 b7 3e 26 7e 26 be
       0.18565553 0.652483 0.35809714 -0.1625906
000280 05 8e 60 3e fe c0 ef be 7c 69 5e bf 01 4e 18 bf
       0.21929176 -0.4682693 -0.86879706 -0.59494025
000290 e3 a8 6c be 64 60 bd 3e 0b 87 37 be 61 7a cd be
       -0.231113 0.36987603 -0.17922609 -0.4013243
0002a0 fe 3a a4 be a4 06 ff 3d 22 31 44 be bb c5 13 bd
       -0.32076257 0.124524385 -0.19159368 -0.036077242
0002b0 37 55 55 3e 29 89 9f 3c f6 b8 82 be 55 bb 49 be
       0.20833288 0.019474583 -0.2553174 -0.19700368
0002c0 48 da 00 3e 7a de ee 3e dd 2b 1c 3f 10 06 53 3e
       0.12583268 0.4665411 0.6100443 0.20607781
0002d0 67 6b fe bd 28 20 dc 3e 4e f9 32 3f 90 4b 41 3e
       -0.12422829 0.42993283 0.6991166 0.18876481
0002e0 5d 75 b4 be e4 72 ae 3e 3d 37 c9 be 7d da 3f bf
       -0.3524579 0.3407203 -0.39299956 -0.7494276
0002f0 fc aa 4c bf d2 a8 83 be 23 33 49 3e d3 58 87 be
       -0.799484 -0.25714737 0.19648413 -0.26434955
000300 5b 45 f8 be 41 a2 ae be c5 ea c2 3d f1 95 76 be
       -0.48490414 -0.34108165 0.09517435 -0.24080636
000310 db dc aa bd df 81 82 3e 34 39 48 3e 8e 29 99 be
       -0.08342906 0.2548971 0.19553071 -0.29914516
000320 3c 91 f0 be bb 35 14 bd c7 56 15 3d c8 71 a9 3e
       -0.46985805 -0.036184054 0.03645971 0.3309462
000330 e4 b1 53 3d c7 ea c1 bd 09 2d 6b 3e 39 3e b7 3e
       0.05168332 -0.09468608 0.22966398 0.3578966
000340 ea f5 03 3e 22 dd 74 be 23 03 6a 3e 82 b7 a8 be
       0.12886778 -0.2391248 0.22852759 -0.32952505
000350 2a d2 50 bf 86 cb 1e bf 5d 32 d8 3c 01 64 54 3e
       -0.81570685 -0.620293 0.026391203 0.20741273
000360 1e 41 cd bd 56 86 62 be bf 92 83 3d ba f4 89 3e
       -0.10022186 -0.22121558 0.06424474 0.26944524
000370 b5 3f 3d 3e 9b 99 8d 3e 39 7e fb 3e d3 c2 ce 3e
       0.18481334 0.27656254 0.49119738 0.40383014
000380 e8 f9 97 3e 3e 1a da 3e 1d ab 84 bd c8 12 57 be
       0.2968285 0.42598146 -0.0647795 -0.21003258
000390 df e9 3d 3c e5 b0 1a bd c9 1c 77 3e ad 8b 21 bf
       0.011591404 -0.037766356 0.24132074 -0.63103753
0003a0 cd 27 ca bd 4e 0c 89 3e 46 59 16 3d de b4 82 3e
       -0.09870873 0.267672 0.03670623 0.25528616
0003b0 26 00 74 bf e8 8d a8 3d 01 cf 0a 3f 93 f5 76 39
       -0.95312726 0.082301915 0.5422211 0.00023551872
0003c0 75 de c7 3d 69 9d 55 bf 77 4b d4 3e 4b dc ba 3e
       0.09759227 -0.83443314 0.41463825 0.36496195
0003d0 e1 45 6d bd 0f 62 a4 3e 43 42 d5 be 1d 27 64 3e
       -0.05792797 0.32106063 -0.41652116 0.22280546
0003e0 1a fc 32 3e c1 46 c4 3c 3d 3b 85 3e 71 fe 8f be
       0.17478982 0.02395952 0.26021758 -0.2812381
0003f0 ae ae 9c be 01 4a a5 3c 9f 7b 98 bd e0 c1 9e 3e
       -0.3060202 0.02017689 -0.07445454 0.3100729

conv1.bias f4 [6]
000000 25 dd 0c be 26 4a 19 bf 8b e9 2e bf cd af cf be
       -0.13756235 -0.59878767 -0.6832511 -0.40563813
000010 05 ec 7b 3e 16 15 42 bf
       0.24601753 -0.75813425

conv2.weight f4 [16, 6, 5, 5]
000000 c3 13 73 be c9 35 20 be 19 55 5f bd 7b ef 26 bc
       -0.23738007 -0.15645517 -0.054524515 -0.0101889325
000010 67 9d 9c 3d ae 4c 2e 3d c4 96 44 be 9e c9 4f bd
       0.076472096 0.042553596 -0.19198138 -0.050729387
000020 80 dc 4f 3d cf 23 d2 3d f9 58 8d 3e 61 95 54 be
       0.050747395 0.10260736 0.27606943 -0.20760109
000030 e5 18 04 be 0b a4 aa bd b2 9b ee 3d 46 36 cd 3e
       -0.12900122 -0.0833207 0.1165079 0.4008047
000040 9e 7d 89 3d 63 70 29 bd ba a9 09 be 49 6d bf bd
       0.06713413 -0.041366946 -0.13443652 -0.09347016
000050 4a 8e 82 3e 78 46 9d 3d 56 9f 65 3d 42 fe e9 bd
       0.25499183 0.076794565 0.056060158 -0.11425449
000060 1c 8a 8d be 1e c0 ac bb 9a 75 30 bd 61 bb 59 bd
       -0.27644432 -0.0052719256 -0.043080904 -0.053157214
000070 84 a1 b7 bd c5 ba d1 3c b4 ac 7c be 5f 4d 82 be
       -0.089663535 0.025601754 -0.24675256 -0.25449654
000080 4f c8 05 be c6 f6 3e be 56 01 09 be 16 05 76 bd
       -0.13064693 -0.18648824 -0.13379416 -0.060063444
000090 fa 30 5b be 38 50 3f be b1 7e 8f 3d df 35 f2 3c
       -0.21405402 -0.18682945 0.07006586 0.029566703
0000a0 c7 e4 59 be 95 83 0b 3c aa 1f b2 3d 7c 89 b9 bd
       -0.21278678 0.008515258 0.08697446 -0.09059426
0000b0 d2 d0 a9 3d 0c c6 03 bf ff 17 0a 3d 9b 1b c0 3e
       0.082917824 -0.5147407 0.03371429 0.3752106
0000c0 fe 00 cc 3e 9e a9 a8 3e 90 d1 86 3e b0 95 d5 bd
       0.39844507 0.32941908 0.26331758 -0.10428941
0000d0 79 41 7a be 5a 35 29 be 74 70 0f 3e b8 81 86 3e
       -0.24439038 -0.16524258 0.14007741 0.26270843
0000e0 e2 6c 29 3e 2b 9c a6 be 0a 44 17 be 93 ec e7 3d
       0.16545442 -0.32541022 -0.14772049 0.1132442
0000f0 9c ef a6 bd 8f 6d ba 3d 3e aa c9 3d 2f ed 00 be
       -0.081511706 0.09102928 0.09846924 -0.12590478
000100 97 47 04 be b4 dc 1d be 3a 71 f8 bb 40 aa b8 3e
       -0.12917934 -0.15416223 -0.007581857 0.3606739
000110 ea 40 22 3e 31 f1 70 be b2 7f c0 bc 03 86 65 bd
       0.15845075 -0.23529507 -0.02349839 -0.056036007
000120 2f 67 30 3c 05 06 b0 3d be e5 0f 3e 78 4f 9b 3e
       0.010766788 0.08594898 0.14052483 0.30334067
000130 c0 9d 1e bd ad 45 55 be 1f 85 87 3d c7 fb 2c be
       -0.03872466 -0.2082736 0.06617188 -0.1689292
000140 7d 41 a7 3e 0e 7b a1 3e eb 09 d7 3d 8b fd 86 bd
       0.3266715 0.31539196 0.104999386 -0.06591328
000150 ce 10 82 3d 07 bf be 3d 11 b2 8a bd f7 ca 7a 3d
       0.063508615 0.09313779 -0.06772245 0.06122872
000160 31 b8 9b 3d 70 da 04 3d 9c 4f 0d be a9 a0 13 be
       0.07603491 0.03243488 -0.137999 -0.14416756
000170 c3 46 6f be e9 da b4 be 1e 56 86 bd bf bc 59 be
       -0.23366837 -0.35323265 -0.06559394 -0.21263407
000180 cf 49 4a be e2 a5 87 be 4c d3 0a bf b0 df cc be
       -0.19754718 -0.26493746 -0.54228663 -0.4001441
000190 a2 b7 a8 bc b7 88 48 3e 3a 18 98 3d be 6f 04 3e
       -0.020595375 0.19583403 0.07426496 0.12933251
0001a0 a8 96 7b 3e 7f 96 19 be a1 26 35 3e c0 ad 10 3e
       0.2456919 -0.14998816 0.17690517 0.1412878
0001b0 d0 88 5e 3e e3 15 f7 3c a8 9f 01 bf 0f d6 c3 bd
       0.21731877 0.030161804 -0.5063424 -0.09562313
0001c0 e8 c6 1a 3e c8 9d a5 3d 9c bc 59 be 69 eb 45 be
       0.15114939 0.08086735 -0.21263355 -0.19328083
0001d0 68 47 8d be bc 94 20 3e 41 03 3d 3e 06 3f bd bc
       -0.2759354 0.15681738 0.18458273 -0.023101341
0001e0 2c 5d 99 3d 95 5f 3c 3d 4c 9d 0c be a1 f6 2c be
       0.07488474 0.04598959 -0.13731879 -0.16890956
0001f0 76 c7 52 be 36 68 0d 3e c1 72 f4 3c b1 e1 94 39
       -0.20583901 0.13809285 0.029839875 0.00028396913
000200 e3 51 6a 3d fb 92 52 3e cc 7f c7 bd 84 4e 40 3e
       0.057207 0.20563881 -0.09741172 0.18779951
000210 84 f0 1d bc 18 07 36 bd a9 91 9f 3d 5e c2 cf be
       -0.009639863 -0.04444036 0.07791454 -0.40577978
000220 1d 7e 1f 3e 9a 56 a1 3e 56 30 a6 bd 62 17 b1 bd
       0.15575452 0.31511384 -0.08114688 -0.08647038
000230 62 ba 76 be 9b a1 8c 3d 00 83 48 3e 06 37 19 bd
       -0.24094537 0.06866761 0.19581223 -0.03740599
000240 db 1a 98 bd 5d 3a 86 be 33 8c 03 bd 6b 36 2e bd
       -0.07426997 -0.26216403 -0.032116126 -0.042532366
000250 2b 4e f6 bd 69 b2 16 be 55 b2 a6 bd a5 67 c9 bd
       -0.12026628 -0.14716496 -0.08139483 -0.09834222
000260 73 27 05 3d 43 44 cc 3e 49 f8 4f 3e b9 ef 1a be
       0.032508325 0.3989583 0.20309557 -0.1513051
000270 0b c1 23 be 4a 55 fd bc 14 2f ae 3e ce d1 54 3e
       -0.15991609 -0.030924458 0.34020293 0.20783159
000280 c1 34 9f bd fd df 8c be bc 64 52 bd 8f 29 70 3e
       -0.07773734 -0.2751464 -0.0513656 0.23453353
000290 d5 f8 53 3d 77 6e 53 bb ff 35 63 be 32 93 78 bd
       0.051750977 -0.0032261887 -0.22188567 -0.06068725
0002a0 c7 40 41 3e 3d 2c e8 3d f6 25 fd 3c 27 a6 f2 bd
       0.18872367 0.11336563 0.03090189 -0.11848097
0002b0 90 2b 9c bb 1a 5c c8 3d 30 3c 29 3e 68 fe 35 be
       -0.0047659352 0.09783192 0.16526866 -0.1777283
0002c0 a8 06 c5 bd 2d 7b a3 bd 97 5e b5 bd 0f 56 e3 ba
       -0.0962041 -0.07982478 -0.08855932 -0.0017344373
0002d0 09 39 a6 bd 69 ef 80 bd 7e b6 d4 3b cf 22 61 bd
       -0.08116347 -0.06295664 0.0064914813 -0.054964837
0002e0 01 55 09 be 5a 26 d6 bd f4 4f 9f bd 48 46 9a bd
       -0.13411333 -0.10456534 -0.07778922 -0.07532936
0002f0 37 e3 3c bc 72 46 36 bd f7 07 86 bd c6 3f a4 bd
       -0.011528782 -0.044500776 -0.06544488 -0.08019976
000300 89 0c 2d bd a9 df 12 be 1e 2f cf bc e4 a0 28 be
       -0.042248283 -0.14343132 -0.025291022 -0.16467625
000310 f5 3b f4 bd ee 76 3d bd 82 f5 21 be c1 4e c7 bb
       -0.119254984 -0.046256 -0.1581631 -0.0060823862
000320 46 df dc bd 00 11 01 be 53 a4 c0 bd 86 9d 15 3e
       -0.107847735 -0.12604141 -0.09406342 0.14610872
000330 76 cf 9b 3d f2 c6 c9 bd 2f cc 24 be 3d e3 4e be
       0.076079294 -0.09852399 -0.16093515 -0.20203872
000340 3c e6 93 3c 9b 5c 40 3e ec e4 7c be 36 f1 b6 be
       0.01805412 0.18785326 -0.24696702 -0.35730904
000350 94 7f 19 be 4a bf 18 be be 7f d1 bd 91 ee 9c be
       -0.14990073 -0.14916721 -0.10229443 -0.30650762
000360 18 ff a0 be 1d 4e d2 be 47 8e 8c be 75 65 d2 bd
       -0.3144462 -0.4107522 -0.274523 -0.10273258
000370 28 f7 cc be 61 51 e4 be e4 9f ef be 38 6b c2 be
       -0.40032315 -0.44593337 -0.46801674 -0.37972426
000380 1a 37 74 be 7d 62 1b 3d 51 83 95 3d a0 28 e0 3d
       -0.23849145 0.037935723 0.07300437 0.109452486
000390 00 31 c8 bc 9e f4 4a be 25 99 70 bb ea 65 8a 3e
       -0.024437428 -0.19819877 -0.0036712375 0.2703088
0003a0 df a2 d8 3d 38 1f 8b bc 37 7d 40 be 2e ba 21 bd
       0.1057794 -0.01698266 -0.18797766 -0.039484195
0003b0 eb eb 25 3e c8 a3 aa 3d ca 25 ed 3d 8a 7f a7 be
       0.16203277 0.0833202 0.11579473 -0.32714492
0003c0 cb 85 50 be 7e 4f 1f 3e c7 50 b1 3c b1 ec 00 3e
       -0.20363538 0.15557668 0.021644963 0.1259029
0003d0 cc f8 8b be 67 22 6b be 1a 81 4f 3e 8e a4 9a 3d
       -0.27338254 -0.22962342 0.20264092 0.075509176
0003e0 30 7a de 3d 96 fb 97 be b6 c7 4c be d5 94 42 be
       0.10863149 -0.29684132 -0.19998059 -0.19002087
0003f0 11 31 58 bd 67 72 a4 bb 4e b2 af 3d ab 63 a3 bd
       -0.05278117 -0.0050185206 0.08578931 -0.079779945

conv2.bias f4 [16]
000000 4e 6f 3d bf fa e3 b7 3e 03 93 d5 bd 6c 0a d7 3e
       -0.7399796 0.3591612 -0.10428431 0.4200014
000010 91 41 56 be c4 aa 0a 3e f8 b1 b6 3d 01 9a 9b 3f
       -0.20923449 0.13541704 0.089206636 1.2156373
000020 2a a4 63 be 8a dd ae 3f 62 2e 5a be 88 10 02 3f
       -0.22230592 1.3661358 -0.21306756 0.50806475
000030 ab 34 9d 3f 1d 9b 67 3e b9 0b a5 bf 2d da 4f bf
       1.2281698 0.22617765 -1.2894202 -0.81192285

fc1.weight f4 [120, 400]
000000 b0 8a 98 3d 20 c2 26 3d 56 6e 62 3d 90 ed 7a 3d
       0.074483275 0.040712476 0.055281006 0.061261714
000010 67 ba 45 bd b3 c8 ab 3c 3b 76 14 3d c3 f9 9c 3d
       -0.04827347 0.020969724 0.036245566 0.07664826
000020 a6 79 71 3d 23 3a 1c 3d 55 e1 ee 3b d8 2a 43 bd
       0.058953904 0.03814138 0.0072900453 -0.04764828
000030 03 b7 10 bc 0a 74 f7 3c a7 63 3a 3b e9 c6 37 3a
       -0.008832696 0.030206699 0.0028440745 0.0007010536
000040 0d c8 0c bd 3e 2a 86 bb 70 82 c5 bc f4 2c 81 bd
       -0.03437047 -0.004094391 -0.024110049 -0.06307402
000050 ce 19 bc 3d 46 f3 74 3c c6 b6 b4 bc bd 07 0c bd
       0.09184609 0.014950579 -0.02205981 -0.034187067
000060 bf 57 cd bd 86 10 bb bd 02 92 35 bd e2 e5 80 bd
       -0.10026502 -0.09134011 -0.044328697 -0.06293847
000070 86 3a 4a bc 01 fe c3 3a 04 0f 94 bd f2 7d ae bc
       -0.012343055 0.0014953018 -0.072294265 -0.02130029
000080 b8 90 99 bd 7f 4f 7d bd a9 0c b0 bd a4 e0 17 bd
       -0.07498306 -0.06184339 -0.08596165 -0.03707947
000090 75 fe 5d bd 4b c6 11 bd 9d 4b 89 bd 1f 11 ea bd
       -0.054197747 -0.035589498 -0.06703875 -0.11429047
0000a0 e2 3e f0 bb 55 4f 21 3d 19 6e 84 3b 03 df 0e 3c
       -0.007331715 0.039382298 0.004041445 0.008720162
0000b0 ed b7 9d bc f5 c9 0b bd a2 b9 cb 3b b3 58 8e bd
       -0.019252742 -0.034128148 0.0062171975 -0.06950512
0000c0 21 cd 82 bc 6d e4 a1 bc 1b a2 3f bd 2d 56 7c bd
       -0.015966954 -0.019762242 -0.046785455 -0.06160562
0000d0 9d 8b 33 bd 72 17 81 bc e7 9c 0a bc 34 78 b4 bb
       -0.043834317 -0.01575825 -0.00846026 -0.0055074934
0000e0 b0 39 5b bd 44 6c 8b 3d 74 2a 54 bb 86 3b 91 3d
       -0.053521812 0.068077594 -0.0032373937 0.07091431
0000f0 b9 8c da 3c 43 3c d8 bc 2f 67 87 3d e1 19 38 3d
       0.02667843 -0.026395923 0.066114776 0.044946555
000100 6f f1 78 3c fd 0c 19 bd d1 a7 ab 3c be 95 ff 3c
       0.015194281 -0.037365902 0.020954045 0.031199332
000110 0f 8f 1a bc 70 2c 90 3c 5d 75 2e 3d 36 00 32 3d
       -0.009433522 0.017599314 0.042592395 0.043457232
000120 f8 cf 87 b9 84 f7 be 3c 5b f0 33 bd 2b dc 16 3c
       -0.00025904155 0.023311384 -0.043930393 0.009207766
000130 a1 6e 1f 3c b9 b7 bc 3c a9 99 44 3d 36 da 16 bd
       0.009730966 0.023036825 0.047998104 -0.036829196
000140 16 b1 ce 3c e2 8e 98 bd d2 1d e0 3c f0 70 1b 3c
       0.025230926 -0.07449128 0.02735797 0.009487376
000150 08 56 b4 bb 75 8e 7d bc 31 2c 51 bc 31 7a 89 bc
       -0.00550342 -0.015475859 -0.012766884 -0.016781898
000160 60 a0 75 bd b3 ae 88 bd ce b8 5c bd 56 21 32 bd
       -0.0599674 -0.06673946 -0.05388718 -0.043488823
000170 b9 91 de bd e8 e5 dd bd a3 4b bc bd 06 b3 9a 3c
       -0.10867638 -0.10834867 -0.09194114 0.018884193
000180 9c 6e 33 3c 12 5a 96 bd e8 7e d3 bd 37 a7 72 bd
       0.010951664 -0.07341398 -0.1032694 -0.0592415
000190 f9 b4 1f bc 66 a1 cc 3b ba 0b 85 bd 76 8c 5b bd
       -0.009747737 0.006244826 -0.06496377 -0.05360075
0001a0 98 c6 8e bd 43 21 87 bc 74 67 9d 3c fd 82 18 3b
       -0.069714725 -0.016495353 0.01921437 0.0023271434
0001b0 ac fb d7 3c 40 f5 64 3d f6 13 a5 3d f9 12 f5 bb
       0.026365124 0.05589795 0.08060448 -0.0074790684
0001c0 1d 67 4a bd a1 4d 89 bd 8e 70 bb 3b 9a 1f b0 ba
       -0.049414743 -0.0670426 0.0057202047 -0.0013437152
0001d0 32 70 a1 3d 57 74 11 3d e1 91 a9 3c 9e 2d 29 bc
       0.07882728 0.03551134 0.020699443 -0.010325817
0001e0 33 5a 3e 3d 23 f1 1c 3d 5e 61 b1 3c 78 8e 40 3d
       0.04647274 0.038315903 0.021652874 0.04701087
0001f0 fa e8 2c bd 34 fc 8f bd ca 34 d0 bc 37 7d df bc
       -0.04221437 -0.07030526 -0.025415797 -0.027281387
000200 e3 69 86 bd b0 0d 8d 3d 40 c3 b5 bd 1a 8b 03 be
       -0.06563165 0.06887376 -0.088751316 -0.12846032
000210 81 c8 81 bd 41 64 0c bd 35 13 81 bd 77 86 98 3c
       -0.06337071 -0.034275297 -0.063024916 0.018618805
000220 ff a4 f1 bc 30 e7 fc 3b 8f b3 24 bd 32 17 af bd
       -0.029497622 0.0077179894 -0.040210303 -0.08549346
000230 37 1c 1a bd 98 b8 6a 3c 80 64 d0 bc af e3 a5 3c
       -0.037624564 0.014326237 -0.025438547 0.02025017
000240 ab 6a 9f bd 94 58 85 3c c9 22 cd 3c 4f de 05 bd
       -0.07784017 0.016277589 0.025041 -0.032682713
000250 6c 8d d3 3b 18 3c 80 bc 2d b9 76 bd 36 f6 91 bc
       0.006456068 -0.015653655 -0.06023519 -0.017817598
000260 ef 69 3a 3d de 7b 15 bd 04 a9 8d bc 5e 39 17 bc
       0.045511182 -0.036495082 -0.017292507 -0.009229986
000270 c8 b0 85 bc 13 e5 af bc 66 ae b9 3b 3a b9 c0 3c
       -0.016319647 -0.021471536 0.005666542 0.023525823
000280 1b b9 f1 bc 0b fc bd bc 08 37 b9 bc 12 05 60 3d
       -0.02950721 -0.023191473 -0.022609249 0.054692335
000290 37 08 6d bc e7 40 39 bd 07 fc ce 3c 9f 0a 4c bc
       -0.014467291 -0.04522791 0.02526666 -0.012453704
0002a0 e3 35 d3 3c 5a 84 f4 bc 4c 21 ca bc b9 6b 06 bd
       0.025782531 -0.029848266 -0.02467408 -0.032817576
0002b0 b7 41 f4 3c 29 3c af 3c 94 cf 9e 3c 9c 40 42 bd
       0.029816492 0.021390991 0.01938609 -0.047424898
0002c0 7a 4e 8b 3c 8c 61 b3 bc be e8 3d bd 83 d1 19 bd
       0.017005194 -0.0218971 -0.04636454 -0.03755332
0002d0 9d 31 06 bd 30 5f 00 bd e3 d1 92 bd 31 06 85 3c
       -0.03276216 -0.031340778 -0.07168939 0.016238304
0002e0 66 65 bd 3c 51 39 3e bd 23 37 6d bd 05 03 a8 bd
       0.02311964 -0.04644138 -0.05791391 -0.08203701
0002f0 dc aa 0d bd c5 30 03 bd 42 1a 5b 3b 5c 75 ad bc
       -0.034586772 -0.032028932 0.00334324 -0.021174125
000300 75 2b 01 bd 06 94 80 bd 53 01 97 bd 2b b5 ad bc
       -0.031535584 -0.06278233 -0.073732994 -0.021204552
000310 9a f9 55 3c ae 39 08 bd 32 6a 94 bd 5d 25 c2 bd
       0.013059998 -0.033258133 -0.07246818 -0.09479783
000320 24 f1 68 3b 04 07 a6 bc f5 a6 c5 3c 53 32 12 3c
       0.0035544122 -0.020267017 0.024127463 0.008923131
000330 95 4a 23 3d 3f f1 51 bc 07 a2 b6 bc e0 d4 6b bc
       0.03986605 -0.012813865 -0.022294058 -0.014394015
000340 72 b8 bc 3c e0 2f c7 3c 73 e2 a9 bb d8 f5 25 bd
       0.02303717 0.02431482 -0.0051844656 -0.040517658
000350 2d c9 12 bd 22 95 db bb d0 eb d4 3c 81 5f 0f 3d
       -0.035836387 -0.0067011276 0.02599135 0.03500319
000360 39 8d ea 3c 92 f9 aa 3b fe d4 63 bc 4f 95 90 ba
       0.028631793 0.0052177394 -0.013905762 -0.0011030826
000370 a0 28 69 3d ce d2 38 bd c0 20 b8 bc d9 4d 17 bd
       0.05692351 -0.045122914 -0.022476554 -0.036939476
000380 9e 05 a7 bb c4 c3 e7 3c 38 94 37 3d bc 09 4b 3c
       -0.005097105 0.02829159 0.044819087 0.012392458
000390 bf f5 23 bc 39 95 23 bc 6a 3d 25 3d 91 fc 6d bd
       -0.010007321 -0.009984308 0.040341772 -0.058102194
0003a0 52 6f 09 bd e7 98 b3 bc 16 8b f5 bc b4 69 d2 bc
       -0.03355343 -0.021923495 -0.029973548 -0.025685169
0003b0 7c 5f 72 bd 56 43 14 bc 1f be c4 3c 14 72 66 bc
       -0.059173092 -0.009049257 0.024016438 -0.014065284
0003c0 d1 7e 9e bd e6 91 cd bb 41 e8 54 3b e6 0a d5 3c
       -0.07739032 -0.006273496 0.0032487067 0.026006173
0003d0 1a 30 00 3b 83 47 41 bd d2 bd 6d 3d 24 05 bc 3d
       0.001955992 -0.04718734 0.058042355 0.09180668
0003e0 de 08 03 3e eb ce 12 3e 6b 0c 92 38 15 63 47 bd
       0.12796351 0.14336745 6.9641355e-05 -0.048678476
0003f0 1a cd 4a bd 90 0a 39 bc 7c 66 59 bd 1f 63 ed 3c
       -0.049512006 -0.011294022 -0.053076252 0.028977929

fc1.bias f4 [120]
000000 97 5f 3f 3d 28 de fe 3c 33 95 8f bc ce 16 90 3b
       0.04672202 0.031111792 -0.017527198 0.00439725
000010 2a 31 d1 bc d6 f5 64 bd da 59 b7 3c a4 52 ce 3c
       -0.025536139 -0.05589851 0.022381712 0.02518589
000020 c0 37 16 3d 95 22 91 bc c3 54 e7 bb 7a 4b e8 ba
       0.03667426 -0.017716685 -0.007059665 -0.0017722689
000030 93 98 30 3c 9e be 97 bd 57 40 69 3c 08 b5 ce 3d
       0.010778564 -0.07409404 0.014236531 0.10093123
000040 53 52 1c 3e e2 f7 bb bb b6 1b 39 bd 0b 3f 0f 3e
       0.15265779 -0.005736337 -0.045192443 0.13988893
000050 50 5f 77 bd 2d 00 96 3d 4b 06 1a 3e 26 fa 59 bd
       -0.06039363 0.07324252 0.15041463 -0.053217076
000060 24 b5 35 3e ff 6a 4d 3d fd 20 24 bd 5b 34 d4 3d
       0.17744881 0.050150868 -0.040070523 0.103615485
000070 3e 82 9d bc 4f 3c 0d 3d 36 d4 a3 3d e0 d9 1e 3d
       -0.019227143 0.034481343 0.079994604 0.038782
000080 70 47 57 be 89 e3 4f bd ed 46 e2 bc 8a 37 1f bd
       -0.21023345 -0.050754104 -0.02762171 -0.038871326
000090 50 d5 6a bd d2 e0 22 bd 74 7e 1e 3d 10 37 80 3d
       -0.057332337 -0.039765187 0.038694814 0.06260502
0000a0 63 34 60 3d f0 b8 26 bd c6 4e da 3b 2e ec 8e 3c
       0.05473746 -0.040703714 0.0066622226 0.017446604
0000b0 bc 75 41 3d f4 1e 4f bd 3d 70 95 bb a4 16 1d 3e
       0.04723142 -0.05056663 -0.004560499 0.15340668
0000c0 4e e0 4c bc de 66 fd 3d a8 53 83 3d 35 81 f5 3b
       -0.01250465 0.12373136 0.064124405 0.0074922093
0000d0 52 f4 1b 3e 0b 16 d5 bd 34 24 ef 3c 88 67 2d 3d
       0.1522992 -0.10404595 0.029192068 0.042335063
0000e0 22 17 80 3d 96 6e e6 bd 0a 63 86 3e de 17 42 3e
       0.06254412 -0.11251561 0.26247436 0.18954417
0000f0 2b b3 4e 3d 62 3e 03 ba 5d f9 f4 3d 1e ac 60 3c
       0.050463837 -0.0005006549 0.11961625 0.013712911
000100 35 f9 00 bc 56 80 d1 bb ac 53 c7 bc d0 60 9a 3d
       -0.007871916 -0.0063934727 -0.02433189 0.07537997
000110 13 a7 7d 3e 63 99 f2 3d b1 17 dd 3d 95 44 d8 bc
       0.24770765 0.118456624 0.107955344 -0.02639989
000120 72 b6 7a 3d e1 d6 04 3e d5 4e 56 bd e7 fd 50 3e
       0.06120915 0.12972595 -0.052321274 0.20409356
000130 5a 3d 01 3d 1c 59 17 bd 6a 0c bb bd 75 f1 4a 3c
       0.03155265 -0.036950216 -0.09133227 0.012386669
000140 8a ca cb 3d ef c7 66 bd ce fa 2e bc 29 1f 80 bd
       0.09950741 -0.056343015 -0.010679914 -0.06255943
000150 5c d2 70 3d 74 4a 0a bd b6 41 db 3c 62 6c e0 3c
       0.058794364 -0.03376241 0.026764732 0.027395431
000160 79 88 a5 3b 72 d6 03 bd 44 69 03 3e ac ba 07 bd
       0.005051669 -0.032186933 0.12833124 -0.03313701
000170 69 96 0a bd 2b 3e 71 bc d5 e0 3d bd 57 83 1b be
       -0.03383485 -0.014724295 -0.046356995 -0.15186821
000180 9e 53 f3 bd 35 89 f7 bc 34 20 41 bc 16 a1 c2 3d
       -0.11881183 -0.030216793 -0.011787463 0.09503381
000190 f8 ad d4 bd cf 29 96 3e 56 02 c2 3b 12 3f 0b 3e
       -0.103847444 0.29328772 0.0059206886 0.13598278
0001a0 c2 5f 2c 3d 2a ba d2 3c b8 1b cc 3d dd 43 f2 bc
       0.04208351 0.025723536 0.099662244 -0.029573375
0001b0 7c 34 5a bc 93 b4 3a 3e b2 8f b1 bc 02 0f 39 3d
       -0.013318177 0.18232946 -0.021674965 0.04518033
0001c0 e0 7b fe 3d 7c 4e 02 3d 6c dc 14 3e 1c 43 08 bb
       0.12425971 0.03181313 0.1453721 -0.0020791953
0001d0 67 b1 02 be fa 29 b8 bd f4 18 cc 3d d4 60 39 3e
       -0.12762986 -0.089923814 0.09965697 0.18103343

fc2.weight f4 [84, 120]
000000 1e 4f d2 bd 97 09 53 bd 05 56 57 bc b5 ae 57 bc
       -0.10268997 -0.051522817 -0.013143067 -0.013164212
000010 c2 a0 0c 3d 99 66 2a bc 80 d0 b6 3c 12 1e 62 3d
       0.034332998 -0.010400438 0.022316217 0.05520446
000020 f5 91 78 be ad e8 b1 3c dc 5c 4d be 7d 65 60 bc
       -0.24274428 0.021717394 -0.20054954 -0.013696072
000030 a9 ea 4c 3d b3 2a 3a bb e7 e1 2b bc 27 a4 a1 bd
       0.050028477 -0.0028406798 -0.010490871 -0.07892638
000040 95 7a dd 3c cc 09 19 bd 55 f9 2f bd 32 1a 95 bc
       0.02703599 -0.03736286 -0.04296239 -0.018200967
000050 50 52 7b bc 89 9a 66 3d b9 9e e2 3c 0f ac 09 3d
       -0.015339449 0.05629972 0.027663575 0.033611353
000060 ae 3d aa bd a9 4d a9 bd 4a a3 81 3d 81 f0 7b 3d
       -0.08312546 -0.082667656 0.06329973 0.06150866
000070 77 10 10 3d 1b f8 5e bd 4b 78 0b be 61 61 39 3c
       0.035171952 -0.05443583 -0.13620107 0.011314721
000080 62 cd 46 3d 53 41 eb bb 83 74 9c bd 91 83 c7 bc
       0.048535712 -0.007179418 -0.0763941 -0.024354728
000090 7b ae 24 bd 5e 1d c5 3d 6d 3d 28 be ed f6 b2 bc
       -0.04020546 0.09624742 -0.16429682 -0.021846259
0000a0 0c d4 b5 bd 9b 24 88 3d 87 58 99 bd ba 23 ac bd
       -0.08878335 0.06647607 -0.074875884 -0.08405252
0000b0 28 60 b0 3d 5d 32 08 be 00 c6 30 3c 04 79 e1 bc
       0.0861209 -0.13300462 0.010789394 -0.027523525
0000c0 dc 7b 33 bd 52 96 51 3d 82 63 cf 3d 99 94 0b bd
       -0.043819293 0.051168747 0.101264015 -0.03407726
0000d0 18 9a d7 bc 6f c2 3f 3e 9a 37 d0 bc a6 bc 11 3d
       -0.026318595 0.18726514 -0.025417138 0.0355803
0000e0 41 9e 70 bb c2 41 00 be a9 1b 3d 3d 3a 36 40 bd
       -0.003671542 -0.12525085 0.046168957 -0.046926714
0000f0 9b a8 eb bc 63 e7 52 be 8d 30 41 3d 47 ef ca 3d
       -0.02876692 -0.2059608 0.047165442 0.0990892
000100 e9 cc e6 3c cf ec 64 3d 9a 8c dd bc 6b ee 1b bd
       0.02817388 0.0558899 -0.027044583 -0.03806917
000110 d6 11 ce 3d 3d 04 99 bc e6 a6 7a 3d 50 c7 bd bc
       0.10061996 -0.018678779 0.061194323 -0.023166329
000120 e3 51 45 3d 2e d2 0e 3e 2b 2e 34 3d e0 4f 98 bd
       0.048173796 0.13947365 0.04398934 -0.0743711
000130 b9 e4 26 bd 04 63 8f 3d fa 0d f7 bc 7d cf 9d bd
       -0.04074547 0.070013076 -0.030158032 -0.07705591
000140 2d 7d 16 be e4 a6 17 3d 3a f1 0a 3d bd fb 04 3d
       -0.14696188 0.037024394 0.033921458 0.03246664
000150 db 88 87 bd 28 aa b9 3d a1 d6 01 be 0b f8 24 bd
       -0.066179 0.09065658 -0.1267953 -0.040275615
000160 31 dd f3 bc ca 17 42 3d ee 3a 06 be 98 b5 0b bc
       -0.029768558 0.04738597 -0.13108417 -0.008527182
000170 53 29 35 3d b4 34 bb bd b9 bf 04 3e 8a 93 47 bc
       0.044228863 -0.09140912 0.12963761 -0.012181172
000180 bd ef dd 3d 18 16 ac 3d f0 6a 05 bd 35 38 2d 3e
       0.10836742 0.084026515 -0.032572687 0.16915973
000190 c1 cd 0f 3e a6 da 36 be 2b b6 55 bc 46 f5 03 be
       0.14043333 -0.17856845 -0.0130439205 -0.12886533
0001a0 72 ad 75 bd 70 1b b9 bc 63 d9 b1 bd 46 66 ce 3d
       -0.059979863 -0.022596091 -0.08684041 0.10078101
0001b0 56 48 89 bc d6 92 65 bd 88 04 c0 bc f8 32 53 be
       -0.016758125 -0.056048237 -0.02343966 -0.20624912
0001c0 9c 41 df bc 9e b6 2c be fc b7 15 3d 2f 19 a4 3c
       -0.027252965 -0.16866538 0.036552414 0.02003154
0001d0 8d 4d 15 bd 97 9e 98 3d 5a 3c a9 3d 00 0e 34 be
       -0.03645091 0.074521236 0.08263464 -0.17583466
0001e0 1c 9e d9 3d 44 62 e8 3c e1 2c 9d bd 71 38 c6 3d
       0.1062586 0.02836717 -0.076745756 0.09678734
0001f0 84 52 f2 bc 6b 03 a6 bc b6 48 b2 bd 37 2f ee 3c
       -0.029580362 -0.020265302 -0.08705275 0.029075248
000200 79 39 13 3e 71 80 3a be c5 ce 65 bd 72 fd 81 3d
       0.14377393 -0.18213059 -0.056105394 0.06347169
000210 6f d9 53 3d cf 61 14 3c 11 05 14 bd 07 6c 2c be
       0.051721033 0.0090565225 -0.036137644 -0.16838084
000220 44 10 07 be 11 c2 c2 3d e6 12 54 3e 00 ec 88 3d
       -0.13189799 0.095096715 0.20710334 0.066856384
000230 2d 51 2b be e7 d8 d3 3d bc f5 b7 bd 61 95 1b bd
       -0.16730185 0.10344105 -0.08982417 -0.037984256
000240 55 b8 96 bc 4a 98 ad bc f5 10 a4 3b 99 86 47 bd
       -0.018398443 -0.021190781 0.0050069042 -0.048712347
000250 b2 63 39 3d 7a e7 c7 3c 5f 1a 7c bd 8d 0c cd bd
       0.045261092 0.024402369 -0.061548587 -0.100121595
000260 50 24 11 bd 7b 60 f8 3c 28 0b 3f bc da 76 f1 ba
       -0.03543502 0.030319443 -0.011660375 -0.0018422261
000270 86 49 a0 bd 8a 6f d2 bc 2d f2 45 3c cf c7 6c bd
       -0.078265235 -0.025687952 0.012081665 -0.05780774
000280 e9 1e bb bd 47 45 cd bd 69 e7 94 bd a4 56 10 bc
       -0.09136755 -0.10022979 -0.072707005 -0.008809719
000290 f0 5d 1e bc d4 d7 3a bd eb a3 41 bd 7b 0b 9d ba
       -0.009665951 -0.045615986 -0.047275465 -0.0011981571
0002a0 3c 7c 8c 3b 7b 76 26 3d c4 21 ad bc 0a 88 1b 3d
       0.004287271 0.040640336 -0.021134265 0.037971534
0002b0 a2 af b3 bd df b6 8e bd 88 41 a8 3d c8 ce 20 3d
       -0.08773734 -0.06968474 0.08215624 0.039259702
0002c0 08 bf 2f bd d2 4c 13 be 00 2a 7f 3c 44 69 06 3c
       -0.04290679 -0.14384773 0.015573978 0.008203808
0002d0 20 c6 51 3d 3a 56 fb 3d b1 f9 81 bd f9 02 2a be
       0.051214337 0.12272306 -0.06346453 -0.16602696
0002e0 37 9a cc bd 0e 56 96 bd 17 14 a8 3d 2c a2 ad bd
       -0.09990352 -0.073406324 0.08206957 -0.084781975
0002f0 6d 7b 3d bd 9b db 6e bc 58 36 d6 bc c3 1c 75 bd
       -0.046260286 -0.014578725 -0.02614896 -0.059841882
000300 d4 d7 2c 3c 7f 50 2d bd 5e 12 c3 3d a9 a7 5a bd
       0.010549504 -0.042313095 0.09524988 -0.05338255
000310 64 56 c8 3c 9a 71 87 bd 1d f4 f6 3d de a2 c4 bd
       0.024455257 -0.06613465 0.1205828 -0.09601377
000320 1b 72 ca 3d ff bb e8 bd 6b e5 25 3d a9 6c 06 bd
       0.09885045 -0.113639824 0.040501993 -0.03281847
000330 cb 17 43 be 6d 12 a0 bd 3a f3 d4 bd c2 47 c5 bd
       -0.19052045 -0.078160144 -0.10397954 -0.09632827
000340 25 96 0c be 80 bc 14 3d 3e 9e 48 bd c6 63 90 3d
       -0.1372915 0.03631258 -0.048979037 0.0705028
000350 25 ad 3f bc ae 69 04 bd c4 fd 2f bc e2 36 47 3e
       -0.011698996 -0.032327347 -0.010741655 0.1945453
000360 8c 20 1f be 96 44 1a 3c b8 dc 9a 3d f0 cb 12 be
       -0.1553976 0.009415766 0.0756163 -0.14335608
000370 65 9f bb bd dc 07 fa bd 31 cc 82 3d 33 80 7f 3d
       -0.091612615 -0.1220853 0.06386603 0.06237812
000380 a9 3c a3 3d ec 11 3b bc 1b bc 33 bd b9 e4 21 be
       0.079705544 -0.011417847 -0.043880563 -0.15809907
000390 68 21 13 be 94 8e 98 3c 95 54 6d 3d 92 38 c7 3c
       -0.14368212 0.018622674 0.05794199 0.024318967
0003a0 57 d6 9f 3c e8 76 56 3b 9d 5f 26 be 8e 70 1c be
       0.019511385 0.0032724682 -0.16247411 -0.15277311
0003b0 3c ce 2b 3e 9b 4b 42 be fb af ca 3c 5d 03 7e 3d
       0.16777891 -0.18974154 0.024742117 0.062014926
0003c0 29 b4 64 3d 1d 95 87 3b 30 74 3b 3c d2 a6 0c be
       0.055835877 0.0041376487 0.0114412755 -0.13735512
0003d0 90 7a ca 3d 36 ee 81 bd 77 82 8f bd 14 f8 b0 bc
       0.09886658 -0.06344263 -0.07007306 -0.021602668
0003e0 e3 c5 77 bc 95 ed 85 3d e7 92 50 3d 4b d4 9b 3d
       -0.015122863 0.06539456 0.050921347 0.07608851
0003f0 b2 27 92 bd 15 5e 31 bc 0a a2 0e be 9a 72 04 be
       -0.071364775 -0.010825654 -0.13929 -0.12934342

fc2.bias f4 [84]
000000 6c da 4c 3e 2c 2b 69 3c e4 e8 c0 3e d0 6a 9c 3e
       0.20005196 0.014231484 0.3767768 0.3055024
000010 02 e6 97 3d 01 3a 52 bc d5 73 ba 3c 43 25 08 3e
       0.074169174 -0.012831212 0.022760311 0.13295464
000020 54 85 ef 3d 6f 76 0d bd 65 4b 91 bd ae ec c1 3e
       0.11695352 -0.034536775 -0.070944585 0.37875885
000030 fd 5e e7 3e 2d af d3 bd bd 8e 4d bb 86 2c d6 bd
       0.45189658 -0.103361465 -0.0031365596 -0.10457711
000040 e8 1d 56 bd a4 12 eb bc bb c2 d6 3d 46 c3 22 bd
       -0.052274615 -0.028695412 0.10486361 -0.03973701
000050 92 a5 59 3e 12 32 36 bc 5e 36 82 3e 69 b2 ab 3e
       0.21254566 -0.011120336 0.25432104 0.33534554
000060 bb 24 54 3e 75 53 9b 3d 23 6f 3a 3e b6 62 8e ba
       0.20717137 0.075842775 0.18206458 -0.0010863158
000070 17 c5 59 3e 19 29 b4 bd 5d 3b c0 bd a7 14 aa bc
       0.2126659 -0.08796901 -0.09386323 -0.0207618
000080 c1 79 d1 bc 4f 1a c2 3e ce cf 4f bd b2 76 7c 3e
       -0.025570752 0.37910697 -0.050735287 0.24654654
000090 e9 cc 5a 3d 0c 72 90 b9 b8 35 b6 3c 51 17 b8 bd
       0.053418074 -0.00027550792 0.022242412 -0.08988822
0000a0 c7 eb 0a 3e 0e 66 f6 3d e3 a3 59 3e ef 9a 06 3f
       0.13566504 0.12031184 0.21253924 0.5258016
0000b0 27 7e 12 3e 06 3a 1c bd 35 c0 98 bd 44 57 29 3e
       0.14305936 -0.038141273 -0.074585356 0.16537195
0000c0 a2 15 83 3d 2b 82 3a 3e 3a 46 8f 3e 7e 13 8b 3e
       0.064006105 0.18213718 0.27983266 0.2716331
0000d0 b2 53 cd bd f7 ea 75 3e d6 e4 4c 3d 8a 36 c9 bc
       -0.10025729 0.24015413 0.050022922 -0.024562139
0000e0 97 5e ca 3d 11 4a 9b 3e 6a b3 93 3e 12 7f b6 bd
       0.09881323 0.30329946 0.2884782 -0.089109555
0000f0 31 5a eb 3e ac 1a b3 3b 90 3b 3a 3c ca 03 59 3e
       0.45967248 0.005465826 0.01136674 0.21192852
000100 5b 0a 13 3e 2d 00 28 3f 5e 57 8a 3e ac 6b c0 3e
       0.14359419 0.6562527 0.2701978 0.37582147
000110 e0 51 df bd d0 42 cd bd 87 ec cf 3c af 93 17 be
       -0.10904288 -0.10022509 0.02538134 -0.1480243
000120 f4 76 bb 3e e9 53 6f bd 6d 14 a2 3e fe 2c af 3e
       0.36614192 -0.058429632 0.3165621 0.34214014
000130 be cd 46 3e 41 09 50 bd da 59 8c bd aa 3a b3 3d
       0.19414422 -0.050790075 -0.06853075 0.08751424
000140 a6 63 ef bd da 52 6f 3e 0b 75 ca bd 4d a8 35 3d
       -0.11688928 0.23371449 -0.098856054 0.044349957

fc3.weight f4 [10, 84]
000000 7d b1 cd bd f2 f4 6f 3e 77 bf 4b be fa 35 84 3e
       -0.10043619 0.23433283 -0.19897257 0.2582243
000010 3b a3 98 bd 8b ae fd 3d 05 c8 04 be 33 3e 80 bd
       -0.07453009 0.12386807 -0.12966926 -0.062618636
000020 04 0f 11 3e c6 35 0b 3e c5 71 aa 3c 92 c9 7d 3e
       0.14165884 0.13594732 0.020806203 0.24783924
000030 4f 7a 39 be b2 21 a9 bd bc 68 44 3e 11 fc 71 3d
       -0.18113063 -0.0825838 0.19180578 0.05907828
000040 b1 1a ad 3d 2c aa 93 3e 2d e0 21 3d 5e 83 d0 3d
       0.084523566 0.28840768 0.03952043 0.10181306
000050 b2 f9 5a 3e e7 34 6b bd a8 a4 9c 3e 06 a0 68 be
       0.21384314 -0.0574235 0.30594373 -0.22717294
000060 05 49 32 bd 3e 11 85 bc ab bd 87 3e 1b bc 5d bd
       -0.043526668 -0.016243573 0.26511893 -0.05413447
000070 62 0d 90 3d f0 f9 ad 3d b4 7a ad bd 39 29 55 bb
       0.070338026 0.084949374 -0.084706694 -0.0032525791
000080 98 9f 0e 3e 7b 63 ce 3e f6 43 ff 3d 24 48 6c be
       0.13928068 0.40310273 0.124641344 -0.23074394
000090 a2 87 3a 3d f2 cd 8f bb 95 0c 86 3d a9 6c a8 3d
       0.045539506 -0.0043885643 0.065453686 0.0822385
0000a0 c0 63 29 be 58 0d 8c bc 41 5f 1b 3e b8 be 01 be
       -0.16541958 -0.017096207 0.15173055 -0.1267041
0000b0 43 76 d9 3d e8 ea e5 3d db 73 2c 3e 01 08 e3 bd
       0.1061826 0.112264454 0.1684107 -0.11085511
0000c0 89 86 57 3c 38 a2 3e bd f8 7a 14 3e 2c 28 8f bc
       0.013154634 -0.046541423 0.14500034 -0.01747521
0000d0 85 1d be 3b 0a 94 b7 bd b5 23 68 bd ff 14 87 bd
       0.005801859 -0.08963783 -0.056674678 -0.065958016
0000e0 1d a0 42 3e 33 c2 c4 bd b3 22 80 3e 65 a0 07 bd
       0.19006391 -0.09607353 0.25026473 -0.03311195
0000f0 73 44 71 bd fb 08 b1 3d 56 ab 83 3e a3 97 03 3e
       -0.05890317 0.08644291 0.25716656 0.12850814
000100 41 0d 0e 3e f5 d1 1c be c0 56 52 be bc 9c 8a be
       0.13872243 -0.15314467 -0.20540905 -0.27072704
000110 ee 82 45 3c ff 9a f4 3d b9 3b ec bd b1 9f 2c 3d
       0.012055142 0.11943626 -0.11534829 0.04214448
000120 f3 79 8e 3d 09 6f 8c 3d 51 39 13 be 5c 19 a0 be
       0.06956854 0.06857116 -0.14377333 -0.31269348
000130 21 94 56 3d 9b 37 96 3d dd dc 8a ba 2e 6a 46 3e
       0.05238736 0.07334825 -0.0010594387 0.19376442
000140 40 e8 ce 3d 3f 76 16 bd 2b 32 20 3e 1d 89 c6 3d
       0.10102892 -0.036733862 0.15644138 0.09694121
000150 0d a4 60 be 4a e0 0e 3e 2e d3 fc bd a9 aa ec bd
       -0.2193758 0.13952747 -0.12344967 -0.11555988
000160 95 45 8c 3d c4 c3 ed 3c 5b a1 1b 3d 97 46 71 3e
       0.06849209 0.029024012 0.037995677 0.23562084
000170 ba 7c 7b bd ba ca b5 bd 83 bc 5d 3d b0 2c a3 be
       -0.061398245 -0.08876558 0.054134857 -0.3187003
000180 72 a2 29 be cd a4 a3 bd a9 0d b4 3e 41 8d d9 3c
       -0.16565874 -0.07990418 0.35166672 0.026556613
000190 48 1e 2c be db c2 2f be 45 fa 25 bc 66 6d cc bc
       -0.16808426 -0.17164175 -0.01013047 -0.024954509
0001a0 11 ee 97 3e fb b8 69 bd cf ba 1b be 73 ff 4b 3e
       0.29673818 -0.057061177 -0.1520798 0.19921665
0001b0 4a 68 0a be cf be 9e 3e 16 50 7f 3e f7 ae a6 3d
       -0.13516346 0.3100495 0.24932894 0.08138841
0001c0 33 1c b3 3d 3d 34 d6 bd 7f a2 b0 3d bd cf 69 bd
       0.08745613 -0.104591824 0.08624744 -0.05708288
0001d0 1f 2e 03 3e 41 ef 72 3e c4 cd d9 bd 6c f1 75 3e
       0.12810563 0.2372408 -0.1063495 0.24017876
0001e0 c1 a1 08 be 9e c9 3c bd 24 9a bf bc 66 86 aa 3e
       -0.13342954 -0.046090715 -0.02338893 0.33305663
0001f0 fe a1 0a bd d1 8a 19 3d f9 18 73 be 92 67 a6 be
       -0.033845894 0.0374859 -0.23739995 -0.32500893
000200 60 ed 94 be b2 0b e2 3c c4 17 29 3e fb ef 2e be
       -0.29087353 0.027593467 0.16512972 -0.17083733
000210 fc 4c 07 3d 9e b1 cd 3d 0c 87 63 3d d3 ca 1b 3d
       0.033032402 0.100436434 0.055548713 0.038035225
000220 76 0d c4 3d 24 61 67 be d4 16 51 3e 57 d5 91 bd
       0.0957288 -0.2259565 0.20418864 -0.071207695
000230 46 65 71 3e 4f 90 22 be e5 b0 9c ba d2 9b 86 bd
       0.23573789 -0.15875362 -0.0011954574 -0.06572689
000240 9b 01 a4 be 9e 4f bc 3d 37 cd 9b 3e 9a 29 54 3e
       -0.32032475 0.09194873 0.30430004 0.20718995
000250 02 53 d6 bd 18 bc 8c be 24 12 4f 3e 1d fa 9e be
       -0.10465051 -0.27487254 0.20221764 -0.31050196
000260 87 fb 6b 3d e9 20 d9 bc 68 3d c2 bd 92 7a b5 3d
       0.057612922 -0.02650495 -0.094843686 0.08861269
000270 2c bc d2 3d fc 52 42 bc 8b a6 89 3c 7a 5d 1a be
       0.10289797 -0.011860605 0.016803047 -0.15074721
000280 73 1e f7 3d fe a6 3f 3d b0 59 7c 3d 61 87 91 3e
       0.120663546 0.046790116 0.06160897 0.28423598
000290 6f 9d 68 be 92 78 4b be a0 6e 0b be bb ff bc bd
       -0.22716306 -0.19870213 -0.13616419 -0.09228464
0002a0 ad 5f 45 bd dc 7f a1 3c 9d 44 a8 bd 1d 2a 52 b8
       -0.048186947 0.019714288 -0.08216212 -5.0107123e-05
0002b0 e2 30 d0 3d 46 67 3d be 9a 44 27 bd a0 73 14 be
       0.10165574 -0.18496427 -0.040836908 -0.14497232
0002c0 f3 ab e2 bc 4c 64 ce bd 1d 6b 1a 3c dc 5f 3d 3e
       -0.027669882 -0.10077724 0.009424952 0.18493599
0002d0 ac 7e 96 3e 3c 22 39 3d cb fd 13 be 2c 07 a5 bd
       0.29393518 0.045198664 -0.14452283 -0.080580086
0002e0 a4 fb db 3d a0 63 29 bd d3 ab 01 3e 3b 96 fc 3d
       0.10741356 -0.041354775 0.12663202 0.12333342
0002f0 37 14 01 be 43 e9 f7 3d 66 55 17 3e e5 ed 08 bd
       -0.12605368 0.12105038 0.1477867 -0.03343
000300 03 5f 83 bb ad 04 de bd 28 18 c5 3c 33 b0 48 bd
       -0.004009129 -0.108407356 0.02405937 -0.04899616
000310 c1 3a 1c 3d 72 f6 08 bd 1a 60 de bb 05 ec 22 3e
       0.03814197 -0.033438154 -0.0067863585 0.15910347
000320 00 6b 43 be 51 b1 37 3d a8 d7 25 3c 72 32 39 be
       -0.19083786 0.044846836 0.010122217 -0.1808565
000330 6d 30 1f 3d c3 6a 8c bd 8e ac 31 3d 5d 77 8d bb
       0.03886454 -0.06856301 0.04337745 -0.0043172077
000340 e3 5b 72 3d a0 d2 5c 3d 62 1c 37 3e 9a 1c a6 3e
       0.05916966 0.053911805 0.17881921 0.32443696
000350 43 54 4c 3e 1a 48 54 3d 35 a7 54 3e a2 cb 78 3e
       0.19954018 0.051826574 0.2076691 0.2429643
000360 7f 62 69 3e a6 22 08 3e 71 58 a0 3d 2b 79 91 bd
       0.2279148 0.13294467 0.07829369 -0.07103189
000370 89 18 0d 3d f8 09 4c 3e a6 40 1b be 4c 7c 29 3e
       0.034447227 0.19925678 -0.1516138 0.16551322
000380 76 ef 76 bc aa 0d 2e 3e b7 00 65 bc 9f c8 6c bd
       -0.01507174 0.169974 -0.013977221 -0.057808515
000390 7b 15 10 3c 24 1e 50 bd cd be 0a 3d fe d3 3a be
       0.008794184 -0.050809994 0.033873368 -0.18244931
0003a0 41 03 26 3d b6 90 af 3b 43 24 01 bd da 2f 0b 3e
       0.040530447 0.005357827 -0.031528722 0.13592473
0003b0 00 15 73 3d 15 b9 54 bb 03 13 74 bd 1a 66 a9 bd
       0.0593462 -0.003245895 -0.059588443 -0.082714275
0003c0 c9 3c 41 3e 5d 3c 47 bc 21 ea be 3d fb 35 ca bc
       0.18870844 -0.012160388 0.09322 -0.024683943
0003d0 c6 29 1a be 9f a6 b9 bb 7b 4b bb bd cd 47 03 be
       -0.15054998 -0.0056656147 -0.09145256 -0.12820359
0003e0 6f dd 12 3e 30 50 ad bb 57 6f 78 3e 19 7e 91 bd
       0.14342283 -0.0052891 0.24261223 -0.07104129
0003f0 03 25 f3 3d b0 e9 2e be 1a 50 63 3e 3b 7e 93 be
       0.11872294 -0.17081332 0.22198525 -0.28807244

fc3.bias f4 [10]
000000 ac a5 92 be 91 ef f0 be 2c 56 c9 bd 9b c2 26 3f
       -0.28642023 -0.47057775 -0.09830889 0.65140694
000010 91 e6 b6 3e 0c c8 c2 3d f2 75 73 3e e0 37 45 be
       0.35722783 0.09510812 0.23775461 -0.19259596
000020 a7 53 87 3e 9f cd 3a be
       0.2643101 -0.182425
