03_Workshops/03_Encoder-Decoders for Latent Space Manipulation/Denoising/lightning_logs/version_12/checkpoints/epoch=99-step=3200.ckpt (torch, 166227 bytes, 60 tensors)

model.encoder.blocks.0.layer.weight f4 [16, 1, 3, 3]
00000000: f8aa 9cbe 75ea 93be db4e 73be 724c 2fbe
00000010: f92e 433d 7170 74bd 02e3 093e 6bff 873e
00000020: b4e2 76bd 2c61 45be 7308 8c3e e17b 17be
00000030: 9ea5 48be 0552 6ebe 37e4 98be 8b90 593e
00000040: e26d a6be 15f2 583e 083d 403e 22ea 803d
00000050: b2e0 f53d b468 01be 729b 1a3e 3acd 5abe
00000060: 475a 213d fbfd 303e 407c 54be 5807 6cbe
00000070: fbdf 873e 6ecf 363e a4cd 0f3e 832c 75be
00000080: 54f3 17be d689 7abe 7fb9 07be f661 473d
00000090: 22e9 3d3e 666b ff3d 1836 8e3e f9ef 183c
000000a0: acfe 39be 6753 893e d1d1 9f3e 15a7 883e
000000b0: a87a 8d3e 118e 0d3e f13c 82bd c64b 1ebe
000000c0: df2c 863d f0b8 403e e950 8dbc 850d 8ebe
000000d0: d382 a13e 7c4f 303e 12e5 01bd c16e 293e
000000e0: a151 fa3c f435 20bd 9138 23be 4c22 39bd
000000f0: 4ef8 76be ccfd 5fbe 1af3 293e 64ba 943e
00000100: 302b ebbc efa0 453c 4c16 52bd 4810 913e
00000110: 79cd cfbd def3 0e3d 9cb0 873e 9665 e8bd
00000120: f7f9 a03e 6cf1 9c3e 7ae3 a03e fe00 13be
00000130: 3611 67be 136b 11be c971 863e 6bf0 1e3e
00000140: 21e5 613e 5870 663e 26b7 a63d 7136 7bbe
00000150: 0522 abbe ae57 a4be e1cc 703e f420 2cbe
00000160: a02b e63d 5e37 c5be 6f77 7e3e 4efe 473e
00000170: ffae 87be 71c8 1a3e 3864 50bd 67d8 c23e
00000180: 2a29 c3be 66a4 cebe 9edb 23be a68b a5be
00000190: 1c57 0d3e 5adf 463e 2e51 39be d193 a8be
000001a0: 8269 ae3e e9f6 66be 5547 81be fbe4 13be
000001b0: 5904 263d 547a 91bd c73d d7bd 88fa 863d
000001c0: bec4 b0be 717b 403e 0c05 94bd 8ecb a2be
000001d0: 165b aa3e 1f65 0dbe 5fcf 6f3e a352 9fbe
000001e0: ccb5 58be 4924 00be 4bac 003d ee1d 4cbd
000001f0: 1a6d d0bc 095f 82be 0549 97bc 7c8a 0abe
00000200: c6b0 543e 1f8f 7e3c f756 eebd f843 013e
00000210: 435b 90bd 8149 533e 2c67 9c3e f32b 77be
00000220: d9a5 09be 513b 693d 296c 62be bd7a 35be
00000230: 3296 963e 4d73 2abd 060f 99be 568e 39be
-0.3059919 -0.28889814 -0.2376055 -0.17119005 0.04765222 -0.059677545 0.13465503 0.26562056
-0.060274795 -0.1927535 0.27350196 -0.1479335 -0.19594428 -0.23273475 -0.29861614 0.21246545
-0.3250571 0.21186097 0.18773282 0.06294657 0.12005748 -0.12637597 0.1509836 -0.2136735
0.039392736 0.17284386 -0.20750523 -0.23049676 0.2653807 0.17852566 0.1404329 -0.23942761
-0.14838916 -0.24466643 -0.13254355 0.048677407 0.18545964 0.124716565 0.27775645 0.009334558
-0.18163556 0.26821443 0.31214765 0.26689973 0.27632642 0.13823725 -0.0635928 -0.15458593
0.06551527 0.18820548 -0.017250495 -0.2774469 0.31545123 0.17217821 -0.0317126 0.16546156
0.030556502 -0.039113954 -0.15939547 -0.045198724 -0.24118158 -0.2187416 0.16596642 0.29048455
-0.028707117 0.012062295 -0.051290795 0.28332734 -0.10146613 0.03490054 0.2650193 -0.11347501
0.31440708 0.3065294 0.3142355 -0.14355847 -0.22565159 -0.14201002 0.26258686 0.155214
0.22060062 0.22503793 0.081404015 -0.24532486 -0.33424392 -0.32098144 0.23515655 -0.16809446
0.112387896 -0.38518804 0.24850248 0.19530603 -0.265007 0.15115525 -0.050876826 0.38055727
-0.38117343 -0.403598 -0.16001746 -0.32333106 0.13802761 0.1942114 -0.18097374 -0.32925275
0.3406487 -0.22555126 -0.25249735 -0.14442818 0.04053149 -0.0710341 -0.1050983 0.06590754
-0.34525102 0.18797089 -0.07227525 -0.31795925 0.33272618 -0.13808106 0.2341895 -0.31117734
-0.211631 -0.12513842 0.03141431 -0.04983323 -0.025442649 -0.2546313 -0.018467436 -0.1352939
0.20770559 0.015537052 -0.11637681 0.12623584 -0.07048657 0.20633508 0.30547464 -0.24137859
-0.13442172 0.056941334 -0.22111572 -0.17722602 0.29411465 -0.041613866 -0.29894274 -0.18120703

model.encoder.blocks.0.layer.bias f4 [16]
00000000: 8563 353e e1d4 1a3e aec4 47be 282a e43c
00000010: 9550 0a3e c743 06bd 82a7 6e3d eb31 09be
00000020: a1b5 8f3d 1c03 253e d54b 08bd 630e 473e
00000030: 4fd2 b2bb f1ec 6e3e ee0b debc 6f88 8b3e
0.17713745 0.1512027 -0.19508621 0.027852133 0.13507302 -0.03277948 0.058265217 -0.13397948
0.07017065 0.16114467 -0.033275444 0.19439082 -0.0054571996 0.23332573 -0.027105298 0.27252528

model.encoder.blocks.1.layer.weight f4 [16, 16, 3, 3]
00000000: c72d 37bd 2d92 0cbd 895f 18bd 7ae6 55bd
00000010: c47a 49be fe11 b1bd fe8d 063d 8ae8 05be
00000020: ec98 b3bd 10c9 cdbd 6ae7 97bc ef65 8bbd
00000030: 29e1 12bd 5b10 1fbe b531 29be 3de8 9bbd
00000040: 4233 30bd dc63 10be efc5 a9be a4ab 36be
00000050: b564 34bd 66cc 88be 169b 803e b272 223d
00000060: b0a4 45be 6109 bfbd b7a7 94be 5aad 213d
00000070: d760 133d 6980 923d d1f0 abbc b125 973d
00000080: 8f60 e3bb a7fb 0c3d 0e54 2bbd fe37 db3c
00000090: 51ad c93d 812e c43d a8da dd3d ab4e 11bd
000000a0: 024d 09bc d8e9 e13d c1b2 f13c fb2c b03a
000000b0: ab0a 9a3d 20a9 073e d6c6 b73d a8de 083e
000000c0: 3c10 7ebb 1d32 e23d 121c c73c c7ae e7bd
000000d0: df7a a0bd ffb5 0e3c 92ba 96bd aec9 b83c
000000e0: 97d4 a63d 6f6e c23c b874 893c 5a68 383d
000000f0: 8855 913d 4721 5a3d 9045 363d 26a0 7b3d
00000100: 6b7a 1a3e 2040 e33d 867f ef3d e48e 0f3e
00000110: 7161 283e 8c68 1dbc 11c9 bf3d e1b6 db3c
00000120: b854 2e3c 5b95 233d 863d 5e3d 1c50 8a3b
00000130: 3c29 963c 53f6 163d 6409 9bbd eb76 813d
00000140: b4a2 473d b6f7 94ba 5c64 1bba 38cd eebd
00000150: 0814 db3b 98a1 4dba 1277 493d 50be 5a3c
00000160: 95e2 b93c 6321 cbbd 419b d9b9 93e0 1bbd
00000170: 9f97 2c3c dbc7 113e 352c 323e 4fc3 0c3d
00000180: a7fd 7ebd 27dc fc3d ac4c b93c b022 833c
00000190: fb46 62bd 6320 34be 7e37 2d3d 1ec8 7d3d
000001a0: 2d8f b6bd 0b25 cc3a f05f d83d a20b 983d
000001b0: d402 293e a9ce a1bd 8720 5a3d 4d5c 543d
000001c0: 4e62 253e 1aad 49bd b65c b0bd 2676 e43c
000001d0: 5307 d33c 5632 98bd d4e6 0bbe 7532 b4bd
000001e0: 4500 b8bd dc6a 6abd 6116 2ebe 775a bc3d
000001f0: d13b 85bc e817 a4bc 9227 8b3d 5dbe a73d
00000200: 0fe6 abbb bd9a 253d 096d d33d 6599 523d
00000210: c170 beba 33fd 2bbb a306 3b3a 84c9 e5bd
00000220: a713 b9bd 2dec e9bd 9d21 303c d852 09bd
00000230: 6ccf 36bd 54d4 a03d 6e70 f63c 1345 a6bd
00000240: 3f40 1fbd a1f1 203d d406 25bd d09c dd3b
00000250: 52b1 9c3c 1168 0a3d 00c5 313d ada7 2ebd
00000260: 023d b7bd 051a 05be 9aa7 02be 61c0 58be
00000270: 7cc3 0dbe 0762 4fbe 3581 49be cc8e 45be
00000280: e7c2 64bd 0278 59be 4b5c d5bd cfb2 053e
00000290: e719 d9bd 3ff6 38be 12b3 2c38 72a9 b6bd
000002a0: 909f 0fbe 6250 e4bc 7adc 16be 529f 95bb
000002b0: 2f93 4a3d 9919 41bc cee6 753c 471e b1bd
000002c0: 3948 a9bb 28b5 9c3c c1c1 853c 77b6 87bd
000002d0: 11d7 eabc 140f c73d ec0e 39bd 3f9f 36bd
000002e0: bccb 263c fb47 b7bc a2f0 d03b a34b 893d
000002f0: 7b98 1bbd 1298 11bb 1049 8b3c 3144 dfbc
00000300: 0b1f ac3c 7cb2 473c dd37 3fbd cadf b83d
00000310: 72d7 3c3d 5a1d 83bd ba08 b03d 630b a03c
00000320: 042d 4fbd 8ff7 a73d 6c34 983d 2832 513c
00000330: 4247 473d bf78 7ebd 3adb 363d 2fd0 8e3d
00000340: 82f9 d3bc d256 cc3c 07af 5abb 83b8 81bc
00000350: e451 afbd 925d 963d ffc4 13bc b144 ff3b
00000360: 3e90 7d3d 7733 a23c ca6b 41bc 5ffb 8c3d
00000370: 5842 803c 74e4 51bd 98b7 923c e4de ad3d
00000380: 6090 d1bc 2fc0 1fbd f0af 58bd 1eca de3c
00000390: c6e9 173d 6bbe e13b 002a 53bd 8a67 b7bc
000003a0: 2c07 2bbd c325 90bd 9b9f 36be b981 97be
000003b0: 6d29 0bbe 9b22 86be efac 6fbe 745b 97be
000003c0: 6e92 01be 03aa 17be 4f67 67be 8bf5 09be
000003d0: 913a 39be 6bcc 87bd 03b5 cbbd 7bda 59bd
000003e0: 16ec 72be cd6c b6bd 915e 70bd 17a8 3cbd
000003f0: 26ca 223d 43bd b3bb b83c 18bd 0400 0abe
-0.04472139 -0.03431909 -0.037200484 -0.052221753 -0.19675738 -0.0864601 0.032850258 -0.13076988
-0.08769402 -0.10048115 -0.018542964 -0.06806552 -0.03585926 -0.15533583 -0.16522868 -0.07612655
-0.043017633 -0.14100593 -0.33158824 -0.17838913 -0.044041354 -0.26718444 0.2511832 0.039660163
-0.19301105 -0.09327961 -0.29034206 0.03947196 0.035981026 0.071533985 -0.020988854 0.07380236
-0.006939001 0.034419682 -0.041828208 0.026760098 0.098475106 0.095791824 0.10832721 -0.035475414
-0.0083801765 0.1103093 0.029504182 0.001344114 0.07521566 0.1324811 0.08973472 0.13366187
-0.0038767 0.110447146 0.024305377 -0.11312633 -0.07835936 0.008710383 -0.07359804 0.022557106
0.08146017 0.0237343 0.016779289 0.045021392 0.07096392 0.053254392 0.044499934 0.061432026
0.15085761 0.11096215 0.11694245 0.14019352 0.16443421 -0.009607445 0.09364522 0.026820602
0.010640316 0.03993736 0.054257892 0.0042209756 0.018330209 0.036856007 -0.075701505 0.0632151
0.04873915 -0.0011365328 -0.00059277355 -0.11660236 0.0066857375 -0.0007844209 0.04918582 0.013351038
0.02269105 -0.099184774 -0.00041505139 -0.038055968 0.010534196 0.14236395 0.17399676 0.03436595
-0.06225362 0.12346678 0.022619568 0.016007751 -0.055243474 -0.1759048 0.04228925 0.061958425
-0.08914027 0.0015575005 0.105651736 0.07424094 0.16504985 -0.079007454 0.053253677 0.051845837
0.16150782 -0.04923735 -0.08611433 0.027888369 0.025760328 -0.07431476 -0.13662273 -0.087986864
-0.089844264 -0.057230815 -0.17000724 0.09196942 -0.016263874 -0.02003093 0.06794657 0.08190606
-0.005245931 0.040430773 0.10323531 0.05141582 -0.0014529453 -0.0026243448 0.0007134473 -0.11220077
-0.090369515 -0.11422 0.0107502015 -0.03352627 -0.044631407 0.078529984 0.030082908 -0.081186436
-0.03887963 0.039292935 -0.040289715 0.0067630783 0.019127522 0.03379065 0.043400764 -0.042640377
-0.08947183 -0.12998207 -0.12759247 -0.21167137 -0.13844103 -0.20252238 -0.19678195 -0.19292754
-0.055849936 -0.21237186 -0.10417994 0.13056491 -0.106006436 -0.18062685 4.1174768e-05 -0.08919038
-0.14025712 -0.02787036 -0.14732543 -0.0045661116 0.04945677 -0.011785888 0.015008641 -0.08648353
-0.0051660803 0.01912935 0.01632774 -0.06626599 -0.028667005 0.09719673 -0.045180246 -0.044585463
0.01018041 -0.02237319 0.006376342 0.0670388 -0.037987214 -0.0022215885 0.017002612 -0.027254196
0.021010896 0.01218855 -0.046684135 0.090270594 0.046103902 -0.06402083 0.085954145 0.01953668
-0.05058004 0.08201515 0.07431874 0.012768306 0.04865194 -0.06212687 0.044642664 0.069733016
-0.02587581 0.024943743 -0.0033368485 -0.015835052 -0.08560541 0.07342066 -0.0090191355 0.007790171
0.06190514 0.019799931 -0.011805484 0.06883883 0.015656635 -0.05124326 0.01790981 0.08489779
-0.025581539 -0.03900164 -0.052902162 0.027195986 0.037088178 0.0068891547 -0.051553726 -0.022388238
-0.041754887 -0.070384525 -0.17834322 -0.29591158 -0.13590021 -0.26198277 -0.23405813 -0.2956196
-0.12653515 -0.14810948 -0.22598003 -0.13472573 -0.18088748 -0.066307865 -0.099466346 -0.053186875
-0.23722872 -0.08907471 -0.058683936 -0.04605874 0.039743565 -0.0054852082 -0.03716728 -0.13476568

model.encoder.blocks.1.layer.bias f4 [16]
00000000: 6d19 6cbd 5cf4 dfbc 1c26 a3bd 7944 813d
00000010: 5fc2 5ebc 03ee 0dbd d58d 8b3a 6e17 78bd
00000020: c83a b7bd 4bf3 a8bd 3293 b2bd 41ad 61bd
00000030: 17e3 b43d b8d9 7f3d ee5f 0abd 340f 643d
-0.057641435 -0.0273382 -0.07966253 0.06311888 -0.013596146 -0.034650814 0.0010647128 -0.06056922
-0.089467585 -0.082495295 -0.087194815 -0.05509687 0.088323765 0.062463492 -0.033782892 0.05567856

model.encoder.blocks.2.layer.weight f4 [16, 16, 3, 3]
00000000: e9cf ccbd 3b6b 413b 04df 40bc b340 3ebd
00000010: 9616 bf3d 2d11 923c 7465 c8bd 0cfc 48bc
00000020: 7d0d a93d 4597 99bd b14b 12bd 01c7 cb3d
00000030: 1b85 89bd 9567 ba3c 3e40 3f3d b2bd b0bc
00000040: 00c6 753c 6861 b23d d7a3 813c f2bf adbd
00000050: 3c71 0f3d 90e6 32bd 9b31 31bd 4bd1 2cbd
00000060: ff5d 0cbd 9e8c 22bd 0cdd a53d 3daa 1dbb
00000070: cab8 6e3d c594 0a3d 2723 523d a8a8 a0bc
00000080: 7680 9f3d f445 4bbd 2dd1 dabc acd7 6e3d
00000090: 4a39 b43d 4484 68bd d119 81bd 24f6 813d
000000a0: 8673 84bd a40d aabd 5fc1 533d 526e 6e3c
000000b0: ccbb eb3c 4cc9 2d3b 622b 493d e85c 16bd
000000c0: b184 7e3d 1f35 093e 9e9a 113e db91 72bd
000000d0: a258 0b3d f382 fabc 9a63 09bc 4848 8f3c
000000e0: 19eb f63c 8111 83bb 79a8 e33d 20bc cf3d
000000f0: 5813 6bbd 049d 633d 33a5 0a3d 8464 84bd
00000100: c8ed a43c 5a3b bcbc 1dec fdbc 67fb cf3d
00000110: ef9f 913d 092d 9c3d 2c91 ca3d b7c3 1b3d
00000120: 0c8d e3bd 1c44 43bd d373 e5bd ffeb 373e
00000130: c9f8 083e 5f2a 543d f874 d93d 9856 463d
00000140: 0e87 913d 9685 bdbc b35c 82bd 3b44 103d
00000150: 1689 4f3d 70b2 483d 96e6 7fbc 6368 90bd
00000160: c866 5fbd 2b8f e3bc 0983 333d 150e cebc
00000170: 0976 a7bc 089b 6dbd aec9 93bc 4fb6 b7bd
00000180: 3237 503c b296 41bd 3373 873d d215 15be
00000190: aa0a 813e 290a 2bbe 21c8 dfbd 9b60 8e3e
000001a0: 15a0 853d 6445 cbbd 6ad5 903e 94be e03d
000001b0: 0018 97bd a2b8 253d 15a1 5bbd 94f5 bc3d
000001c0: 7480 ca3d 4cff d73c 97c0 d93b 8e70 a6bd
000001d0: a633 fb3a 27a7 a33b e38d 863d 5640 983d
000001e0: 0f05 2bbd 335a 8f3d 1009 eb3d 6920 c8bc
000001f0: e443 d03d f44c 1bbd f931 f43b e1a8 7c3d
00000200: 0c77 313e b095 313e 802b 273e 77a5 f93d
00000210: 22a7 1a3e 099c 1d3e d9ea 2a3e f3f9 a33d
00000220: ff2e 743d 4815 cc3d 9bb5 b2bc 15b8 a93d
00000230: 59ee c8bc ecc7 533d 9e3c 273d fbf4 a0bb
00000240: d0fc d93c 8f12 0d3d 4fba c2bd 7f74 41bb
00000250: 216e 47bd 43a0 85bd 9a36 57bd 34f4 29bc
00000260: e2ce 2abd 04a1 b93d 229a d73c 9578 923d
00000270: 503a 38bd 8335 c4bb e4a9 f33c 2701 62bc
00000280: 90e8 483d b3e7 873d 7d4f ae3d 1863 363d
00000290: a70c 8bbd 724c 8ebb b3b0 a0bd 963b efbb
000002a0: 6794 c439 f8a6 963d 4b2a 9a3d b39e e03d
000002b0: 86b9 a53d 1743 58bc e581 e73c 82c3 663d
000002c0: 9a79 5f3c cfd6 dabc 213d ab3d 42b9 5cbd
000002d0: fd2b 863d e76b 63bd 8ebd 463c 5f88 353d
000002e0: 581c a83d 66a3 1f3d c444 333d 3134 24bd
000002f0: 396d 6d3c ffd2 6ebb c1c2 343d 5109 a6bd
00000300: 5f1d 2abd 65fb fb3d fabe 203d 07ee 5a3c
00000310: bf11 97bd 956b babd c353 b03d 71cc e13b
00000320: 3390 5bbc 00c7 603c 548c a23d 7815 bcbb
00000330: 8d3e b03b 7748 613d 4ae8 dbbc cd68 46bd
00000340: 2ea6 66bd 7558 77bd 3e69 0f3d 9bf3 08bd
00000350: af3f 9739 6383 403d 3545 45bd f225 2a3d
00000360: d05d 96bd fee1 d5bd 16ba a7ba a5da 453e
00000370: d011 343e 47f1 9a3d 3148 fd3d d871 c33d
00000380: 3f19 fa3c 5696 6b3c 4085 f9bc fe83 53bd
00000390: 40c7 0f3d 8b0a 653c 6b15 90bb 9b2a c03c
000003a0: 14c8 903d d8f7 49bd e6fc d23c a1d3 433c
000003b0: bb0b 47bd 091f a3bb 446c c83b 681b 89bd
000003c0: c373 b9bc a551 743d e1a2 373d e3a7 a93d
000003d0: 6a2d cb3e 6bd5 bcbd d4b4 063e dba5 d43e
000003e0: 4033 57ba 5e51 f33d 849c c83e a546 913c
000003f0: 40f2 70bc c537 aabc 108b 50bd 462f d63d
-0.10000593 0.0029513377 -0.011771921 -0.04644842 0.0933048 0.017830456 -0.09784976 -0.012267124
0.08254526 -0.074995555 -0.035716716 0.09950066 -0.06714841 0.02275447 0.046692125 -0.021574829
0.01500082 0.08709985 0.015825195 -0.08483876 0.035020098 -0.043676913 -0.043260198 -0.042191785
-0.03426933 -0.039684884 0.08098802 -0.0024057769 0.058281697 0.033833284 0.051303055 -0.019611672
0.07788174 -0.04962726 -0.02671107 0.05831115 0.087999895 -0.056766763 -0.06303752 0.06345776
-0.06467347 -0.08303383 0.051698085 0.01455267 0.028776072 0.0026517687 0.04911364 -0.036709696
0.062138263 0.1339917 0.14219138 -0.05922113 0.034020074 -0.03058002 -0.008385563 0.017490521
0.0301414 -0.0039998894 0.11116118 0.10143304 -0.057391495 0.055569664 0.033848953 -0.06464484
0.020132914 -0.02297752 -0.030996377 0.10155373 0.07110583 0.07625777 0.098909706 0.038028445
-0.11110887 -0.047672376 -0.11203732 0.17961119 0.13376154 0.05179822 0.10618013 0.048422426
0.07105838 -0.023134988 -0.06365337 0.03522132 0.050667845 0.048998296 -0.015618941 -0.0705116
-0.05454138 -0.027778229 0.043826137 -0.0251532 -0.020442026 -0.058009177 -0.018040504 -0.089703195
0.012708472 -0.047262855 0.066137694 -0.14559105 0.2520345 -0.16703095 -0.109268434 0.2780808
0.06524674 -0.099253446 0.28287822 0.1097385 -0.073776245 0.040459283 -0.053620417 0.09226528
0.09887782 0.026366852 0.006645273 -0.08126937 0.0019165173 0.0049942913 0.065700315 0.07434146
-0.04175287 0.06999626 0.11476338 -0.024429517 0.10169199 -0.037915185 0.0074522463 0.061684493
0.17330569 0.17342257 0.16325188 0.12189763 0.15102819 0.15391554 0.1669115 0.080066584
0.05961513 0.099649966 -0.021815112 0.08287064 -0.024527716 0.051704332 0.040829293 -0.0049120164
0.026609808 0.034441527 -0.09508192 -0.00295189 -0.04868901 -0.06524708 -0.052542306 -0.010373164
-0.041701205 0.090639144 0.026318613 0.071519054 -0.044977486 -0.0059878244 0.029744096 -0.01379422
0.049049914 0.0663599 0.08511255 0.044528097 -0.067895226 -0.004342609 -0.07846203 -0.0073008044
0.00037494602 0.073560655 0.07527598 0.109677695 0.080920264 -0.013199589 0.02826018 0.056338795
0.013639832 -0.026713757 0.08361269 -0.053887613 0.06551359 -0.055522826 0.012130154 0.044319507
0.08208531 0.03897419 0.043766752 -0.040088836 0.014491373 -0.0036441681 0.044131044 -0.08107246
-0.041531917 0.12303809 0.03924463 0.013362414 -0.07376432 -0.09102551 0.08609726 0.0068908264
-0.013401079 0.01371932 0.07936922 -0.005739864 0.0053785504 0.05500075 -0.026844162 -0.04843979
-0.056310825 -0.060387094 0.035012476 -0.033435445 0.00028848412 0.0470003 -0.048161704 0.041540094
-0.07342112 -0.10443495 -0.0012796547 0.19321688 0.1758492 0.07565551 0.12367285 0.09543198
0.030529616 0.014379105 -0.030459046 -0.05163955 0.03510213 0.013979564 -0.0043970845 0.023457816
0.07069412 -0.049308628 0.025755357 0.011952312 -0.04859517 -0.004978065 0.006116422 -0.066946805
-0.022638207 0.059648175 0.044833068 0.08283975 0.39683086 -0.09220394 0.13154918 0.41532788
-0.0008209236 0.11880754 0.39181912 0.017733881 -0.014706194 -0.020778546 -0.05091387 0.104582354

model.encoder.blocks.2.layer.bias f4 [16]
00000000: 8552 1c3d dedf 2ebd a819 01bd 4d9b c9bd
00000010: 2f47 f5bc 7e92 833b 6d0d 813d 4359 a53d
00000020: 9be5 e7bc 0104 92bd e2ea e1bd 08f1 953d
00000030: 93ba 443d 19eb b7bd e4c4 69bd ecaa 3dbd
0.038164634 -0.042693965 -0.03151861 -0.098440744 -0.02994117 0.004015266 0.06301389 0.08073666
-0.028307727 -0.0712967 -0.110311285 0.07321364 0.048029494 -0.08980388 -0.057072535 -0.046305582

model.decoder.blocks.0.layer.weight f4 [16, 16, 3, 3]
00000000: d442 ad3d c91c 0d3d 9037 32bd f38a 8a3c
00000010: 6fe6 eb3d 1bfc afbd 015c 413d 249c 5e3d
00000020: 4114 043c 9fd3 473d ff9f d73c 58fa 193d
00000030: 9b2f 8fbd dd76 d43c 41d0 983d e4b1 f4bc
00000040: 3374 2a3d 4c38 533d f28b 86bd c5ba debc
00000050: 0eea 93bd b22a 133d f842 583c f812 30bd
00000060: 2e10 6c3d 6e8f 6cbd 5ba9 8abb 5716 7cbd
00000070: 68f7 0bbe cb26 163c 833d 9e3b 5884 bdbd
00000080: 5b82 0e3c fbff e53d b369 dcbd aa15 113e
00000090: 458c 1ebd 1dad 18bc 8d2d 96bd 32fe 0fbd
000000a0: f674 ce3c 4ce2 83bd 4d61 7bbc 85cf 053d
000000b0: 6beb d8bc 4b73 d83c 7de4 e0bb 32f1 14bd
000000c0: 1510 933c eaeb 07bd 3caa e2bc a629 933c
000000d0: 6ccf 02bd a5f9 98bb f3fa 6ebd 0a05 01bd
000000e0: 485d a9bd 3b0a 813b 4481 14bc 788b 6e3d
000000f0: 2bbe 75bd fbf4 4abd 96a2 4b3d 74c2 d43e
00000100: 9d27 673e 9e2e 8e3d 3277 183e a902 14bd
00000110: 7091 c1bd f424 41be 5cd3 0cbd dd09 103d
00000120: 7442 bb3d ba93 903d e230 8d3d 7633 49bd
00000130: 7751 443d 480d 70bc 4b2e 593c 8106 173d
00000140: a3ec d5bc 9696 6c3c e692 22bd 57e0 43bd
00000150: ed0a 6bbd 41d6 33bd 282e ae3b fa91 8f3d
00000160: 0da9 7cbd e50b c3bc 9e48 3cbd 6f1c 553d
00000170: c279 42bc a950 85bd 79b1 a63d bb49 c7bc
00000180: bb19 8f3d 4845 393d 55d0 ae3c a892 55be
00000190: 9d6a 34be c1f7 e0bd b99d 9e3c 121b 3abe
000001a0: 3f7a e0bc b60e 1e3d 1480 de3d 7a66 bb3c
000001b0: cd4a 243d 5195 cf3d 216e 8ebd 97d2 42bd
000001c0: 90f0 253d 100d 183d 00d2 73bd 299b 60bd
000001d0: 59e3 98bd de06 d3bc 58a5 063c 3b2a cbbc
000001e0: cd00 673d 82f0 d23c b3b9 cb3d a962 33bd
000001f0: d284 98bd bbfc 8c3d d7c3 c6bc da20 78bd
00000200: c1d8 b5bc d03d 69bd 6cd8 e2bc 45c2 32bd
00000210: c9f5 3fbd dedf 093d a727 a7bd 5cc5 e4bc
00000220: a0c1 ac3d b5d6 c43c 0a1d 0abd 5981 613d
00000230: 4b47 a1bc cb95 33bc 0d49 a5bc fcb3 613d
00000240: cfc6 ddbd e0de 2d3e de01 adbc 96e2 ad3c
00000250: f487 383e 0fc1 343d 18f6 673b a0b4 1b3e
00000260: 6e73 07bc 787d 6abc 2e90 893d 6a62 01bd
00000270: d326 c33b 6b70 32bd 68a0 a73c ab00 7dbd
00000280: c200 35bc 268c ed3b 5cff 623d 53f0 40bc
00000290: db2e 13bd 538a a03d 758d 823c 5ec3 87bd
000002a0: 255d 943d 3cdf 8c3d b323 34bd 818f 3bbe
000002b0: 2a81 17be 19aa cd3c c443 edbc 116a 0f3d
000002c0: fdd5 d53d 53b1 a33d 544d 1e3e 4da0 173e
000002d0: 81d4 203d e1bf 753c 46c7 cebb ca24 093d
000002e0: ef8c 08bd 0fe0 153d e40b 913d 78b8 823d
000002f0: f5c7 1f3d 6036 93bc 7918 52bd 1111 663d
00000300: 1090 39bd 1264 913d 7fb3 3ebd 1da9 0e3d
00000310: b66d 2a3d 9d82 63bd df7a 70bd 6e12 9bbc
00000320: 3069 56bd 04c8 0bbd fada 28bd c05c 8c3d
00000330: a64a ac3c e135 37bd a880 a7bd 86ef da3e
00000340: 0bc8 0e3f 7968 cd3e 8fe2 913d ed22 a83d
00000350: e749 55bd a396 7c3e 30c8 ec3d 44bd ed3c
00000360: 0e1b 05be e8d1 6fbd a28f 64bd d12a 95bc
00000370: 4bcb 96bd 67e1 6e3d ecf6 42bd 29ab 223d
00000380: c722 26bd c351 223d ab53 943b ff25 6a3d
00000390: 0604 d33c 434c 5d3d 4bcc a2bd c6ab 21bc
000003a0: 9fc5 acbb 518e 24bd 76a4 133d 978c e0bc
000003b0: 77ed 433c c37b 303c 557f 9a3c 1c7f 1e3d
000003c0: f5a7 1f3d 84e1 0c3d f213 e3bb bc11 ad3d
000003d0: 9e13 93bd 0bed 31bd 32fe 0f3e d350 ea3d
000003e0: fcd6 de3d 04bc 643c a739 ec3c bc3c adbd
000003f0: f415 e1bd d4be 8cbc f5fb 0d39 bca8 0bbd
0.08460012 0.03445128 -0.04351002 0.01691196 0.11518561 -0.08593007 0.047206882 0.054348126
0.0080614695 0.048785802 0.02632141 0.037592262 -0.06991502 0.025935585 0.07461596 -0.029869981
0.041614722 0.05156736 -0.06569661 -0.027188668 -0.07222377 0.03592939 0.01319956 -0.04298684
0.057632618 -0.057753973 -0.0042316145 -0.061544742 -0.13668597 0.009164522 0.00482911 -0.09253758
0.008698071 0.11230465 -0.10762348 0.1416842 -0.03870799 -0.009318617 -0.07332907 -0.03515453
0.025202256 -0.06439647 -0.0153430225 0.03266861 -0.026479444 0.026422163 -0.0068631754 -0.036362834
0.017952004 -0.03318397 -0.027669065 0.017964195 -0.031936094 -0.004668432 -0.058344793 -0.031498946
-0.08269745 0.003937987 -0.009064022 0.058238477 -0.05999581 -0.049550038 0.0497156 0.41554606
0.22573705 0.06942485 0.1488922 -0.03613535 -0.09451568 -0.18861753 -0.034381256 0.035165656
0.09143534 0.070594266 0.06894089 -0.049121343 0.047929253 -0.014651604 0.013255666 0.036871437
-0.026113814 0.014440199 -0.039690875 -0.04782137 -0.057383467 -0.0439055 0.005315561 0.07010265
-0.061684657 -0.023809383 -0.04596769 0.05202907 -0.01186985 -0.06509525 0.08139319 -0.02432715
0.069873296 0.045232087 0.021339575 -0.20856726 -0.17618795 -0.10984755 0.019362317 -0.18174389
-0.027402041 0.03858825 0.10864273 0.022876013 0.040110398 0.10135902 -0.06954599 -0.047564115
0.04051262 0.037121832 -0.059526443 -0.054835472 -0.07465238 -0.02576011 0.008218132 -0.02480041
0.056397248 0.025749449 0.09947529 -0.04379526 -0.074472085 0.06884142 -0.024263306 -0.060578205
-0.022198083 -0.056943715 -0.027691089 -0.0436423 -0.04686526 0.033660762 -0.0816186 -0.02792614
0.084353685 0.024028162 -0.0337191 0.055054996 -0.019687315 -0.010961006 -0.020176435 0.055103287
-0.10828935 0.16979551 -0.021119054 0.021226209 0.18020612 0.044129428 0.0035394486 0.15205622
-0.008267267 -0.014312141 0.06716953 -0.031587996 0.005955556 -0.04356424 0.02046223 -0.061768215
-0.011047544 0.007249373 0.05541931 -0.011776048 -0.035933357 0.07838883 0.015936593 -0.0662906
0.072443284 0.06878516 -0.043979358 -0.18316461 -0.14795366 0.025105523 -0.028962977 0.035013262
0.10441206 0.07992806 0.15459186 0.14807244 0.03926516 0.014999361 -0.0063103763 0.03348235
-0.03333753 0.036590632 0.07082346 0.06382841 0.039009053 -0.017970264 -0.05129287 0.05616862
-0.045303404 0.07099165 -0.0465579 0.034829248 0.041608535 -0.055544484 -0.05871093 -0.018929686
-0.05234641 -0.034126297 -0.041224457 0.06853628 0.021031689 -0.044729117 -0.08178836 0.42760867
0.5577399 0.4011877 0.07123291 0.082097866 -0.052072432 0.24666838 0.1156162 0.029020913
-0.12998602 -0.05854979 -0.05580104 -0.018208893 -0.07362994 0.05832043 -0.047598764 0.039714012
-0.04056051 0.039628755 0.0045265756 0.057165142 0.025758754 0.054027807 -0.07949122 -0.009867614
-0.0052725817 -0.040174786 0.036045514 -0.027410788 0.0119584715 0.010771695 0.018859545 0.03869544
0.038978536 0.034394756 -0.006929868 0.08450648 -0.07181476 -0.043438952 0.14061812 0.11441197
0.10880849 0.013960842 0.028836085 -0.0845885 -0.10990515 -0.017180838 0.00013540669 -0.034096465

model.decoder.blocks.0.layer.bias f4 [16]
00000000: db08 863d 9910 c4bd 257b 0abd d76c 1a3d
00000010: cf9d 7ebc 7472 ddbc 164e 783c 885a ed3c
00000020: bb09 813b c838 debd 9b78 213a 4b8f 513a
00000030: 49ad 4dbc 3434 63bd efb0 f53d dd93 4a3d
0.06544658 -0.09573478 -0.033808846 0.037701454 -0.015540554 -0.027032115 0.015155336 0.028973833
0.0039379275 -0.10850674 0.0006159634 0.00079940696 -0.012553521 -0.055469707 0.11996638 0.04945742

model.decoder.blocks.0.upsample.weight f4 [16, 16, 2, 2]
00000000: 66b4 33bd c8f6 3ebb 63dc f3bc 1ce2 653d
00000010: 7168 823d db62 b9bd 66c9 ec3c 78e3 383d
00000020: df09 a2bc 47cd 9bbd 24d0 673d 5e6d b4bd
00000030: 4d84 503c 1f38 193c 4b1b 73bc e667 933d
00000040: b85f 0abe e11e 0bbe 8426 a9bd afd2 33be
00000050: 49de ef3d 5e39 dcbc 219b 023e 8534 0ebe
00000060: 2ad5 a63d 63b7 763d 2e95 983d 4be0 79bd
00000070: 5b91 83bd 5431 e03d cbf7 9abd 14c8 8d3c
00000080: b4ca 46bd ffa9 8abc c004 f03b d8b8 c63c
00000090: 3306 243c 2bab af3d ae98 ddbd b4e1 583d
000000a0: a9ca f23b 7920 e9bd 3dce 26bd 5e3a 28bd
000000b0: 5066 11bc 99ac c6bd 0cf3 e83d 5d0b 15bc
000000c0: 200e c13d 0b11 1abe 9940 523c f935 febc
000000d0: cf78 e2bb a20c 023e 82c7 a5bd 348e 48bd
000000e0: a062 e9bd bcd7 153d 18f1 853d 164f f63d
000000f0: e997 6e3d 0ce5 a0bd 5369 93bd a4e0 ba3c
00000100: 25c6 95bd 54c3 13be 88f2 b1bc d114 493c
00000110: 8b00 11bc 6f8b 143e fbbd 8abd d792 ccba
00000120: 5dd4 80bc 98a8 d8bd 12eb 863d 3612 23bd
00000130: 2130 06be 3ea5 24bb a309 39bb 34fa de3d
00000140: f28a 4e3e 58ca 38bc f4fe 613e ca9f 9f3c
00000150: 50ef fbba 78d0 8dbd da49 97bc ca04 a83b
00000160: de24 a0bc e30b 553d 9071 fc3d 8d3b b8bc
00000170: 2a36 4fbc e4be 4abd ab9d 8f3d 78a5 e53d
00000180: 8b4e 023e 7884 493d 6090 74bd c6fa b1bd
00000190: aa5c 8ebb 2168 d03d f801 fcbd b1c7 583d
000001a0: 975e 063d 6f2f 263e f420 d9bd 0fec 5e3d
000001b0: 87fc 88bd 53cb c93d d238 80bd b6f1 0a3e
000001c0: 603d 3c3d 1bfb f8bd 7755 a83d 4172 3bbd
000001d0: b24f 273d 64a0 37bd 7131 9f3d 30f4 083e
000001e0: 90eb 0fbd fd1f b93c 4535 dbbd 7dae b6bc
000001f0: b930 48ba f18c c7bc 3311 e93d 5237 3cbd
00000200: 5af0 19bc d573 a63d 6571 cd3d 7ce1 f73c
00000210: 796c ecbd cdab 2cbd ff63 d3bb 0c19 8b3c
00000220: a961 d33d 464d fabc 4b76 96bd e99c 4e3d
00000230: bbdb e63d b23e 253e f20f e93d 422f 7abd
00000240: 8266 623e 549b f4bd 5c32 be3d 95f4 c63c
00000250: 0cc5 1c3d cd7f 26be 3d70 903d 83ed d0bd
00000260: f930 1f3e 04ae 2d3e 533d c9bb e78f 213e
00000270: e4e5 d6bd 4392 403c 73ea 84bd ee5c 3ebd
00000280: f68c d2bd 3665 90bd 9dc1 00bd 8003 1bbd
00000290: 1199 cebb c46f c43c 68de ebbd 126f 943d
000002a0: 4e1f 80bc 811c 62bc 2403 7ebd 9125 013e
000002b0: ae19 c23d cdd1 973d c500 213e be6e 833c
000002c0: 373e 3a3d 33ac 523e f118 9abd b24f 393e
000002d0: 20dd fbbc 42cc 513d b4d4 f4bd c4da cd3d
000002e0: eaa8 31bc 9650 de3d 4e37 b93d 4cb8 85bd
000002f0: 264f ec3d 7d90 053d 5547 723d 33eb 1b3e
00000300: 18dc 333d faba b43c 86a1 6e3d 1daf 03be
00000310: 41c6 6ebc 1e26 d83d 220e ddbb 3588 a63d
00000320: 664e 9a3d 23c4 e7bd b4b5 f63d 3650 1a3d
00000330: 7b46 80bd f983 e83c ae3b a93d 679b 76bd
00000340: f84e 8abd 4c0c 493d e4f1 76bb bd58 813d
00000350: 08f1 85bd 6d96 053d af37 ccbc 4932 97bd
00000360: 9266 a4bc 8386 a13d f3cb 0b3e 6e0e 98bd
00000370: 47ca d63c c766 2b3b 3172 923d 8bd0 2f3d
00000380: a3fd be3d 77f2 20bd c631 05bd 8150 26bd
00000390: 550b 253d 94bf 083d e14f 3cbd 23ce 3b3d
000003a0: 4a28 21bd bd28 8f3d 79a4 893c c7d4 873d
000003b0: f5d1 adbd 98a9 123e ed02 9d3d 2888 e33d
000003c0: 93a2 d3bc 43f9 adbd e7eb 0b3e 9d3a b9bd
000003d0: 2ad7 1bbe 2ac8 d2bd e6fb 953d dac4 c5bd
000003e0: 212b 1b3d 1aba f73d 8490 353c 627c b73c
000003f0: 4071 583c fc0c ddbd 07f7 b83d c17b 063d
-0.043873213 -0.0029138792 -0.029768175 0.056123838 0.06367577 -0.09052058 0.028904628 0.045138806
-0.019780098 -0.07607513 0.056594983 -0.08809923 0.012726855 0.009351759 -0.01483805 0.071975514
-0.13513076 -0.13585998 -0.082592994 -0.17560838 0.117123194 -0.026882824 0.1275449 -0.13887222
0.081461266 0.060233485 0.07450329 -0.061004918 -0.06424209 0.109469086 -0.07566794 0.017307319
-0.048533157 -0.016926764 0.007324785 0.024258062 0.010011244 0.085775696 -0.10820137 0.052949622
0.007409413 -0.11383147 -0.040724028 -0.04107129 -0.008874491 -0.09700889 0.113744825 -0.0090969475
0.09426522 -0.15045564 0.012832784 -0.031031596 -0.006911374 0.12700132 -0.08094694 -0.04896374
-0.11395764 0.036582693 0.065401256 0.12026803 0.05825034 -0.07856187 -0.071978234 0.022812195
-0.07313184 -0.1442998 -0.021722093 0.012273029 -0.008850227 0.14506315 -0.06774517 -0.0015607727
-0.015726263 -0.10579032 0.06587805 -0.03981229 -0.13104297 -0.0025122906 -0.0028234504 0.10887566
0.20170191 -0.011278711 0.22069913 0.019485373 -0.0019221101 -0.06924528 -0.018467832 0.005127524
-0.01954883 0.05201329 0.12326348 -0.022489334 -0.012647191 -0.049498454 0.07012495 0.11213201
0.12725274 0.049198598 -0.059708 -0.08690409 -0.0043445425 0.10176111 -0.12305063 0.052924816
0.03280505 0.16229032 -0.106019884 0.05442434 -0.06688791 0.09853234 -0.062608376 0.13568768
0.04595697 -0.121572696 0.08219426 -0.045763258 0.040847488 -0.044830695 0.07773102 0.133744
-0.03513676 0.022598261 -0.1070352 -0.0223 -0.0007636655 -0.024359198 0.113802336 -0.045951195
-0.009395683 0.08127562 0.10031394 0.030258887 -0.11544127 -0.04215603 -0.0064511294 0.016979717
0.103213616 -0.030554425 -0.07346781 0.05044261 0.11272379 0.16137198 0.113799945 -0.061080225
0.22109416 -0.11943689 0.09286949 0.024286548 0.038273856 -0.1625969 0.07052658 -0.10201552
0.15546025 0.16960913 -0.0061413436 0.1577755 -0.10493067 0.0117536215 -0.0649003 -0.046475343
-0.102807924 -0.070505545 -0.031434644 -0.037845135 -0.006304868 0.023979075 -0.1151703 0.072477475
-0.015639927 -0.013800741 -0.062014714 0.12611987 0.09477554 0.07413063 0.1572295 0.016044017
0.04546949 0.20573501 -0.075242884 0.18096808 -0.030745089 0.051220186 -0.119546324 0.10051492
-0.010843495 0.10855214 0.09043752 -0.065292925 0.11538534 0.032608498 0.05915006 0.1522644
0.04391107 0.022061814 0.05825951 -0.12859769 -0.014573635 0.10554145 -0.0067460695 0.08131448
0.075344846 -0.11316707 0.12046376 0.03767415 -0.06263443 0.028383242 0.08263336 -0.060206797
-0.06753343 0.049083993 -0.00376808 0.063157536 -0.06540114 0.03261416 -0.024928896 -0.07382638
-0.02006844 0.07886984 0.13652019 -0.07424627 0.0262195 0.002615379 0.071506865 0.04292349
0.09325721 -0.039293732 -0.03251817 -0.04060412 0.04029401 0.03338583 -0.045974616 0.045850884
-0.039345063 0.06990192 0.01680206 0.06632381 -0.08487312 0.14322507 0.07666574 0.11109954
-0.025834357 -0.084948085 0.13664208 -0.09044383 -0.15218797 -0.102920845 0.073234364 -0.09656687
0.037882928 0.12096043 0.0110818185 0.022398178 0.013210595 -0.10793492 0.09031492 0.032832865

model.decoder.blocks.0.upsample.bias f4 [16]
00000000: 48c4 023e 0476 27bd 4b27 28bc 025a 533d
00000010: 0643 f43c 65fe 1bbd aa82 823d f04e 34bd
00000020: aba1 cfbd 679c 563d e7ab d13c c061 873d
00000030: 5056 073e 9754 2fbc 99c7 293d 386f b33d
0.12770188 -0.040884033 -0.010263274 0.05159951 0.029817116 -0.038084406 0.063725784 -0.044020593
-0.101382576 0.05239525 0.025594665 0.06610441 0.1321652 -0.01070132 0.041450117 0.08761448

model.decoder.blocks.1.layer.weight f4 [16, 16, 3, 3]
00000000: 9fd9 4abd e424 01be 43a9 37be 5ffc 32be
00000010: 4ae9 a8bd 9076 7bbd e6f1 11be 2a37 d0bd
00000020: cbf7 73be 8431 ec3d 00c3 9e3e c5e6 8a3e
00000030: 0c62 d73d 4222 cf3d cf17 6f3e a309 643d
00000040: 9c23 1a3e 0bc1 4f3d 0469 1f3e 68ac 3e3e
00000050: 64dd 003e 9704 b83d f1c7 aa3d 03d7 113e
00000060: 45c5 e83d 3c3f 403e 2786 843e bf27 b4bc
00000070: 7085 1b3e 4a4a 563d 1b8b d73c b5c3 a23d
00000080: afd9 1f3e 10f4 d1bc 8d48 493e a1de 243e
00000090: 7023 023e c8d5 593e 807c 913e db57 c83d
000000a0: 1751 ea3d f568 373e 167d cd3d 8cef 253e
000000b0: a099 903e 3d28 6e3e fc64 4a3e f352 873e
000000c0: c346 3a3e fd0b c13d f58a 7e3e 4f83 c83d
000000d0: 7227 ed3d 9034 d63d b3eb f4bc 79f3 01bc
000000e0: 8adc 07bd 95fb a1bd e35a e2bd 21a5 f2bc
000000f0: a846 f43d b9f7 773d 9474 7d3c bd70 07be
00000100: 7db6 64be fa7b 22be 0278 cdbd 32e7 35bd
00000110: 6cdd efbd 89ec 3bbc bcab 19be b867 1cbe
00000120: fe48 243e 737c 543e 0e71 883e 367e 363e
00000130: 1280 873e e49b 3a3e 95a9 eb3d e534 833d
00000140: 1cbf 573e 3bb2 f53d 4111 5e3d a315 653d
00000150: fd28 cd3d 6733 243e 8151 abb9 531a 823d
00000160: 2f54 f43d 5112 eb3d fc7e 2a3e 877b 833e
00000170: 4ef8 ec3d 8aae 0c3e 2966 473e 3fcd 383e
00000180: a383 2f3e ad75 193e 23ac 4d3e f95d 4cbe
00000190: dc82 64be bbea cabd 64fc 82be 80e2 43be
000001a0: 2a09 60be f8bf 18be 30f0 15be ba15 74bd
000001b0: f85d 023e 0c7d 643c d311 263d 0579 f5bd
000001c0: 72a9 a53d d1dd fd3b 4403 c9bd 0271 53bd
000001d0: 6f52 153c 23f9 4e3e be67 523e 534e 273e
000001e0: b087 563e c0f6 e83d 03a4 713d d11c 023e
000001f0: 007b 6e3e 1cb8 e03d 4130 29be 32b5 21be
00000200: 908b ffbd 7bd2 efbd 0a6d 62be 5e0e 4dbe
00000210: 49ea 1ebe 8cf9 18be 95a8 13be 2a99 42be
00000220: d962 8cbe 4348 ecbd 1008 34be e133 54be
00000230: 9a8a 6abe 82e1 04bd 62eb d2bd ba6a 8cbd
00000240: 8d39 8dbd ed31 89bb ae0a 733d 8efa 07be
00000250: 8f78 133d 3057 113d 3dc8 24bd e981 203d
00000260: 8407 48bd f544 8d3d c2c7 19bd 44dc f83d
00000270: 5fb6 dbbc bcfa 8dbd 3d57 3c3c 1d18 563e
00000280: fd05 d63c 28f9 c03d f288 02bd 1c3c fd3d
00000290: e78a bebb 536b 133e 28ac c4bd acc2 eebc
000002a0: a2e2 083d 1d12 613e 81af ae3c 56cb abbd
000002b0: 9c4b 88bd 360f 4ebd 4f13 f1bc a785 ebbb
000002c0: 97d8 873d 3d4f a6bc 9803 f2bc 94d7 133d
000002d0: 1119 f53d 079d 02bd a76c 9fbd 4c1f 233d
000002e0: f19e 91bd 8466 86bc d7f8 cd3d 1e0f 833c
000002f0: d2fb 8f3d b5fe 9f3c 9ea0 81bd 41a9 5c3d
00000300: 5fce e7bc b0b8 f93c 2625 33bd 38b0 823c
00000310: be50 8fbc dfab 4e3d 522e 80bd 6877 39bd
00000320: 6219 3dbd 9e8b 59bd 8bc9 8a3c 6e71 a13d
00000330: fe78 4bbd 24b3 36bd ac28 a6bd 813b a03b
00000340: 17dc 99bc 10eb e83d 88a2 0abc 1a45 a8bd
00000350: 8550 653d 009c b63d 5030 253d 4ec2 2c3e
00000360: 1be6 113e 035c 933b 873b ad3d 4dd7 353d
00000370: 2727 2abd 09dd ab3c 3163 963d 426b c4bd
00000380: 396e 813d b6aa c73c b4ed 52bc a518 b83d
00000390: ec69 e8bd a180 23bc d9c2 083b cfd0 dbbd
000003a0: 3bee 28be 87e2 c0bd 6b5b f23b 5cdd 163d
000003b0: b48a 8d3d 8b7a 353c ef50 3e3d 01c8 333e
000003c0: 6090 6ebd ee0d d9bc 4206 483d 97d5 e53b
000003d0: bfdc debd cf61 1a3d dbdd 9bbd 740a 383d
000003e0: d7a9 ca3d c7d5 29bd 1c1e 76bd 6e5c 05bd
000003f0: e005 223d 15a8 8bbd 3399 6b3c 2f66 2cbd
-0.049523946 -0.12611729 -0.17935662 -0.17479084 -0.08247621 -0.061392367 -0.14252433 -0.10166772
-0.23824994 0.11532882 0.31008148 0.27129188 0.10516748 0.10113956 0.23348926 0.055673253
0.15052646 0.05072121 0.15567404 0.18620455 0.12584454 0.089852504 0.08338917 0.14242177
0.11365751 0.18774122 0.258836 -0.021991609 0.15187621 0.05231694 0.026311448 0.079474844
0.15610383 -0.025629073 0.19656582 0.16100551 0.12708831 0.21272957 0.28415298 0.09782382
0.11441248 0.17911132 0.10033624 0.16204661 0.28242207 0.23257537 0.19765085 0.26430473
0.18191056 0.09426115 0.24857695 0.0979067 0.11579789 0.10459244 -0.029897546 -0.007931584
-0.033169307 -0.079093136 -0.110524915 -0.029619755 0.11927539 0.06053898 0.015469689 -0.132266
-0.22335239 -0.15867606 -0.10032655 -0.04440994 -0.11712155 -0.011469969 -0.15006918 -0.1527394
0.1604347 0.20750599 0.26648754 0.17821583 0.26464897 0.1822353 0.115069546 0.06406573
0.21068996 0.119968854 0.054215673 0.055928838 0.100175835 0.16035233 -0.00032676387 0.06352677
0.11930119 0.11478103 0.16650003 0.2568018 0.11570798 0.13738456 0.19472565 0.18047045
0.17140059 0.14986296 0.20085196 -0.19957723 -0.22315544 -0.099080525 -0.25583184 -0.19129372
-0.21878496 -0.1491698 -0.14642406 -0.059591033 0.12731159 0.013945829 0.040544342 -0.11985973
0.0808896 0.00774739 -0.09815076 -0.051621445 0.009113892 0.20212226 0.20547387 0.16338472
0.20950198 0.11375189 0.058994304 0.12706305 0.23289108 0.10972616 -0.16522314 -0.15791777
-0.12477791 -0.11710068 -0.22111908 -0.20025012 -0.1551906 -0.14938945 -0.14419778 -0.1900374
-0.27419165 -0.1153722 -0.175812 -0.20722915 -0.22904435 -0.032441624 -0.10298802 -0.06856294
-0.068957426 -0.00418686 0.059336357 -0.13279173 0.036003646 0.03548354 -0.040230025 0.039186392
-0.048835292 0.06897918 -0.03754402 0.12151387 -0.02682036 -0.069325894 0.011495409 0.20907636
0.026125902 0.09422523 -0.031868882 0.123649806 -0.0058148983 0.1439641 -0.09603149 -0.029145561
0.03341926 0.21979566 0.021323921 -0.083883926 -0.06655046 -0.050307475 -0.029428152 -0.0071875635
0.06633108 -0.020301456 -0.02954273 0.036094263 0.11967672 -0.031888034 -0.07784396 0.03982477
-0.07110394 -0.016406305 0.10057228 0.01599842 0.07030453 0.019530633 -0.063294634 0.05387235
-0.028296648 0.030483574 -0.0437366 0.015953168 -0.017494556 0.050456878 -0.06258835 -0.04527989
-0.046166785 -0.053111665 0.016941806 0.07882963 -0.049675934 -0.044604436 -0.08113226 0.004889906
-0.018781705 0.113729596 -0.008461602 -0.08216305 0.055984993 0.089164734 0.040329278 0.16870996
0.14247935 0.0044970526 0.084586196 0.04439478 -0.041541245 0.020979421 0.07343138 -0.0959077
0.063198514 0.024373394 -0.012874056 0.089890756 -0.11348328 -0.009979398 0.0020868091 -0.107331865
-0.16497128 -0.09418207 0.007396152 0.0368322 0.06911221 0.01107658 0.046463903 0.17556764
-0.058243155 -0.0264959 0.048834093 0.0070139873 -0.10881948 0.037690934 -0.07610675 0.044931844
0.09895676 -0.04146364 -0.06008731 -0.03255885 0.039556384 -0.068191685 0.014379787 -0.042089637

model.decoder.blocks.1.layer.bias f4 [16]
00000000: 2283 fa3c 5b5c 893d 4cd9 9f3d 0242 c93d
00000010: 1f1d 4a3d 7071 aebd f0fe a13d 2380 a4bc
00000020: b7d8 14bb f0e4 f33d 9f8e b73d 14c5 853d
00000030: 430a 9fbb dfb0 8b3d 6cdf c8be b86b 9f3d
0.030580107 0.067070685 0.07805118 0.09827043 0.04934418 -0.0851773 0.079099536 -0.020080632
-0.002271218 0.11908901 0.0896275 0.0653173 -0.004853518 0.06820845 -0.39232957 0.077842176

model.decoder.blocks.1.upsample.weight f4 [16, 16, 2, 2]
00000000: fdb9 7f3a 2c80 1a3e 8a1b 3cbe b52e ac3d
00000010: 586e 5f3e c62c 0d3e b7c3 943e 226c 8b3d
00000020: 29ef 14be 1445 0abe 83b4 34be 3692 5cbe
00000030: acce b93d 5892 35be 9578 57be 63ab 9abe
00000040: c398 283e 4794 7a3e b8a2 c13a 4ff4 c93d
00000050: 27d6 06be 7917 08be 057d b4bd f225 e7bd
00000060: 40f5 5fbe 58dc 8dbe 7e36 0fbe 8904 68be
00000070: 8e01 8e3e 9b0f 0b3e a2f3 743e 25f3 793e
00000080: e42a 6fbe 536c 9fbe 6d66 57be 2440 2fbe
00000090: 0e33 ed3d 85c1 ac3d 271d 903e a8c4 193e
000000a0: 98b9 e03c 11b6 b4bd 8ba9 8bbe 0611 32bd
000000b0: 772d 3f3d a9cb 62be 6644 57be 67ba febc
000000c0: cb62 633e ef98 363e 8479 393e be65 4d3e
000000d0: a22e 06be cd61 ebbd 7d80 03be 8c85 0ebe
000000e0: 6ed2 38be 4490 c6bd 1150 e7bd 2d00 3bbe
000000f0: 49b0 0dbe bffd 95be 0367 85be dac6 56be
00000100: 42c4 18be 3ba5 a83d b1f5 7cbd 53d9 dfbc
00000110: 7c04 1c3d 05f6 3f3d 636e 103d 1259 bebd
00000120: aded a33d 808d 79bc bac3 403e 4cb9 a1bd
00000130: 3890 233d 1d14 1b3e c793 78bd 3a0d d2bd
00000140: d468 10be d321 80bd 9030 edbd c451 8ebd
00000150: f6fb c83c 1948 293c b3e7 5b3b 4935 12bc
00000160: e999 093e 83e0 873d 995e 8e3d 6e20 ed3d
00000170: 10d9 edbd 3f6e 1bbe f21e 6bbd f134 683c
00000180: 37f7 1b3d 0172 e73d cf99 8d3d 5cd7 083e
00000190: 70b1 9cbe 07e6 1fbe 6576 81be 68ce b63c
000001a0: ce08 d1bd e861 8bbc 1969 f13c b321 873d
000001b0: aab4 03bd 7412 af3b b57a 53bd 5734 e03d
000001c0: 7dae a6bd 81d1 333c b9e3 3cbe 0f2a ecbd
000001d0: 5a4b f3bd dc0d fdbc fc40 213d 0dff 723d
000001e0: e186 213e bf59 19bd ab95 f2bc a9fa a63b
000001f0: d962 813c 594f ce3d f76c a63b fc29 69bd
00000200: 3549 5fbd 3948 f9bd 90fc 57be 472e 23be
00000210: def2 07be 5959 05be d11f 4cbd 67c6 3e3d
00000220: 17c9 213e 0249 43ba 300c 273e da0c 0b3e
00000230: 541a 12be 6748 843d 60b0 a5bc b4f1 14bd
00000240: 2a20 fabd ca8c 85bc e962 aebd 5be7 4c3d
00000250: 5ab8 17bc 0477 4dbd bca4 073e 4282 963d
00000260: ba5e 053e d934 843d a603 64bc a6a8 ae3d
00000270: cef7 963d 0857 00bd 166e 0dbe 3ddf b2bc
00000280: 5406 2c3e 59df a33d 10e9 6f3d d2a5 8ebd
00000290: 2036 56bc 3323 af3d 0007 0d3c d029 d63d
000002a0: ff69 80bd b049 ee3d 5cc1 22bd aebe 333d
000002b0: c248 e53d ed8e 71ba a90d 453d 7ae6 d6bc
000002c0: beb6 0ebe 5e62 abbd 7004 d63c de6e be3c
000002d0: ef97 77bd 926b f03d ba18 b33d 15ed 313d
000002e0: 8a55 d63d ad01 28bd 3196 8e3d d914 143d
000002f0: 7afa c4bc 79e3 533d 2529 753d 8a2a d2bc
00000300: 5f1b 123d 4103 333e daed f43c bb2a 533c
00000310: be97 62bd 966f fc3c feb6 873d 108f f9bd
00000320: 4d0c fd3d 60dd d93c 4a89 45bd 829e c93d
00000330: 0038 c2bc 0ed2 013e 6e37 2ebe 33b8 21be
00000340: e196 c5bd 65e5 d63d bd0c ddbd 0314 ba3d
00000350: 67fc 27bc cda6 bdbd 8582 093d c4fa f8bc
00000360: 82ab 8f3d 6811 cabd d343 b2bd 4a43 c63d
00000370: ebf3 b93d be2b d7bd 3e2c b8bd 438a 70bd
00000380: 7d01 ca3c c65d d73d 4349 9d3d 2b8a 7ebd
00000390: 601e e03d 144d 76bb b0ba 2e3d 54c6 b23d
000003a0: 9989 00bd 0f99 b2bb bc4b 4e3c 94ec 54bd
000003b0: 6a3d a43d d6fe 833d cd2a e63c 9c57 0abe
000003c0: 4f21 c2bd ceff bb3c 2367 0cbe 48d8 dbbc
000003d0: 9493 e6bd 8515 94bd 3ad6 d73d bf4a 283c
000003e0: 8fd9 6d3d ac24 1a3d 9abf 113e 818e ab3d
000003f0: f710 03bd b243 8a3d 49eb 133e 3456 a43d
0.00097551924 0.15087956 -0.1836988 0.08407346 0.21819437 0.13786611 0.2905557 0.06807734
-0.14544357 -0.13502914 -0.17646985 -0.2154015 0.09072623 -0.17731607 -0.21042092 -0.30208883
0.16464524 0.24470626 0.0014773225 0.09861051 -0.1316763 -0.13290204 -0.08812908 -0.11286534
-0.21870899 -0.2770717 -0.13985631 -0.2265798 0.2773556 0.13580172 0.23921064 0.24409159
-0.23356205 -0.31137332 -0.21035166 -0.17114311 0.115820035 0.084353484 0.2814724 0.15016425
0.027432248 -0.08823789 -0.2727779 -0.043473266 0.046674218 -0.22148003 -0.21022186 -0.031094743
0.22205655 0.17831777 0.18112761 0.20058343 -0.13103727 -0.114932634 -0.12841983 -0.13918132
-0.18049023 -0.09695485 -0.11294568 -0.18261786 -0.13836779 -0.29295155 -0.26055154 -0.20974293
-0.14918616 0.0823464 -0.061757747 -0.027325308 0.038090214 0.046865482 0.035261523 -0.092943326
0.080043174 -0.01523149 0.18824664 -0.07896671 0.03993246 0.15144391 -0.060687806 -0.10256429
-0.14102489 -0.062564515 -0.11581528 -0.06949189 0.024534207 0.010332131 0.0033554852 -0.008923837
0.13437618 0.06634619 0.06951637 0.11578451 -0.11613667 -0.15178774 -0.05740256 0.014172778
0.03807756 0.113010414 0.06914102 0.13363403 -0.30604124 -0.15615092 -0.2528564 0.022315219
-0.102067575 -0.017014459 0.02946906 0.065982245 -0.032154717 0.005342776 -0.051630694 0.10947483
-0.0813875 0.010975243 -0.18446244 -0.115314595 -0.118796065 -0.030890398 0.039368615 0.059325267
0.15774108 -0.037439104 -0.029612383 0.005095799 0.015794205 0.10073728 0.0050789076 -0.056924805
-0.054513175 -0.121719785 -0.21092439 -0.15935622 -0.1327624 -0.13022365 -0.04983503 0.04657593
0.15799366 -0.00074495387 0.16313243 0.13579121 -0.14267856 0.06459122 -0.020225704 -0.03636332
-0.12213166 -0.016302485 -0.08514959 0.050025325 -0.009260261 -0.05016233 0.13246435 0.073490635
0.13024417 0.064553924 -0.0139168855 0.08528261 0.07371484 -0.031333 -0.13811526 -0.021834964
0.16799289 0.080015846 0.058571875 -0.069652215 -0.013074428 0.085516356 0.008607626 0.10457194
-0.06270217 0.116351485 -0.039735183 0.04388302 0.11195518 -0.0009214718 0.04810873 -0.026232947
-0.13936898 -0.083683714 0.026125163 0.023246225 -0.06044763 0.117392674 0.087449506 0.04343899
0.10465534 -0.041017223 0.069622405 0.036152694 -0.024045218 0.051730607 0.05985369 -0.02565505
0.035670634 0.1748171 0.029898573 0.012888606 -0.055320494 0.030814927 0.066267 -0.1218549
0.12355862 0.026594818 -0.048226632 0.09844686 -0.023708344 0.12677786 -0.17013332 -0.15792923
-0.096479185 0.10492972 -0.10793445 0.09085848 -0.0102530485 -0.0926033 0.03357174 -0.030393012
0.070151344 -0.09866601 -0.08704343 0.09680803 0.09079727 -0.1050639 -0.089928135 -0.058725607
0.024658913 0.10515933 0.07679989 -0.062143486 0.109432936 -0.0037582563 0.042658508 0.08729234
-0.031381223 -0.005450375 0.012591299 -0.05198343 0.08019526 0.064450905 0.02809658 -0.13509983
-0.09479009 0.022949126 -0.13711219 -0.02683653 -0.11258617 -0.07230667 0.10538907 0.010271727
0.05806881 0.03763263 0.14233246 0.0837679 -0.0319986 0.06751193 0.14445223 0.080242544

model.decoder.blocks.1.upsample.bias f4 [16]
00000000: 618d 8cbd 1f68 0cbe 1388 013e 10cc af3d
00000010: 2998 1fbd b00b 5b3d 1430 263e ab70 69bd
00000020: 043d 693d e374 5fbd c0a0 a83d 4c2e 843d
00000030: 7118 34be 72d0 743b 2192 a53d c623 203e
-0.068629034 -0.13711594 0.12649564 0.08583844 -0.03896347 0.053477943 0.16229278 -0.056992214
0.056942955 -0.05455483 0.08233786 0.06454143 -0.17587449 0.0037355688 0.080845125 0.15638646

model.decoder.blocks.2.layer.weight f4 [1, 16, 3, 3]
00000000: 743f ddbd b7e1 ecbb 59aa 1f3d bd52 3ebd
00000010: 9e22 9ebb d8dd a43d 83b5 b6bd cb07 c63b
00000020: c9ee a63d 4b6c 363d 829e fbbd fd26 b2bd
00000030: 1908 a9bd 0884 98bc 584e d6bc 6214 98bd
00000040: 9eec babd 9ce7 5ebd ee1c a73d 1234 113e
00000050: 2408 24bd 9273 133d 8334 253e 765e 993d
00000060: 217e 65bc 0457 2d3d 72f4 21bd c1ec ac3d
00000070: 888a b33d ec34 5e3d 9495 dbbc 212b 373c
00000080: d040 38bd d661 d5bd 911e 70bd 0ab8 06bd
00000090: a8f1 8dbd 9d18 c5bd 95b9 3d3d 4d3c a4bc
000000a0: 6488 35bd 5d70 df3c ce47 e2bd fab1 833b
000000b0: edd1 c6bc fc97 f9bc 07f5 983d b1c8 59bd
000000c0: 0ea0 a43d 21a6 b73c d2e0 4f3c 1d0d d03d
000000d0: 1d53 f33d 7130 8a3c 0f0a d83d bb17 1b3d
000000e0: 1cd5 aebc 91ef 223d d131 e33d 67d0 1b3c
000000f0: 21e2 393c 73ae f33d 57b5 b0bb 0a38 363d
00000100: b3de 77bd 3801 86bd 27fa 91bd 2033 8fbd
00000110: 535f dbbd 8140 42bd 8a10 8abd 1eae 62bd
00000120: 79bf ef3d 2b47 a7bc 861e b23c 8209 993d
00000130: 12b6 a43c c4c9 673d 33a5 b33b 36a3 813d
00000140: 9bee 713d b62c 3f3d e6ac aabd d623 dabd
00000150: c005 913c 85ec 123d 94b1 0abd b9c4 993d
00000160: e371 f93c ba05 a1bd 23ef c0bc d0d2 e03d
00000170: 4c7a 38bd c19d 87bc 48a0 553d 0749 353d
00000180: 256a 43bd cf88 debc 866f 6a3d 2931 a33d
00000190: 488a 2c3d edfd 4bbd deef b63d 9039 f23c
000001a0: c9d7 273c 7e21 813d 3285 2bbd 2ce4 16bd
000001b0: 7a10 02bb bd33 4dbd c123 223d 408d debd
000001c0: 609a 7fbd 43a4 cbbd e224 3abd 6da4 c9bd
000001d0: 7cbe 26bd 82bb 4ebd 2dd7 993d 67fc 093d
000001e0: 0494 34bd 9ac8 85bd ff3c 7fbb 46a0 7f3d
000001f0: 4db6 943c 4eed 423d 740d 49bd f502 f33d
00000200: a598 d63c 8b1c ca3d c4d8 013e cd49 bb3d
00000210: 7ebc f13b 068c 443c 133c cc3d cee8 b53d
00000220: b80e af3d 644e 3fbd 3f8a 963d 658e 733d
00000230: 9adb 05bd e34c 463d f233 5f3d 31e3 953d
-0.10803118 -0.0072290557 0.038980816 -0.046465624 -0.004825904 0.08050126 -0.08921339 0.0060434095
0.081510134 0.04453687 -0.12286092 -0.08698843 -0.08253498 -0.018617645 -0.026160404 -0.07425763
-0.091271624 -0.0544201 0.08159815 0.1418002 -0.040046826 0.03599889 0.16133313 0.0748872
-0.014007122 0.042319313 -0.03953976 0.08443595 0.08766657 0.05424969 -0.026804723 0.011179716
-0.044983685 -0.10419051 -0.0586229 -0.032890357 -0.06930858 -0.09623835 0.046319563 -0.020048285
-0.044319525 0.027275259 -0.11048852 0.004019019 -0.024270022 -0.03046798 0.0746861 -0.05316991
0.080383405 0.022418084 0.012687879 0.10158751 0.11881087 0.016868802 0.105487935 0.037864428
-0.021341853 0.03977925 0.11093486 0.009510136 0.011345417 0.11898508 -0.005392711 0.044487037
-0.060515117 -0.06543201 -0.07127791 -0.06992173 -0.10711541 -0.047424797 -0.06741436 -0.055341832
0.117064424 -0.020419678 0.02174307 0.074725166 0.02010635 0.056588903 0.0054823398 0.06329958
0.059065443 0.0466735 -0.08333759 -0.106513664 0.017702937 0.035870094 -0.033860758 0.07508225
0.030449813 -0.078624204 -0.02355153 0.10977709 -0.045038506 -0.016554715 0.05215481 0.044259097
-0.04770865 -0.027164845 0.057235263 0.07968361 0.042124063 -0.04980271 0.0893247 0.029568464
0.010244318 0.06305216 -0.04187507 -0.036838695 -0.0019846247 -0.05009817 0.03958488 -0.10866785
-0.062403083 -0.0994344 -0.04544533 -0.09845815 -0.040709004 -0.05047179 0.07511745 0.033687975
-0.04408647 -0.06532402 -0.0038946269 0.062408708 0.018153334 0.047589593 -0.049085096 0.118657984
0.026195833 0.098687254 0.12680346 0.09144936 0.0073772063 0.011996275 0.09972396 0.088822946
0.08547729 -0.04670562 0.07350587 0.05946197 -0.03268013 0.04841317 0.0544929 0.07318724
