03_Workshops/08_Transformer_Graph_Intro/models/ZINC-GCN-model74-val_loss0.52.ckpt (torch, 252023 bytes, 36 tensors)

model.node_embedding.weight f4 [28, 64]
000000 68 36 4c bf 76 8a 68 be 7b 66 c6 3b aa b1 06 bf
       -0.7977052 -0.22709069 0.006054697 -0.52614844
000010 5b 02 b8 bf c7 c0 47 bf ba dc 54 be 54 f2 25 3e
       -1.4375719 -0.7802853 -0.20787326 0.16205722
000020 5f 5e 72 bc ab 5d 98 3e e3 39 21 3f 1f f4 44 bf
       -0.014793008 0.29758963 0.62978953 -0.76935
000030 2e 27 a5 bd 0f a4 15 be 08 a4 24 bf 50 58 8e bf
       -0.080641136 -0.14613365 -0.6431279 -1.1120701
000040 32 01 5c 3d 08 95 5f 3f 15 f6 df be d6 da 3d 3e
       0.053712077 0.8733678 -0.43742433 0.1854051
000050 f8 11 72 3e 6d a7 be be 93 e1 40 3f c3 e7 e5 be
       0.23639667 -0.3723711 0.753442 -0.44903383
000060 02 09 a5 bd 51 c1 87 3e d5 fc a0 3d c8 e7 e6 bf
       -0.08058359 0.26514676 0.07860724 -1.8039484
000070 b4 b6 d7 3f 6e 68 c0 be eb b4 13 3f 39 c6 05 c0
       1.6852632 -0.37579674 0.57697934 -2.0902236
000080 09 34 fc 3f 42 aa 67 be 30 d4 1c bf 36 6f bb 3e
       1.970338 -0.22623542 -0.6126127 0.36608285
000090 18 cb 58 3f 0e 85 ed bf 94 21 54 3e ae 1b 4a bf
       0.84684896 -1.855623 0.20715934 -0.78948486
0000a0 00 5e 04 3e f3 4b a4 3e 4f 59 41 be 0d 3b 5e 3f
       0.12926483 0.32089195 -0.18881725 0.86808854
0000b0 a6 bb 44 3b 11 34 9d bd 00 c8 ef bd e8 da 96 bf
       0.0030019074 -0.076759465 -0.11708069 -1.1785555
0000c0 79 e8 22 3f a7 67 09 3f 70 72 0d bd 0e 83 15 40
       0.63635975 0.53673786 -0.034532964 2.336124
0000d0 08 59 54 be 7d 0e 04 bf 4c 90 6b 3e e3 29 70 be
       -0.20737088 -0.5158461 0.23004264 -0.23453479
0000e0 b6 6e 29 3f ea ac e8 3f ca 46 ae bf 96 27 25 3f
       0.66184556 1.8177769 -1.3615353 0.6451353
0000f0 61 6b 46 be f3 24 4f 3f 25 62 02 3e e4 f5 09 bf
       -0.193769 0.80915755 0.12732752 -0.53890824
000100 5a c6 df 3e 0c bb e2 3f b8 94 58 3f b3 0e f4 3f
       0.43706018 1.7713332 0.84601927 1.9066986
000110 2c 48 82 bf a7 22 80 be 93 49 2e be 24 ea 61 bf
       -1.0178275 -0.25026438 -0.17020254 -0.88247895
000120 14 6e aa 3f 0f 49 9b bf 03 82 bc 3e bd 03 95 bf
       1.3314843 -1.2131671 0.3681794 -1.1641766
000130 8c a3 df bd e2 d0 6c bf 1d 52 bc bf 36 c2 8d 3e
       -0.10919866 -0.9250623 -1.4712559 0.27687234
000140 62 3d 85 be 63 8a 0b 3e d1 91 5c be 1c 43 46 bf
       -0.26023394 0.13627009 -0.2154 -0.7744615
000150 73 9b ca 3e d8 06 fb 3e a3 60 99 3f d2 42 19 bf
       0.39571723 0.4902866 1.1982616 -0.59867585
000160 e5 f6 48 be 53 3c ce be fc 0c 41 bf ea f3 04 be
       -0.19625433 -0.402804 -0.7541044 -0.12983671
000170 a5 c6 d1 bf 8d d4 0c 3f 73 79 43 3f f3 94 8c 3f
       -1.6388747 0.55011827 0.7635719 1.0982956
000180 46 ed 83 be 6f 17 9d 3f ee 80 81 3f 1d 51 e1 3f
       -0.25766963 1.2272776 1.0117471 1.7602879
000190 12 32 58 3e 4e b9 6a 3f 21 55 52 40 9f 3b d8 3e
       0.2111285 0.91689 3.2864459 0.42232987
0001a0 fb 8b 48 bb 3e bb 2c 40 da b7 d3 3f e3 42 e0 be
       -0.0030601013 2.6989284 1.6540482 -0.4380103
0001b0 bd 67 3c 40 3d b3 b7 3f 24 22 e1 bd 63 5f 2e bf
       2.9438317 1.4351574 -0.1099284 -0.681143
0001c0 9d b7 07 bf 2b 67 9e bf 9f 53 5e be 30 da 8f be
       -0.53014547 -1.2375234 -0.21711586 -0.2809615
0001d0 b9 25 9b bf 10 b5 85 bf 27 b3 89 3e 22 a8 6c be
       -1.2120887 -1.0445881 0.26894495 -0.23111013
0001e0 09 c8 bb 3f a4 ef 8d 3e 2d 79 58 40 8d 82 d0 3f
       1.4670421 0.27721894 3.382396 1.6289841
0001f0 c4 7c 15 3c 87 d2 03 c0 6b b7 80 bf 8e 30 bb 3f
       0.009123985 -2.0597246 -1.0055975 1.4624193
000200 e9 8a d0 bf 67 da 96 bf 19 c4 1b 3e 71 30 62 bf
       -1.6292392 -1.1785401 0.15211524 -0.88355166
000210 1c 94 df 3f bf 5f 55 bf f4 0a 00 3f d8 e1 e8 bf
       1.7467074 -0.8334922 0.50016713 -1.8193922
000220 27 5a ee be 1a 2c 4f 3d 1e ed 25 3f 3a 6e ad 3e
       -0.46553156 0.050579168 0.6481494 0.3387316
000230 5f 41 ea be 28 42 03 c0 d2 c9 35 be b9 e8 d7 bf
       -0.45753 -2.0509129 -0.1775277 -1.6867896
000240 98 bf 8c 3f 84 69 65 bf 29 f7 e4 3f 21 97 8b bf
       1.099597 -0.8961413 1.7887927 -1.0905496
000250 dc e8 8e bf 46 dc 1f 3a d2 9a a3 bf f9 13 c5 3f
       -1.1164813 0.0006098192 -1.2781622 1.539672
000260 49 68 44 3d 55 01 ce bd cd a3 4a bf 24 26 f4 3f
       0.047951017 -0.10058848 -0.7915619 1.907414
000270 32 8e ba bf 36 d8 99 bf 0b c0 3c bf 1b ef 51 3e
       -1.4574645 -1.2019107 -0.73730534 0.20501368
000280 17 b0 a0 bf 21 8d 80 3f b9 35 00 bf 13 2b ad bf
       -1.2553738 1.0043069 -0.50081974 -1.352877
000290 f7 1b 8f 3f 7d 73 32 bf 21 c9 b2 bf a8 70 13 40
       1.1180409 -0.6970747 -1.396763 2.303751
0002a0 f8 dc 48 3f 09 72 84 bd d3 07 c4 bf e7 8b d0 3d
       0.7846217 -0.06467063 -1.5314888 0.10182934
0002b0 4f 2b 23 3f e8 4e e7 3f be e0 6c be fa e7 eb 3e
       0.6373796 1.8070955 -0.23132607 0.46075422
0002c0 0f 8a d2 3f 5c 4b a1 3f c4 40 0a 3e 58 37 01 40
       1.6448382 1.2601123 0.13501269 2.019003
0002d0 2c ea 0b 3e c9 41 09 40 7c 6a 81 3d 64 ba 9b bf
       0.13663548 2.1446402 0.063191384 -1.2166257
0002e0 3b 95 4d 3e 3c 24 0b c0 1d 2b 28 bf c3 0b 18 be
       0.20076458 -2.1740866 -0.65690786 -0.14848237
0002f0 8f b2 4a bf cb 2d 9b bf c6 49 4b bf 94 fc 49 3f
       -0.7917871 -1.212335 -0.79409444 0.7890103
000300 1e d2 2f bf da 89 d7 bf 95 fe 46 3b 5a de 10 c0
       -0.6867999 -1.6838944 0.0030364145 -2.2635713
000310 a2 fd 18 bf bf d5 9b 3f 96 c0 bd 3d 9d a3 2f bf
       -0.5976201 1.2174605 0.092652485 -0.6860903
000320 22 32 43 bf bb ad f7 3e c9 34 26 bf cb ee 9e bd
       -0.7624837 0.48374733 -0.64924294 -0.0776039
000330 58 90 d3 be e7 2e b8 3f fa 7a e9 3e 45 79 17 3f
       -0.41321063 1.4389313 0.45601636 0.5916942
000340 60 1b 02 be b0 bd ea 3f 61 02 6f 3f a7 01 e9 be
       -0.12705755 1.8339138 0.93363005 -0.45509073
000350 f4 d2 29 bf c4 4d 9f 3f ec 5b 09 40 a9 29 b8 3d
       -0.66337514 1.2445607 2.1462355 0.08992321
000360 2f c1 68 bf 5a 2b 08 3f 11 3f 71 3f 65 a8 46 bf
       -0.90919775 0.5319115 0.94236857 -0.776007
000370 97 e5 74 bf 95 c6 a6 3f af fd 6e 3f a0 4e 05 be
       -0.95662826 1.3029352 0.9335584 -0.13018274
000380 7e d2 f1 be 1e 81 6f 3f 37 76 c1 bf 07 a8 db bf
       -0.47230905 0.9355639 -1.5114201 -1.7160653
000390 85 08 82 3e 58 14 74 bf 91 93 26 be 32 70 2a 3f
       0.25397125 -0.9534354 -0.1626723 0.66577446
0003a0 64 d2 dd 3e 5f 41 91 bf 86 5a 56 be 9b c9 c5 3f
       0.43324578 -1.1348075 -0.2093297 1.545215
0003b0 a4 f2 88 3f 9e df ff 3e 50 f0 d6 3f f0 34 20 bf
       1.0699048 0.49975294 1.6792088 -0.62580776
0003c0 5c 8f 7f bf f0 f6 3a be 25 ef 92 be 6e 59 0b be
       -0.99828124 -0.18258262 -0.28698078 -0.13608333
0003d0 e5 59 c3 3d 45 d7 8c be 53 19 bc 3e dc 43 90 3f
       0.095386304 -0.27507988 0.3673807 1.1270709
0003e0 87 11 1e 3e 49 31 e2 bf 66 41 0d 3f 24 ad a9 bf
       0.15436374 -1.7671291 0.55177915 -1.3255963
0003f0 a9 7b c0 bf 20 7e 0b bf cd e7 ac bf c6 ca fe bf
       -1.5037738 -0.54489326 -1.350824 -1.9905632

model.blocks.0.Transform.weight f4 [64, 64]
000000 e7 b2 40 3b f9 c3 db bd 44 14 4a 3f fe e6 f6 3e
       0.002940351 -0.10730738 0.7893717 0.48223108
000010 47 71 58 3e 76 b7 0f 3e e7 ef 64 3f 78 44 67 be
       0.21136962 0.14034829 0.8942856 -0.22584713
000020 51 c2 bf 3d ab 6d f1 bc 7d 32 af bd 8a eb af 3e
       0.09363235 -0.02947124 -0.08554552 0.3435939
000030 bc ff f0 be 86 f4 8f be 51 a9 82 3e d3 15 6f bd
       -0.4707011 -0.28116244 0.25519803 -0.058370423
000040 a8 52 98 be f8 e7 81 be 06 1a 76 3e 0b 90 ef be
       -0.29750562 -0.2537229 0.24033365 -0.46789584
000050 8c f7 c7 bc 32 39 76 3d 20 d8 7c 3d ee b4 21 be
       -0.024410032 0.06011314 0.06172955 -0.15791675
000060 27 75 c5 be 25 6c c8 bf bc c4 97 bd a1 af 88 3e
       -0.38565943 -1.5658003 -0.07410571 0.26696494
000070 29 c0 1f bf 77 a0 08 3e 28 34 e7 be 2e 85 d3 3e
       -0.6240259 0.13342462 -0.4515698 0.41312546
000080 6f a6 9f bf 71 77 23 be 40 26 40 3e af 14 b6 3c
       -1.2472667 -0.15963532 0.18764591 0.02222666
000090 d8 c4 54 be eb 8d a7 3e 16 f8 bb 3a f1 2a a7 3e
       -0.20778215 0.32725462 0.0014340903 0.3264995
0000a0 a5 91 17 bd c5 30 5c 3e 00 3a 57 3e 84 fc 2d bf
       -0.03700413 0.21502979 0.21018219 -0.67963433
0000b0 c2 f3 e1 bc da 00 08 3e 9e 3a 2b bf 0b eb af 3e
       -0.027582053 0.13281575 -0.6688632 0.3435901
0000c0 07 ec a3 3c 6d b8 01 be b8 d4 5e 3f a9 ce 55 be
       0.020010008 -0.12668009 0.87043333 -0.20879616
0000d0 3a 68 22 3e 91 75 76 3e 0e dc b9 3d 44 60 48 be
       0.15860072 0.24068286 0.09075175 -0.19567972
0000e0 18 6b 67 3c dd e3 ab be 0a 49 75 3e d2 51 8f 3c
       0.014124654 -0.33572283 0.23953643 0.01749507
0000f0 a4 a4 ac be d0 31 ff be 3a 7e 06 be 35 99 b5 3e
       -0.3371936 -0.4984269 -0.13134089 0.3546845
000100 a2 72 0f 3e 39 32 67 be 7e 40 66 3e 82 27 a1 bc
       0.14008573 -0.22577752 0.2248554 -0.01967216
000110 d2 fd f5 bc 0c ad ad 3d fd 43 16 3e c4 7a 25 3e
       -0.030028258 0.08480272 0.14674373 0.16160113
000120 e3 b6 0d be 8d cc 74 3e 91 1d b6 3d fe 3a 00 bd
       -0.13839297 0.23906155 0.08892358 -0.03130626
000130 3d ae dc 3d a0 5b 89 3c 4d f6 40 3d bd 1f 42 3d
       0.10775421 0.016767323 0.04710989 0.04739355
000140 5f 3a 5e be a0 7d 5a 3d 01 f5 26 be c4 0e 89 3d
       -0.21701954 0.05334246 -0.16304399 0.066922694
000150 e3 27 82 3e 28 50 9d bd c4 c3 26 3e bc dd a7 bd
       0.25421056 -0.07681304 0.16285616 -0.08196589
000160 b8 6d 21 bb 99 f5 35 be 53 0b ef 3e aa f1 29 bd
       -0.0024632048 -0.1776947 0.46688327 -0.041490234
000170 31 c8 8f 3d 43 10 bd bd e5 81 87 bd c9 e3 e8 bc
       0.07020605 -0.09231617 -0.06616572 -0.028428929
000180 50 f2 cb 3d f1 f6 8a be 59 10 ec bb c4 2f c5 bd
       0.09958327 -0.27141526 -0.007204097 -0.09628251
000190 f8 2a 7f 3d 35 4c 18 be 8b c4 89 be e4 eb 61 bd
       0.062296838 -0.1487282 -0.26907763 -0.055156603
0001a0 ed 9d 30 3c b9 a9 53 3c 4c f2 e8 bb a8 86 a6 3b
       0.01077984 0.012918883 -0.007108962 0.0050819702
0001b0 0d 46 ba be fa 56 bc be bf 0e 8b 3a aa ff e5 bd
       -0.3638157 -0.36785108 0.0010609253 -0.11230405
0001c0 e3 d1 f6 bd 02 6f a0 bd 65 cd 5f 3e 4c f5 b8 3c
       -0.120517515 -0.07833673 0.21855696 0.022577904
0001d0 1c d5 fb bd d7 5e ce bd d8 f6 21 3d 7b 10 ac bd
       -0.12296507 -0.10076683 0.03954205 -0.08401581
0001e0 96 1d 55 3d fb 8d fd 3a c4 ce ce bd 03 01 d2 bd
       0.05203017 0.0019344682 -0.10098031 -0.10254099
0001f0 87 09 71 bd 49 55 26 3e 29 fb 74 3e 7c 37 37 be
       -0.058846977 0.16243471 0.23923935 -0.1789226
000200 03 6b d1 bc c9 cb c3 3e d2 ef 96 be 21 54 4b be
       -0.025563722 0.38241413 -0.29479843 -0.19856311
000210 4c d4 15 3e 41 d2 2b 3e 91 c6 c7 bd dd 3e 04 bb
       0.14631766 0.16779424 -0.097546704 -0.002017907
000220 03 ec 51 3e bd dc 2b bd 80 ae 1c 3c 21 ab b0 3c
       0.20500188 -0.04195856 0.009563088 0.021565976
000230 08 cd 98 3e ba a3 5e 3e 7e 0f b0 3c c4 9e 52 bd
       0.29843926 0.21742144 0.021491762 -0.051420942
000240 2e 9b 9e 3e 65 f0 bf bd 32 ec b9 bc ba 7a 1e 3c
       0.30977768 -0.093720235 -0.022695635 0.009672815
000250 a2 f9 d8 bd 6e 4a c0 3e 1a 84 a2 bd de 5b f8 3d
       -0.10594489 0.37556785 -0.079353526 0.12126897
000260 7f 17 d3 bb 17 22 80 3e 78 10 1c bd 0d e2 65 3d
       -0.00644201 0.25026008 -0.038101643 0.056123782
000270 2d 32 20 3e 36 58 69 be db ea f2 3c fc 1d c3 3c
       0.1564414 -0.22787556 0.029653003 0.023818009
000280 f7 e2 fd 3d 37 c6 32 3e f0 4b af bc 8e 2f 07 be
       0.12396806 0.17458425 -0.021398515 -0.13201734
000290 4b 6b 43 bd fe e8 da 3c 1e f8 94 bd c1 bb de bb
       -0.047709744 0.026722427 -0.07273887 -0.0067972844
0002a0 4b 7d d1 bc 27 ae e3 bd 9c 84 6b be 82 e9 64 3d
       -0.02557244 -0.11117201 -0.22999805 0.055886753
0002b0 5b c5 07 3e 3d 5d 58 be ce 67 d6 3e 70 ac eb bc
       0.13258879 -0.21129318 0.41876072 -0.028768748
0002c0 b1 da 67 bc 88 6d 86 3a 32 57 04 be f8 b9 ff bd
       -0.014151261 0.0010256032 -0.12923887 -0.124866426
0002d0 d9 85 77 be 08 1e 73 bd 85 51 ba 3c 95 31 ef bc
       -0.24172153 -0.059354812 0.02274395 -0.029198447
0002e0 1d 22 5d be fe ea 06 3d b4 e3 2c be 2e 42 38 3d
       -0.21595044 0.03293895 -0.16883737 0.04498499
0002f0 40 15 a9 3e 22 c6 15 3e 9c 58 df 3d ff 8e d9 3d
       0.33024025 0.14626363 0.10905573 0.106229775
000300 12 b1 60 be 08 19 a8 be 7a e7 9d 3e 3c 13 25 be
       -0.21942547 -0.32831597 0.30840665 -0.16120619
000310 82 27 01 3d a9 00 09 3d 79 30 f1 3d 87 f4 e9 bc
       0.03153182 0.033447895 0.117768236 -0.028558983
000320 23 38 ac be 07 43 5d 3e 70 32 55 3d 08 b1 82 3d
       -0.3363658 0.216076 0.052050054 0.06381422
000330 1b 36 77 be 96 5a 45 be 20 f7 09 be f6 37 35 be
       -0.24141733 -0.19272837 -0.13473177 -0.17697129
000340 d2 c2 ff 3d b8 07 83 be ab 9e 26 3e 99 07 1c be
       0.12488331 -0.25591826 0.16271465 -0.15237273
000350 74 0c ae be 4b f0 bd be ba 0a ad 3d 9b d7 53 3e
       -0.33993876 -0.3709739 0.084493116 0.20687716
000360 fc 0b 13 3f 0f 5d 8a 3d 50 b6 91 bd 26 a7 0b 3e
       0.5744016 0.06756031 -0.071148515 0.13637981
000370 72 a7 b7 bd f8 e7 39 3c 5e 39 57 be 07 0e 5b 3d
       -0.089674845 0.01134681 -0.21017978 0.053480174
000380 f5 4f 18 3d 43 e5 f2 bd 13 5e a2 3c d1 c5 13 be
       0.037185628 -0.118601345 0.019820249 -0.1443093
000390 a6 b4 02 3d 70 ce a1 bd d2 7a 7b be c6 e9 f8 bb
       0.03191056 -0.07900703 -0.24558571 -0.0075962273
0003a0 99 cb 95 3c 98 98 14 bd 75 dc 14 be ec ef 45 bd
       0.01828556 -0.036278337 -0.14537223 -0.04832451
0003b0 f8 eb 09 3e 1c 4d 52 3e 82 fe 8a be 67 f6 84 3d
       0.13468921 0.20537227 -0.271473 0.0649231
0003c0 52 77 60 3e d4 c7 20 3e b1 14 ee bd b5 e0 ae 3d
       0.21920517 0.15701228 -0.1162504 0.08538953
0003d0 58 42 12 3e f9 82 32 3e 24 49 cc 3d cc 2f fe 3c
       0.1428312 0.17432775 0.09974888 0.03102865
0003e0 24 d1 d5 3a 7e 8b d6 bd 70 42 6a be a7 ce a2 bd
       0.0016312939 -0.10475825 -0.22876906 -0.07949572
0003f0 4d ef 51 be c7 21 b8 bd f8 81 c6 3d f5 25 af 3e
       -0.20501442 -0.089908175 0.09692758 0.34208646

model.blocks.0.Transform.bias f4 [64]
000000 2f 58 9a be ce 01 8b 3d 9d 8c da 3c 7e 08 87 3d
       -0.30145404 0.067874536 0.026678378 0.06593417
000010 8b 87 2b 3e 53 38 1a be 29 d1 15 3d 34 ad 29 3e
       0.16750924 -0.15060548 0.036576424 0.16569978
000020 fb 5c 47 3c 34 b4 47 3e 2a d4 2a bd ed cd 3c 3d
       0.012168164 0.19502336 -0.04170624 0.046094824
000030 ce 34 0f be 58 9c ba bd b2 3a 35 be de 1d 14 be
       -0.13984987 -0.091118515 -0.17698172 -0.14464518
000040 53 55 dd bd 9d 95 a0 bd a1 e2 67 3d fb dc 0c 3d
       -0.1080729 -0.078410365 0.056612615 0.03439043
000050 96 f4 98 3d 6b 08 89 3c aa c2 dd 3d b6 4a 16 bb
       0.07468526 0.016727647 0.10828145 -0.0022932715
000060 83 4c 69 3b 15 ca e6 bd 88 17 cc bd d8 a9 12 3d
       0.0035598583 -0.11269013 -0.09965426 0.035806507
000070 54 6f 80 3d 77 6e 2b 3e 83 19 d3 bd af bc 3e 3e
       0.06271234 0.16741358 -0.103076 0.18626665
000080 d6 2c 4d bc e8 84 b1 3d 51 f8 b9 bd aa 18 dc 3d
       -0.012522897 0.08667928 -0.09080566 0.10746892
000090 79 dd 5d be 99 2b 2c 3c 7c e0 23 bb d4 55 b5 3d
       -0.21666516 0.010508441 -0.002500563 0.08854261
0000a0 54 62 93 bc 76 81 da bd be 13 a1 3d 52 75 0a be
       -0.017991222 -0.10669224 0.07865094 -0.13521317
0000b0 76 ab 1a bd d6 07 e8 bd 6b a0 8b 3d 82 bb e0 3d
       -0.037761174 -0.113296196 0.06817707 0.10973264
0000c0 eb 07 b5 3d 29 09 29 be eb 25 67 bc fa 0b 22 bd
       0.08839401 -0.165074 -0.014108161 -0.039562203
0000d0 31 f2 71 bd e7 a2 c2 3d 2a a5 8a bd 35 89 c4 bd
       -0.059068862 0.095037274 -0.06769784 -0.09596483
0000e0 ee 48 b0 3b 37 a6 d5 bd 94 6e 9a 3d 88 83 92 bd
       0.0053797876 -0.104320936 0.07540622 -0.07153994
0000f0 a7 3c 37 bc e5 12 28 be fe ef 22 bd 2a ec 61 bd
       -0.011183894 -0.16413458 -0.039779656 -0.055156864

model.blocks.1.Transform.weight f4 [64, 64]
000000 e6 87 f3 bb d3 67 32 3d 69 2e 9d be 6f 56 d6 3c
       -0.007431972 0.043556046 -0.3069947 0.026164262
000010 72 4f 26 be 00 33 76 3d ff d6 4c bf a6 2b 15 3d
       -0.16241243 0.06010723 -0.8001556 0.03641858
000020 36 57 8b 3d aa 97 6e 3e ea e2 28 3d 4d a0 be 3d
       0.068037435 0.23300043 0.041232027 0.09307919
000030 ff a2 92 be bf 5f 53 bd 6c a0 1a bf ec af f2 bd
       -0.2863998 -0.051604982 -0.60401034 -0.11849961
000040 75 e3 f0 bd 3c 7d cd ba 14 92 0f be d2 b9 1a 3d
       -0.11762134 -0.0015677582 -0.14020568 0.03777487
000050 3a 1f 28 3d bd ad 29 be 02 40 d2 bd 35 63 8d 3d
       0.041045405 -0.16570182 -0.10266115 0.06903688
000060 c3 ee ae 3d 56 09 fa 3b f2 58 04 bd c3 3f d9 3d
       0.08541634 0.0076305075 -0.032311387 0.10607865
000070 3d 98 4b 3d 4e 38 3c be 45 52 4e 3d d3 50 d8 be
       0.049705733 -0.18380854 0.050371427 -0.42249164
000080 b0 fc 4c 3e 94 db e1 3d 71 4e e5 be 43 2e 2a 3e
       0.20018268 0.11028209 -0.4478641 0.1661921
000090 1e 13 49 bf 8c 9a fa 3c a3 6c 20 3d 06 59 c0 be
       -0.78544796 0.030591272 0.039166104 -0.3756792
0000a0 01 00 94 3e ca 77 8d 3c fe d8 fc 3d 1e fa 1d 3d
       0.28906253 0.017269034 0.123460755 0.03856861
0000b0 5b e9 45 be be e7 a1 3d 40 68 e8 bd 2f 79 84 3c
       -0.193273 0.079055294 -0.11348009 0.016171066
0000c0 b8 15 20 be 42 1e ed bd 4c 7c 9e 3b 7d 77 ee 3d
       -0.15633285 -0.11578037 0.0048365947 0.11643884
0000d0 d3 cc b4 bb 7e d2 28 3e cd 1c d9 3d 12 71 4a 3d
       -0.005517581 0.16486546 0.106011964 0.04942424
0000e0 20 f3 03 3d bd 02 de be 78 8b 89 3d 7b c0 1a be
       0.032214284 -0.43361464 0.06716055 -0.15112488
0000f0 bf b1 82 bd 2b f5 f9 be e6 51 f7 bd fb 17 b7 3d
       -0.063815586 -0.4881986 -0.12076168 0.08940121
000100 6a 9c 43 3e d9 17 10 be 7e ea aa 3c 25 56 8a 3d
       0.19102636 -0.14071597 0.020863768 0.06754712
000110 ae e0 61 3e d1 b5 09 be 53 4f 71 3e e1 fe f2 3d
       0.22058365 -0.13448264 0.23565416 0.118650205
000120 68 43 da bd cc 54 a5 3e 11 fb 38 bd f0 4e 3a 3e
       -0.10657388 0.32291257 -0.04516131 0.18194175
000130 c2 74 58 bd ea 6d 09 bd 44 23 0d be 0c bb 57 be
       -0.052845724 -0.033552088 -0.13782984 -0.21067446
000140 95 ec 7a bc 0c 59 b5 3d 0e 7c 8a 3d cd 2e 99 3d
       -0.015315195 0.08854875 0.06761943 0.0747963
000150 8a a1 d3 3d 43 88 43 be 66 7c d1 3d 2c 59 12 3e
       0.103335455 -0.19094948 0.10228805 0.14291829
000160 b4 18 a8 be 1a 96 d7 bd c3 a0 7f be ba c8 02 3e
       -0.32831347 -0.105266765 -0.2496367 0.12771884
000170 3f ec 46 be 66 cf 97 3d 0f 79 be bd cc 5a 1f 3e
       -0.19426058 0.07412605 -0.09300434 0.1556198
000180 e6 a2 96 3d f2 ce 14 3e 52 e9 50 3e e5 16 60 3e
       0.07355289 0.14532068 0.20401505 0.21883734
000190 18 b7 66 3f d1 00 bb 3c bb a5 9f 3c 8a 7b 4f be
       0.9012313 0.022827538 0.019488206 -0.2026197
0001a0 20 5e 46 bc 3f b6 c8 bd a2 ae 01 3e ab 87 2b 3e
       -0.012107402 -0.09800386 0.12664273 0.16750972
0001b0 44 dd a5 bd b8 f7 2e 3e 8d d6 be 3d db 87 0f bd
       -0.08098844 0.17086685 0.09318266 -0.03504167
0001c0 eb a9 13 3e d9 37 9f bc f2 6a 5d 3e af b4 49 be
       0.14420287 -0.01943581 0.21622828 -0.19697832
0001d0 0e 49 4d 3d 20 1d 22 be 72 ff 23 3a 6e b5 3c 3c
       0.0501185 -0.15831423 0.0006256021 0.011517866
0001e0 51 c8 d9 3d 82 ca 06 bf bb c7 10 be 59 40 ea bd
       0.106339104 -0.5265275 -0.14138691 -0.114380546
0001f0 b4 bc 7b 3e 50 01 42 be 1f fe 47 3e 9b 58 fd bd
       0.24583703 -0.18945813 0.19530533 -0.12370416
000200 2a 1f 8b bf f0 eb 83 3c f2 ad 1b be 63 30 29 3e
       -1.0868886 0.016103715 -0.15203074 0.16522364
000210 74 b0 bd 3d 1b fd e3 bd e6 f3 31 bf 6e 93 fb be
       0.092621714 -0.111322604 -0.69512784 -0.49135917
000220 c3 7b 86 3c 34 55 69 3d b3 40 19 be a9 4a c0 3d
       0.016416436 0.05696602 -0.14966087 0.0938924
000230 6f 93 47 be 0b 6b 84 bc e2 19 36 be 77 b4 ec 3b
       -0.19489835 -0.016164323 -0.17783311 0.0072236615
000240 32 aa 05 be c4 6c 8b be b2 0d a1 bd be a1 69 b9
       -0.13053206 -0.2723142 -0.0786394 -0.00022280865
000250 5a 65 01 be 55 d8 1e 3e b2 2d bf 3d ff 12 8e bf
       -0.12636319 0.15512212 0.093348876 -1.1099547
000260 c0 ab b9 3d 5e 0d 57 3d 45 e2 e8 3d 7c 39 1e be
       0.09065962 0.052502982 0.113712825 -0.15451616
000270 9d c3 a3 3d d9 bf b8 be 6e 93 ef 3c 02 12 eb be
       0.07996295 -0.36083868 0.029245105 -0.45912176
000280 81 44 cc 3d 50 59 15 3e 6f c0 aa be df c0 e7 3c
       0.099740036 0.14584851 -0.3334994 0.02829021
000290 c3 61 c7 be 3c d2 93 3d 59 c7 3a be f3 2f 3b bf
       -0.38941774 0.072178334 -0.18240108 -0.7312004
0002a0 2b 3a 97 be 65 af 95 3d 15 8d 1f 3e 56 b4 1f 3d
       -0.29536566 0.073088445 0.15581162 0.03899034
0002b0 c7 4e 32 be 09 f0 d2 3d 82 b6 8b be 15 7e 97 bc
       -0.17412864 0.10299689 -0.2728768 -0.018492738
0002c0 54 25 31 bf ed 04 5b 3d bd a6 97 bd 8d dd 19 bd
       -0.69197583 0.053471494 -0.0740485 -0.037564803
0002d0 be 92 76 3d de b6 f2 3d 99 d0 fc 3d 7c 5e be bd
       0.060198538 0.118512854 0.12344474 -0.09295365
0002e0 19 15 47 bd 9a de 5e 3e 12 15 26 3c 53 b9 88 3c
       -0.048604105 0.21764603 0.0101368595 0.016689932
0002f0 c1 82 35 bd d8 c1 ee 3e 79 ae 07 3d 69 63 0e be
       -0.04431415 0.46632266 0.033125374 -0.1390511
000300 f6 47 d9 3e 5b 53 f8 bc 4b 26 f6 3d 02 b3 97 be
       0.42437714 -0.030313184 0.120190226 -0.2962876
000310 2b 2b 2a 3e 6e 68 ec 3d 2f 93 aa bc 3b 92 1d 3e
       0.1661803 0.11543356 -0.020822136 0.15387814
000320 23 c1 84 3e 4e 51 12 be 91 53 98 bd 58 98 1f 3e
       0.25928602 -0.14288828 -0.07437814 0.15585458
000330 79 0f 55 be 36 9f 04 be c3 49 5a bd 2c ef 93 3c
       -0.20806684 -0.12951359 -0.053293 0.018058382
000340 13 c9 89 be 62 a0 86 3d 3c 71 7a 3e 7a 84 73 be
       -0.2691122 0.06573559 0.24457258 -0.23781005
000350 f8 68 fc 3c 32 a1 a8 3e 5e f3 29 be 51 20 b5 3e
       0.030811772 0.32935482 -0.16596743 0.35376218
000360 be 8b 6f 3b 86 0a b3 3d 7b 1c 7d 3d 89 9c 73 bf
       0.0036551799 0.087422416 0.06179474 -0.9516073
000370 a6 b9 77 3e 6a 12 d1 be f7 7a 4a 3e 93 13 f4 3d
       0.24191913 -0.4083436 0.1977347 0.11917796
000380 1d 57 a5 bd 07 89 c1 be f0 f1 05 3c 89 6d 68 be
       -0.08073256 -0.37799856 0.008175358 -0.22698034
000390 f4 cc 38 3e ff d3 7a 3d 81 3b 8f 3d a8 90 09 3c
       0.18046933 0.06123733 0.06993771 0.008396305
0003a0 fe f2 e4 bd 24 3c ec 3d 00 fc bd bd bc bc fb 3d
       -0.111791596 0.115349084 -0.09276581 0.122918576
0003b0 22 19 92 3d c6 42 65 be ff d2 62 3e e5 33 05 3d
       0.071337 -0.22388753 0.22150801 0.032520194
0003c0 cc 6a 08 3d 27 96 47 bd 8c 13 b0 be de cc 21 3e
       0.033304974 -0.04872718 -0.34389913 0.15800807
0003d0 f4 96 5a be af 69 61 3e c5 d7 26 be a4 b6 be 3d
       -0.21346647 0.22012971 -0.16293247 0.0931218
0003e0 31 a6 1e bb 73 31 ef 3e ee 2b d4 bd 47 c8 41 39
       -0.0024207945 0.46717414 -0.103599414 0.00018480523
0003f0 13 f9 a6 3c 4f 57 91 3e e4 e6 15 3e 27 bc 85 3d
       0.02038244 0.28386924 0.14638859 0.06530028

model.blocks.1.Transform.bias f4 [64]
000000 55 ed b5 3d d8 22 9e 3d cc 2f 6b 3d 8e e0 a9 bc
       0.08883158 0.0772149 0.05741863 -0.020736959
000010 93 a2 7c 3d 60 a1 08 be 91 fe 29 be a7 b9 4a bd
       0.06167848 -0.1334281 -0.16601016 -0.049493458
000020 b6 28 90 3d aa f6 66 bd fe 40 04 3e 1a 95 19 3e
       0.07039015 -0.05638758 0.12915418 0.14998284
000030 85 3e 62 bc ac 86 aa be c7 c6 8d b9 b2 62 27 3e
       -0.013808851 -0.3330587 -0.00027041716 0.16346243
000040 ba a5 06 bc 79 79 93 bd 11 fd 37 3e af a6 ac bc
       -0.008218223 -0.072009034 0.17967631 -0.021075575
000050 8c 24 d7 bd d3 27 8a 3d 21 15 82 bc d3 ba 9b be
       -0.10505018 0.06745877 -0.015879216 -0.30415973
000060 44 43 ad bd 5b c2 e3 3d bb 32 db bc 86 ca 67 3e
       -0.084600955 0.11121055 -0.026757589 0.2263585
000070 82 8d 00 bd c1 03 17 3e d4 e2 98 3d 17 48 e2 bd
       -0.031384952 0.14747526 0.07465139 -0.11048906
000080 66 16 fa bd 51 11 f9 bd 3e d9 6b 3e 23 33 ba 3d
       -0.122113034 -0.12161506 0.2303209 0.09091785
000090 a1 f3 39 3e bf ad 8d 3d 74 1d cd bd 5b 40 04 3e
       0.18159343 0.06917905 -0.10015383 0.12915175
0000a0 c8 39 28 be 6d 47 e4 3d 97 70 9c 39 2c f4 6d bd
       -0.16428292 0.11146436 0.00029838525 -0.05809419
0000b0 41 de 04 3d 86 c5 31 be c5 9f 7b 3e 00 7f 18 3e
       0.03243852 -0.17360505 0.24572666 0.14892197
0000c0 35 70 28 3d 8b 30 1e 3e e0 c9 1c 3d 3d fb 0d 3e
       0.041122634 0.15448205 0.03827846 0.13865371
0000d0 cb 81 8d bd f0 4d 1c 3c 01 1e dc bc a6 95 0e be
       -0.06909522 0.009540066 -0.026869776 -0.13924274
0000e0 a2 00 2f 3e c8 7b 0e 3d 34 1f 22 3e 45 b3 8e 3d
       0.17090085 0.034786016 0.15832216 0.06967787
0000f0 61 be d4 bd 05 da cb 3c ac f7 3b 3d f1 a0 db 3d
       -0.103878744 0.024884233 0.045890495 0.107240565

model.blocks.2.Transform.weight f4 [64, 64]
000000 5f e7 36 bd 83 1f 8b 3d e3 1b 83 bd f3 57 84 be
       -0.044654246 0.0679312 -0.06401803 -0.2584835
000010 d7 12 c8 3d 54 da 55 bd d0 71 00 3d 8d 36 a1 bd
       0.097692184 -0.052210167 0.03135854 -0.07871733
000020 1f ec 8b 3d 8c 3f 11 3e 8f 3b 12 3c ba 86 9f be
       0.06832146 0.14184397 0.008925333 -0.31157476
000030 71 da a5 3d 80 56 82 bf 15 70 88 bd c9 e2 c1 3c
       0.08098305 -1.0182648 -0.06662003 0.02366771
000040 00 e5 80 3d 20 51 ba be 6a ef a8 be a7 53 24 3e
       0.06293678 -0.36390018 -0.32995158 0.16047536
000050 45 fd 47 bc a2 8e fe 3d 7e 76 c2 3d 32 1c 46 bf
       -0.01220638 0.12429549 0.09495257 -0.7738677
000060 5c ac c2 3d 13 89 3b be fa c6 e4 3d 79 c0 3d 3e
       0.09505531 -0.18314008 0.11170764 0.18530454
000070 0c df 4d 3d dd fd 81 3d 4a b8 d1 be 4d 2f a7 bb
       0.050261542 0.06347249 -0.40960914 -0.0051020742
000080 46 03 28 bf 38 61 b7 bd f3 5c c3 bd 42 74 81 3c
       -0.65629995 -0.0895409 -0.09539213 0.015802506
000090 f8 aa 16 3e 4b 32 e6 bc b8 c1 d5 bc 23 db 3b be
       0.14713657 -0.028100153 -0.026093349 -0.18345313
0000a0 d4 bd 7e bd 00 0d 56 bf 54 0d dc bd 08 cf 7a bd
       -0.062192753 -0.83613586 -0.1074473 -0.061232597
0000b0 38 03 60 3e 8e 02 d3 3c df 3b c4 3d 33 61 cd bd
       0.21876228 0.025758054 0.09581732 -0.10028305
0000c0 fc b6 8e be 96 a5 10 3e 44 f9 fb bc e9 4c a9 be
       -0.2787398 0.14125666 -0.030758508 -0.3306649
0000d0 6b 0a b1 3d 1b 41 94 bd b0 06 11 3a eb f1 cb bc
       0.08644565 -0.072389804 0.00055323076 -0.024895629
0000e0 68 c4 1f 3d ea eb 5f bc cb 21 8b bc 9b c0 59 bc
       0.039005667 -0.013667086 -0.016983887 -0.01329055
0000f0 cd 43 d6 3d d2 aa ff 3d 7c 3d 86 3c 5b b2 66 3b
       0.10462151 0.12483753 0.01638674 0.0035201523
000100 5c bf a4 3d b6 bc f7 3d 42 ae 22 3e dc 0f d5 bd
       0.080443114 0.12096541 0.15886787 -0.104034156
000110 64 bd e4 3d 9b fb 01 3e 7b a8 3c bd 95 ac 45 be
       0.11168936 0.12693636 -0.046059113 -0.19304116
000120 78 1c e9 bd 40 d7 5c 3d 54 c3 14 3e 7d 99 24 3e
       -0.11382383 0.053916216 0.14527637 0.16074176
000130 92 51 b2 bf c2 35 f6 3e ac ec c2 3c ec 2d 5e bd
       -1.3931143 0.4808789 0.023794495 -0.054243013
000140 04 7a 1a 3d 0b cc cb bc 94 f5 5f bd db 26 c3 bd
       0.03771402 -0.024877569 -0.05467756 -0.095288955
000150 4a c6 6b be 1b d5 bf bc 61 b9 8e 3d 28 58 2e 3f
       -0.2302486 -0.023417046 0.06968952 0.68103266
000160 c7 8a 7c bf 0e 8a d4 bd 3a 58 06 bf 9a c0 a1 3d
       -0.9864926 -0.10377894 -0.52478373 0.07898064
000170 6f c5 f6 3d 2e 91 19 be 20 69 05 3e d0 4a ae 3d
       0.12049376 -0.14996788 0.13028383 0.08510363
000180 91 9f 58 bc 87 e8 42 bc cd 64 9a 3c 37 b9 13 3e
       -0.013221637 -0.011896259 0.018846894 0.14426123
000190 df 86 ba 3d ed 34 5c be 9d 27 ae 3d 11 86 91 3d
       0.09107756 -0.21504565 0.085036494 0.07105649
0001a0 bd d1 c4 be 05 6b 9c 3e 92 eb c4 bd 02 9e 61 3b
       -0.38441268 0.305504 -0.09615244 0.0034426455
0001b0 52 80 09 3e d3 d8 1b 3d 52 4b 27 3e 8f 16 88 3d
       0.13427857 0.038048577 0.16337326 0.06644928
0001c0 65 54 3a bd 73 9e 55 3d 9b 9a 84 3d b6 cb 9d 3c
       -0.04549064 0.052153062 0.06474801 0.019262176
0001d0 62 74 5f bd c2 88 fb bd 6f 06 3a 3d 3e 48 a7 bd
       -0.05455435 -0.12281944 0.04541629 -0.08168076
0001e0 2a f7 3c 3e fd 54 8f 3c 72 11 83 bc c7 8e 61 3e
       0.1845366 0.01749658 -0.01599953 0.22027121
0001f0 e4 73 48 bf 80 64 7a 3d 80 06 59 3d ff 75 77 bc
       -0.78301835 0.061131 0.052984715 -0.015103816
000200 63 e6 cc 3d da ff ab bb 85 5a 06 3d 34 29 f6 be
       0.1000488 -0.0052490057 0.03280117 -0.4807831
000210 38 0b c6 bd c6 80 9d 3b ee b4 83 3d f1 2f 42 bf
       -0.096701086 0.0048066108 0.06430994 -0.758544
000220 3c 05 28 be 88 56 4f be 66 66 15 3d 79 ce 7c bd
       -0.16408247 -0.20247853 0.036474608 -0.061720345
000230 ea 89 9d bf 7d 80 fe 3d cf 69 6a bf eb f5 24 3d
       -1.2307713 0.12426851 -0.915677 0.04027359
000240 0f 16 b5 bd 31 af e9 bd 52 ed 0b 3c 62 00 4a be
       -0.08842098 -0.11410368 0.008540468 -0.19726709
000250 3e b0 31 be c6 59 ff be a7 f4 1d bf 9a 37 03 3e
       -0.17352387 -0.4987318 -0.61701435 0.12814179
000260 43 ce a9 bf 6c d9 ab 3c ce 53 01 bf 93 2e ce 3d
       -1.3266071 0.020977698 -0.505185 0.10067477
000270 90 b2 f8 bb 24 75 8b bd 83 9d 3f 3e 33 47 37 3d
       -0.0075896457 -0.06809452 0.1871243 0.044745635
000280 bc ef ae 3d 63 a0 a2 3c 1d 0d 6e 3d 85 36 f7 bd
       0.085418195 0.019851869 0.058117975 -0.12070946
000290 43 7f b1 3c 82 81 af bf c7 59 89 3c 00 d6 69 3d
       0.021667128 -1.3711398 0.016766442 0.057088852
0002a0 54 7a 2d bf bb 28 18 3e 51 a9 dd bd 4e c0 d7 bd
       -0.6776478 0.14859287 -0.1082331 -0.10534726
0002b0 76 83 09 3a 8e 6e d3 bc 28 00 1c 3e 39 9d 05 3e
       0.00052457245 -0.025809553 0.15234435 0.13048257
0002c0 e5 c7 c3 3d e6 b2 d0 3d 8b 52 bf bd 24 33 ec bc
       0.09559611 0.10190372 -0.09341916 -0.02883298
0002d0 9c d3 5a bc f9 ee 72 3d 22 dd f6 bd 53 c4 85 3d
       -0.013356116 0.059309933 -0.120538965 0.065315865
0002e0 6e b1 89 bd 2a 0c 21 3d e0 92 bd bd 1f 91 08 be
       -0.06723295 0.03931824 -0.0925653 -0.1333661
0002f0 62 b7 e1 bf 29 a5 49 3d 19 a0 06 3e 95 b6 24 ba
       -1.7634089 0.049229775 0.1314701 -0.00062833104
000300 71 49 89 3d 97 7a a4 bc 5c 34 49 bc e9 5e fc bc
       0.06703461 -0.020077987 -0.01228055 -0.030806975
000310 06 c7 ce bd 44 b1 e8 bd 90 ec c3 3d 5d 03 11 3d
       -0.100965545 -0.11361936 0.09566605 0.035403598
000320 9d 99 c3 bd 25 dd 55 3c e8 13 16 be c3 28 37 bd
       -0.09550784 0.013053213 -0.14656031 -0.044716608
000330 dc 23 58 bd 2b 47 b5 3d 5b 02 fc ba 26 f0 ec bd
       -0.052768573 0.08851465 -0.0019226776 -0.11569242
000340 51 c9 77 bd ed 89 6b 3d a8 7d 11 3d ae a6 22 be
       -0.060494725 0.057504583 0.035520226 -0.15883896
000350 e3 b4 04 be f5 73 d0 bc 62 76 38 3d 02 d0 e2 bd
       -0.12959628 -0.025445918 0.045034774 -0.110748306
000360 6b 7a a4 bd 58 1d 68 bd f5 7a 33 3d f6 31 b3 3c
       -0.08031162 -0.05666861 0.043818433 0.02187441
000370 70 76 67 bd 34 d2 bb bc cd ba fb bd f8 6d 62 bd
       -0.056509435 -0.022927381 -0.12291489 -0.055280656
000380 9b 99 23 bd c0 a0 c9 bd ec 04 4a bd 45 e1 27 3c
       -0.03994141 -0.09845114 -0.0493211 0.01024658
000390 27 67 c7 bd 1f b5 2f be 6a af 03 3d 3f 6e f1 bd
       -0.097364716 -0.17158936 0.03214971 -0.11788606
0003a0 dd c6 72 3d 74 fe 03 bd ce fc c4 bd ce 25 eb bd
       0.059271682 -0.032225087 -0.09618531 -0.1148182
0003b0 b0 f2 d1 bc 5c 8b 55 3d a4 c1 70 3d 3e 69 b4 bd
       -0.025628418 0.052134857 0.05877842 -0.08809136
0003c0 c0 16 3a bd e0 ed c4 bb 9c f3 d6 3d 67 72 cc bd
       -0.045431852 -0.006009802 0.104956836 -0.09982758
0003d0 2a a2 7e ba 14 f0 80 bd fd a7 d1 bd 80 b0 ed bd
       -0.00097134954 -0.06295791 -0.10237119 -0.1160593
0003e0 d1 d4 6f bd d0 52 65 bd 79 0d d3 bd 57 70 ba 3c
       -0.058552567 -0.05598718 -0.10305304 0.022758646
0003f0 a7 e0 67 3d b3 1b 0c be 00 6c 9b bd a0 89 03 be
       0.05661073 -0.13682441 -0.07588959 -0.12845469

model.blocks.2.Transform.bias f4 [64]
000000 5a 7a 10 3e 31 7c ce 3d 53 fa bd 3d fc 35 2b be
       0.14109173 0.100822814 0.09276261 -0.16719812
000010 cb 5c 77 3e fa 50 ad 3d 14 d0 f7 bd e6 59 bd 3d
       0.24156491 0.08462711 -0.12100235 0.092456624
000020 6f 68 8c 3d 22 c7 2b 3e 50 31 e9 3d b6 c8 6a 3e
       0.068558566 0.16775182 0.11386359 0.22928128
000030 aa 5f 70 3e dd e3 02 3e ec a7 93 3e 91 68 b6 3e
       0.23473993 0.12782235 0.28839052 0.35626653
000040 b4 f3 06 bd 20 39 1c 3d 07 f4 95 3e 58 76 99 bd
       -0.032947257 0.038140416 0.2928774 -0.074932754
000050 5a 4e 9d 3e 6c e6 56 3e 37 2c 23 3e e6 1f 5d 3e
       0.3072384 0.20986336 0.15934835 0.215942
000060 13 a5 b4 bd ee 24 ea 3d 99 bf 6b 3d 76 f8 d0 3e
       -0.08820548 0.11432825 0.05755577 0.4081456
000070 20 98 5b bd 21 aa 20 3e c8 dc 0a 3e ec 6b 5c 3e
       -0.053611875 0.15689899 0.13560784 0.21525544
000080 54 54 9b 3d a3 c4 32 3c f9 bd a5 bd f9 c7 ee bd
       0.07584444 0.01091114 -0.08092875 -0.116592355
000090 30 a8 cb 3e 62 62 f7 bd 74 de be 3c 7f 09 59 3e
       0.39776754 -0.12079312 0.023299433 0.21195029
0000a0 ac b8 1b 3d 1e c0 75 bb 55 e2 1c 3d a2 22 3b 3e
       0.038017914 -0.0037498544 0.038301785 0.1827493
0000b0 f7 f7 54 bd df a8 22 3e 38 3a bc 3c 25 25 30 3d
       -0.05199429 0.15884732 0.02297698 0.043004174
0000c0 88 0a 36 3b 5d 40 84 3e 4d 80 ae 3e 70 86 b3 bc
       0.0027777273 0.25830355 0.3408226 -0.02191469
0000d0 26 2a b0 bd 86 d7 89 3e 42 e1 59 3e 61 03 22 3e
       -0.08601789 0.26922244 0.21277335 0.15821601
0000e0 bc a6 e1 bd cc c4 b5 3c ce d4 ec 3d 4c 18 db bd
       -0.1101813 0.022188567 0.11564027 -0.10697994
0000f0 61 29 dd 3d bf 56 0e 3e bc 91 b4 bd df d0 8c 3e
       0.10798908 0.13900279 -0.08816859 0.27503106

model.blocks.3.Transform.weight f4 [64, 64]
000000 ed 18 07 bf 4d 8e 11 be aa a6 bb be 5f 3a 00 3e
       -0.5277241 -0.1421444 -0.36650592 0.12522267
000010 e2 7a e8 3e 93 e6 c2 bd 0f 28 2e 3b 31 f7 ad be
       0.45406252 -0.09516635 0.002657417 -0.33977655
000020 a6 be 0b bf 61 35 27 be ab 86 c2 3c 5b a7 e5 3d
       -0.5458778 -0.16328956 0.023745855 0.11213561
000030 45 16 ac be a1 65 85 bd 94 31 c1 bd dc cd 53 3d
       -0.3361074 -0.06513525 -0.094332844 0.051709995
000040 7a f5 59 3d 39 7b 99 be 2e b2 a0 3d 5f 7c c4 3d
       0.05321262 -0.29976824 0.07846485 0.095940344
000050 18 8f 10 bf 31 50 06 be 12 a6 0e bf 58 cc fa 3d
       -0.56468344 -0.13116528 -0.55722153 0.12246007
000060 b7 e7 2a 3d 3c eb ad be 41 35 bc 3d ae 5c 33 3f
       0.041724887 -0.33968532 0.09189845 0.7006329
000070 e8 e0 ee 3e 67 aa d7 be 0d 6c 12 3e d7 5e 17 3e
       0.46655965 -0.42122194 0.1429903 0.14782272
000080 19 82 f9 be 0d 7e a3 3d 6c 67 e2 3c 2c 70 21 3d
       -0.4873207 0.07983027 0.027637206 0.039413616
000090 1a 28 84 3e eb 8b b1 3d 9a 4d 55 3e 97 47 bf 3b
       0.25811845 0.08669265 0.20830384 0.0058373916
0000a0 ec b0 aa bd 72 12 ad 3d 28 97 84 bd f0 1b b2 be
       -0.083345264 0.08450784 -0.06474143 -0.3478694
0000b0 ec f4 d8 bd 4b 9e 17 be 54 4c 4a be ac 49 e6 be
       -0.1059359 -0.14806478 -0.1975568 -0.44978082
0000c0 3f 8e da bd a5 5a a7 be d9 5e c2 bb 85 3c 3a 3c
       -0.106716625 -0.32686344 -0.005931717 0.011366968
0000d0 be 6d e4 bd 88 90 b9 be d3 d8 c8 3e 92 be 4c bf
       -0.11153744 -0.3624308 0.39227924 -0.7997829
0000e0 40 7d f3 bc bc 18 8b be b1 4b 70 be 0e 38 c3 3d
       -0.02972281 -0.27167308 -0.23466374 0.09532176
0000f0 d5 85 1e bf 88 ad 94 be 5e b7 bf bc ab 89 1f 3d
       -0.6192296 -0.29038644 -0.023402866 0.03894965
000100 db c3 c1 bc a1 88 b2 3c 5c 1e 8d bd 05 2d 23 3c
       -0.023652961 0.021793665 -0.06890556 0.009959464
000110 b4 ac 82 bf b0 6f 13 bc 8b 39 a1 3d 23 2a 27 3e
       -1.0208955 -0.008998796 0.078723036 0.16324668
000120 8f c6 c6 3b d5 0e 2e 3e d3 b2 80 bc bc 1e 46 be
       0.0060661505 0.16997845 -0.01571027 -0.19347662
000130 bd c2 2c be cb 68 0a 3e cd f9 86 be d4 49 2c 3e
       -0.16871162 0.13516538 -0.26362458 0.16825038
000140 6d bf 33 bd 67 87 d5 bb da d2 35 3e 33 56 bd bd
       -0.04388373 -0.0065163854 0.17756215 -0.09244957
000150 20 18 2e 3c 33 17 93 bd 5b 4e 66 ba 89 2e b7 3d
       0.010625869 -0.07182159 -0.00087854796 0.08944423
000160 8c cf 41 bd 8d ce f2 3d 83 0d 32 bd ee 68 10 bf
       -0.047317073 0.11855803 -0.043469917 -0.5641011
000170 09 93 91 be e7 dc 4e bd 3a 4b 51 bd 5e c6 b8 3a
       -0.2843249 -0.050503638 -0.051097132 0.0014097204
000180 a9 dc f2 bd 56 d4 b1 bc d0 2c cd bd fa 2e 5d 3b
       -0.11858494 -0.021707695 -0.10018313 0.0033749924
000190 54 53 29 3e ec 29 ba bd 9a 15 78 be fd 27 23 bf
       0.16535693 -0.09090027 -0.2422699 -0.6373289
0001a0 71 d2 18 3d 1f 31 a5 3c de ba f7 3e 70 52 f3 3d
       0.037310068 0.020165024 0.48384756 0.11880958
0001b0 ed 8c df bb c8 aa 02 be 7c 39 66 3d 39 cb c1 bd
       -0.0068222196 -0.1276046 0.056207165 -0.0946259
0001c0 94 01 c7 bd 49 46 0c 3e a9 7e b1 3d 35 1e 5c 3d
       -0.09717098 0.13698687 0.08666737 0.053739745
0001d0 df 7e de 3b 72 53 37 ba 9b 6d a8 3b e4 59 5c be
       0.0067900266 -0.00069933303 0.005140019 -0.21518666
0001e0 aa a6 c4 bd 96 09 b5 3d 5f 8e da bc bb 15 e5 3d
       -0.09602101 0.08839719 -0.026679216 0.111857854
0001f0 c5 8f f6 3c de 13 47 3e 70 27 52 3d 73 40 17 3e
       0.030097852 0.19441172 0.05130714 0.14770679
000200 10 ce f3 bd 8a 8f 61 3b 70 8e 97 3c 6c 4b 05 3d
       -0.11904538 0.0034417831 0.018500537 0.03254263
000210 b4 62 62 3c 68 ec 89 bd 5c f4 80 bd 80 35 73 bb
       0.013817478 -0.06734544 -0.06296608 -0.0037110746
000220 ce 1d a9 bc 7a c2 97 bd e0 cc 16 3c 4f 5a 34 3d
       -0.020644095 -0.0741014 0.009204119 0.044031437
000230 3e 66 02 be 09 10 ca bd 72 9d f9 bd ae bd ab bd
       -0.12734315 -0.0986634 -0.121882334 -0.08385788
000240 10 eb a9 bd 2f 99 1e be 2c a8 bc bd 8e 97 c1 3d
       -0.08296788 -0.15488122 -0.09211764 0.09452735
000250 3d 12 9b bc 45 a0 9b bc 67 dd 14 be 16 84 de bd
       -0.018929595 -0.01899732 -0.14537583 -0.10865037
000260 86 93 95 bd ca 6e da bd 40 1a 75 3c 77 23 23 3d
       -0.073035285 -0.106656626 0.014959872 0.039828744
000270 a5 66 c2 bd e2 bd 6c 3c 69 80 92 bd 48 72 b2 bc
       -0.09492234 0.014449568 -0.071533985 -0.02178301
000280 f0 4e 31 be 5c 47 76 bd 4a 94 e2 3d b0 89 cf 3c
       -0.17315269 -0.060126647 0.1106344 0.02533421
000290 a9 65 18 be 58 ed ed bd f4 da a5 3c 64 d2 c7 bd
       -0.1488253 -0.11617535 0.020246007 -0.09756926
0002a0 3f b3 83 3d 43 43 30 3d 53 fa a9 bb 38 37 90 bd
       0.06430673 0.043032896 -0.0051873117 -0.07041782
0002b0 18 50 46 bd 8f 9c 21 be 61 31 cf 3c 1f 52 c0 bd
       -0.048416227 -0.15782379 0.0252921 -0.09390663
0002c0 34 fa 0a bd 1e 59 c5 bd dc cc 82 bd af 1f 11 3d
       -0.03393002 -0.096361384 -0.0638673 0.035430606
0002d0 3e eb a0 bd 86 08 90 bd 10 ef ea 3d 4d f7 44 bd
       -0.07857369 -0.07032876 0.11471379 -0.048087407
0002e0 2c 1b d4 3d 9c f9 ec bc 88 6b 1e be a4 0b 3a bd
       0.10356745 -0.028927617 -0.15470707 -0.045421258
0002f0 84 4c 8b bc 0b 98 29 3d d0 13 f9 bd 65 3e aa bd
       -0.017004259 0.041404765 -0.12161982 -0.08312682
000300 6d 3d 34 3c 27 a3 a8 3d ef 44 1e 3d af 91 1c be
       0.011000973 0.08234244 0.03863996 -0.15289949
000310 c3 93 ed bf 7a c5 50 3e 7a 90 e7 bd 45 1e 09 be
       -1.8560718 0.20387831 -0.113068536 -0.13390453
000320 f5 af 02 bc 3f db 84 bd 16 ab c7 bd a5 ef 7f 3e
       -0.007976522 -0.064871304 -0.09749429 0.24993761
000330 23 19 e9 bd e1 eb 88 3d 36 2e 04 be 36 37 a8 3e
       -0.113817476 0.06685615 -0.12908253 0.32854623
000340 8e 3a 10 bd 60 b1 64 bb 3b 57 22 3e 02 b5 c7 3d
       -0.035212092 -0.0034895763 0.15853588 0.097513214
000350 de 1c 04 3f 7b 3b e7 3d 66 09 c6 bc ea d5 b1 bd
       0.5160655 0.11290642 -0.024174403 -0.08683379
000360 82 48 dc bd 4f e7 1d be 43 be 8d bc 7f da da 3c
       -0.10756017 -0.15420268 -0.017302638 0.026715515
000370 b8 00 9f 3c ff c7 7e be 62 88 c4 3e f4 f8 94 3d
       0.019409522 -0.2488098 0.38385302 0.072740465
000380 38 da 6f bd e0 ba 9c bc 9e 29 d9 bd ef e0 c6 3d
       -0.05855772 -0.019132078 -0.10603641 0.097108714
000390 7b ce fb 3d 0c 15 b9 bd 4d 25 70 3e ae 00 a6 3e
       0.122952424 -0.090372175 0.23451729 0.32422394
0003a0 3f 43 53 be fa 63 f4 3d c0 32 b2 3e 4f 72 94 bd
       -0.20631121 0.119331315 0.34804344 -0.07248365
0003b0 a1 e2 be 3c 90 6f ac 3b d2 9b 33 be 1f ad f5 3d
       0.023301424 0.0052623227 -0.1753991 0.11995911
0003c0 1f 26 30 bd 08 a5 c2 3d 5a 25 88 be e6 30 a6 3e
       -0.043005105 0.095041335 -0.26590997 0.32459182
0003d0 78 08 86 3d ee 9c d5 bc 1d 74 b3 bd 6d 9c e8 be
       0.06544584 -0.026075806 -0.08762381 -0.45431843
0003e0 53 49 36 be 1e 69 50 bd 01 ce 0f bd b5 d9 0a 3d
       -0.17801408 -0.050881498 -0.03510857 0.033899028
0003f0 70 aa cd 3d ff 62 1c 3e bf aa 8a bd 5a c1 08 bd
       0.10042274 0.15272139 -0.067708485 -0.03338752

model.blocks.3.Transform.bias f4 [64]
000000 44 69 66 3d 1b b9 88 3e e4 2f 28 be 5c 57 c0 3e
       0.056252733 0.26703724 -0.16424519 0.3756665
000010 f4 70 f9 bd 1e ef 9a 3e 21 72 a0 bd 5d 54 23 3e
       -0.12179747 0.30260557 -0.07834268 0.15950151
000020 04 30 48 3e a3 8b 22 be 5b 3c bd 3d cd 94 d0 bd
       0.19549567 -0.1587358 0.092400275 -0.101846315
000030 2b fe 9c bd 66 2a 73 3e 08 4f a4 3e 74 d4 f3 3d
       -0.07665666 0.23746642 0.32091546 0.119057566
000040 c9 c4 4f bc 9e 9c 73 3e f3 92 ed bb 23 36 6e 3e
       -0.012681195 0.23790213 -0.0072501837 0.23262839
000050 11 99 7f bd 43 45 2a 3c ac b6 93 bd b0 c6 f7 3d
       -0.062401835 0.01039249 -0.07212576 0.120984435
000060 87 99 8c 3e dd 58 08 bc 4e d9 f6 bd f9 36 55 3e
       0.27460882 -0.008321968 -0.12053166 0.20821752
000070 da b5 5a 3e 9f 4d b7 3e 51 03 c7 bd e1 ac 6c 3e
       0.21358433 0.35801408 -0.097174294 0.23112823
000080 07 5e 84 3e b8 71 57 3e 45 9f 9a 3e 56 f4 41 3e
       0.25852987 0.21039474 0.30199638 0.18940863
000090 2c 6e 4e bd bc 1b 3b 3b 02 f6 11 be 50 03 b8 3e
       -0.050398037 0.0028550467 -0.14254001 0.35940027
0000a0 89 6e 4c 3e 17 17 8e 3e 15 f9 1b 3e 88 27 50 3e
       0.19964041 0.2775199 0.15231736 0.2032758
0000b0 cc e2 fd bd 11 a1 3b be 62 8a 71 3e 0e 85 90 3e
       -0.12396774 -0.1832316 0.23587945 0.28226513
0000c0 ba e3 73 3e 92 a2 8c 3e bb 4f 0c 3c 5d 7c 10 be
       0.2381734 0.2746778 0.008563931 -0.14109941
0000d0 f9 f7 3d 3e 48 48 21 3e 17 d8 a8 3e 78 98 9d 3e
       0.18551625 0.1575023 0.32977363 0.30780387
0000e0 ce 17 bb 3d c5 68 83 bd 47 7e 3a bd 3d a8 6e 3e
       0.091354 -0.064164676 -0.045530584 0.23306365
0000f0 0e 93 e9 bd d9 de 4e 3e f1 43 38 be bd f4 91 3e
       -0.114050016 0.20202197 -0.17994668 0.28507033

model.dense_top.0.weight f4 [16, 64]
000000 03 bc 5e 3d b7 5b 27 3c 82 6f e0 3d fb e1 cd bd
       0.05437852 0.010214738 0.109587684 -0.10052868
000010 9c 00 61 3d 01 5e cb bc 80 b9 cc 3b 55 66 ea 3c
       0.05493222 -0.024825098 0.0062476993 0.028613249
000020 13 6e 77 bc d4 fa 94 3d e3 70 b3 3d a0 53 68 3c
       -0.015101927 0.07274404 0.08761766 0.014180094
000030 40 68 89 bb 8d 70 29 bd 06 8e 0a be ff a0 4a bd
       -0.004193336 -0.041367102 -0.1353074 -0.049469944
000040 d2 8b b7 bd 3a 75 9e bd 48 ee a8 bd eb 60 39 bd
       -0.089622155 -0.07737203 -0.082485735 -0.045258444
000050 dc d6 d5 3d 00 09 9e 3c 86 ed e7 bd c2 83 11 be
       0.10441372 0.0192914 -0.11324601 -0.14210418
000060 60 4d 24 bd c3 55 82 3d b4 76 44 3d 08 c9 7e bd
       -0.040112853 0.06364014 0.047964767 -0.062203437
000070 b9 c0 86 3d 9c c2 7e bd 68 03 90 bc 3f b8 a0 3c
       0.06579728 -0.062197313 -0.01757975 0.019619105
000080 5c 58 f1 bd 8c 55 3a bc c8 79 ff bd a6 16 b7 3c
       -0.11784431 -0.011372935 -0.124744 0.022349667
000090 a8 b2 e2 bc 56 b2 ab 3d ec 1a 7e 3d b2 20 eb bd
       -0.02767308 0.08383624 0.062037393 -0.114808455
0000a0 ee fb e1 39 76 ed 0e be e1 73 24 be 92 8d 95 bd
       0.00043103046 -0.13957772 -0.1605983 -0.07302393
0000b0 38 4b d6 bc aa 8e ae bd 9e 11 c7 bd a2 e3 35 bd
       -0.026158914 -0.08523305 -0.09720157 -0.04440654
0000c0 7f 5d 8f 3d 07 78 e7 3d 10 3d bc 3d 02 11 93 3d
       0.07000255 0.1130219 0.09191334 0.07180978
0000d0 bc 2d 55 3d a6 b2 a6 bc f4 9e 3c 3c e2 bb 8a bd
       0.05204557 -0.020348858 0.011512507 -0.06774117
0000e0 69 27 9d 3c 87 ce aa 3d 9c a0 59 bd be f4 fd 3c
       0.019183831 0.08340173 -0.053131685 0.031000491
0000f0 38 71 33 3d b4 76 d7 bd b0 b5 29 bd eb dd 0c bd
       0.043809146 -0.10520688 -0.041433036 -0.034391325
000100 27 f5 52 3f 94 9b 38 bc 06 ff d1 3d 4e 92 1b 3e
       0.8240532 -0.011267561 0.1025372 0.1519253
000110 73 47 5f 3c 6d a2 50 bd 37 2e ec bc 2e 04 8d 3b
       0.013627875 -0.05093615 -0.02883063 0.004303477
000120 8f 41 1c bd 87 b5 f8 3d 13 08 00 bf 50 d4 84 3d
       -0.03814846 0.121439986 -0.5001232 0.06485808
000130 7e d5 a9 bd bd 1a e3 3d 1a f6 5c bd 3c 0c 62 3e
       -0.082926735 0.11089084 -0.05394564 0.2207498
000140 b1 06 28 3d ad 9d f3 bb f7 6f ce 3e 09 c5 04 bf
       0.041022006 -0.007434568 0.40319797 -0.5186315
000150 29 5a 92 3d 38 dc aa be c1 c4 77 3c 6a e7 5e 3e
       0.07146103 -0.3337114 0.015122593 0.21767965
000160 b9 03 9e 3d 39 5a a7 3e 73 88 71 3e 3a 8a dc 3c
       0.07715554 0.32686022 0.23587207 0.02692138
000170 04 18 80 3e e7 e7 66 3d 63 75 90 3c ec fb 07 3e
       0.25018322 0.056373503 0.0176341 0.13279694
000180 92 c8 f2 3d b7 71 22 be 2b 76 c8 bd 31 6b 67 3e
       0.11854662 -0.15863691 -0.09788164 0.22599484
000190 32 f9 92 bd 56 86 49 3c cb 10 75 3d 2f fc ca 3c
       -0.071764365 0.012300095 0.05983047 0.024778454
0001a0 f2 20 64 3e d7 32 a5 bd 80 5e 19 3e 63 e5 1f 3e
       0.22278193 -0.080663376 0.14977455 0.15614848
0001b0 73 7e 88 bd 0e 9a b3 3d 10 09 c2 3e 84 de 8e 3d
       -0.06664743 0.08769618 0.3789754 0.06976035
0001c0 da cf f8 bd 6d 93 a5 bd 72 f4 a4 3d 47 41 b4 3d
       -0.121490195 -0.0808476 0.08054437 0.08801513
0001d0 26 60 b1 3d 2d d8 63 3d fc e8 55 bb 02 c7 a6 bd
       0.08660917 0.055626083 -0.003264009 -0.081434265
0001e0 21 79 c1 3c d2 9c a2 3e ae 54 34 3d 64 36 27 bf
       0.02361733 0.3176027 0.04402607 -0.6531737
0001f0 2f d5 51 3d d1 42 4f be 77 1e b8 3e 1c 9d 8e 3e
       0.0512287 -0.20240332 0.35960743 0.2785424
000200 f4 49 bc bc 3d 83 3d 3d 0a 0d b0 3d fa 11 5f 3d
       -0.022984482 0.046267737 0.08596237 0.054460503
000210 08 a7 2a 3d 3a ca 1a bc a8 fe 00 bd 62 41 fb bd
       0.0416632 -0.009447629 -0.03149286 -0.1226833
000220 fd 06 6d bd 78 c2 78 3d 7e b3 b6 3d 9c 68 3f bd
       -0.057867993 0.060732335 0.08920954 -0.046730623
000230 30 6f 48 bc fd f7 43 3d 6a 29 74 3c d6 94 19 3d
       -0.01223354 0.047843922 0.014902452 0.037495457
000240 28 a5 91 3c 33 8d 32 3d e4 cc ea bd 8a bd d1 bd
       0.017778948 0.04359169 -0.11464861 -0.1024123
000250 ba b5 ff bd 3c d0 7f 3d 80 c1 c0 3c ac f3 87 bd
       -0.124858335 0.062454447 0.023529768 -0.066382736
000260 19 72 06 be 20 07 f6 bc a4 70 a7 3d aa c9 ea bd
       -0.13129462 -0.030032694 0.08175781 -0.114642456
000270 1e 11 04 be e0 2f 6d 3d 92 6c b3 3d a4 66 db 3c
       -0.12897155 0.057906985 0.087609425 0.026782341
000280 89 a3 1d 3d 8d 18 b2 bd 06 3d c0 bd ce dc 72 3d
       0.038486037 -0.08696089 -0.09386639 0.059292607
000290 7a 22 c4 bd 28 de 08 bd 10 58 15 3c 41 e0 91 bd
       -0.095768884 -0.03341499 0.009115234 -0.07122851
0002a0 8a 26 c6 bc 0b 94 8a bd 4c 37 8b 3d 4a 65 c6 bd
       -0.024188299 -0.06766518 0.067976564 -0.09687288
0002b0 6c b0 66 3d f8 b0 99 bd ed 7f dd 3b 96 8d 93 bd
       0.056320593 -0.07504457 0.0067596347 -0.0720474
0002c0 64 26 2b bc b9 9e 2a ba 20 4a ac 3b b2 7f f1 bd
       -0.010446165 -0.0006508637 0.00525786 -0.11791934
0002d0 93 9c bb bd 8e 99 0d be c8 4b b4 bd 52 ce 12 be
       -0.091607235 -0.13828108 -0.088035166 -0.14336517
0002e0 60 a7 d8 bd 5a 10 3b 3c 44 f5 37 bd b5 35 ce bd
       -0.10578799 0.011417473 -0.044911638 -0.100688376
0002f0 30 da 1f bd 7d e8 9c bd 21 bd 4a bd 79 da 14 be
       -0.03902644 -0.07661531 -0.049496774 -0.14536466
000300 a5 c3 67 3f f5 24 24 bc 92 e2 b0 bd b2 79 52 bd
       0.90532905 -0.010018577 -0.08636965 -0.05138559
000310 68 4d 15 bc db 23 26 bd c6 67 2f 3d 04 03 ca 3d
       -0.009112693 -0.04056154 0.042823575 0.098638564
000320 62 06 d8 bd dd b4 d4 3d 72 75 cc be 37 55 8a bc
       -0.105480924 0.103860594 -0.39933354 -0.016886337
000330 f6 98 6d bb 5d 69 de bd af 52 17 bc cf e9 cb 3d
       -0.0036254502 -0.1085994 -0.009236022 0.09956705
000340 c4 51 d7 bd bc 53 35 3d 92 a9 b0 3e 66 3f ba be
       -0.105136424 0.04426931 0.34504372 -0.36376494
000350 c0 3d f1 3d d2 be d2 be 08 16 e0 bd 62 a1 71 3e
       0.11779356 -0.4116121 -0.10941702 0.23596719
000360 2d c2 a9 bd 36 ae c7 3e 07 09 88 3e 7d 6f 04 3e
       -0.08288989 0.390001 0.26569387 0.12933154
000370 7a 99 fc 3d 9a 2a 9b bd 59 86 13 be ea 0a 0c 3e
       0.12333961 -0.07576485 -0.14406718 0.13676038
000380 7f c3 d8 3d 71 86 ed 3c 4c 8d 7f bd 20 80 f3 3d
       0.10584163 0.02899477 -0.06239061 0.11889672
000390 6f 89 d1 bd 02 b1 56 bc dc 20 24 3d 75 02 f9 bd
       -0.102312915 -0.013103725 0.0400704 -0.12158672
0003a0 57 fc 22 3e e9 02 df 3c 03 bf 64 3d 7d cb 2c 3e
       0.15916573 0.027223067 0.055846225 0.168745
0003b0 b4 4c 1a 3e 00 39 f4 3d fb 11 84 3e 62 fd 83 3d
       0.15068322 0.119249344 0.25794968 0.06444813
0003c0 5a 9d 07 3d d0 f4 47 3c ed e8 e0 bb fd 3e ba 3c
       0.033109047 0.012204364 -0.0068637044 0.022735113
0003d0 ee 2d 63 3e 10 a9 00 be 1d 2f 8c bd 42 c1 aa 3d
       0.2218549 -0.12564492 -0.06844924 0.08337642
0003e0 28 f6 26 3d d9 d4 f5 3e f7 1d cc 3d 2f a5 f6 be
       0.040762097 0.48013952 0.09966653 -0.481729
0003f0 9f 10 7d 3d aa 8d e3 3b 2e fa 00 3e 2c 3d 19 3d
       0.06178343 0.006944378 0.12595436 0.037411854

model.dense_top.0.bias f4 [16]
000000 16 f8 cb bd 39 92 65 3c c6 40 a1 bd ea 05 b9 3d
       -0.09959428 0.014011913 -0.07873683 0.09034331
000010 26 ed 25 3e d7 41 94 bc 8d 59 5c 3e d1 cf 27 3e
       0.16203746 -0.018097801 0.21518536 0.1638787
000020 58 b3 20 3e a2 f0 f8 3d e0 65 d9 3d d8 92 3f 3e
       0.15693414 0.12155272 0.10615134 0.1870836
000030 72 d1 a0 3a 9c 49 14 be d6 7b 15 be fb 60 dd bd
       0.0012269451 -0.14481205 -0.14598021 -0.10809513

model.dense_top.2.weight f4 [1, 16]
000000 f2 8a 52 3d ab 39 53 be d0 cf cd 3d 3b 9b a5 bd
       0.05140204 -0.20627467 0.10049403 -0.080862485
000010 f9 12 92 be 0c be a1 3c e5 27 58 3e 9a 5c 44 3e
       -0.285301 0.019743942 0.21108969 0.1917595
000020 5f a0 51 be 92 6c ba 3d f2 4c 28 be 8d 02 77 3e
       -0.20471333 0.091027394 -0.16435602 0.24122067
000030 ba 8f 06 3b ae ae 17 3d 1f 16 36 bc be 17 43 be
       0.0020532445 0.037031822 -0.0111136725 -0.19052026
