03_Workshops/08_Transformer_Graph_Intro/models/ZINC-GCN-model104-val_loss0.49.ckpt (torch, 252023 bytes, 36 tensors)

model.node_embedding.weight f4 [28, 64]
0.89507353 0.92231494 0.64768785 -0.73978746 -0.18987261 0.16540222 -0.19284353 -1.2813954
0.4988055 0.8008269 -0.512068 -1.7901583 -0.20983195 0.32982507 -0.45104086 0.044190977
-0.42731947 1.4871349 0.7908153 -0.88070595 1.628923 -0.82571054 0.0002330856 0.130437
-0.35899442 -0.52629703 1.0426829 0.7640653 0.10260804 0.1594363 0.46332482 -0.15372446
0.9024941 -1.1769071 -0.06870383 -0.41727194 -0.74396855 0.577208 -1.7170575 -0.34697938
1.1355315 -0.26005906 0.27062735 -0.5942638 3.1838007 0.81084853 0.5127979 -0.78070027
-0.3169268 0.40411538 -0.36857688 -0.87507963 0.15352903 -0.038176358 0.33788237 -0.799265
0.37480873 0.66601235 0.99888366 1.1375822 0.39579988 -0.6602005 0.39909825 0.49413225
-0.76606023 -2.3246872 1.646827 1.5866618 -0.8858688 1.0083658 0.966424 0.33126405
-0.08664182 1.1559813 0.2008915 -1.0185918 0.02896369 0.7872901 -0.34257808 1.3156052
-0.8618126 -1.7832103 -0.26598114 1.0684961 -3.0264695 -0.30019596 -0.1719054 -1.016156
1.040623 -1.7681749 0.8315334 2.458713 0.03962308 1.1995591 -0.3666169 1.4707545
-1.2604822 0.5992805 0.057300933 -0.071214296 -0.61572945 -1.2755198 1.0915089 0.052045185
-0.3345271 0.4484409 -0.6910828 0.022875099 -0.7947197 1.6226568 1.7143445 -0.8588209
0.33677983 -0.28261998 0.23592591 0.35764757 0.15758903 -0.30639064 -0.46323386 -0.19323564
1.552684 -0.91985065 -0.49738082 0.1794625 0.0017390698 0.99189436 -0.095033556 -1.3684188
0.4414784 -0.596199 -0.26203743 -1.5044575 0.785475 -0.758608 -0.4165805 2.1206298
-1.708323 -0.8024725 -0.38164946 -0.4654722 -1.1187236 -2.3475688 0.8282305 -2.9723732
-0.4466452 0.12397625 0.14664786 -2.2061257 -0.43292356 0.8306015 -0.33211857 0.41710123
-0.35206926 1.9906217 -0.48329258 0.91434306 -0.12191125 0.84333825 0.69730675 0.38538933
0.6635382 -0.9433835 0.5991445 -0.7997609 -0.35252783 -0.8935212 0.31788954 -0.82586586
0.41745612 1.0265335 0.6290208 -0.5921073 0.45381498 1.0837003 1.1870466 0.537354
-2.12225 1.2672727 -1.2377386 0.88116014 -0.51983714 -0.80597675 -0.93325317 0.57585007
1.8212204 0.6866787 -2.8731556 -0.8102217 1.6336422 1.7796504 -0.17237493 -1.3190768
-1.5794992 -0.27332976 -0.40557337 -0.2916392 -1.4189492 0.18826933 -1.185402 -1.7893589
-1.7034425 -0.8080575 -2.5826612 1.8027208 0.9272361 0.7886073 0.9433676 -0.2685438
0.9827026 0.65252507 0.068785265 -0.7963613 -0.18700647 0.7050117 -0.74254376 0.446035
1.2215011 0.19443735 -0.57169944 0.26575 0.23958333 2.557284 1.9821801 -0.40643546
-0.09415925 -0.14441909 -0.17232859 0.26376083 0.43741345 0.09281375 -1.3427908 -0.46885446
1.2444642 0.6228284 -0.9506094 0.31842032 -1.3624004 0.85059994 -0.019116946 -1.6494409
-0.35807538 0.46382847 0.506046 -0.60758585 -1.6647806 0.31016478 -0.64686686 -0.15359996
0.57976824 -0.8917313 -1.1770139 -0.18238826 0.3315643 -0.26424786 0.5978316 -0.6499724
00000000: 8a23 653f d51c 6c3f dfce 253f b662 3dbf
00000010: f76d 42be 335f 293e c678 45be c404 a4bf
00000020: 6f63 ff3e fe02 4d3f e316 03bf e823 e5bf
00000030: 30de 56be d5de a83e d4ee e6be 9901 353d
00000040: 9ec9 dabe 705a be3f df72 4a3f f275 61bf
00000050: 8d80 d03f c461 53bf 7068 7439 4791 053e
00000060: 1ece b7be 67bb 06bf a276 853f c999 433f
00000070: 2a24 d23d 4543 233e e938 ed3e f269 1dbe
00000080: da09 673f e4a4 96bf 98b4 8cbd aba4 d5be
00000090: b974 3ebf e7c3 133f 8ac8 dbbf 48a7 b1be
000000a0: 1959 913f 7626 85be ab8f 8a3e ac21 18bf
000000b0: 64c3 4b40 c593 4f3f b946 033f f9db 47bf
000000c0: 3b44 a2be 36e8 ce3e 1cb6 bcbe 3805 60bf
000000d0: b736 1d3e d05e 1cbd ebfe ac3e a29c 4cbf
000000e0: eee6 bf3e c97f 2a3f d7b6 7f3f 4b9c 913f
000000f0: 48a6 ca3e e602 29bf 9b56 cc3e e7fe fc3e
00000100: 861c 44bf adc7 14c0 3acb d23f bc17 cb3f
00000110: 4cc8 62bf 2112 813f 9067 773f 719b a93e
00000120: 4471 b1bd 32f7 933f 80b6 4d3e 3761 82bf
00000130: 4345 ed3c d88b 493f 6566 afbe c065 a83f
00000140: c09f 5cbf 3c40 e4bf ae2e 88be 7bc4 883f
00000150: adb1 41c0 49b3 99be f807 30be 6611 82bf
00000160: 2233 853f 8e53 e2bf 5fdf 543f 8e5b 1d40
00000170: d04b 223d 278b 993f 36b5 bbbe af41 bc3f
00000180: 7b57 a1bf 726a 193f 62b4 6a3d cdd8 91bd
00000190: 72a0 1dbf 3c44 a3bf 90b6 8b3f 552d 553d
000001a0: 2347 abbe 0c9a e53e cdea 30bf 8f64 bb3c
000001b0: c072 4bbf 38b3 cf3f a46f db3f b0db 5bbf
000001c0: 686e ac3e 91b3 90be 9096 713e 951d b73e
000001d0: 055f 213e 3cdf 9cbe fd2c edbe 90df 45be
000001e0: 59be c63f 557b 6bbf b3a8 febe 05c5 373e
000001f0: 80f1 e33a caec 7d3f f4a0 c2bd 5928 afbf
00000200: 7509 e23e 7fa0 18bf c529 86be 1092 c0bf
00000210: e414 493f 2234 42bf 0a4a d5be 66b8 0740
00000220: 54aa dabf d66e 4dbf 8f67 c3be 5f52 eebe
00000230: 5632 8fbf 913e 16c0 ea06 543f 5d3b 3ec0
00000240: aeae e4be 43e7 fd3d db2a 163e 2a31 0dc0
00000250: 28a8 ddbe 4da2 543f 720b aabe 4b8e d53e
00000260: 6c42 b4be b1cc fe3f 2072 f7be 6312 6a3f
00000270: 9bac f9bd 04e5 573f b282 323f c051 c53e
00000280: a4dd 293f 9581 71bf 8961 193f 21bd 4cbf
00000290: 877e b4be cebd 64bf 6bc2 a23e f26b 53bf
000002a0: cfbc d53e 7365 833f 8207 213f 5894 17bf
000002b0: 705a e83e b1b6 8a3f 25f1 973f 0890 093f
000002c0: f2d2 07c0 fe35 a23f 386e 9ebf b693 613f
000002d0: 0c14 05bf 7e54 4ebf aee9 6ebf e96a 133f
000002e0: c01d e93f 2dca 2f3f c8e1 37c0 b06a 4fbf
000002f0: 301b d13f 96cb e33f 0e83 30be 82d7 a8bf
00000300: 082d cabf e1f1 8bbe 50a7 cfbe bc51 95be
00000310: 21a0 b5bf adc9 403e 41bb 97bf b609 e5bf
00000320: 670a dabf dbdc 4ebf 524a 25c0 8ebf e63f
00000330: 585f 6d3f 2be2 493f 8a80 713f 937e 89be
00000340: 6692 7b3f e20b 273f 4adf 8c3d 56de 4bbf
00000350: a07e 3fbe a67b 343f 5917 3ebf b35e e43e
00000360: 265a 9c3f 961a 473e e55a 12bf 6210 883e
00000370: 5555 753e 8baa 2340 14b8 fd3f 4f18 d0be
00000380: 91d6 c0bd 99e2 13be e876 30be a90b 873e
00000390: a8f4 df3e 2315 be3d 92e0 abbf b10d f0be
000003a0: 9a4a 9f3f af71 1f3f 235b 73bf fd07 a33e
000003b0: 2363 aebf ebc0 593f 249b 9cbc e120 d3bf
000003c0: a855 b7be ed7a ed3e 3b8c 013f bf8a 1bbf
000003d0: 8817 d5bf ebcd 9e3e 1199 25bf 4f49 1dbe
000003e0: b16b 143f 8148 64bf 64a8 96bf fdc3 3abe
000003f0: ccc2 a93e 7f4b 87be 7e0b 193f 9764 26bf

model.blocks.0.Transform.weight f4 [64, 64]
0.12981768 -0.34764788 0.20499304 1.0080616 -0.23489165 0.27971366 0.42779115 0.35014287
-0.18581185 0.20671594 0.07608358 -0.06260135 -0.017029377 0.293263 0.021610942 0.21482357
0.063268244 -0.30331108 -0.124318935 0.27177352 -0.35079306 -0.1210466 0.15424022 -0.20473318
0.18063027 -0.29533178 0.2064167 0.14998999 -0.057718374 0.1184005 -0.4262903 0.09887658
-0.55773973 0.13520229 -0.103052154 0.06000861 -0.00935228 -0.36947227 0.20065026 -0.16436161
-0.030621089 -0.22853325 -0.28159127 -0.09217411 -0.10234633 0.121972285 0.064642586 -0.10755125
0.315859 -0.25996384 -0.043446485 0.2838009 0.49166408 -0.026734574 0.08706781 -0.110733464
0.1653523 -0.6963288 -0.1287656 -0.124662034 -0.060595192 0.10791073 -0.16298485 -0.038897686
-0.00029399927 0.3175325 -0.17877088 -0.13870557 0.1658291 -0.05785742 -0.21375443 -0.08989551
0.45903006 -0.14852935 0.029404193 -0.0032104095 0.23805365 0.13198443 -0.051199064 0.23094648
-0.22032014 0.16952348 0.0584522 -0.12593997 0.16353315 -0.011508892 0.17600276 -0.11661308
-0.10095075 -0.077751175 0.012093744 -0.1619379 0.16672783 -0.62312275 -0.060445204 -0.56032985
0.22758798 -0.08277954 -0.099007644 0.1248312 -0.0019525159 0.44386846 0.038652286 0.15956125
-0.06922861 -0.12584238 0.12650381 -0.034427203 0.18641017 -0.06507165 -0.08041809 0.11590295
-0.11395405 -0.12562874 -0.055914875 -0.015166994 0.15912333 0.18269649 0.070725955 0.027630785
-0.20944752 0.22756605 0.2541124 0.048054636 0.01868143 0.005524209 0.16428111 0.24010567
0.018893162 -0.035743266 0.118256584 0.058442593 0.15891066 0.07961391 -0.14236924 0.0740712
0.36554322 0.11748887 0.06913181 0.09549893 0.07573738 0.09137172 -0.1346756 0.29803807
-0.107015654 -0.014584134 -0.11435677 0.07995995 -0.17866382 -0.11662022 -0.019851811 -0.29827437
-0.12872009 -0.078656316 0.02633963 0.04401208 -0.022593271 -0.07893586 -0.16420734 0.05819511
0.06513369 0.05501538 0.13655758 -0.10055727 0.09603965 0.09234478 0.03856875 0.26100445
-0.124107875 0.04528818 -0.092042476 0.0155866835 -0.043490764 -0.05311716 0.10125605 0.0396621
-0.08190101 -0.04329617 0.00088374014 -0.00722846 -0.13140121 -0.14133427 -0.17021531 0.0645437
-0.13245077 -0.037559077 0.19581513 0.02985514 0.015656855 0.06894074 0.0359647 0.10067383
-0.042209312 -0.0715138 0.03773093 0.17606962 0.06079586 0.0783041 0.017879875 0.05632092
-0.028595371 -0.15473542 0.064851 0.107165664 -0.0026676534 0.18575445 0.111074604 0.20956802
-0.032915015 0.036169853 -0.01129279 0.067216784 -0.034160387 -0.037667293 0.050568733 0.07934268
-0.23651287 -0.04905147 -0.12250226 0.056619197 0.051653385 -0.009112407 0.078484915 -0.14283599
0.06680229 -0.06633465 0.0001856139 -0.028543385 0.10948297 0.010854022 0.1637282 0.07784043
-0.16272244 0.045928508 -0.18208817 0.20782703 -0.08762753 -0.18562299 -0.1266531 0.07411031
0.13060595 0.044147838 0.22247617 0.09354219 0.07472873 -0.008226027 0.010530457 0.13806507
-0.0890034 -0.18108517 0.09782395 -0.091060326 -0.20204908 0.019145519 -0.20465012 0.105971515
00000000: edee 043e e7fe b1be b2e9 513e 2a08 813f
00000010: 7087 70be a136 8f3e 7107 db3e ed45 b33e
00000020: 7645 3ebe 58ad 533e b5d1 9b3d 2335 80bd
00000030: 3181 8bbc 9126 963e 6e09 b13c b6fa 5b3e
00000040: c892 813d 974b 9bbe ed9a febd e625 8b3e
00000050: 269b b3be 48e7 f7bd 26f1 1d3e 93a5 51be
00000060: 24f7 383e ba35 97be e65e 533e fa96 193e
00000070: 1a6a 6cbd f67b f23d b942 dabe ce7f ca3d
00000080: 08c8 0ebf 7872 0a3e 020d d3bd 97cb 753d
00000090: 4e3a 19bc 782b bdbe 4377 4d3e 694e 28be
000000a0: 14d9 fabc 9f04 6abe bb2c 90be c8c5 bcbd
000000b0: f49a d1bd 9bcc f93d 5563 843d d443 dcbd
000000c0: 45b8 a13e fb19 85be f1f4 31bd 5a4e 913e
000000d0: 65bb fb3e 7702 dbbc 9c50 b23d 3ac8 e2bd
000000e0: 1d52 293e 9b42 32bf 21db 03be cf4e ffbd
000000f0: aa32 78bd 4d00 dd3d 80e5 26be 2e53 1fbd
00000100: ea23 9ab9 9f93 a23e b70f 37be d508 0ebe
00000110: 1bcf 293e e7fb 6cbd 71e2 5abe 231b b8bd
00000120: fd05 eb3e 1418 18be 10e1 f03c bc65 52bb
00000130: 56c4 733e ed26 073e 1cb6 51bd 3c7d 6c3e
00000140: 9a9b 61be 9097 2d3e 936b 6f3d 68f6 00be
00000150: 3c75 273e cb8f 3cbc 113a 343e d7d2 eebd
00000160: 44bf cebd 023c 9fbd d724 463c 0dd3 25be
00000170: b3ba 2a3e f984 1fbf 6495 77bd c771 0fbf
00000180: d30c 693e 5288 a9bd 85c4 cabd 80a7 ff3d
00000190: 90eb ffba ba42 e33e dc51 1e3d 0664 233e
000001a0: bbc7 8dbd d3dc 00be 378a 013e 8a03 0dbd
000001b0: 4fe2 3e3e 4944 85bd 3db2 a4bd 875e ed3d
000001c0: be60 e9bd d2a4 00be ff06 65bd fc7e 78bc
000001d0: 3af1 223e ca14 3b3e c5d8 903d f559 e23c
000001e0: 6979 56be 1307 693e 051b 823e f0d4 443d
000001f0: cc09 993c 6c04 b53b 4f39 283e 43de 753e
00000200: d5c5 9a3c 8867 12bd 8230 f23d 8061 6f3d
00000210: 7ab9 223e 9e0c a33d 3ec9 11be a4b2 973d
00000220: 7b28 bb3e 019e f03d fa94 8d3d f194 c33d
00000230: 331c 9b3d 1921 bb3d 67e8 09be 7298 983e
00000240: 062b dbbd 4bf2 6ebc e233 eabd 0bc2 a33d
00000250: a6f3 36be 95d6 eebd 44a0 a2bc 6bb7 98be
00000260: 33cf 03be 9016 a1bd 35c6 d73c 0346 343d
00000270: 8615 b9bc 20a9 a1bd f825 28be ff5d 6e3d
00000280: d064 853d cf57 613d c0d5 0b3e f8f0 cdbd
00000290: 70b0 c43d 431f bd3d 44fa 1d3d 60a2 853e
000002a0: 452c febd 1980 393d c480 bcbd 4a5f 7f3c
000002b0: 5f23 32bd 6191 59bd 555f cf3d ba74 223d
000002c0: b7bb a7bd 5357 31bd ccaa 673a b8dc ecbb
000002d0: 0a8e 06be eeb9 10be ec4c 2ebe 7d2f 843d
000002e0: 2da1 07be 8cd7 19bd c383 483e c492 f43c
000002f0: ce42 803c cd30 8d3d b94f 133d 152e ce3d
00000300: ace3 2cbd d475 92bd bf8b 1a3d 984b 343e
00000310: 1405 793d e65d a03d d178 923c c4b0 663d
00000320: d740 eabc f672 1ebe 9ad0 843d ac79 db3d
00000330: ccd3 2ebb 6a36 3e3e 157b e33d 0099 563e
00000340: e5d1 06bd d726 143d 6505 39bc f4a8 893d
00000350: c3eb 0bbd 0549 1abd 2921 4f3d 6a7e a23d
00000360: 6e30 72be 32ea 48bd 77e2 fabd 88e9 673d
00000370: 8092 533d 354c 15bc b3bc a03d 9943 12be
00000380: a4cf 883d 76da 87bd 5aa1 4239 d1d3 e9bc
00000390: 9b38 e03d 11d5 313c 5ea8 273e ce6a 9f3d
000003a0: b6a0 26be 881f 3c3d 5275 3abe 9cd0 543e
000003b0: 1076 b3bd f413 3ebe 5ab1 01be 25c7 973d
000003c0: 91bd 053e 5dd4 343d cbd0 633e 0c93 bf3d
000003d0: 600b 993d 75c6 06bc f087 2c3c ee60 0d3e
000003e0: 6a47 b6bd 646e 39be ec57 c83d d67d babd
000003f0: f4e5 4ebe 10d7 9c3c cd8f 51be 9807 d93d

model.blocks.0.Transform.bias f4 [64]
-0.036488548 -0.07146342 -0.035047464 -0.122073635 0.06437734 0.0628865 0.15910575 -0.10002046
-0.02832655 -0.23918465 -0.011306117 -0.2008046 0.17938639 -0.058766603 -0.053249694 -0.19769548
-0.16840129 -0.0005418024 -0.12587935 -0.057686448 -0.06396577 -0.15883815 -0.11119021 -0.19445342
0.042631462 -0.25751778 -0.10168029 -0.10671581 0.0028231756 0.02361155 0.05711462 -0.21832673
-0.0021677555 -0.019353908 0.09929954 0.08581685 0.016794832 -0.09885627 -0.146839 -0.060997628
-0.087176956 -0.1381498 0.01116044 0.09322714 0.0539544 -0.104694895 0.12440601 0.015497119
0.03287059 -0.0022921693 -0.093174525 -0.13372812 -0.021553664 0.049327962 0.00389076 -0.17682704
-0.023160536 0.021660505 0.036005527 -0.07535964 -0.20375225 -0.15976778 -0.14793654 -0.22445853
00000000: 0475 15bd 6a5b 92bd ee8d 0fbd be01 fabd
00000010: 44d8 833d a3ca 803d 9eec 223e 87d7 ccbd
00000020: 150d e8bc d2ec 74be 4b3d 39bc b99f 4dbe
00000030: 11b1 373e 40b5 70bd 5a1c 5abd af70 4abe
00000040: 6371 2cbe be07 0eba 84e6 00be a048 6cbd
00000050: 7c00 83bd 78a6 22be b1b7 e3bd cc1e 47be
00000060: 549e 2e3d 5fd9 83be c23d d0bd d28d dabd
00000070: 0705 393b 026d c13c 05f1 693d 0b91 5fbe
00000080: e710 0ebb 168c 9ebc 8f5d cb3d bfc0 af3d
00000090: 5195 893c 2875 cabd f65c 16be a6d8 79bd
000000a0: d589 b2bd 2477 0dbe 47da 363c dfed be3d
000000b0: 4aff 5c3d 476a d6bd 94c8 fe3d a1e7 7d3c
000000c0: 50a3 063d 3838 16bb 49d2 bebd 06f0 08be
000000d0: 4f91 b0bc 1e0c 4a3d 1ffc 7e3b 2612 35be
000000e0: 2abb bdbc 5f71 b13c 887a 133d 2856 9abd
000000f0: 6ea4 50be 2a9a 23be ad7c 17be 75d8 65be

model.blocks.1.Transform.weight f4 [64, 64]
0.021999171 -0.7880792 0.021254674 -0.05187332 -0.108579434 0.014637819 0.15678197 -0.07513899
-0.107833825 0.08021255 -0.9432857 0.10550808 -0.045855723 -0.48637795 -0.37446728 -0.7020678
-0.1668272 0.17016408 0.5720508 -1.5216943 0.045959864 0.7682267 -0.105121695 -0.03142988
-1.5639001 -0.15565193 -0.08938502 0.3856818 0.23548543 0.18862768 0.01917112 -0.033491626
-0.30097142 -0.15826443 -0.16158623 -0.30194348 0.0184835 0.10500038 0.40694103 -0.13481626
0.2860376 -0.021086235 -0.80283386 -0.02158901 0.07126136 -0.07871652 0.094769016 -0.06934204
0.17161256 -0.05891489 -0.3367235 -1.053833 0.100591876 -0.12753569 0.09218579 -0.0022132357
-0.5033704 -0.40244433 0.1503261 -0.0937684 -0.12643756 0.69855833 -0.8471052 -0.24253595
-0.14892778 0.108570926 0.01336075 0.07202258 -0.108172774 0.010408722 0.039738074 0.046059277
0.07089469 0.12181669 0.41295686 -0.015394655 -0.23430747 -0.50844014 -0.13189775 0.13626276
0.19976746 0.0604575 0.37192175 0.22091256 -0.028296277 -0.8073319 -0.30831733 -0.05617542
0.21508123 -0.19770078 0.4370586 -0.19086275 0.011857921 -0.37992457 0.21202032 -0.037242174
-0.03935073 -0.5403949 0.043197185 -0.34535682 0.04684725 -0.23948215 -2.3223617 -0.0964266
0.09790045 -0.009676701 0.49015188 -0.06464329 0.016269526 -0.10727134 0.05869237 0.1956562
-0.0074730297 0.09252358 -0.31318584 -0.2921962 -0.38452572 -0.39443612 0.33028176 -0.14576305
0.06489924 -0.019100292 -0.20167224 -0.0063515343 -0.024353286 -0.7304449 0.08937755 -0.21924658
0.15051155 0.03330419 -0.14254045 0.11234529 0.07313417 -0.0975907 0.23390158 0.030367615
-0.16318536 -0.20608303 0.3641443 -0.07317045 0.2581049 -0.26047462 0.22289285 -0.081848636
-0.048888914 -0.04816583 0.099255264 0.22664565 0.01623834 -0.38831788 -0.13214895 -0.090838976
-0.09405406 -0.20903432 -0.4847868 -0.032922205 -0.122913115 0.0022809533 -0.2551888 0.0093332715
0.21991779 -0.077679686 -0.00041843532 0.18310227 -0.1480671 -0.022883713 -0.21260808 0.079752974
0.07582182 -0.05333667 0.11207237 0.1786279 -0.06243184 0.0012551079 -0.21120194 -0.023167383
0.043298744 0.028379226 -0.0071972273 0.10706931 -0.058803536 -0.20011662 -0.3394124 -0.13441397
0.050787933 -0.10538787 0.16581655 -0.11720605 0.0004885347 -0.32802972 -0.04115315 -0.15919344
-0.078723036 -0.0189729 0.07883575 0.1638701 -0.11822131 -0.03245923 -0.32210928 -0.0274342
-0.09444922 -0.05665302 -0.379071 0.11449082 -0.5475478 0.065596096 -0.33422038 -0.20806529
-0.011744741 -0.013900035 -0.14408323 -0.0606095 -0.13927345 0.46409094 -0.05392323 -0.2732878
-0.7881372 -0.13659649 0.28499717 0.0087617 0.050704826 -0.46705416 0.08178448 0.13876306
-0.62203526 -0.46319136 -0.2217091 -0.38143164 -0.009257521 0.054845907 -0.25709742 -0.05256027
0.3321683 0.04373042 0.17641489 -0.085318446 0.075015604 -0.04881052 -0.12634704 -0.28803158
0.0250469 -0.0109879635 -0.20435995 -0.8704781 0.02228554 -0.11842441 0.21235518 0.005854865
-0.71081847 0.13456789 -0.11453967 -0.21057041 -0.036071423 0.29976255 -0.093978725 -0.048292782
00000000: 9b37 b43c 8fbf 49bf 481e ae3c 1e79 54bd
00000010: e55e debd 76d3 6f3c 748b 203e 79e2 99bd
00000020: fbd7 dcbd 7a46 a43d 2c7b 71bf 9f14 d83d
00000030: 36d3 3bbd 8806 f9be 2dba bfbe b7ba 33bf
00000040: c0d4 2abe 7e3f 2e3e ec71 123f e1c6 c2bf
00000050: 6940 3c3d 81aa 443f 0b4a d7bd 9ebc 00bd
00000060: e12d c8bf 3863 1fbe 7e0f b7bd 1678 c53e
00000070: 1823 713e 9d27 413e c10c 9d3c 842e 09bd
00000080: ed18 9abe 1210 22be dc76 25be 5698 9abe
00000090: b66a 973c 700a d73d 935a d03e 460d 0abe
000000a0: 8573 923e 0abd acbc 8586 4dbf 6fdb b0bc
000000b0: 7af1 913d 2036 a1bd 4216 c23d 3303 8ebd
000000c0: 34bb 2f3e bd50 71bd 0667 acbe 00e4 86bf
000000d0: 1d03 ce3d b798 02be e7cb bc3d ef0b 11bb
000000e0: e2dc 00bf 2f0d cebe 16ef 193e a609 c0bd
000000f0: d978 01be b8d4 323f e3db 58bf 585b 78be
00000100: 8680 18be 6f5a de3d 0ce7 5a3c 9380 933d
00000110: b089 ddbd 5889 2a3c 64c4 223d a7a8 3c3d
00000120: 3c31 913d 077b f93d 156f d33e dd39 7cbc
00000130: 4cee 6fbe 2229 02bf 3410 07be 7788 0b3e
00000140: d78f 4c3e 49a2 773d 876c be3e e736 623e
00000150: 98cd e7bc 4ead 4ebf c5db 9dbe 3218 66bd
00000160: 413e 5c3e 1372 4abe 25c6 df3e 8671 43be
00000170: ba47 423c 7985 c2be db1b 593e 408b 18bd
00000180: 3b2e 21bd 5257 0abf 88ef 303d 9cd2 b0be
00000190: e7e2 3f3d cf3a 75be 93a1 14c0 4f7b c5bd
000001a0: 0880 c83d 078b 1ebc 30f5 fa3e b463 84bd
000001b0: ab47 853c 14b1 dbbd 6967 703d 195a 483e
000001c0: 51e0 f4bb 017d bd3d e559 a0be be9a 95be
000001d0: 8ee0 c4be 88f3 c9be b11a a93e e942 15be
000001e0: e5e9 843d 3778 9cbc 2b83 4ebe 8820 d0bb
000001f0: 8b80 c7bc 70fe 3abf 940b b73d 2d82 60be
00000200: b31f 1a3e f969 083d 20f6 11be 4a15 e63d
00000210: 5ec7 953d a2dd c7bd e583 6f3e 81c5 f83c
00000220: 101a 27be 6e07 53be 1f71 ba3e 64da 95bd
00000230: 5326 843e ee5c 85be 063e 643e 42a0 a7bd
00000240: be3f 48bd 8949 45bd 5846 cb3d cc15 683e
00000250: 4406 853c 9ad1 c6be 0e52 07be c909 babd
00000260: 6a9f c0bd 180d 56be fa35 f8be 6fd9 06bd
00000270: dfb9 fbbd 0c7c 153b 1ba8 82be 94ea 183c
00000280: 2132 613e 8716 9fbd 7061 dbb9 297f 3b3e
00000290: e79e 17be a076 bbbc efb5 59be 8755 a33d
000002a0: 7848 9b3d 8d77 5abd 3386 e53d 3bea 363e
000002b0: 87b8 7fbd 6f82 a43a 5245 58be 86c9 bdbc
000002c0: 065a 313d 8d7b e83c b8d6 ebbb 2847 db3d
000002d0: fadb 70bd 5feb 4cbe 76c7 adbe d1a3 09be
000002e0: 0207 503d 98d5 d7bd d0cb 293e ba09 f0bd
000002f0: 0211 003a 83f3 a7be 3590 28bd 9b03 23be
00000300: 8b39 a1bd 0e6d 9bbc a374 a13d 90cd 273e
00000310: 041e f2bd f8f3 04bd 82eb a4be b0bd e0bc
00000320: 986e c1bd ff0c 68bd 9815 c2be 2a7a ea3d
00000330: 182c 0cbf 3f57 863d ef1e abbe 110f 55be
00000340: 046d 40bc f9bc 63bc 8e8a 13be ab41 78bd
00000350: b39d 0ebe 549d ed3e 9bde 5cbd 61ec 8bbe
00000360: 5cc3 49bf f3df 0bbe 26eb 913e 3c8d 0f3c
00000370: ddaf 4f3d b921 efbe 9f7e a73d e717 0e3e
00000380: b43d 1fbf 6b27 edbe b607 63be 024b c3be
00000390: dbac 17bc 1aa6 603d 46a2 83be 7049 57bd
000003a0: f711 aa3e ab1e 333d 1ba6 343e 70bb aebd
000003b0: c8a1 993d 8aed 47bd 1e61 01be e078 93be
000003c0: 282f cd3c dc06 34bc bc43 51be a7d7 5ebf
000003d0: 2a90 b63c 7f88 f2bd a373 593e 2bda bf3b
000003e0: 33f8 35bf 2acc 093e c693 eabd c59f 57be
000003f0: a1bf 13bd 7a7a 993e eb77 c0bd a7ce 45bd

model.blocks.1.Transform.bias f4 [64]
0.2259997 0.12904677 0.10894161 0.07407014 -0.27324066 -0.09695706 -0.055137806 -0.10607845
-0.051755037 0.24416193 0.24755625 0.19046025 0.009946479 0.011597235 -0.24192284 0.14495741
0.15619451 0.082184374 0.13647048 0.13142255 -0.032841954 0.10360163 0.06890057 0.022336617
0.034502413 0.08653848 0.072390184 0.16656278 0.008806709 0.19824143 0.005212571 0.21158783
-0.048298288 0.066039175 0.014755884 0.14256409 0.1821876 -0.18150377 0.11133994 0.0483354
-0.09294226 -0.1651769 0.048340335 0.11581 0.050481226 0.11899715 -0.20147608 0.23035623
-0.07011833 0.14135769 0.07705246 0.19008353 -0.10497125 0.102042444 -0.39715078 0.15401928
-0.07753141 -0.257982 0.12819566 0.18809639 0.1253508 -0.04916511 -0.003039522 0.15844865
00000000: 776c 673e d624 043e c71c df3d 16b2 973d
00000010: 33e6 8bbe 6c91 c6bd 2ed8 61bd a93f d9bd
00000020: 17fd 53bd 9605 7a3e 637f 7d3e 0308 433e
00000030: 8ff6 223c 5402 3e3c 9fba 77be b76f 143e
00000040: 74f1 1f3e 4850 a83d ebbe 0b3e a293 063e
00000050: 4985 06bd 172d d43d be1b 8d3d 48fb b63c
00000060: 6752 0d3d 163b b13d 4e41 943d 6f8f 2a3e
00000070: 044a 103c cdff 4a3e 37ce aa3b 7baa 583e
00000080: 6dd4 45bd 8c3f 873d aac2 713c 52fc 113e
00000090: 638f 3a3e 20dc 39be 3206 e43d 57fb 453d
000000a0: 8358 bebd 2224 29be 8400 463d cb2d ed3d
000000b0: 67c5 4e3d c7b4 f33d bf4f 4ebe 81e2 6b3e
000000c0: 339a 8fbd 12c0 103e aecd 9d3d 42a5 423e
000000d0: 2bfb d6bd a1fb d03d 5957 cbbe 3bb7 1d3e
000000e0: cac8 9ebd 3716 84be b945 033e 579c 403e
000000f0: f65b 003e 5b61 49bd b832 47bb 5d40 223e

model.blocks.2.Transform.weight f4 [64, 64]
-0.23871346 0.22765993 0.04471234 0.17912285 -0.38076663 0.117258124 0.06297281 -0.0321317
-0.027537953 0.09015175 -0.45153493 0.08585734 -0.071682364 0.23471838 0.12516041 0.112232015
0.08428616 0.056319445 -0.006916522 0.16055678 -0.012969225 0.121124215 0.059234332 -0.11854042
0.13405657 0.081565805 0.1396915 -0.13151836 -0.25579676 -0.20525277 0.031389467 -0.08699769
0.016661942 0.0020171837 -0.0070403474 0.24630445 0.12662551 0.14506207 0.09166993 -0.052176442
-0.08322944 -0.057891548 -0.009065596 0.09316581 -0.28466082 0.11617885 -0.2460137 -0.112562336
-0.14749585 -0.052448113 -0.03603605 0.03343506 0.009533714 0.11924985 -0.8262201 0.012132267
-0.30087632 -0.67349255 0.02426271 -0.027008705 -0.6302007 0.18957564 -0.009297954 -0.06072716
-0.027998663 -0.07705968 -0.16420738 -0.010583615 -0.04570952 -0.028293878 -0.10146531 -0.03766322
-0.1734195 0.08399689 -0.08466354 -0.12220055 -0.07111955 -0.10487454 0.03831932 -0.07167243
0.09285579 0.057636466 -0.05663102 0.043097142 -0.118467696 0.06196595 0.020440321 -0.07539503
-0.09824388 -0.034659598 -0.05548212 0.029294098 0.022319512 -0.14168066 -0.10247286 -0.14256705
-0.10621901 0.021993736 0.015197527 0.054630555 -0.16600534 0.070276886 0.037362732 -0.12253228
0.05290573 -0.004391148 -0.05371627 0.035387184 0.099543765 -0.045786913 -0.14860713 -0.13646598
-0.108719975 -0.06999078 -0.11442757 -0.038339637 -0.04896179 0.12446745 -0.063721076 -0.14515503
0.044236705 0.0234783 0.014082673 -0.09538901 -0.0043095597 -0.06867439 -0.05878015 -0.11773747
0.18601955 -0.034113586 -0.07025062 0.14848307 -0.61580944 -0.50798905 -0.019616907 0.017623574
-0.12828676 -0.13843448 0.026541784 0.15101987 -0.07411158 -0.21910842 0.114437014 0.025745202
0.039090928 0.04067979 0.15083286 0.052823104 0.28385475 -0.5302809 -0.20423302 -0.15781409
-0.5316399 0.09109054 -0.86495274 0.14703201 -0.08483028 -0.6058557 -0.28544384 0.38316503
0.17314096 -0.34520856 -1.2086784 0.14381632 -0.092761405 -0.13240539 -0.06160465 -0.015102442
-1.2328004 0.15190491 0.05400485 -0.8400816 -0.03668976 -0.428677 -0.36416698 0.16785435
0.13108957 0.123501755 0.02549909 0.20808269 -0.01284056 -0.69849396 -0.44255716 0.18405913
0.20187385 -0.22627696 0.05446646 -0.07246272 -0.09576823 0.15133506 -0.12701252 -0.18583378
-0.26686627 0.05250732 0.014928918 0.2088756 -0.5265942 0.114333 -0.05942849 -0.08622387
0.021398395 -0.77880377 -0.043111913 -0.059740677 -0.03314506 0.03376073 -0.31437343 -0.012901147
-0.108359426 0.19836523 0.09589133 0.16447495 0.03750226 0.13928854 -0.0061554853 0.16188365
0.13053024 -0.13037518 0.27281708 -0.05406948 -0.0832468 -0.9330453 0.11082949 -0.14575319
0.021643674 0.04861606 0.059192564 0.1694347 -0.19443583 -0.08164859 0.026414577 0.1660366
0.20531888 -0.18136406 0.18411644 0.096523345 -0.069726475 -0.0018718381 -0.6665776 0.09685725
-0.005714655 -0.06610332 0.07216771 -0.09561876 -0.016534941 0.56713504 -0.9807614 0.00627911
-0.117371656 -0.5646136 -0.061431978 -0.11343883 -0.08262523 0.09579994 -0.018152945 0.025634022
00000000: 4d71 74be af1f 693e 4924 373d fb6b 373e
00000010: d8f3 c2be 0725 f03d e3f7 803d 889c 03bd
00000020: 4697 e1bc 7ba1 b83d 962f e7be f9d5 af3d
00000030: 34ce 92bd 045a 703e 0d2a 003e e6d9 e53d
00000040: 399e ac3d 38af 663d fea3 e2bb ff68 243e
00000050: df7c 54bc f90f f83d b39f 723d 52c5 f2bd
00000060: 2046 093e f90b a73d 4a0b 0f3e c0ac 06be
00000070: cbf7 82be c82d 52be 3e92 003d d82b b2bd
00000080: a07e 883c ba32 043b b7b2 e6bb 3c37 7c3e
00000090: 1eaa 013e 278b 143e 72bd bb3d f7b6 55bd
000000a0: 3274 aabd b01f 6dbd de87 14bc b7cd be3d
000000b0: 10bf 91be 2def ed3d 04eb 7bbe 1587 e6bd
000000c0: 2709 17be d5d3 56bd 8a9a 13bd 34f3 083d
000000d0: 4b33 1c3c 4439 f43d 2983 53bf 6ac6 463c
000000e0: 760c 9abe 026a 2cbf 97c2 c63c 5c41 ddbc
000000f0: d554 21bf 1e20 423e 7256 18bc 0bbd 78bd
00000100: 745d e5bc 77d1 9dbd fb25 28be e666 2dbc
00000110: e839 3bbd 90c8 e7bc 0bcd cfbd c044 1abd
00000120: e294 31be 9006 ac3d 1464 adbd 4844 fabd
00000130: 20a7 91bd 76c8 d6bd b8f4 1c3d ffc8 92bd
00000140: 2d2b be3d 3714 6c3d eef5 67bd a186 303d
00000150: 319f f2bd 02d0 7d3d 7672 a73c b668 9abd
00000160: 1634 c9bd 39f7 0dbd 3841 63bd 2dfa ef3c
00000170: 69d7 b63c bc14 11be 4add d1bd 19fd 11be
00000180: 5a89 d9bd 352c b43c 0cff 783c 4ac4 5f3d
00000190: 4efd 29be 54ed 8f3d aa09 193d 34f2 fabd
000001a0: aeb3 583d 9fe3 8fbb 9705 5cbd 27f2 103d
000001b0: 9add cb3d 0f8b 3bbd 782c 18be bdbd 0bbe
000001c0: 94a8 debd 5357 8fbd 0059 eabd 060a 1dbd
000001d0: 288c 48bd cae8 fe3d 3280 82bd 85a3 14be
000001e0: 8c31 353d 9055 c03c 03bb 663c 505b c3bd
000001f0: 3537 8dbb 29a5 8cbd 74c3 70bd 5820 f1bd
00000200: e97b 3e3e b0ba 0bbd 8fdf 8fbd f20b 183e
00000210: b0a5 1dbf 920b 02bf a3b3 a0bc 505f 903c
00000220: 9b5d 03be c5c1 0dbe 286e d93c f4a4 1a3e
00000230: d0c7 97bd f55d 60be f45d ea3d 9ae7 d23c
00000240: cf1d 203d da9f 263d ee73 1a3e 0a5d 583d
00000250: 6955 913e 7dc0 07bf 7622 51be 049a 21be
00000260: 8d19 08bf ad8d ba3d 8b6d 5dbf 8f8f 163e
00000270: 7fbb adbd 5c19 1bbf b225 92be 352e c43e
00000280: dd4b 313e 2dbf b0be f9b5 9abf 9644 133e
00000290: b1f9 bdbd 4795 07be 2855 7cbd 3c70 77bc
000002a0: 67cc 9dbf f68c 1b3e 3134 5d3d 960f 57bf
000002b0: 0048 16bd 8d7b dbbe 1874 babe 03e2 2b3e
000002c0: 583c 063e 7dee fc3d 78e3 d03c a113 553e
000002d0: 3661 52bc 80d0 32bf da96 e2be ff79 3c3e
000002e0: 05b8 4e3e 26b5 67be 3918 5f3d 5667 94bd
000002f0: 2222 c4bd 94f7 1a3e 920f 02be 364b 3ebe
00000300: b2a2 88be ea11 573d 6c98 743c 7ce3 553e
00000310: e1ce 06bf 6b27 ea3d 4a6b 73bd 2496 b0bd
00000320: b04b af3c af5f 47bf 1e96 30bd a4b2 74bd
00000330: 1dc3 07bd b148 0a3d 8ef5 a0be 555f 53bc
00000340: 8ceb ddbd 4120 4b3e ac62 c43d 1f6c 283e
00000350: f89b 193d a8a1 0e3e f4b3 c9bb d4c4 253e
00000360: b8a9 053e 1281 05be aeae 8b3e f677 5dbd
00000370: 4c7d aabd 0fdc 6ebf 92fa e23d 5340 15be
00000380: 134e b13c a221 473d e773 723d 4a80 2d3e
00000390: 301a 47be 6037 a7bd 6263 d83c 8005 2a3e
000003a0: 1d3f 523e 80b7 39be 0589 3c3e 08ae c53d
000003b0: c1cc 8ebd 7758 f5ba d4a4 2abf 185d c63d
000003c0: 0042 bbbb 2d61 87bd aacc 933d c5d3 c3bd
000003d0: 4974 87bc c32f 113f 2e13 7bbf fec0 cd3b
000003e0: 8d60 f0bd 848a 10bf 19a0 7bbd 9e52 e8bd
000003f0: 6b37 a9bd c232 c43d 7cb5 94bc 71fe d13c

model.blocks.2.Transform.bias f4 [64]
0.13309461 -0.15529636 0.04621271 0.051600367 0.10212341 0.244552 0.17010376 0.22493975
0.091639824 -0.17087772 0.17528695 -0.11407446 -0.16640335 0.22763313 0.18812346 0.16274747
-0.111724764 0.107582115 0.28125963 0.26428452 0.11177316 0.15224044 -0.23262115 0.027088627
0.13694806 0.17336515 0.14702415 0.19802113 0.09136511 -0.20542687 0.2510979 0.13050254
-0.18903877 0.3413942 0.07491866 -0.11160621 0.17194751 0.25883454 0.26190108 0.089492686
-0.10856428 -0.062452473 0.21752514 0.1837825 0.07390118 -0.17853445 0.25385207 0.20850381
0.612846 0.049059533 -0.1608686 0.3063537 0.16897796 0.074999064 0.13846222 -0.026570717
0.032199573 -0.15215334 0.13480073 0.19282663 0.017649759 0.3175818 0.09666369 0.23548076
00000000: f449 083e 0206 1fbe 8a49 3d3d e85a 533d
00000010: 1426 d13d d76b 7a3e ae2f 2e3e 9b56 663e
00000020: a9ad bb3d 92fa 2ebe 6c7e 333e df9f e9bd
00000030: a465 2abe a918 693e 70a3 403e 46a7 263e
00000040: f4cf e4bd 0354 dc3d 4301 903e 4d50 873e
00000050: 54e9 e43d ebe4 1b3e 3d34 6ebe f8e8 dd3c
00000060: 1d3c 0c3e a286 313e 808d 163e 0dc6 4a3e
00000070: a11d bb3d 6c5b 52be e78f 803e 75a2 053e
00000080: 6193 41be 38cb ae3e f46e 993d cc91 e4bd
00000090: 0213 303e f685 843e e617 863e f147 b73d
000000a0: f356 debd 2ace 7fbd e9be 5e3e 7b31 3c3e
000000b0: 8059 973d bcd1 36be e6f8 813e 0682 553e
000000c0: 7ae3 1c3f a6f2 483d bdba 24be 64da 9c3e
000000d0: 8f08 2d3e 1c99 993d 0ac9 0d3e d5aa d9bc
000000e0: b3e3 033d 16ce 1bbe 3409 0a3e 5874 453e
000000f0: 3a96 903c 159a a23e 9df7 c53d de21 713e

model.blocks.3.Transform.weight f4 [64, 64]
-0.059608813 0.097805485 0.12701415 -0.71797836 0.03648728 -0.49869338 0.12274964 0.19933087
0.028191281 -0.04459016 -0.805345 -0.077287525 -0.34044462 0.06866997 -0.09666682 -0.34525454
-0.08992483 -0.08644773 0.14183947 0.1434022 0.22142941 -0.86460394 -0.06739474 -0.34999275
-0.08104372 -0.24239728 -0.32731593 0.08535214 0.13152352 -0.00039990246 -0.34401548 -0.29199448
0.04301946 0.20007966 -0.7171715 -0.07815657 -0.7015452 0.118459046 0.1450008 -0.016608974
-0.04220938 0.23080747 0.05328667 -0.14755245 0.033800934 -0.06988632 -1.8593649 -0.648883
0.24340661 -0.377101 0.043543704 -0.87899965 -0.15743785 0.034559093 0.082808025 -0.021017313
-0.8984122 -0.096167 0.087930605 -0.8420895 -0.019997505 -0.17799854 -0.8199754 0.06981182
-0.092979096 -0.05908817 0.009711706 -0.14537281 -0.0067262617 -0.10698245 -0.14517552 0.017193818
-0.08930391 0.093783006 -0.080683075 0.10236178 -0.027605161 -0.23258844 0.037678383 -0.031734142
0.12458791 -0.07667493 -0.12432113 -0.119752385 0.022463491 0.03665025 0.0070120245 -0.13886102
-0.13476746 -0.14644918 0.010995983 -0.12765004 -0.06116726 -0.122477055 0.013906684 0.018297689
0.04159662 -0.11190809 -0.13007659 0.0743416 -0.17933083 -0.08465148 -0.10139711 -0.055210907
0.10511504 -0.09858285 0.018761003 0.03722913 0.0032349147 -0.040506795 -0.09181904 -0.08777294
-0.112543195 -0.06621089 -0.008747339 -0.09366735 0.05823592 0.045438975 0.008504367 -0.0816128
-0.044431575 0.119232506 -0.105481446 -0.005333327 -0.10913535 -0.15811686 -0.03892131 -0.082707256
-0.04572309 0.05889912 -0.045475625 -0.11192819 -0.108425766 0.06357104 -0.044893444 -0.07144117
-0.051515467 0.052896723 0.05459201 -0.008404821 0.15087427 0.09484077 0.089037344 0.006518985
0.103954196 0.05544529 -0.14157546 -0.18146229 -0.10146078 -0.015564753 -0.11571643 0.014176243
-0.11270181 -0.12443494 -0.11505339 0.08699875 0.03976694 0.046969786 -0.04464554 -0.04472443
0.008833677 -0.08035936 0.089578256 0.025863186 0.041461565 0.05815589 0.04511035 -0.0513876
0.06259641 -0.037402336 0.052004237 -0.056962993 -0.08981139 -0.07353546 -0.02001654 -0.10545206
-0.057834398 -0.03234205 0.0503318 0.06603863 -0.050429497 0.040525805 -0.15681067 0.02484414
-0.05428319 -0.016205192 -0.054938078 -0.0029322726 -0.0967619 -0.1117837 -0.10649359 -0.037808422
0.12338623 0.10407215 -0.12777226 -0.039565235 0.2566383 -0.08406627 -0.4266344 -0.05281757
0.2127357 -0.08373929 -0.049803134 0.10251611 -0.22523947 -0.0026156157 0.10183715 -0.27766436
-0.08295588 0.23470056 0.17553622 0.056811243 -0.15439048 -0.17982107 0.04770989 0.03654042
-0.06196195 -0.04556966 0.013177287 0.062000133 -0.0008244718 -0.051224466 0.052747384 -0.21487173
0.033118814 0.069591284 -0.20213832 0.07392914 -0.43889716 -0.08112294 0.21260369 -0.22582924
0.13242085 -0.020995852 0.08254031 -0.0084550595 0.055537675 0.15506761 -1.0903518 -0.37426797
0.2775929 -0.17049208 0.0292384 -0.6675325 0.18102133 -0.3792436 0.02839509 0.12692852
-0.5965798 0.035647955 0.054959368 -0.4027011 -0.05485837 -0.29203343 -0.18211979 -0.034228653
00000000: 5f28 74bd 3e4e c83d ff0f 023e 6ecd 37bf
00000010: b073 153d bd54 ffbe 2a64 fb3d 641d 4c3e
00000020: 67f1 e63c 2ca4 36bd 172b 4ebf ec48 9ebd
00000030: c24e aebe d7a2 8c3d 41f9 c5bd 34c5 b0be
00000040: 822a b8bd 820b b1bd 5e3e 113e 07d8 123e
00000050: 64be 623e af56 5dbf 4106 8abd 4032 b3be
00000060: 40fa a5bd fe36 78be f495 a7be 1acd ae3d
00000070: 1aae 063e 00aa d1b9 cc22 b0be 4d80 95be
00000080: 2c35 303d afe1 4c3e 8d98 37bf 8d10 a0bd
00000090: 7798 33bf a89a f23d 177b 143e 8b0f 88bc
000000a0: bee3 2cbd cb58 6c3e 2043 5a3d fd17 17be
000000b0: d972 0a3d 8f20 8fbd abff edbf 321d 26bf
000000c0: 953f 793e 6213 c1be e25a 323d 1f06 61bf
000000d0: 6337 21be d68d 0d3d 4197 a93d 802c acbc
000000e0: 58fe 65bf 34f3 c4bd f614 b43d 2d93 57bf
000000f0: cfd1 a3bc 4045 36be e8e9 51bf 80f9 8e3d
00000100: d36b bebd 7006 72bd d91d 1f3c 9cdc 14be
00000110: f967 dcbb 9d19 dbbd e4a8 14be 0dda 8c3c
00000120: f8e4 b6bd 4e11 c03d 2b3d a5bd 0ea3 d13d
00000130: 3824 e2bc aa2b 6ebe a654 1a3d a9fb 01bd
00000140: f227 ff3d bf07 9dbd 149c febd bd40 f5bd
00000150: 5b05 b83c 931e 163d 20c5 e53b 9531 0ebe
00000160: 7b00 0abe c6f6 15be 7f28 343c b1b6 02be
00000170: 858a 7abd 40d5 fabd dcd8 633c 09e5 953c
00000180: 3861 2a3d 1230 e5bd cc32 05be 6940 983d
00000190: 80a2 37be c15d adbd 4aa9 cfbd d524 62bd
000001a0: 8e46 d73d cee5 c9bd adb0 993c 927d 183d
000001b0: dd00 543b 74ea 25bd 9f0b bcbd 4dc2 b3bd
000001c0: 0c7d e6bd 9399 87bd 0051 0fbc abd4 bfbd
000001d0: ca88 6e3d 381e 3a3d e755 0b3c 9d24 a7bd
000001e0: e2fd 35bd 2c30 f43d a806 d8bd 31c3 aebb
000001f0: 5b82 dfbd 63e9 21be f46b 1fbd 6c62 a9bd
00000200: 2348 3bbd 3440 713d a644 3abd 9b3a e5bd
00000210: 540e debd 8931 823d 30e2 37bd c04f 92bd
00000220: e201 53bd 3caa 583d df9b 5f3d 60b4 09bc
00000230: c97e 1a3e e13b c23d 3659 b63d 369d d53b
00000240: f0e5 d43d 9a1a 633d 28f9 10be 40d1 39be
00000250: abca cfbd 4e03 7fbc bcfc ecbd 7943 683c
00000260: 35d0 e6bd bfd7 febd 1da1 ebbd 672c b23d
00000270: a9e2 223d 6463 403d 3ede 36bd f730 37bd
00000280: 20bb 103c 7393 a4bd ce74 b73d 08df d33c
00000290: 9ad3 293d df34 6e3d a1c5 383d ce7b 52bd
000002a0: 8c32 803d 3133 19bd 6502 553d 0752 69bd
000002b0: 09ef b7bd c299 96bd baf9 a3bc 40f7 d7bd
000002c0: c3e3 6cbd 1979 04bd b828 4e3d 433f 873d
000002d0: 298f 4ebd 63fe 253d fa92 20be f085 cb3c
000002e0: 0d58 5ebd c0c0 84bc c006 61bd 5f2b 40bb
000002f0: 1a2b c6bd daee e4bd 5019 dabd 01dd 1abd
00000300: ebb1 fc3d c823 d53d bbd6 02be 280f 22bd
00000310: 1866 833e f02a acbd d36f dabe 3c57 58bd
00000320: 63d7 593e 817f abbd 5ffe 4bbd f7f3 d13d
00000330: 2da5 66be c06a 2bbb ff8f d03d 062a 8ebe
00000340: c6e4 a9bd 5855 703e c4bf 333e e8b2 683d
00000350: 8a18 1ebe 0423 38be 726b 433d 68ab 153d
00000360: d0cb 7dbd 40a7 3abd 8ce5 573c daf3 7d3d
00000370: 5e21 58ba bfd0 51bd a40d 583d 5607 5cbe
00000380: 98a7 073d e085 8e3d 59fd 4ebe 2968 973d
00000390: 21b7 e0be c923 a6bd c8b4 593e c83f 67be
000003a0: 5599 073e 7eff abbc e50a a93d 1787 0abc
000003b0: 797b 633d 0bca 1e3e a690 8bbf 0da0 bfbe
000003c0: a820 8e3e 7a95 2ebe 5e85 ef3c 69e3 2abf
000003d0: a85d 393e 382c c2be d29c e83c 8df9 013e
000003e0: 74b9 18bf 9703 123d 131d 613d d72e cebe
000003f0: 2cb3 60bd 6885 95be 9c7d 3abe 5833 0cbd

model.blocks.3.Transform.bias f4 [64]
0.32482213 -0.0973747 -0.14971374 0.34033698 0.31793895 0.2472005 0.26581812 0.1475978
0.076681204 -0.15653569 0.26968813 0.16078293 0.12495633 0.1394843 0.1700284 0.15625404
0.32573596 -0.13458957 -0.24789828 -0.13342685 -0.04777271 0.21240063 -0.15939897 0.19354194
0.22841993 0.25175712 0.09031528 0.20807365 0.29475838 -0.08553 0.17214385 0.078075215
0.31818306 0.30524394 0.3443388 0.2961778 0.19858865 0.2906945 0.21543786 -0.19604303
-0.15980336 -0.102642894 0.0011668497 0.18455148 -0.15810747 0.34311268 0.3717884 -0.101475894
0.32837233 0.4006309 0.25564313 0.16012819 0.29178038 0.3667495 0.22067071 -0.14141601
0.328639 0.27684125 0.12274305 -0.10722307 0.067789525 0.26717713 -0.15931061 0.19179374
00000000: 164f a63e 636c c7bd 8f4e 19be a640 ae3e
00000010: e5c8 a23e 2122 7d3e 5019 883e e123 173e
00000020: 090b 9d3d e44a 20be 9014 8a3e 48a4 243e
00000030: 1be9 ff3d f9d4 0e3e ed1b 2e3e 0f01 203e
00000040: ddc6 a63e d9d1 09be 0cd9 7dbe 0ca1 08be
00000050: 51ad 43bd 8d7f 593e 7c39 23be dc2f 463e
00000060: eae6 693e 4fe6 803e 38f7 b83d 4211 553e
00000070: 92ea 963e 5a2a afbd 7a46 303e e6e5 9f3d
00000080: e4e8 a23e ef48 9c3e 2d4d b03e 9ea4 973e
00000090: d35a 4b3e e9d5 943e be9b 5c3e 81bf 48be
000000a0: 7ea3 23be 7036 d2bd fbf0 983a 10fb 3c3e
000000b0: ede6 21be 77ac af3e 0d5b be3e 98d2 cfbd
000000c0: 6b20 a83e 7e1f cd3e a8e3 823e a5f8 233e
000000d0: 3d64 953e 97c6 bb3e 81f7 613e 5ccf 10be
000000e0: 5f43 a83e 23be 8d3e b560 fb3d c597 dbbd
000000f0: 3cd5 8a3d 71cb 883e 5222 23be 9465 443e

model.dense_top.0.weight f4 [16, 64]
0.0068849893 -0.043727398 -0.09068179 0.17685209 0.17902155 -0.75582707 -0.07838193 -0.77239734
0.09722581 0.015883282 -0.16347545 -0.03940293 -0.9715226 0.35811082 0.05186339 -0.7233167
0.07899945 0.03327769 -0.17349695 0.0864868 -0.029309371 0.09368029 -0.18424712 -0.7980809
-0.010503483 0.121863656 -0.12901622 0.2920846 -0.13873395 0.056677043 0.040309053 -0.051958393
-0.5450234 -0.75011957 0.013485524 0.16496389 -0.014277619 0.01882509 -0.03263633 0.01508455
-0.01792176 0.11062514 -0.13453509 0.21936072 0.044226505 0.6766709 -0.00059366407 -0.08027251
-0.19170131 -0.088648416 -0.17967914 -0.3019921 -0.101566024 -0.18344572 -0.017150726 -0.24682868
0.23959455 0.07073534 0.06879929 0.110898025 0.21781601 -0.2094071 0.029466867 -0.06013176
-0.04958002 -0.10722883 -0.14340343 -0.090630725 0.106171146 -0.03751785 0.08540298 0.054491367
0.07381714 -0.053828713 -0.063435905 0.074478716 -0.2137577 0.3132615 0.07188783 -0.2410259
0.07056588 -0.048166946 0.22730286 0.10481895 0.0909103 0.06639093 0.50880754 -0.05966908
0.46345037 0.011048196 -0.12845564 -0.19406052 0.38048127 0.0037378073 -0.20516723 0.512416
0.0124100065 0.06595675 0.020711591 0.030348271 0.053560648 -0.10096584 -0.11064287 0.04020815
0.015217495 -0.08200929 0.3392506 -0.05781297 -0.034921803 0.23641752 -0.04362764 -0.0024926066
0.15155391 0.08244669 0.08151848 -0.04055362 -0.24601738 0.008669818 -0.006941048 0.50744593
-0.080785 -0.009048363 -0.48306343 -0.069545545 0.63956314 -0.14245224 -0.11164431 0.09346552
0.07289605 -0.07720336 0.06665744 0.014790893 -0.0007185638 -0.07934551 -0.06377955 -0.12228161
0.11809157 -0.080651835 -0.101728335 -0.08760756 0.036594093 0.01399897 -0.096398056 -0.04468195
0.049185947 -0.05781372 0.03899139 0.094751656 0.011980802 -0.03350313 -0.06119658 0.06642288
0.069643885 -0.0404464 0.12054835 0.11841425 -0.008127764 0.11512385 -0.09540947 0.08555907
-0.06694126 -0.03520851 -0.1054405 -0.07666831 0.0072719604 0.016716093 0.035018086 -0.011542276
0.021845818 -0.11457384 -0.09140551 -0.08005601 0.013358265 -0.062265605 -0.030740708 -0.023442477
-0.12024529 0.0924781 -0.069950774 -0.113667905 -0.0070975423 0.09315248 0.041974887 -0.025400147
-0.035667315 -0.07064201 -0.050874054 -0.007670969 0.10555367 0.06864913 0.0625885 0.08760437
0.121048 -0.017368343 0.1236628 0.014008021 0.20584887 -0.3043419 0.11802436 -0.10071799
-0.013113889 -0.10832281 0.25159112 0.18250914 -0.048598535 0.11185204 -0.06258418 -0.18346113
0.12817423 -0.11970153 -0.36750957 0.0625378 -0.036609497 -0.011192489 -0.03220094 -0.10583487
-0.40380904 0.044439144 -0.10689965 0.5300811 -0.12535681 -0.12337737 -0.024423728 -0.1716168
0.01461511 -0.16995503 0.14993857 -0.02936148 -0.111741304 -0.10692577 0.015989335 -0.08959527
-0.048522193 0.03356387 -0.014935629 0.17142062 -0.03506903 -0.968577 0.3075444 -0.09353917
0.16747971 0.2025455 -0.15736973 -0.13075003 0.47884208 0.14432411 -0.10025353 -0.35424986
0.3290875 0.2102952 0.0825643 -0.039848387 -0.002126613 -0.07524413 0.030223394 0.21846543
00000000: 7a9b e13b 801b 33bd 60b7 b9bd b718 353e
00000010: 6d51 373e e27d 41bf b586 a0bd d5bb 45bf
00000020: 531e c73d a81d 823c 1c66 27be f764 21bd
00000030: b5b5 78bf 4d5a b73e b56e 543d 492b 39bf
00000040: 77ca a13d 304e 083d 2fa9 31be fe1f b13d
00000050: 351a f0bc 74db bf3d 47ab 3cbe 084f 4cbf
00000060: cd16 2cbc a793 f93d d41c 04be 1d8c 953e
00000070: 4610 0ebe 3026 683d 1b1b 253d 53d2 54bd
00000080: a786 0bbf d607 40bf 63f2 5c3c 4bec 283e
00000090: adec 69bc 1337 9a3c acad 05bd 3025 773c
000000a0: a8d0 92bc 6f8f e23d 91c3 09be 19a0 603e
000000b0: da26 353d 4e3a 2d3f 1fa0 1bba ea65 a4bd
000000c0: 594d 44be 4d8d b5bd cffd 37be b59e 9abe
000000d0: d901 d0bd 32d9 3bbe ae7f 8cbc a8c0 7cbe
000000e0: 4658 753e b1dd 903d a4e6 8c3d 811e e33d
000000f0: 290b 5f3e d16e 56be 8064 f13c b84c 76bd
00000100: 6b14 4bbd ca9a dbbd 59d8 12be 9a9c b9bd
00000110: 4270 d93d 51ac 19bd c2e7 ae3d 5732 5f3d
00000120: 712d 973d 7f7b 5cbd afea 81bd 4c88 983d
00000130: 4ce3 5abe d063 a03e ed39 933d 7ecf 76be
00000140: d884 903d b44a 45bd 15c2 683e 51ab d63d
00000150: 2e2f ba3d f8f7 873d 3641 023f 9167 74bd
00000160: 5e49 ed3e 7e03 353c e089 03be cdb7 46be
00000170: 71ce c23e 00f6 743b 5c17 52be b22d 033f
00000180: 5753 4b3c 5514 873d 5bab a93c f09c f83c
00000190: 6962 5b3d 2ec7 cebd bb98 e2bd 4db1 243d
000001a0: cd52 793c 7df4 a7bd 41b2 ad3e 4bcd 6cbd
000001b0: 2a0a 0fbd 6f17 723e e5b2 32bd 005b 23bb
000001c0: f330 1b3e cfd9 a83d 29f3 a63d 8d1b 26bd
000001d0: fbeb 7bbe da0b 0e3c bb71 e3bb fae7 013f
000001e0: 9b72 a5bd 963f 14bc 1754 f7be e56d 8ebd
000001f0: 69ba 233f 00df 11be c6a5 e4bd da6a bf3d
00000200: 864a 953d cc1c 9ebd b283 883d 8055 723c
00000210: 005e 3cba e67f a2bd da9e 82bd c86e fabd
00000220: fed9 f13d ca2c a5bd f256 d0bd 986b b3bd
00000230: b0e3 153d f05b 653c 586c c5bd 6c04 37bd
00000240: 3477 493d 14ce 6cbd 70b5 1f3d 280d c23d
00000250: 204b 443c 943a 09bd 44a9 7abd b808 883d
00000260: 74a1 8e3d 20ab 25bd 0ee2 f63d 2c83 f23d
00000270: 502a 05bc 0ec6 eb3d 0a66 c3bd 9839 af3d
00000280: 8018 89bd cc36 10bd 30f1 d7bd 4604 9dbd
00000290: a049 ee3b 30f0 883c 206f 0f3d d01b 3dbc
000002a0: 00f6 b23c b0a5 eabd d032 bbbd 68f4 a3bd
000002b0: a0dc 5a3c 380a 7fbd f0d3 fbbc 700a c0bc
000002c0: 2a43 f6bd 2865 bd3d 5a42 8fbd b8ca e8bd
000002d0: 8092 e8bb bac6 be3d dced 2b3d f813 d0bc
000002e0: e417 12bd c2ac 90bd 5061 50bd c05c fbbb
000002f0: 862c d83d ea97 8c3d 662e 803d ec69 b33d
00000300: 04e8 f73d 0e48 8ebc ec42 fd3d e681 653c
00000310: 0cca 523e b4d2 9bbe c1b6 f13d 3c45 cebd
00000320: a3db 56bc 59d8 ddbd 8dd0 803e ade3 3a3e
00000330: 420f 47bd af12 e53d 222c 80bd 3cdd 3bbe
00000340: 1b40 033e 1326 f5bd 372a bcbe d113 803d
00000350: d7f3 15bd b460 37bc 22e5 03bd f4bf d8bd
00000360: 0fc0 cebe d205 363d 34ee dabd 65b3 073f
00000370: 895d 00be 46ad fcbd 4514 c8bc 50bc 2fbe
00000380: 3774 6f3c b108 2ebe 7f89 193e 7d87 f0bc
00000390: a0d8 e4bd e6fb dabd 11fc 823c ba7d b7bd
000003a0: 35bf 46bd 457a 093d 92b4 74bc e388 2f3e
000003b0: 8ba4 0fbd aaf4 77bf 7676 9d3e 7791 bfbd
000003c0: cd7f 2b3e 1668 4f3e 8825 21be 56e3 05be
000003d0: ca2a f53e b3c9 133e b951 cdbd 3d60 b5be
000003e0: 287e a83e a057 573e 7917 a93d 1038 23bd
000003f0: a55e 0bbb 9819 9abd 0d97 f73c 67b5 5f3e

model.dense_top.0.bias f4 [16]
0.17581497 0.11384413 -0.09174064 0.2316389 0.036813248 0.18964411 -0.11222447 0.13499914
0.03009108 0.048499454 0.1393821 0.18921801 0.19852674 0.20905094 0.10036119 -0.11197199
00000000: d708 343e 1c27 e93d 84e2 bbbd bf32 6d3e
00000010: 7dc9 163d 1132 423e f1d5 e5bd 373d 0a3e
00000020: 9281 f63c 5da7 463d 2eba 0e3e 5ec2 413e
00000030: 984a 4b3e 7311 563e 2b8a cd3d 9251 e5bd

model.dense_top.2.weight f4 [1, 16]
-0.8186193 -0.43741685 0.13550249 0.23341677 -0.08716766 -0.05172704 -0.015902737 -0.20447724
-0.26970604 0.32652152 -0.25917554 0.26283365 -0.27733722 -0.25080657 0.20504929 -0.19834599
00000000: 0991 51bf 1af5 dfbe 2ac1 0a3e ce04 6f3e
00000010: f584 b2bd bcdf 53bd 7546 82bc 7b62 51be
00000020: e916 8abe d42d a73e a8b2 84be 2292 863e
00000030: 25ff 8dbe b869 80be 71f8 513e 361b 4bbe
