03_Workshops/08_Transformer_Graph_Intro/models/ZINC-GCN-model21-val_loss0.59.ckpt (torch, 252023 bytes, 36 tensors)

model.node_embedding.weight f4 [28, 64]
-0.16779064 -1.1677095 0.08404308 1.4016697 0.9986314 0.7077956 1.1534706 -0.19974844
0.010137425 1.0066966 0.23659246 -1.2413833 -0.514409 -0.72802824 0.4839334 -1.0211738
-1.3285247 0.55576766 -0.5698482 0.17025363 -1.3876019 0.8402231 -0.2710023 -0.7114198
-2.0865824 -1.3253582 -1.044837 1.183269 -0.10278429 -1.186242 -1.2886068 -2.2746553
0.11762445 -0.68624294 1.7169286 -0.4112525 -0.4230488 -3.5899863 0.52263635 -0.13124643
1.3406963 1.8997734 0.4309308 0.45789933 0.046790477 -0.82892215 0.5018922 -0.040827572
-0.6270141 -0.5874042 -0.20169997 -0.32599497 -0.1590105 -1.6857038 2.3731184 0.84910524
0.07655832 0.91491795 -0.5253002 -0.29390308 -0.06465624 -0.9402732 -0.5505206 0.1209952
2.1619492 0.122820705 1.4694978 -0.082753554 -0.73368275 -1.3453871 0.2765407 -0.72240496
0.44301954 0.58078885 -1.227308 -0.5101363 0.2819801 -2.1221879 -1.1001045 0.20943707
-0.8959632 2.1998882 0.4709471 -0.19153424 -0.20113118 -1.4179134 -0.79389906 -1.563506
1.3054961 -0.46146497 -1.1296064 0.7995721 0.42819223 0.9592376 -2.2316866 0.21384329
-0.1406037 1.0659813 0.6130316 -0.2887104 -1.4575661 1.6721535 -1.1184013 0.6511118
-0.71668285 -0.65368426 -0.52354366 1.9601693 -1.1201338 -0.90054446 0.008957698 -1.0260946
0.25742757 0.364166 -0.9882264 0.33832803 1.7515043 0.8378188 0.22745897 0.17921951
-1.107074 -0.31719777 -1.43906 -0.021049833 0.6943476 -0.42644292 0.25775236 -0.8941717
-0.31029582 -1.3584203 -0.16856869 0.5555328 -0.28504068 1.4134926 -0.82187 -0.97441804
-1.3831598 0.8088973 0.8074829 -0.7722232 1.0940083 0.9287948 1.1300664 -0.34192914
-1.2038919 -1.9372767 -0.1051089 -1.2690787 -0.5818695 -0.47300175 1.5307083 -1.013349
-0.11720489 0.34108922 0.27898452 0.93791425 1.7836878 -0.524773 0.8343953 2.8329315
0.5240318 1.2221144 0.04122313 -1.727589 0.6393372 1.047805 0.5166957 -0.04207546
-2.3165438 0.09217569 0.7661862 -0.4039047 1.002225 0.93156093 -1.5056708 0.07223053
0.34054026 0.46267006 -0.6555436 0.7760595 -1.2464747 0.3370981 1.4910252 -0.020103682
0.50036305 -0.27530026 0.8168468 0.29408535 0.090773486 -0.25938642 0.04593954 1.218549
0.018319776 0.85290575 -0.5274953 -0.8250321 -0.07722051 0.43574712 -0.5694039 -0.09400924
2.0822723 -0.3737895 -0.15503974 1.6739666 1.0990595 -0.71733326 1.7725908 -0.40255734
0.9712045 -0.30658898 0.24700889 0.3405553 0.5335745 0.25607902 0.8851799 -0.39619496
0.7565677 -0.28509986 0.2594331 -1.6953061 0.74854 0.3000775 1.2580154 -0.30229
0.8942721 0.092615485 -0.13660696 0.21536313 0.30724087 -0.77415246 -0.25498998 -1.258109
0.48094726 -0.98217034 -0.8131666 0.030404905 0.7120485 0.3169375 -0.54840577 -0.6302671
0.86176175 -0.026864816 0.4538478 0.30347633 -0.29893702 -2.1198688 0.95194656 -0.819083
-0.052792694 1.67586 1.6856836 0.6962246 -1.0840356 -1.0310688 0.43577117 -0.26551813
00000000: 4fd1 2bbe 8177 95bf c71e ac3d ea69 b33f
00000010: 4fa6 7f3f 1832 353f eda4 933f db8a 4cbe
00000020: 7117 263c 6fdb 803f 4b45 723e a6e5 9ebf
00000030: 4fb0 03bf 0f60 3abf 1ec6 f73e d3b5 82bf
00000040: 190d aabf ca46 0e3f 92e1 11bf f856 2e3e
00000050: f09c b1bf dc18 573f d0c0 8abe 9c1f 36bf
00000060: 918a 05c0 56a5 a9bf 38bd 85bf 5c75 973f
00000070: 9280 d2bd c7d6 97bf 11f1 a4bf f493 11c0
00000080: 16e5 f03d 9ead 2fbf 51c4 db3f b08f d2be
00000090: da99 d8be 56c2 65c0 7fcb 053f 7765 06be
000000a0: f09b ab3f c62b f33f f6a2 dc3e c871 ea3e
000000b0: 5fa7 3f3d 3e34 54bf 027c 003f d03a 27bd
000000c0: ff83 20bf 1f60 16bf 708a 4ebe d0e8 a6be
000000d0: a6d3 22be 24c5 d7bf 2ce1 1740 f65e 593f
000000e0: 9cca 9c3d 1038 6a3f 137a 06bf 777a 96be
000000f0: 7e6a 84bd bfb5 70bf ebee 0cbf 55cc f73d
00000100: 605d 0a40 6c89 fb3d 8118 bc3f b27a a9bd
00000110: a2d2 3bbf a535 acbf be96 8d3e 88ef 38bf
00000120: 75d3 e23e 94ae 143f 6e18 9dbf 4b98 02bf
00000130: b25f 903e edd1 07c0 39d0 8cbf ac76 563e
00000140: d85d 65bf f8ca 0c40 fa1f f13e 8d21 44be
00000150: 55f5 4dbe 307e b5bf f83c 4bbf f720 c8bf
00000160: 7f1a a73f 2345 ecbe f196 90bf c2b0 4c3f
00000170: 033c db3e 9890 753f f4d3 0ec0 bcf9 5a3e
00000180: 6bfa 0fbe 1372 883f a4ef 1c3f d9d1 93be
00000190: 8791 babf 2009 d63f c627 8fbf 43af 263f
000001a0: 8778 37bf da57 27bf f506 06bf d4e6 fa3f
000001b0: 8b60 8fbf 158a 66bf 4fc3 123c 1157 83bf
000001c0: 8ccd 833e f773 ba3e 68fc 7cbf 5539 ad3e
000001d0: 4b31 e03f 4b7b 563f 01eb 683e 5285 373e
000001e0: 9ab4 8dbf bf67 a2be 1e33 b8bf b370 acbc
000001f0: c4c0 313f ba56 dabe 1ef8 833e 70e8 64bf
00000200: 18df 9ebe b7e0 adbf 459d 2cbe 6637 0e3f
00000210: daf0 91be 53ed b43f 1366 52bf 7673 79bf
00000220: 610b b1bf e513 4f3f 33b7 4e3f 6bb0 45bf
00000230: 7708 8c3f 7fc5 6d3f 04a6 903f 5611 afbe
00000240: 2119 9abf aff8 f7bf 5643 d7bd 2c71 a2bf
00000250: 66f5 14bf 492d f2be 40ee c33f 6cb5 81bf
00000260: 1e09 f0bd 3fa3 ae3e 0fd7 8e3e 261b 703f
00000270: e24f e43f 8657 06bf ee9a 553f c04e 3540
00000280: f326 063f 3f6e 9c3f 96d9 283d a321 ddbf
00000290: 9aab 233f 791e 863f 2b46 043f 5157 2cbd
000002a0: 4142 14c0 9cc6 bc3d c724 443f 99cc cebe
000002b0: e948 803f c77a 6e3f d2b9 c0bf 9aed 933d
000002c0: 4b5b ae3e 17e3 ec3e b5d1 27bf d6ab 463f
000002d0: 7c8c 9fbf 1f98 ac3e ead9 be3f 7ab0 a4bc
000002e0: cb17 003f 28f4 8cbe df1c 513f 5b92 963e
000002f0: 73e7 b93d 4cce 84be 192b 3c3d 6af9 9b3f
00000300: 5b13 963c 0858 5a3f ef09 07bf 4e35 53bf
00000310: c925 9ebd 3f1a df3e 74c4 11bf eb87 c0bd
00000320: f343 0540 5661 bfbe bdc2 1ebe 8a44 d63f
00000330: fbad 8c3f 27a3 37bf 41e4 e23f ff1b cebe
00000340: dca0 783f 3bf9 9cbe e6ef 7c3e 445d ae3e
00000350: 5798 083f ca1c 833e 269b 623f 11da cabe
00000360: 6cae 413f 9cf8 91be 6ad4 843e caff d8bf
00000370: 51a0 3f3f c2a3 993e a606 a13f c1c5 9abe
00000380: 04ef 643f 30ad bd3d b2e2 0bbe 2788 5c3e
00000390: ad4e 9d3e db2e 46bf 0c8e 82be b709 a1bf
000003a0: b83e f63e 846f 7bbf b02b 50bf b513 f93c
000003b0: cf48 363f a245 a23e 5264 0cbf 2f59 21bf
000003c0: 6b9c 5c3f 9a13 dcbc bd5e e83e 4061 9b3e
000003d0: 460e 99be eeab 07c0 c5b2 733f 6caf 51bf
000003e0: 273d 58bd 9582 d63f 7bc4 d73f c63b 323f
000003f0: aec1 8abf 10fa 83bf 661d df3e fef1 87be

model.blocks.0.Transform.weight f4 [64, 64]
0.016859565 0.068521775 -0.0341233 -0.14222282 -0.08709491 0.08527661 0.1194714 -0.043450657
-0.10625455 0.03355418 0.0040841517 0.029883415 -0.13716187 0.13448484 -0.014120083 -0.07754271
0.008667005 0.13132608 -0.1404939 0.10921709 -0.059878483 0.16448155 -0.16898538 0.091220856
-0.032662574 0.04468508 0.049464293 0.13093959 -0.075505085 0.068282895 -0.05484539 0.02032911
0.13123752 -0.19579622 -0.06545963 0.10861313 -0.054986436 0.040491305 0.18162817 0.39711085
-0.08450474 0.022737965 0.0066717574 -0.13624287 0.18069147 -0.1184765 0.24972424 0.032654144
0.015181643 -0.16407962 0.040848106 -0.11327443 -0.07760266 0.010215356 0.100677036 0.002105275
-0.045383193 -0.001160266 -0.26055348 -0.07858711 0.06960586 -0.04133775 0.026529722 0.13033743
0.00027115346 -0.10766031 -0.15852743 -0.08388799 -0.029137952 -0.25228134 0.13915138 0.08028946
0.056394834 0.025371846 -0.20645215 0.10133551 0.2945513 -0.08919428 -0.06846322 0.060579192
0.09811254 0.10315072 0.23907112 0.22794843 0.12315209 -0.21296254 -0.047248993 0.110211216
0.24911112 -0.022609811 -0.1427654 -0.08040098 0.19119327 0.09089064 -0.05965857 -0.084375665
0.15774448 -0.2038916 -0.05266605 -0.097597726 -0.18380658 0.124154426 -0.0817236 -1.6456761e-06
-0.222986 0.08611029 0.21357618 -0.11433458 0.117139794 -0.02113805 0.027549021 0.02369964
0.02939266 0.07265626 -0.086185746 -0.092005186 0.2218451 0.16608389 -0.10330898 0.057544835
-0.16038571 0.054038092 -0.10907145 -0.28403568 -0.1312362 0.09733852 0.122345395 0.004755258
0.18073998 0.17189333 0.17431809 -0.1473234 -0.24036135 0.119788095 -0.09607334 -0.21891372
-0.030950611 -0.18477738 -0.0004929399 0.2542905 0.14422224 -0.1261688 0.14630169 -0.0077845706
0.18013234 -0.19547294 0.18691133 0.15171322 -0.25980768 -0.016531771 0.28672534 -0.17329733
0.2402961 -0.16506255 -0.0040928028 -0.10869064 -0.003802616 0.06286154 -0.08502038 0.24239244
-0.06067862 0.33580297 0.14209698 -0.2807243 0.0290874 0.53736657 -0.11919717 -0.12610671
-0.21731685 -0.41992238 0.082642786 0.03707159 -0.05735614 0.24672526 -0.12607308 0.112200886
-0.12131949 0.11438522 -0.1329875 -0.09299715 0.2199272 0.5590209 -0.00700898 -0.22860622
-0.0003824362 -0.34843418 -0.14514892 0.023906218 0.026727712 -0.09916842 0.060436748 -0.43362805
-0.19215243 -0.06826374 -0.44496658 -0.011362401 -0.03565905 0.06621585 -0.11522841 0.013136017
0.097345665 -0.07515851 -0.05484653 -0.12613805 0.01361187 0.11767889 0.08672811 -0.09807375
-0.04946503 0.0103903245 0.05744267 -0.16892171 -0.13481008 -0.0009846544 0.24883403 -0.11910278
-0.036657423 0.0020825388 0.08720307 -0.0057353335 -0.08918333 -0.03757978 0.060454156 0.04613753
0.075732164 0.13210799 0.08855746 0.07954807 -0.013463083 0.06309861 0.14466347 -0.4174918
-0.1496687 -0.08489263 -0.0838359 -0.17424491 -0.04579116 -0.00083796104 0.018855954 0.3277476
-0.064918265 0.00025749335 -0.11908386 -0.069301024 -0.06953472 0.04336066 0.074097276 0.171802
0.19733478 -0.07841816 0.19022168 -0.13853565 0.0011393827 0.0056964927 -0.0069537554 0.015933242
00000000: 121d 8a3c 2555 8c3d e0c4 0bbd dca2 11be
00000010: d15e b2bd 81a5 ae3d 6cad f43d 51f9 31bd
00000020: fc9b d9bd 1c70 093d 59d4 853b 10ce f43c
00000030: 2974 0cbe 65b6 093e ec57 67bc b6ce 9ebd
00000040: 0e00 0e3c 587a 063e a2dd 0fbe 36ad df3d
00000050: 2443 75bd da6d 283e 810a 2dbe 00d2 ba3d
00000060: 31c9 05bd b407 373d 129b 4a3d 0715 063e
00000070: 69a2 9abd e7d7 8b3d 8fa5 60bd 3c89 a63c
00000080: 2163 063e ce7e 48be b30f 86bd 9070 de3d
00000090: 7539 61bd 36da 253d bcfc 393e 1d52 cb3e
000000a0: d210 adbd f844 ba3c c29e da3b 4083 0bbe
000000b0: 2f07 393e cfa3 f2bd b6b7 7f3e 5ac0 053d
000000c0: 6dbc 783c 7d04 28be 5850 273d 6dfc e7bd
000000d0: 25ee 9ebd 4f5e 273c c32f ce3d a7f8 093b
000000e0: bae3 39bd 1114 98ba 4467 85be 47f2 a0bd
000000f0: 848d 8e3d c651 29bd dc54 d93c 2d77 053e
00000100: 9a29 8e39 027d dcbd 0455 22be 77cd abbd
00000110: b7b2 eebc 052b 81be b37d 0e3e cd6e a43d
00000120: 45fe 663d 9ed8 cf3c 3168 53be fe88 cf3d
00000130: 6ecf 963e 7eab b6bd 7236 8cbd e321 783d
00000140: 3aef c83d af40 d33d 0fcf 743e 506b 693e
00000150: 2a37 fc3d da12 5abe 2988 41bd 6bb6 e13d
00000160: fc16 7f3e 3638 b9bc 1831 12be 45a9 a4bd
00000170: 2bc8 433e df24 ba3d 8b5c 74bd 26cd acbd
00000180: c587 213e f6c8 50be 5bb8 57bd 51e1 c7bd
00000190: cb37 3cbe ad44 fe3d b45e a7bd 00e1 dcb5
000001a0: 7156 64be 975a b03d b7b3 5a3e 4028 eabd
000001b0: fde6 ef3d b429 adbc 7cae e13c bf25 c23c
000001c0: e0c8 f03c cecc 943d 2782 b0bd 376d bcbd
000001d0: 5d2b 633e e511 2a3e a993 d3bd 22b4 6b3d
000001e0: 273c 24be 0c57 5d3d da60 dfbd 206d 91be
000001f0: c862 06be 6b59 c73d 3990 fa3d ffd1 9b3b
00000200: e713 393e ce04 303e 7180 323e f2db 16be
00000210: 4921 76be 7653 f53d 19c2 c4bd eb2a 60be
00000220: 238c fdbc 4836 3dbe a338 01ba 5d32 823e
00000230: ffae 133e 6532 01be 1cd0 153e b615 ffbb
00000240: 9d74 383e 0f2a 48be af65 3f3e b65a 1b3e
00000250: 8305 85be a36d 87bc aacd 923e db74 31be
00000260: 2e10 763e 2806 29be eb1c 86bb 3399 debd
00000270: 4f35 79bb 8dbd 803d 2a1f aebd b935 783e
00000280: 258a 78bd 5eee ab3e df81 113e 18bb 8fbe
00000290: b348 ee3c db90 093f a51d f4bd 1e22 01be
000002a0: 4f88 5ebe 1100 d7be 9f40 a93d 61d8 173d
000002b0: 46ee 6abd 8ca5 7c3e 4d19 01be 94c9 e53d
000002c0: 5a76 f8bd cc42 ea3d e02d 08be 4a75 bebd
000002d0: 9934 613e fe1b 0f3f 96ab e5bb c017 6abe
000002e0: b881 c8b9 f765 b2be eba1 14be f9d6 c33c
000002f0: 13f4 da3c d018 cbbd 868c 773d 7f04 debe
00000300: 9bc3 44be dccd 8bbd a9d2 e3be 5d29 3abc
00000310: 390f 12bd 2d9c 873d dffc ebbd 7338 573c
00000320: 2a5d c73d b4ec 99bd c1a6 60bd 552a 01be
00000330: 5204 5f3c a101 f13d 829e b13d e4da c8bd
00000340: d89b 4abd 2e3c 2a3c 0149 6b3d d0f9 2cbe
00000350: a70b 0abe 850f 81ba 59ce 7e3e 29ec f3bd
00000360: 1826 16bd 347b 083b 8697 b23d 77ef bbbb
00000370: c0a5 b6bd 41ed 19bd c79e 773d b5fa 3c3d
00000380: 7719 9b3d 5147 073e 9d5d b53d 19ea a23d
00000390: 4394 5cbc d839 813d a922 143e 7cc1 d5be
000003a0: c042 19be 30dc adbd 28b2 abbd 426d 32be
000003b0: 838f 3bbd 9daa 5bba cd77 9a3c 89ce a73e
000003c0: def3 84bd 2c00 8739 3de2 f3bd b2ed 8dbd
000003d0: 3868 8ebd f39a 313d 50c0 973d ddec 2f3e
000003e0: 2112 4a3e b399 a0bd 79c9 423e 4adc 0dbe
000003f0: 5757 953a a5a9 ba3b 54dc e3bb 6e86 823c

model.blocks.0.Transform.bias f4 [64]
-0.058099166 0.007816896 -0.11187039 0.08332523 -0.0070891664 -0.07653437 0.08207597 -0.13253655
0.07168186 0.08427888 0.013901259 0.14074926 0.068781376 -0.039317265 0.04104428 0.11382654
-0.10440972 0.06843492 -0.115016006 -0.0068488657 0.15184052 0.16502345 0.07963575 -0.045013353
0.13021801 0.008140354 -0.03501555 -0.072752684 -0.080678225 0.0048128455 -0.027275011 0.07018111
0.11369589 -0.024737265 -0.058685366 0.014052532 0.02143758 -0.027849473 0.044440143 -0.051955268
-0.10859396 -0.027979583 -0.14401656 0.106888026 -0.020451566 -0.045189187 0.052224267 0.10499176
0.12452271 -0.07021177 0.0051893047 -0.0062753404 -0.028945548 0.018089639 -0.06671038 0.1166389
0.045951433 0.19236872 -0.15516792 -0.08168615 -0.081819996 0.017344736 -0.040071473 -0.01769406
00000000: 64f9 6dbd 7012 003c 4e1c e5bd 6ba6 aa3d
00000010: 3d4c e8bb 0dbe 9cbd 7217 a83d a9b7 07be
00000020: f0cd 923d 689a ac3d 1bc2 633c 9320 103e
00000030: 40dd 8c3d 240b 21bd 0c1e 283d e41d e93d
00000040: c3d4 d5bd 9b27 8c3d 838d ebbd 736c e0bb
00000050: 157c 1b3e e8fb 283e 1118 a33d ec5f 38bd
00000060: df57 053e 1f5f 053c 776c 0fbd 5cff 94bd
00000070: a03a a5bd 13b5 9d3b d86f dfbc 1dbb 8f3d
00000080: 64d9 e83d cea5 cabc 1160 70bd 973c 663c
00000090: dd9d af3c 9424 e4bc de06 363d 0ccf 54bd
000000a0: 8366 debd 7035 e5bc 1479 13be 1ce8 da3d
000000b0: 0b8a a7bc 4c18 39bd 1de9 553d eb05 d73d
000000c0: c305 ff3d 30cb 8fbd 0b0b aa3b 5fa1 cdbb
000000d0: 371f edbc b930 943c 749f 88bd 60e0 ee3d
000000e0: 9237 3c3d 4efc 443e 57e4 1ebe 114b a7bd
000000f0: 3e91 a7bd 8c16 8e3c fc21 24bd 22f3 90bc

model.blocks.1.Transform.weight f4 [64, 64]
0.04704321 0.068885595 -0.8435177 -0.10454563 -0.10732978 0.17417842 -0.31441933 -0.07987763
-0.27334356 0.013041749 0.20699114 0.108298905 0.12812755 0.28356168 0.13601989 -0.08797632
0.24924025 -0.021530269 0.14629109 0.10684505 0.12627868 0.053649757 0.06565716 0.020703988
0.08541994 -0.13171779 -0.11195488 0.3398157 -0.1031222 -0.064692594 -0.02488552 -0.16087069
0.023512708 -0.083590485 -0.44748083 0.08350373 -0.037131544 -0.12511052 0.11356797 -0.20290864
-0.12284382 -0.5328466 -0.29257613 0.13351431 0.0006616849 -0.20023043 0.019830607 0.11779235
-0.05296891 -0.10722811 -0.08563295 -0.005744656 -0.015049639 -0.00043534947 -0.13427652 -0.18168133
-0.029064097 0.21669616 -0.10947169 0.005605484 -0.2569019 -0.0879918 0.130333 -0.0019858712
0.064465106 -0.09154094 0.49718368 -0.11458483 0.14916681 -0.079498515 0.251369 -0.032496955
0.10854649 -0.0110876 0.16105792 0.061803386 -0.068403564 -0.18687415 -0.018147336 0.17033029
-0.37613916 -0.3033908 0.011349672 -0.19908533 -0.52502877 0.02579055 -0.06947736 0.085504614
0.025105795 -0.02085722 -0.047628034 -0.5093223 -0.059737287 0.18312104 -0.47358042 0.02500724
0.29432043 -0.010773843 0.10210138 -0.19584519 -0.04907455 -0.18586324 0.04119856 0.19613141
-0.13394521 -0.0029863473 -0.075772874 -0.20512767 -0.17271791 -0.0051752776 -0.115424134 0.24688287
-0.13990265 0.0977756 0.11058973 -0.03073546 -0.02956591 -0.04692878 -0.4166943 0.24385078
-0.08276396 -0.043605898 -0.085268386 -0.11496991 -0.3300145 -0.05606938 -0.25671294 -0.061277527
-0.17082235 0.1399068 -0.49979028 -0.053195965 -0.19528165 0.017262632 0.041599557 0.122152135
-0.040623866 0.14061889 0.060830284 0.19356024 -0.06068847 0.24130109 0.030718293 0.049145065
0.22169761 -0.16888744 0.30841842 0.019705739 0.06459841 -0.014919901 0.05825356 0.021935109
0.07740918 -0.000119297314 -0.12383143 0.18957442 -0.04851745 0.09841513 0.000120739016 0.11570862
-0.017520744 -0.047870345 -0.097958185 0.14302044 0.15357098 0.0784633 0.016548777 0.022432238
-0.05119482 -0.07876048 -0.062993184 0.029375674 0.0897645 0.08142583 0.03914719 0.012270968
0.1391349 -0.0054452294 0.0042307475 -0.053818516 0.12594932 0.16541213 0.22460441 0.041040204
0.06580795 -0.05259537 -0.11403846 -0.12119951 0.00038199048 0.0019404779 0.18987353 -0.083371714
0.12509556 0.047716673 -0.16974005 0.08372528 -0.009383073 -0.49819016 0.28498822 -0.23635001
-0.36256218 -0.14016165 0.03557785 -0.11417342 0.08179761 -0.13232753 -0.35223928 -0.024726242
0.41380757 0.04968751 -0.010690108 0.090845294 0.10956088 -0.0700247 -0.08566479 -0.3789788
-0.1499194 0.04544558 0.19957417 0.09776015 0.038541604 -0.008022612 -0.036218565 -0.09081668
0.07536144 -0.3321185 0.034228053 -0.30849132 -0.011031545 -0.15007284 -0.018263504 -0.07769626
-0.08789382 0.13756981 -0.6045556 0.2295513 -0.067815565 -0.40301195 -0.19055045 -0.005708163
-0.045792207 -0.040144056 0.10305256 -0.25453603 0.10397723 0.22597541 -0.19840269 -0.01148629
-0.17428027 -0.046692427 -0.25007212 0.055080928 -0.20652457 -0.24874403 0.07033873 -0.13243552
00000000: 62b0 403d e413 8d3d c7f0 57bf 051c d6bd
00000010: b7cf dbbd d45b 323e 92fb a0be e296 a3bd
00000020: b0f3 8bbe 0fad 553c 7cf5 533e d1cb dd3d
00000030: de33 033e ff2e 913e cc48 0b3e ee2c b4bd
00000040: d638 7f3e 3f60 b0bc 55cd 153e 94d1 da3d
00000050: 334f 013e d9bf 5b3d 4377 863d 699b a93c
00000060: a6f0 ae3d 07e1 06be 9a48 e5bd 53fc ad3e
00000070: bb31 d3bd 8d7d 84bd b8dc cbbc 49bb 24be
00000080: b99d c03c 7d31 abbd 351c e5be 0104 ab3d
00000090: 3f17 18bd f91c 00be 5396 e83d 48c7 4fbe
000000a0: 8a95 fbbd a368 08bf 8acc 95be fab7 083e
000000b0: ec74 2d3a 3509 4dbe cc73 a23c 1e3d f13d
000000c0: eef5 58bd 699a dbbd 5460 afbd ab3d bcbb
000000d0: c392 76bc 9e3f e4b9 c97f 09be ac0a 3abe
000000e0: d417 eebc 99e5 5d3e b232 e0bd 35ae b73b
000000f0: a588 83be 0b35 b4bd 0476 053e 6425 02bb
00000100: 4806 843d d179 bbbd dc8e fe3e 74ab eabd
00000110: 2fbf 183e 1ed0 a2bd 70b3 803e 871b 05bd
00000120: 9f4d de3d c4a8 35bc 5eec 243e 8c25 7d3d
00000130: 2b17 8cbd f05b 3fbe b9a9 94bc 106b 2e3e
00000140: 5095 c0be 0a56 9bbe faf3 393c 06dd 4bbe
00000150: 4968 06bf b446 d33c 254a 8ebd 0b1d af3d
00000160: abaa cd3c c3dc aabc 9d15 43bd f262 02bf
00000170: 16af 74bd 1584 3b3e 2279 f2be fcdb cc3c
00000180: 2bb1 963e c684 30bc 871a d13d a48b 48be
00000190: 6502 49bd ef52 3ebe d2bf 283d acd6 483e
000001a0: ef28 09be 98b6 43bb cf2e 9bbd fd0c 52be
000001b0: f7dc 30be 6095 a9bb 7d63 ecbd ddce 7c3e
000001c0: a442 0fbe 933e c83d de7c e23d eec8 fbbc
000001d0: 3534 f2bc 6438 40bd f558 d5be 05b4 793e
000001e0: 2780 a9bd 199c 32bd 31a1 aebd 5875 ebbd
000001f0: a9f7 a8be 02a9 65bd e16f 83be 25fe 7abd
00000200: 0eec 2ebe ba43 0f3e 83e4 ffbe 03e4 59bd
00000210: eaf7 47be 5d6a 8d3c 4c64 2a3d e62a fa3d
00000220: 3665 26bd 66fe 0f3e 2d29 793d a834 463e
00000230: 7994 78bd a217 773e eea4 fb3c 564c 493d
00000240: b304 633e d4f0 2cbe 05e9 9d3e ee6d a13c
00000250: 2c4c 843d 9a72 74bc 499b 6e3d 42b1 b33c
00000260: b488 9e3d 422f fab8 559b fdbd cc1f 423e
00000270: 3cba 46bd df8d c93d 4435 fd38 a4f8 ec3d
00000280: aa87 8fbc b213 44bd 4d9e c8bd f373 123e
00000290: b641 1d3e 5eb1 a03d 4d91 873c d0c3 b73c
000002a0: a9b1 51bd 2d4d a1bd 9202 81bd 41a5 f03c
000002b0: 73d6 b73d 96c2 a63d ce58 203d 2c0c 493c
000002c0: 6179 0e3e e56d b2bb 15a2 8a3b ce70 5cbd
000002d0: dcf8 003e cc61 293e b3fe 653e c619 283d
000002e0: 52c6 863d 3e6e 57bd ff8c e9bd 7337 f8bd
000002f0: e545 c839 a257 fe3a 356e 423e cabe aabd
00000300: 0d19 003e 8f72 433d 56d0 2dbe 2978 ab3d
00000310: 76bb 19bc c812 ffbe fae9 913e bd05 72be
00000320: c0a1 b9be 8986 0fbe 14ba 113d c1d3 e9bd
00000330: 8185 a73d de80 07be b558 b4be b08e cabc
00000340: 96de d33e 2185 4b3d 9025 2fbc 190d ba3d
00000350: 7461 e03d 1c69 8fbd 0571 afbd 8209 c2be
00000360: 7984 19be 2525 3a3d 2c5d 4c3e 7936 c83d
00000370: cddd 1d3d 4671 03bc eb59 14bd 18fe b9bd
00000380: 1957 9a3d 700b aabe b732 0c3d 93f2 9dbe
00000390: a7bd 34bc b2ac 19be 589d 95bc 371f 9fbd
000003a0: ad01 b4bd 1adf 0c3e 28c4 1abf 7f0f 6b3e
000003b0: e3e2 8abd 9557 cebe a81f 43be 8b0b bbbb
000003c0: 9c90 3bbd 186e 24bd 380d d33d 8c52 82be
000003d0: 04f2 d43d 1966 673e 132a 4bbe fe30 3cbc
000003e0: 8776 32be 8f40 3fbd 7409 80be 8a9c 613d
000003f0: 2d7b 53be c1b6 7ebe c10d 903d 2d9d 07be

model.blocks.1.Transform.bias f4 [64]
-0.0046897484 -0.035463613 -0.08870845 0.03581446 -0.07087445 0.10056183 -0.074737675 -0.14521748
0.06415042 -0.048039816 0.08627793 0.005995705 0.05862155 0.09593957 0.021464637 0.076194055
0.077387184 -0.08015964 0.09263855 -0.06762682 -0.034146935 0.06711702 -0.04523669 -0.06470006
-0.0898603 -0.043409664 -0.0025542034 -0.06434008 0.1600807 -0.017758148 -0.006145184 0.21050206
-0.06794155 -0.004786947 -0.08628204 -0.13830894 0.14265333 0.18965071 -0.029860768 0.021154638
-0.09367945 0.04826713 0.072228335 -0.0029813875 -0.008307819 0.066839635 0.010643737 0.113178305
0.109902255 0.060932904 -0.06964466 0.18582888 -0.16546309 0.032819822 0.016955359 -0.1274862
-0.0050868387 -0.01656596 0.08853968 -0.06855207 -0.030799735 0.17499168 -0.08767202 -0.062276743
00000000: 76ac 99bb 4b42 11bd c7ac b5bd 2fb2 123d
00000010: a026 91bd 5cf3 cd3d 1110 99bd e4b3 14be
00000020: 4c61 833d 66c5 44bd 7cb2 b03d 9e77 c43b
00000030: 271d 703d f77b c43d 9bd6 af3c a10b 9c3d
00000040: 2c7d 9e3d bd2a a4bd 48b9 bd3d ee7f 8abd
00000050: a8dd 0bbd a674 893d 1c4a 39bd 7781 84bd
00000060: ad08 b8bd 55ce 31bd 6c64 27bb bbc4 83bd
00000070: 32ec 233e 8979 91bc 8a5d c9bb da8d 573e
00000080: f024 8bbd d2db 9cbb a3b4 b0bd dca0 0dbe
00000090: b713 123e cc33 423e 929e f4bc 7e4c ad3c
000000a0: 03db bfbd c1b3 453d 73ec 933d 6263 43bb
000000b0: 851d 08bc 38e3 883d 1263 2e3c 07ca e73d
000000c0: 6f14 e13d c894 793d dca1 8ebd ed49 3e3e
000000d0: 286f 29be 146e 063d f7e5 8a3c be8b 02be
000000e0: 7faf a6bb 56b5 87bc 4b54 b53d 0765 8cbd
000000f0: ba4f fcbc 0531 333e 638d b3bd e615 7fbd

model.blocks.2.Transform.weight f4 [64, 64]
-0.2613102 -0.12825911 -0.09617269 0.02617125 -0.15971519 -0.037929084 0.14588265 0.101394616
-0.092411965 0.20352606 -0.10430981 0.04165725 -0.18329823 -0.26048222 -0.35084105 -0.18612339
0.040714014 -0.10186329 0.18662255 -0.0025147428 -0.12667112 0.10188926 -0.35396776 0.011784647
0.056994006 -0.03235422 0.04910223 0.06533291 -0.09048043 -0.036737397 0.021771496 0.045908067
0.013386191 0.03509512 -0.1274042 -0.10239305 0.01100251 0.1406496 -0.095095925 0.11502405
0.057996016 0.022863949 -0.03870124 -0.09082113 -0.0244407 0.0144550605 -0.14574754 0.12625171
0.042429306 -0.0069388826 0.10271093 -0.023761662 0.046712935 -0.15219273 -0.03352626 -0.009499129
-0.036243543 -0.035909574 0.18398662 -0.05456199 0.050960556 0.1067017 -0.07384605 0.090054706
0.039511222 -0.019972647 -0.06432906 0.033279162 -0.124820486 -0.03632805 -0.06292711 0.019512773
-0.0055218283 0.028961606 -0.09324661 0.095299676 0.048847325 0.04131239 -0.0637804 -0.09890432
-0.049267188 0.063885525 -0.09002546 -0.095292434 0.11078692 -0.040360257 -0.03097341 -0.0044116275
-0.09869227 -0.101701155 0.056195002 -0.024968341 -0.06421537 -0.099027656 -0.10346851 0.017862901
-0.10777482 -0.011822 0.0030382276 -0.060503364 0.021971319 -0.0016022929 0.0012462903 0.032396544
-0.077824526 -0.053985726 -0.0696733 -0.09885817 0.064720325 0.065475605 -0.06154466 -0.100484855
-0.06990732 0.025843306 -0.07816329 0.026500853 0.100592256 0.08097574 -0.020990528 0.0973911
-0.023721352 0.022360384 0.06378895 -0.11221539 -0.03824436 -0.06383545 0.0009619607 -0.11673736
0.10965263 -0.20573969 -0.060404614 0.097653285 0.026423365 0.027421018 -0.053097676 -0.08190464
0.0061943876 -0.3664898 0.018727874 -0.120389715 0.14809324 0.2736167 0.023409935 -0.2409194
-0.07014692 0.00084470666 -0.08719595 0.109472826 0.058946658 0.1307762 0.17640227 -0.092442825
0.04509199 0.10646384 0.16222176 -0.06407742 0.113177836 0.029065924 0.04492281 -0.050010104
0.0013431684 -0.4273856 0.067740455 0.06997057 -0.102615565 0.1694563 -0.12824276 0.009122168
0.18997133 0.089158826 0.08974111 0.13635573 0.020438071 -0.09487016 0.15857683 0.008452785
-0.06378434 -0.035751294 0.033225283 0.11086219 -0.6116841 0.38491952 -0.01010746 0.022834664
0.14363396 -0.13993694 -0.18976721 0.09506965 0.03659714 0.13038436 -0.12474674 -0.14525731
-0.105899975 -0.11452225 0.15660176 -0.17509224 -0.09380486 0.074041285 0.0017075255 0.08538609
-0.0738715 0.17186856 -0.12976801 0.09118703 -0.270874 -0.038138144 -0.21389736 -0.007290173
-0.096814215 0.082310006 0.2157579 0.15591137 -0.11550549 0.13613482 -0.508194 0.15815368
-0.031139698 -0.03758135 -0.10287356 -0.108395875 -0.14084886 -0.08089039 -0.09778718 -0.001266318
-0.031945225 0.030316945 0.069754 0.029206572 -0.013273954 0.049982898 0.05105626 0.1404677
-0.3403309 0.057474446 0.022294275 -0.071654074 0.10682673 -0.054881345 -0.016772604 0.032175213
0.079522744 0.10079626 0.06436371 -0.011762404 0.09875 -0.10990636 -0.0042695543 0.11418924
0.046314236 0.15547502 0.116634406 0.10072945 0.15137783 0.022794914 0.123072274 -0.008660746
00000000: 73ca 85be 5b56 03be 30f6 c4bd 1765 d63c
00000010: 618c 23be 875b 1bbd 4362 153e fba7 cf3d
00000020: 7c42 bdbd 2369 503e 62a0 d5bd cba0 2a3d
00000030: 88b2 3bbe ed5d 85be 70a1 b3be 2197 3ebe
00000040: bdc3 263d b39d d0bd fb19 3f3e 62ce 24bb
00000050: 13b6 01be 51ab d03d 433b b5be 6414 413c
00000060: 8c72 693d dc85 04bd 6c1f 493d 43cd 853d
00000070: ce4d b9bd f479 16bd 235a b23c 190a 3c3d
00000080: c151 5b3c e7bf 0f3d 3f76 02be 73b3 d1bd
00000090: df43 343c 7306 103e a7c1 c2bd bb91 eb3d
000000a0: 3b8d 6d3d 2d4d bb3c 3185 1ebd 6e00 babd
000000b0: dd37 c8bc ebd4 6c3c d83e 15be 2148 013e
000000c0: 5aca 2d3d 915f e3bb 1c5a d23d d1a7 c2bc
000000d0: 1056 3f3d 69d8 1bbe d552 09bd 3ca2 1bbc
000000e0: 1c74 14bd eb15 13bd fd66 3c3e 657c 5fbd
000000f0: 04bc 503d 6c86 da3d 993c 97bd 9a6e b83d
00000100: 85d6 213d ad9d a3bc f4be 83bd bb4f 083d
00000110: e2a1 ffbd b9cc 14bd eedf 80bd 40d9 9f3c
00000120: 74f0 b4bb e440 ed3c 14f8 bebd 7a2c c33d
00000130: 2214 483d 2e37 293d 4c9f 82bd 598e cabd
00000140: 64cc 49bd 6ad6 823d 455f b8bd ae28 c3bd
00000150: 41e4 e23d cc50 25bd f3bb fdbc 6a8f 90bb
00000160: 2c1f cabd b248 d0bd bb2c 663d 688a ccbc
00000170: 5983 83bd 03cf cabd 4ce7 d3bd 3855 923c
00000180: 0bb9 dcbd 10b1 41bc 001d 473b 60d2 77bd
00000190: 32fd b33c 0704 d2ba 905a a33a 3db2 043d
000001a0: 7762 9fbd 2320 5dbd e0b0 8ebd 2776 cabd
000001b0: 178c 843d 1318 863d 4116 7cbd 01cb cdbd
000001c0: 922b 8fbd 57b5 d33c 1314 a0bd 5118 d93c
000001d0: 5003 ce3d 9cd6 a53d 54f4 abbc fc74 c73d
000001e0: 4853 c2bc 202d b73c c8a3 823d 2fd1 e5bd
000001f0: 1ea6 1cbd 29bc 82bd 172c 7c3a ff13 efbd
00000200: 8f91 e03d 6dad 52be d46a 77bd 72fe c73d
00000210: d075 d83c 0ba2 e03c f37c 59bd 9fbd a7bd
00000220: 4afa ca3b 8da4 bbbe 336b 993c e28e f6bd
00000230: c1a5 173e 7d17 8c3e 31c6 bf3c 93b3 76be
00000240: 30a9 8fbd 4e6f 5d3a ca93 b2bd 4a33 e03d
00000250: 0d72 713d 32ea 053e cca2 343e aa52 bdbd
00000260: 61b2 383d b709 da3d 761d 263e 063b 83bd
00000270: c8c9 e73d a91b ee3c fb00 383d 65d7 4cbd
00000280: 410d b03a 49d2 dabe 82bb 8a3d bb4c 8f3d
00000290: 1c28 d2bd f485 2d3e 1252 03be 2575 153c
000002a0: d887 423e e798 b63d 30ca b73d d6a0 0b3e
000002b0: be6d a73c 494b c2bd f761 223e 8d7d 0a3c
000002c0: 5da1 82bd f36f 12bd 3c17 083d b70b e33d
000002d0: 5497 1cbf 2c14 c53e c399 25bc c30f bb3c
000002e0: c814 133e a14b 0fbe 5652 42be e0b3 c23d
000002f0: e2e6 153d 7a83 053e 387b ffbd 55be 14be
00000300: 16e2 d8bd a48a eabd 365c 203e 614b 33be
00000310: c31c c0bd f5a2 973d 0ccf df3a e7de ae3d
00000320: f149 97bd 50fe 2f3e e8e1 04be 44c0 ba3d
00000330: ffaf 8abe be36 1cbd e907 5bbe 67e2 eebb
00000340: 8846 c6bd 2692 a83d a4ef 5c3e 3ba7 1f3e
00000350: 248e ecbd ed66 0b3e 0119 02bf 0af3 213e
00000360: ae18 ffbc e7ee 19bd 5faf d2bd a8fe ddbd
00000370: af3a 10be dca9 a5bd a544 c8bd 95fa a5ba
00000380: ffd8 02bd 3e5b f83c 2fdb 8e3d 9f42 ef3c
00000390: 007b 59bc deba 4c3d 5e20 513d c4d6 0f3e
000003a0: da3f aebe 536a 6b3d 7ca2 b63c 5fbf 92bd
000003b0: f9c7 da3d 43cb 60bd b366 89bc 28ca 033d
000003c0: d2dc a23d 456e ce3d 1fd1 833d 19b7 40bc
000003d0: 713d ca3d 9616 e1bd 9ee7 8bbb 0cdc e93d
000003e0: ffb3 3d3d d834 1f3e 05de ee3d 3e4b ce3d
000003f0: ca02 1b3e 66bc ba3c 510d fc3d cde5 0dbc

model.blocks.2.Transform.bias f4 [64]
0.061082613 0.029548986 0.01663553 0.12904608 0.37013903 -0.0024067361 0.13843618 -0.12282337
0.072481185 0.09059501 0.06039435 0.14243901 0.016780598 -0.012945956 -0.06564658 0.028282858
-0.023701185 0.0110628735 0.06313102 -0.04661404 0.1373111 -0.06515773 0.072186634 0.04910768
0.10480062 -0.027422985 -0.020970974 0.016811114 -0.025956249 -0.10288283 -0.027598849 -0.034196954
0.02499979 -0.02328989 -0.07296194 0.17342491 -0.01126473 0.1607072 0.12670939 0.05509947
-0.13166854 -0.03967701 0.14345509 -0.094072 0.07938372 0.12975238 -0.06533468 -0.058929358
-0.19108859 -0.0400868 0.17895034 0.12847663 -0.083409205 -0.038107987 0.12136797 -0.04850998
0.07339343 -0.03671482 0.13902166 0.0059036342 0.041342225 -0.05036796 -0.11411634 -0.086930536
00000000: c331 7a3d b710 f23c 3c47 883c a824 043e
00000010: dd82 bd3e 55ba 1dbb 37c2 0d3e d28a fbbd
00000020: 0471 943d e089 b93d 1160 773d 88db 113e
00000030: 7777 893c 461b 54bc b771 86bd 74b1 e73c
00000040: fd28 c2bc 0e41 353c d64a 813d 5dee 3ebd
00000050: 489b 0c3e 6a71 85bd 96d6 933d 2225 493d
00000060: b5a1 d63d 2ba6 e0bc 52cb abbc 76b7 893c
00000070: 33a2 d4bc 3cb4 d2bd fb16 e2bc 1b12 0cbd
00000080: 5ccc cc3c 70ca bebc 126d 95bd 4d96 313e
00000090: b48f 38bc 6e90 243e 1bc0 013e fbaf 613d
000000a0: 1ed4 06be 5c84 22bd e4e5 123e d2a8 c0bd
000000b0: ef93 a23d cfdd 043e 30ce 85bd e95f 71bd
000000c0: baac 43be 0e32 24bd c23e 373e 618f 033e
000000d0: 72d2 aabd 1f17 1cbd c58f f83d 67b2 46bd
000000e0: 4b4f 963d 4762 16bd b25b 0e3e 4673 c13b
000000f0: 7756 293d a24e 4ebd d4b5 e9bd a308 b2bd

model.blocks.3.Transform.weight f4 [64, 64]
0.11920105 0.09855842 -0.16535574 0.073736824 0.014826336 -0.07836162 0.09191251 0.034543216
0.020364923 0.019225815 0.08762766 0.044332117 0.020223139 -0.14899665 -0.07218345 0.02553836
0.077429816 -0.13007963 0.074143626 0.043714277 -0.0693008 0.1431904 -0.070273526 -0.1786575
0.07171878 -0.010226645 0.08243987 0.1253636 -0.17116886 0.013819471 0.014953228 -0.04749009
0.037098635 -0.023411855 0.17235726 -0.02550831 0.11234266 0.048001602 -0.05341662 -0.011979917
-0.039358057 0.12146106 0.08078773 0.08404625 -0.081293486 0.09054371 -0.004942881 0.12676398
-0.011758893 0.03403376 -0.11108292 0.15363507 -0.053428676 0.012955328 0.15402965 -0.046103515
0.003022107 0.09263145 -0.024282886 -0.09361853 0.06679996 -0.02880353 0.012481727 0.078355424
-0.0775658 -0.092011295 0.09077448 -0.027017074 -0.008759359 -0.012559381 -0.11087374 0.025885507
-0.43197364 0.09802835 0.0629347 0.09773976 -0.039646417 0.05507856 0.0440931 0.1395431
0.09356934 0.08759442 0.11203649 -0.056337234 0.053526945 0.08123638 0.149415 0.18987292
0.062167007 0.1974935 0.03675065 -0.07775999 0.1907306 0.0026883252 -0.1088723 -0.031015681
-0.021521436 0.043667696 0.03289383 0.012697475 -0.011222565 0.014702021 0.022265226 -0.009940842
-0.033020306 -0.027731618 -0.05996194 0.0023300617 0.1665917 -0.008938016 0.0854113 -0.090212
0.037574936 0.005690385 0.15285404 -0.06809006 0.05395521 0.074554935 0.04532302 0.16494462
0.075899415 -0.20609686 -0.04047321 -0.016640423 -0.13048545 -0.04518657 -0.014990699 0.053563572
0.098470084 0.0020931477 0.02398972 0.019611303 -0.015212524 0.06053633 0.031926673 -0.016813353
0.0021375108 0.023586672 -0.11197908 -0.1008145 -0.053185098 -0.08984654 -0.051271565 0.026219174
-0.05532477 -0.002968052 0.0068865605 -0.008843551 -0.032314643 -0.1016639 0.04992024 -0.12911332
-0.12198902 0.043462437 0.091641605 0.09681034 0.08841457 -0.07494266 -0.037841365 0.014640857
-0.05376315 0.07759881 0.09140533 0.091043 0.052782368 -0.079901874 0.07412434 -0.067988664
-0.07271707 0.08261597 0.07745824 -0.007525841 -0.084954135 -0.012365096 -0.019703899 0.046530645
-0.0013348006 -0.12518558 -0.06859202 -0.0063634347 -0.09389074 0.0019076066 -0.120172285 -0.109665036
0.028635811 -0.15252548 -0.115120634 0.059144147 -0.14097147 -0.082817405 0.025505658 -0.040231816
0.020080257 -0.049564533 0.0670685 -0.10095857 0.038778685 0.18903497 0.061625417 0.077304155
-0.13925609 -0.091029175 -0.04750192 0.2359669 -0.0941335 0.20728725 -0.08419575 0.1358377
0.018779568 0.16356143 0.08725863 0.06845453 -0.048581827 -0.101789 0.08313381 0.17711605
-0.05610918 0.043906625 0.11215928 0.10188168 0.21206242 -0.06262929 -0.13017197 0.025452089
0.09570057 0.008653294 0.05181526 -0.08612829 0.081024 -0.012546583 -0.13547562 -0.089592025
-0.09978236 0.12923063 -0.044927664 0.0055001862 0.2131866 0.09099143 -0.10018543 0.12263635
0.04280434 0.046570435 0.013846903 -0.049253296 0.026288008 0.21159436 0.07376928 0.11635523
0.07113752 -0.10066781 -0.106148235 0.052567247 -0.03558087 0.083822526 -0.07167694 0.013629034
00000000: ae1f f43d ffd8 c93d 0453 29be 5503 973d
00000010: 29ea 723c 0f7c a0bd a03c bc3d 307d 0d3d
00000020: 57d4 a63c 757f 9d3c 2176 b33d 9895 353d
00000030: ffaa a53c 9492 18be ebd4 93bd d335 d13c
00000040: 8693 9e3d 9833 05be 9dd8 973d be0d 333d
00000050: 94ed 8dbd 81a0 123e 91eb 8fbd fef1 36be
00000060: 4ce1 923d a88d 27bc 3cd6 a83d 515f 003e
00000070: e446 2fbe 106b 623c 62fe 743c f884 42bd
00000080: bdf4 173d 38ca bfbc 6c7e 303e cef6 d0bc
00000090: e913 e63d 549d 443d 63cb 5abd 6a47 44bc
000000a0: ea35 21bd 94c0 f83d 0a74 a53d 7120 ac3d
000000b0: 337d a6bd fb6e b93d e4f7 a1bb 6bce 013e
000000c0: 5fa8 40bc fc66 0b3d 717f e3bd 8352 1d3e
000000d0: 07d8 5abd 9642 543c f3b9 1d3e 0ad7 3cbd
000000e0: 8b0e 463b 8fb5 bd3d e7ec c6bc 12bb bfbd
000000f0: 6bce 883d 61f5 ebbc 2880 4c3c cf78 a03d
00000100: d1da 9ebd 6b70 bcbd f8e7 b93d e952 ddbc
00000110: 6a83 0fbc ddc5 4dbc c511 e3bd d80d d43c
00000120: a62b ddbe 16c3 c83d e8e3 803d c92b c83d
00000130: 4864 22bd 0e9a 613d f79a 343d 63e4 0e3e
00000140: 48a1 bf3d b464 b33d 6373 e53d dfc1 66bd
00000150: 123f 5b3d 425f a63d 3f00 193e 0c6e 423e
00000160: d5a2 7e3d bc3b 4a3e d987 163d a140 9fbd
00000170: e24e 433e 9d2e 303b 71f8 debd 9914 febc
00000180: b94d b0bc e6dc 323d aebb 063d 1209 503c
00000190: d9de 37bc bfe0 703c 9065 b63c eade 22bc
000001a0: 4d40 07bd 6b2d e3bc a79a 75bd f3b3 183b
000001b0: 0497 2a3e c270 12bc 1fec ae3d 12c1 b8bd
000001c0: 2de8 193d 6976 ba3b c585 1c3e cd72 8bbd
000001d0: 2300 5d3d 42b0 983d a2a4 393d 3ee7 283e
000001e0: 2771 9b3d 0e0b 53be 3dc7 25bd 7f51 88bc
000001f0: fa9d 05be 8e15 39bd 8c9b 75bc 7a65 5b3d
00000200: afaa c93d 312d 093b 1786 c43c e2a7 a03c
00000210: f33d 79bc f1f4 773d 8bc5 023d 28bc 89bc
00000220: 7b15 0c3b d638 c13c 4a55 e5bd d577 cebd
00000230: 9ed8 59bd 7601 b8bd 2202 52bd 98c9 d63c
00000240: 3a9c 62bd a683 42bb a8a8 e13b 8be4 10bc
00000250: 5c5c 04bd 2a35 d0bd 2a79 4c3d 4836 04be
00000260: 61d5 f9bd ab05 323d 98ae bb3d 8044 c63d
00000270: b312 b53d 8a7b 99bd 8cff 1abd 35e0 6f3c
00000280: c036 5cbd 20ec 9e3d b832 bb3d c174 ba3d
00000290: 5332 583d 98a3 a3bd 81ce 973d a43d 8bbd
000002a0: b0ec 94bd 9032 a93d 6da2 9e3d 549b f6bb
000002b0: 6ffc adbd f996 4abc 126a a1bc eb96 3e3d
000002c0: 7af4 aeba a630 00be f979 8cbd 5c84 d0bb
000002d0: ca49 c0bd a808 fa3a e31c f6bd 1098 e0bd
000002e0: a695 ea3c a42f 1cbe 5ec4 ebbd 2241 723d
000002f0: d35a 10be 2c9c a9bd 3ef1 d03c 1eca 24bd
00000300: 5a7f a43c 2e04 4bbd 365b 893d 5ec3 cebd
00000310: 66d6 1e3d 6292 413e ef6a 7c3d a451 9e3d
00000320: 2699 0ebe 816d babd 6091 42bd 4fa1 713e
00000330: 10c9 c0bd 1c43 543e d26e acbd 0a19 0b3e
00000340: 9cd7 993c a67c 273e a7b4 b23d e331 8c3d
00000350: bdfd 46bd c076 d0bd 0f42 aa3d e95d 353e
00000360: bdd2 65bd 6fd7 333d c4b3 e53d 58a7 d03d
00000370: e426 593e c943 80bd cd4b 05be e680 d03c
00000380: a9fe c33d 8cc6 0d3c 3d3c 543d 0764 b0bd
00000390: e9ef a53d 2f90 4dbc 1fba 0abe 067c b7bd
000003a0: b25a ccbd 0955 043e 1206 38bd e83a b43b
000003b0: 974d 5a3e b759 ba3d 052e cdbd c428 fb3d
000003c0: 9b53 2f3d a4c0 3e3d 1fde 623c d3bd 49bd
000003d0: f359 d73c 31ac 583e 5914 973d a74b ee3d
000003e0: 8cb0 913d ed2a cebd 3f64 d9bd c150 573d
000003f0: 3fbd 11bd 25ab ab3d 5ccb 92bd 504c 5f3c

model.blocks.3.Transform.bias f4 [64]
0.19425908 0.029128162 0.07021801 0.115814775 0.13369603 0.014582559 0.03430202 0.053117808
-0.0707568 -0.11172366 0.038603123 -0.028618209 0.022523249 0.14311408 -0.019909319 -0.008634402
-0.1269938 0.064905785 -0.114034764 0.046114057 0.17768565 0.17338172 0.030773876 0.08969477
-0.16263439 -0.123081714 -0.052318867 0.1960232 -0.092095256 -0.034314044 -0.07587964 0.11788174
0.064763345 0.0174209 -0.06773308 -0.008211102 0.06081016 0.12334982 -0.07272122 0.04167824
0.02224786 -0.0157077 0.013099527 -0.14446147 -0.041040227 0.020372868 0.118848376 0.0033467505
0.052780442 0.12539363 0.19771026 0.012936985 0.022709167 0.028166907 0.19939737 -0.0825832
0.0022609076 0.11318731 -0.011008859 -0.11952506 0.15968865 -0.043136068 0.0058245775 -0.07904112
00000000: daeb 463e 2f9e ee3c 76ce 8f3d 4c30 ed3d
00000010: 9de7 083e afeb 6e3c 4680 0c3d 0f92 593d
00000020: f1e8 90bd 60cf e4bd 4f1e 1e3d bc70 eabc
00000030: ad82 b83c 7f8c 123e de18 a3bc 4f77 0dbc
00000040: aa0a 02be 53ed 843d 0f8b e9bd 18e2 3c3d
00000050: 3af3 353e fa8a 313e 7f19 fc3c e4b1 b73d
00000060: a189 26be 4412 fcbd 4f4c 56bd 4eba 483e
00000070: 709c bcbd e28c 0cbd c966 9bbd fb6b f13d
00000080: a5a2 843d 46b6 8e3c a4b7 8abd dc87 06bc
00000090: 1314 793d d59e fc3d ddee 94bd cdb6 2a3d
000000a0: 2541 b63c 6fad 80bc 669f 563c b5ed 13be
000000b0: cc19 28bd 00e5 a63c c766 f33d 2855 5b3b
000000c0: 4e30 583d 3067 003e 8f74 4a3e a6f5 533c
000000d0: 9308 ba3c 49be e63c d32e 4c3e 6121 a9bd
000000e0: bc2b 143b c0ce e73d 805e 34bc 8ec9 f4bd
000000f0: 6c85 233e 72af 30bd 19dc be3b 50e0 a1bd

model.dense_top.0.weight f4 [16, 64]
-0.06801189 -0.009442431 0.04271169 0.01143996 -0.12711194 -0.11698948 0.016427448 -0.020544017
-0.11776142 0.016819838 -0.08740137 -0.1258316 -0.029003488 0.09250521 0.023670197 -0.02956883
-0.011337429 0.04304861 0.10390338 0.05514408 -0.033641748 -0.07407656 -0.08756268 -0.15127946
0.01291427 0.055054948 0.08682226 -0.025033152 -0.055726245 0.05906714 0.030167207 0.074995704
-0.084725 -0.044310577 -0.117861256 0.055986952 -0.11584465 -0.07122628 -0.09182264 -0.11859782
-0.06095399 0.081766665 0.09278086 0.1033673 0.11896621 -0.06456678 -0.09008595 -0.055328738
-0.09992492 -0.13364257 -0.13424909 0.09711649 0.06254962 -0.103793494 -0.05214129 0.057739127
-0.018650174 0.031476185 -0.04312958 0.034464374 -0.10157755 -0.007972077 -0.14748085 -0.107158914
0.088879675 0.10866805 -0.09201413 0.048331164 0.22002797 0.108073644 0.02704871 0.25281808
0.027322145 0.026045926 0.20243867 0.080004536 0.035457697 -0.021813817 -0.04077855 0.058669027
0.09886582 -0.09816172 -0.0195009 -0.12869762 -0.08824851 0.22398642 0.012033694 0.13561347
-0.09583662 0.06657792 0.038181297 0.07508937 0.048366964 0.11837016 -0.010917099 0.22552705
0.013661849 0.029334705 0.05958596 -0.10950891 0.1917368 -0.098093785 -0.09646484 0.062399764
-0.06954535 0.00013410606 -0.016526245 0.053251725 -0.02445054 0.099307515 0.1958979 -0.08402776
0.103338696 -0.066009566 0.0060909814 0.023282072 0.088373385 -0.08435649 -0.0261936 -0.12726627
0.024426328 -0.08322669 -0.020784885 -0.054379232 0.04240377 0.042348493 0.06988114 -0.028374948
0.11128093 -0.1433451 -0.023326514 -0.037254408 -0.046843745 0.027537242 0.04648472 -0.12829745
0.105022475 -0.13544396 0.0061235926 0.07714715 -0.0050634495 0.03291397 -0.033656523 0.061615497
0.0700219 0.09045462 0.06883827 0.1755676 0.080154225 -0.035606075 -0.10111775 -0.02260057
0.031755548 -0.015160145 0.006148791 0.17217313 -0.001954466 0.031950288 -0.06950563 -0.016303146
0.08262089 0.17112887 0.08726548 0.18725824 -0.08481411 0.20336644 -0.056960084 -0.014410826
-0.00982246 0.1661246 0.07448397 0.032417748 0.016830295 0.16664217 -0.07782987 -0.011084401
-0.02575884 0.03641772 0.09605723 0.103784084 0.053095117 0.053552542 0.11762205 -0.0151776215
-0.10023767 0.0061740153 0.068366796 0.0008000121 -0.06746923 0.048505332 -0.09087329 0.08320047
-0.00983124 0.12312588 -0.05855167 -0.08547564 -0.10363336 -0.0029125065 -0.09549957 -0.114723995
0.047083423 0.012243733 0.039542153 -0.15207736 -0.090558276 -0.09441782 -0.07222521 -0.117399454
0.022052914 -0.012568425 0.07373901 0.070894584 0.029999651 -0.07824819 0.0942239 -0.1115607
-0.028935522 0.034485936 0.04407409 -0.048978988 0.034092918 -0.10406266 0.026631057 0.042510808
-0.13737369 0.07746413 -0.016626954 -0.087258756 0.07161239 -0.023994891 -0.0031858385 -0.047819495
0.065470666 -0.09427606 -0.029249927 0.062730536 -0.059951782 -0.13598584 -0.026575714 0.03204173
-0.054232806 -0.12744215 0.055202756 -0.0030432008 0.04772672 0.02282814 0.02226255 -0.0053303214
-0.08674437 0.0040023625 0.10422243 -0.029683843 0.112431064 -0.0523085 0.07835713 -0.020863697
00000000: d149 8bbd 6db4 1abc 74f2 2e3d ac6e 3b3c
00000010: a229 02be 2e98 efbd db92 863c ed4b a8bc
00000020: e62c f1bd c2c9 893c 7dff b2bd 00da 00be
00000030: b998 edbc 5f73 bd3d 00e8 c13c 553a f2bc
00000040: a0c0 39bc bd53 303d 4ccb d43d c2de 613d
00000050: eecb 09bd 74b5 97bd 1054 b3bd 01e9 1abe
00000060: 6096 533c 4c81 613d decf b13d 5312 cdbc
00000070: 3441 64bd 63f0 713d 3821 f73c 5997 993d
00000080: 4d84 adbd 027f 35bd 3e61 f1bd 9352 653d
00000090: f63f edbd 15df 91bd 820d bcbd 6ae3 f2bd
000000a0: e4aa 79bd 4875 a73d e403 be3d 3cb2 d33d
000000b0: 8ea4 f33d 973b 84bd fc7e b8bd 63a0 62bd
000000c0: 70a5 ccbd 99d9 08be 9878 09be 03e5 c63d
000000d0: 041a 803d af91 d4bd 1b92 55bd dd7f 6c3d
000000e0: 40c8 98bc 2ced 003d a4a8 30bd 842a 0d3d
000000f0: e407 d0bd 509d 02bc 3805 17be 2276 dbbd
00000100: 8c06 b63d 5b8d de3d e771 bcbd e6f6 453d
00000110: 034f 613e b755 dd3d 4295 dd3c 5f71 813e
00000120: b1d2 df3c 445e d53c 154c 4f3e 6bd9 a33d
00000130: 173c 113d e4b2 b2bc 6907 27bd ef4e 703d
00000140: 2a7a ca3d 0309 c9bd 5ac0 9fbc 4fc9 03be
00000150: a3bb b4bd b25c 653e f928 453c 42de 0a3e
00000160: fd45 c4bd 015a 883d fe63 1c3d 75c8 993d
00000170: 701c 463d 0e6c f23d a2dd 32bc 90f0 663e
00000180: f3d5 5f3c 564f f03c 6810 743d 3546 e0bd
00000190: a756 443e 65e5 c8bd 5c8f c5bd e596 7f3d
000001a0: cb6d 8ebd d29e 0c39 0c62 87bc 7b1e 5a3d
000001b0: 804c c8bc bd61 cb3d 7699 483e bf16 acbd
000001c0: 3da3 d33d 0630 87bd db96 c73b 0bba be3c
000001d0: 1bfd b43d 18c3 acbd f693 d6bc 1752 02be
000001e0: b919 c83c c172 aabd 1045 aabc c2bc 5ebd
000001f0: 93af 2d3d 9d75 2d3d d81d 8f3d 9472 e8bc
00000200: 42e7 e33d 0fc9 12be 3f17 bfbc 1498 18bd
00000210: 3adf 3fbd c895 e13c c366 3e3d 6860 03be
00000220: 0616 d73d d2b1 0abe 6ba8 c83b 53ff 9d3d
00000230: 4beb a5bb cdd0 063d 6cdb 09bd 8860 7c3d
00000240: a467 8f3d 4640 b93d 14fb 8c3d fec7 333e
00000250: e627 a43d add7 11bd d316 cfbd d524 b9bc
00000260: 1b12 023d 4262 78bc cc7b c93b 274e 303e
00000270: 8016 00bb 4ede 023d f858 8ebd 2d8e 85bc
00000280: 2435 a93d 683c 2f3e 3eb8 b23d a0c0 3f3e
00000290: 05b3 adbd 4b3f 503e fa4e 69bd 631b 6cbc
000002a0: 62ee 20bc 911c 2a3e 0d8b 983d 79c8 043d
000002b0: b0df 893c 3fa4 2a3e 4465 9fbd 599b 35bc
000002c0: 3404 d3bc bf2a 153d a7b9 c43d c08c d43d
000002d0: 447a 593d e959 5b3d d4e3 f03d 8fab 78bc
000002e0: 6849 cdbd 654f ca3b e403 8c3d e7b7 513a
000002f0: 4f2d 8abd 87ad 463d c71b babd 0265 aa3d
00000300: 3613 21bc 6c29 fc3d e0d3 6fbd da0d afbd
00000310: ba3d d4bd c0df 3ebb 4795 c3bd 6af4 eabd
00000320: 8cda 403d f099 483c f4f6 213d 2bba 1bbe
00000330: 9e76 b9bd 215e c1bd d0ea 93bd 206f f0bd
00000340: 50a8 b43c cceb 4dbc 7a04 973d 2e31 913d
00000350: d4c1 f53c 9640 a0bd 76f8 c03d f079 e4bd
00000360: 300a edbc 2041 0d3d 0887 343d 319e 48bd
00000370: 04a5 0b3d ce1e d5bd 6029 da3c d01f 2e3d
00000380: b0ab 0cbe 84a5 9e3d 4035 88bc b8b4 b2bd
00000390: 84a9 923d ef90 c4bc 80c9 50bb 60de 43bd
000003a0: 7c15 863d cf13 c1bd 8b9d efbc de78 803d
000003b0: 0090 75bd df3f 0bbe 50b5 d9bc 303e 033d
000003c0: 3823 5ebd 3280 02be 491c 623d 7070 47bb
000003d0: 187d 433d 1402 bb3c f45f b63c faa9 aebb
000003e0: 08a7 b1bd 4026 833b 9272 d53d 882b f3bc
000003f0: 4242 e63d 7041 56bd b479 a03d 58ea aabc

model.dense_top.0.bias f4 [16]
-0.12074838 0.11959143 0.1209446 -0.13744491 0.023042817 -0.045300722 0.019650292 -0.07159048
0.049737316 0.04971608 0.07691737 -0.15652432 -0.015912348 -0.08614437 -0.00040572786 0.045030206
00000000: ed4a f7bd 5aec f43d cdb1 f73d 5cbe 0cbe
00000010: 4ac4 bc3c 408d 39bd a6f9 a03c 089e 92bd
00000020: 5bb9 4b3d 17a3 4b3d db86 9d3d e947 20be
00000030: 9d5a 82bc 766c b0bd dfb7 d4b9 9871 383d

model.dense_top.2.weight f4 [1, 16]
-0.14489132 -0.20531888 0.2551982 -0.02091399 -0.0026673737 -0.2375493 -0.13002315 -0.18338998
0.10910184 0.05416232 -0.02130462 -0.06416826 -0.14734568 0.058199674 -0.19114281 -0.18557532
00000000: 645e 14be 1d3f 52be 57a9 823e d153 abbc
00000010: 1bcf 2ebb 2040 73be ca24 05be 95ca 3bbe
00000020: c970 df3d 4fd9 5d3d 0787 aebc a66a 83bd
00000030: c9e1 16be c862 6e3d f1ba 43be 7507 3ebe
