03_Workshops/03_Encoder-Decoders for Latent Space Manipulation/Denoising/lightning_logs/version_11/checkpoints/epoch=99-step=3200.ckpt (torch, 166227 bytes, 60 tensors)

model.encoder.blocks.0.layer.weight f4 [16, 1, 3, 3]
0	0xbd6b0cc7	-0.057385232
1	0xbe031ef5	-0.12804778
2	0x3e7aa6fb	0.2447776
3	0x3ea07b96	0.3134429
4	0xbe27b4d7	-0.16377579
5	0x3de48ee7	0.11160069
6	0xbb952ef4	-0.0045527164
7	0x3e9bf36b	0.3045915
8	0x3e9b32de	0.30312246
9	0x3e0e8106	0.13916406
10	0x3e73a500	0.23793411
11	0x3e9db477	0.30801746
12	0x3eb5f525	0.35538593
13	0x3ecca3aa	0.39968616
14	0xbc3db870	-0.011579618
15	0x3ea2355c	0.31681335
16	0x3eb5ea65	0.3553039
17	0x3de85e0b	0.11346062
18	0x3e992296	0.299092
19	0xbdd125fb	-0.10212322
20	0x3eabbe2a	0.3354352
21	0x3dfaf3f5	0.12253562
22	0x3eb2e66a	0.34941417
23	0x3db9134c	0.09036884
24	0x3e232a7c	0.15934175
25	0x3dee0153	0.11621346
26	0xbcfc0343	-0.030763274
27	0x3d8430f9	0.06454653
28	0x3e55c526	0.20875987
29	0xbd6a9c31	-0.057277862
30	0x3f03dbad	0.51507074
31	0x3da4db8b	0.08049687
32	0x3b38744e	0.0028145495
33	0x3e5565fe	0.20839688
34	0x3e875020	0.26428318
35	0x3c6bf7ae	0.014402313
36	0x3eac69c5	0.33674446
37	0x3e129882	0.1431599
38	0x3eb6592e	0.35614914
39	0x3e258ba2	0.16166547
40	0xbdbdb8d0	-0.09263766
41	0x3e4c12ef	0.19929098
42	0xbd19922f	-0.037492927
43	0x3e49680e	0.196686
44	0x3e90d0b8	0.2828424
45	0x3dbef100	0.09323311
46	0x3c6acf6d	0.014331681
47	0xbe5e6016	-0.21716341
48	0xbe4f59a2	-0.20249036
49	0x3e8906e4	0.2676307
50	0x3e92a818	0.2864387
51	0x3d63811a	0.055543043
52	0x3bf736bd	0.007544367
53	0x3cd69839	0.026195632
54	0xbea9a1cb	-0.3313125
55	0x3e071c4a	0.13194385
56	0x3c2d21b4	0.0105671175
57	0x3e1c7236	0.15277943
58	0xbe5f6282	-0.21814921
59	0x3eaf3d5d	0.34226504
60	0x3e844f0b	0.25841555
61	0xbeeb33ef	-0.4593806
62	0xbed6e70b	-0.41973147
63	0xbe4e8d50	-0.20171094
64	0x3ea13e0c	0.3149265
65	0x3d89ce64	0.06728819
66	0x3e4e88cc	0.20169371
67	0xbdec47c4	-0.11537126
68	0x3e31c75b	0.17361204
69	0xbea2c6a4	-0.31792176
70	0xbe949981	-0.29023364
71	0x3ea5867a	0.3232916
72	0xbde6bd55	-0.11266581
73	0x3e96b202	0.29432684
74	0x3e8b6fa0	0.272336
75	0xbd1a1797	-0.037620153
76	0xbd083af4	-0.033259347
77	0xbd035dc7	-0.032071855
78	0x3e0e072a	0.1386992
79	0x3e689e7c	0.22716707
80	0x3d276b2f	0.040873703
81	0xbd14eb07	-0.036356952
82	0x3e769fa8	0.24084342
83	0x3e9a42f6	0.30129212
84	0xbd2e1f6b	-0.04251043
85	0x3ebf9d37	0.37424633
86	0x3e9ad8ae	0.30243438
87	0xbd7d00be	-0.061768286
88	0x3ec0aba8	0.37630963
89	0x3e72b61e	0.23702285
90	0xbe2e10bf	-0.16998576
91	0xbd5f3beb	-0.0545005
92	0x3e35b1a5	0.17743547
93	0x3ea8850d	0.3291401
94	0x3db4f310	0.08835423
95	0x3db7a408	0.08966833
96	0x3dc25338	0.09488529
97	0x3e6767bd	0.22598167
98	0x3e040910	0.12894082
99	0x3e9298b2	0.28632122
100	0x3e1a9b56	0.15098318
101	0xbd6ffc5b	-0.058590274
102	0x3e5e1bd0	0.21690297
103	0xb80628a0	-3.1985925e-05
104	0xbd1e0005	-0.038574237
105	0xbba3a861	-0.0049944376
106	0x3e1eb40e	0.15498373
107	0xbe25f4ef	-0.16206716
108	0xbe75f4ef	-0.24019216
109	0x3bb44690	0.005501576
110	0x3e8cc991	0.27497533
111	0xbe9a14b7	-0.3009393
112	0xbdab0749	-0.08350999
113	0x3d3cf378	0.046130627
114	0x3ea91cc3	0.33029756
115	0x3eb0bcd6	0.3451907
116	0x3eac1740	0.33611488
117	0x3e97f393	0.2967802
118	0x3e2e8031	0.17041089
119	0x3ea5e655	0.32402292
120	0xbe0f7622	-0.14009908
121	0xbe97bf36	-0.2963807
122	0xbe837d2f	-0.25681445
123	0x3e92f42a	0.28701907
124	0xbe86368c	-0.2621349
125	0x3d9237ed	0.07139573
126	0x3e9df814	0.3085333
127	0x3e6166ef	0.22011922
128	0xbcb52650	-0.022112995
129	0x3dd8e6c5	0.10590891
130	0x3dacaba4	0.08431175
131	0x3e82d3e4	0.25552285
132	0xbd178a59	-0.036997173
133	0x3e18ee74	0.14934713
134	0x3ea2f396	0.31826466
135	0x3e4bc8e0	0.19900846
136	0x3e527863	0.20553736
137	0x3e42c3da	0.19020024
138	0xbe393d8a	-0.18089882
139	0xbdc790e7	-0.09744435
140	0xbe802dfa	-0.25035077
141	0x3e0474fd	0.12935252
142	0x3d10cce8	0.035351664
143	0xbe84be1d	-0.25926295

model.encoder.blocks.0.layer.bias f4 [16]
0	0x3ea58997	0.32331535
1	0xbe8d3d00	-0.27585602
2	0x3e93d91e	0.28876585
3	0xbe44663c	-0.19179624
4	0xbe5f7c43	-0.21824746
5	0x3e176729	0.14785446
6	0x3d991a00	0.07475662
7	0x3df0a594	0.117503315
8	0x3e98210d	0.29712716
9	0xbe7b944f	-0.24568294
10	0xbd9d43c8	-0.07678944
11	0x3ea4104d	0.32043687
12	0xbd2c89f5	-0.042123754
13	0x3e9e2c46	0.30893153
14	0xbc2e24e0	-0.010628909
15	0x3dab4170	0.083620906

model.encoder.blocks.1.layer.weight f4 [16, 16, 3, 3]
0	0xbccc8805	-0.024967203
1	0x3c21f939	0.0098860795
2	0x3cfd916e	0.030953135
3	0x3d24a6e2	0.040198214
4	0x3b357ce5	0.002769285
5	0x3d3fcc93	0.046825957
6	0x3d193e83	0.03741313
7	0x3d2724ac	0.040806457
8	0x3cfc344c	0.030786656
9	0x3d2bcf36	0.04194566
10	0x3dd7f11c	0.10544035
11	0xbd45aa9c	-0.04825841
12	0xbb71860a	-0.0036853575
13	0x3d475e49	0.0486739
14	0xbd94898f	-0.072528
15	0x3d8d1275	0.06888286
16	0xbbd8b5f9	-0.0066134897
17	0xbd63c441	-0.055607084
18	0x3d3d58a8	0.046227127
19	0xbccbc522	-0.024874274
20	0xbd56799f	-0.05236208
21	0xbd306315	-0.043063242
22	0xbaeda7c1	-0.001813166
23	0xbc444e62	-0.011981579
24	0xbb14c789	-0.002270194
25	0x3cf3f81a	0.02978139
26	0xbd73175d	-0.059348453
27	0x3d896197	0.06708067
28	0xbd88080a	-0.06642158
29	0xbe8ae489	-0.27127483
30	0xbe68dd14	-0.22740585
31	0xbddefeb7	-0.10888427
32	0xbdc59022	-0.09646632
33	0xbe4bbd90	-0.19896531
34	0xbc8253d1	-0.015909107
35	0xbe97cab6	-0.29646844
36	0x3de0b73f	0.109724514
37	0xbc77ecb4	-0.015132118
38	0xbdd6e803	-0.104934715
39	0xbaa2297f	-0.0012371986
40	0xbdac62f3	-0.084173106
41	0xbe3252a4	-0.17414337
42	0xbdbecf86	-0.09316926
43	0xbd5d81b5	-0.054078776
44	0xbea18277	-0.3154485
45	0x3dbf6d83	0.093470596
46	0x3ca457e9	0.02006145
47	0x3cac0164	0.020996757
48	0xbc9f6192	-0.019455705
49	0xbc60203c	-0.01367956
50	0x3db739b3	0.08946552
51	0x3da07c18	0.07836169
52	0x3ba4dfed	0.005031577
53	0x3db3fa54	0.08787981
54	0xbd2c3a7c	-0.042047963
55	0x3ce752f2	0.028237794
56	0xbd8d1da1	-0.06890417
57	0x3d6fbeb4	0.058531478
58	0xbd317b70	-0.04333061
59	0x3df94f0f	0.12173282
60	0x3c472560	0.012154907
61	0xbe1d5719	-0.15365256
62	0xbe22e7c6	-0.15908727
63	0x3cb36e5c	0.02190321
64	0x3db30952	0.08742012
65	0x3d342734	0.0439827
66	0x3d34295c	0.043984756
67	0x3d6eec8d	0.05833106
68	0x3d9217db	0.07133456
69	0x3c907621	0.017634453
70	0xbd958a33	-0.0730175
71	0x3dbb9f73	0.09161272
72	0x3dcd4148	0.10022217
73	0x3d2cb128	0.042161137
74	0x3d8d061d	0.06885932
75	0x3dc279ed	0.09495912
76	0x3d87a9a5	0.06624154
77	0x3da6e7c2	0.08149673
78	0xbd2e25fc	-0.042516693
79	0xbd1fc3b6	-0.039005004
80	0xbce6a065	-0.028152654
81	0xbc15b92f	-0.0091383895
82	0x3bebc01f	0.0071945335
83	0xbd2dc18f	-0.04242092
84	0xbcb5c720	-0.022189677
85	0xbcbc0353	-0.022950804
86	0x3ad4b709	0.0016228865
87	0xbd67ceea	-0.056593813
88	0x3d003e0d	0.031309176
89	0xbd3645be	-0.044500105
90	0xbd358721	-0.044318322
91	0x3c79e3dd	0.015252081
92	0x3d07b65c	0.033132896
93	0xbccb34da	-0.024805475
94	0x3d14a8d6	0.036293827
95	0xbd9118eb	-0.07084831
96	0x3b845e69	0.004039575
97	0x3d888945	0.06666807
98	0x3d9888b4	0.07447949
99	0xbc0a6a34	-0.008448172
100	0x3d878e4b	0.06618937
101	0x3d15dd5a	0.03658805
102	0x3d9322a0	0.071843386
103	0x3d5c3db6	0.05376979
104	0x3cc41b86	0.023938905
105	0x3d02692a	0.031838574
106	0x3d72cdd8	0.05927834
107	0xbcdd8fdb	-0.027046135
108	0x3d763699	0.060110662
109	0x3d823e3a	0.06359525
110	0x3c8be861	0.01707858
111	0x3d79bea8	0.06097284
112	0x3cf69010	0.030097991
113	0xbda796c8	-0.08183056
114	0x3d133294	0.035936907
115	0x3cbbb5c6	0.022913825
116	0x3c0d211c	0.008613851
117	0x3da245e9	0.079234906
118	0xba346119	-0.0006880924
119	0x3da16df5	0.07882301
120	0xbcf03329	-0.02932127
121	0xbba2fd5a	-0.0049740495
122	0x3c79d1b5	0.015247752
123	0xbcba5b64	-0.022748657
124	0x3d84f2ba	0.06491609
125	0xbd79a053	-0.060943913
126	0x3d5ffa68	0.054682165
127	0xbc884fb8	-0.016639575
128	0x3d895b80	0.06706905
129	0x3daedbff	0.08538055
130	0xbcdc40f6	-0.026886445
131	0x3a99fe3c	0.0011748741
132	0xbd0a10b7	-0.033707347
133	0x3cd2175f	0.02564591
134	0xbd3732cd	-0.04472618
135	0x3c1a6aa3	0.009424838
136	0x3d980eb4	0.074246794
137	0x3db45fe5	0.08807353
138	0xbd8b4236	-0.06799738
139	0x3c9156d6	0.017741602
140	0x3d4b34bf	0.04961085
141	0x3c1eaae0	0.009684294
142	0x3b790f0f	0.003800336
143	0x3cdebb58	0.027188942
144	0xbd329b10	-0.04360491
145	0xbc8fe4e6	-0.017565202
146	0xbd15d7e8	-0.036582857
147	0xbd53a80e	-0.05167394
148	0x3c79bc76	0.0152426865
149	0xbd84e92e	-0.06489788
150	0x3b92ca00	0.0044796467
151	0x3d4f4683	0.050604355
152	0x3c75efcb	0.015010784
153	0xbcc2140b	-0.023691198
154	0x3c962a6b	0.018330773
155	0xbd6cba46	-0.05779483
156	0xbd44f47b	-0.048084717
157	0xbcab4d9b	-0.020911029
158	0x3d2e3353	0.042529415
159	0xbbfc6b16	-0.0077031953
160	0x388ac000	6.6161156e-05
161	0xbcfdd8db	-0.030987194
162	0x3d8b6cbc	0.06807849
163	0xbd3dbac6	-0.0463207
164	0xbb8f7056	-0.004377405
165	0xbcb723f6	-0.022356015
166	0xbc16c8c0	-0.009203136
167	0xbc73802b	-0.014862101
168	0x3cd09106	0.025459778
169	0x3d869c9e	0.06572841
170	0xbaf81256	-0.0018926363
171	0x3d91abd0	0.07112849
172	0x3ced8f4b	0.028998991
173	0xbbe67716	-0.007033239
174	0x3d0f3c4b	0.03496961
175	0x3ca37566	0.01995344
176	0xbd89acf4	-0.06722441
177	0x3c0e52ab	0.008686702
178	0x3cc23cb6	0.02371059
179	0xbd6b4e58	-0.05744776
180	0x3d351e50	0.04421836
181	0xbcacb63b	-0.021082988
182	0xbda06a7e	-0.07832812
183	0x3b973116	0.004614006
184	0x3bf1e8c0	0.0073824823
185	0xbd835a13	-0.06413665
186	0x3d859912	0.065233365
187	0xbd171d53	-0.0368932
188	0x3d2088b0	0.039192855
189	0xbd362a08	-0.044473678
190	0xbd2ce2fb	-0.042208653
191	0x3d502ef8	0.050826043
192	0x3ccd8316	0.02508692
193	0xbcb2a386	-0.02180649
194	0xbda59634	-0.080852896
195	0x3b8620d6	0.00409327
196	0xbd889356	-0.06668727
197	0x3c00618b	0.007835756
198	0x3d697348	0.056994706
199	0x3cf3d760	0.029765785
200	0xbc80c296	-0.015717786
201	0x3d1706d0	0.03687173
202	0xbbbd8fc0	-0.0057849586
203	0xbcdc3f26	-0.02688558
204	0x3b1f1f00	0.0024279952
205	0xbd07cb28	-0.03315273
206	0x3da05660	0.07828975
207	0xbc95a70b	-0.018268129
208	0x3d4260d0	0.04745561
209	0xbd233986	-0.03984978
210	0xbcf86c5b	-0.030325105
211	0xbc0c102b	-0.008548777
212	0x3c332f80	0.010936618
213	0xbd017130	-0.031602085
214	0xbdaa07d8	-0.08302277
215	0xbd01ce16	-0.03169068
216	0x3d4650f0	0.04841703
217	0x3d86df77	0.06585591
218	0xbd935d40	-0.071955204
219	0x3da28127	0.0793479
220	0xbd8d2862	-0.06892468
221	0x3cdf9b8b	0.027295848
222	0x3c87baf6	0.016568642
223	0xbc22f716	-0.009946605
224	0xbccf7a26	-0.0253268
225	0x3d35408e	0.044251017
226	0xb9ed4c00	-0.00045260787
227	0x3da39a76	0.079884455
228	0xbb7c9f00	-0.003854692
229	0xbb8d302b	-0.0043087206
230	0xbcc8f760	-0.02453202
231	0xbc260a80	-0.010134339
232	0x3d37de50	0.044889748
233	0xbce9443b	-0.028474918
234	0xbd4f7e96	-0.05065783
235	0x3b49fb00	0.0030819774
236	0xbcf7c0f0	-0.030243367
237	0x3c60f7cb	0.013730953
238	0xbd3dbe7b	-0.046324234
239	0xbc8355db	-0.01603215
240	0xbcaa3e60	-0.020781696
241	0xbd99cc3e	-0.07509659
242	0xbd55c77b	-0.052192193
243	0x3d6b513e	0.057450525
244	0xbce96fb6	-0.02849565
245	0xbd1c4ef0	-0.03816122
246	0x3b26b080	0.0025434792
247	0xbd58a808	-0.052894622
248	0x3cf4845b	0.029848268
249	0xbc9168e6	-0.017750215
250	0xbd9d4ac7	-0.07680278
251	0x3d9b5124	0.07583836
252	0x3b5f6956	0.0034089885
253	0xbbcdbe00	-0.0062787533
254	0x3d0ef683	0.03490306
255	0xbc695d60	-0.014243454

model.encoder.blocks.1.layer.bias f4 [16]
0	0xbc241d6d	-0.010016781
1	0xbd7e8cd6	-0.06214603
2	0x3d129de3	0.035795104
3	0x3e2257ee	0.15853855
4	0x3d9ef4a6	0.07761507
5	0x3e9281de	0.28614706
6	0xbd256f70	-0.04038948
7	0x3c1e4a5e	0.009661285
8	0x3df450c1	0.11929465
9	0xb8ee0c88	-0.000113510585
10	0x3cce9383	0.025216823
11	0xbd086f1f	-0.0333091
12	0x3d826716	0.06367318
13	0xbdad9998	-0.08476561
14	0xbda077ab	-0.07835325
15	0x3e693cb1	0.22777058

model.encoder.blocks.2.layer.weight f4 [16, 16, 3, 3]
0	0x3d638f8d	0.055556823
1	0xbd37c7ec	-0.044868395
2	0xbce846d9	-0.028354095
3	0x3c2286fe	0.00991988
4	0x3d6db53f	0.058034178
5	0x3d8d939c	0.0691292
6	0x3d65306d	0.055954386
7	0x3d7729d2	0.060342617
8	0xbcbac778	-0.022800192
9	0x3da096e8	0.07841283
10	0xbd09f63e	-0.0336821
11	0xbd08625e	-0.033296935
12	0x3cb3c5c0	0.02194488
13	0xbcb7ae10	-0.022421867
14	0x3d119746	0.035544656
15	0x3c1ceba0	0.009577662
16	0x3d0664f0	0.032811105
17	0xbca2a516	-0.01985411
18	0xbb88c04f	-0.0041733156
19	0xbd856577	-0.065134935
20	0x3d311de1	0.043241385
21	0x3d475ca8	0.04867235
22	0x3d130f71	0.035903398
23	0xbd2b1d63	-0.041776072
24	0x3c47ab71	0.012186871
25	0x3d1a85ee	0.03772538
26	0xbd89fc29	-0.06737549
27	0xbdafd048	-0.08584648
28	0x3e1049c6	0.14090642
29	0xbc3782cd	-0.011200619
30	0xbdcab998	-0.098986804
31	0x3da7baeb	0.08189949
32	0xb9fb4f22	-0.0004793341
33	0xbccec497	-0.025240226
34	0xbc1aa33e	-0.009438334
35	0x3de05be2	0.10955025
36	0x3c6be86c	0.014398675
37	0xbceb3423	-0.028711384
38	0xbc1f6679	-0.009729021
39	0x3db207e0	0.08692908
40	0xbcbc56d3	-0.02299062
41	0x3d97c0bc	0.07409808
42	0x3db23f43	0.087034725
43	0xbcf881cf	-0.030335335
44	0x3dabf59e	0.08396457
45	0xbd68daf5	-0.05684944
46	0xbe35121a	-0.17682686
47	0xbe4a8e35	-0.1978081
48	0xbe4dcd58	-0.20097864
49	0xbe230efd	-0.15923686
50	0xbd7c9e50	-0.061674416
51	0x3ddccf6a	0.107817486
52	0xbe4e4694	-0.20144111
53	0xbe09d49d	-0.13460012
54	0x3c66c881	0.01408589
55	0xbd0008b1	-0.03125829
56	0xbcdb178c	-0.026744626
57	0x3ca3648c	0.019945405
58	0x3cb31c8a	0.021864194
59	0x3c4aa597	0.012368581
60	0xbbd85607	-0.006602052
61	0xbc318236	-0.010834267
62	0xbd8a4df0	-0.06753147
63	0x3d9a15e9	0.0752371
64	0x3d5af4ab	0.05345599
65	0x3d27815e	0.04089486
66	0x3d906713	0.0705091
67	0x3d39b78e	0.045341067
68	0xbc8977d2	-0.016780768
69	0xbccb8a69	-0.024846273
70	0x3d923c6c	0.07140431
71	0x3dca1e59	0.098690696
72	0xbf1baeee	-0.60813797
73	0xbd4bfa24	-0.0497991
74	0x3dc6bc82	0.09703924
75	0x3d74162f	0.05959147
76	0x3e036515	0.12831528
77	0xbbfc4fde	-0.0076999506
78	0x3f0ba4dc	0.5454843
79	0x3d41f892	0.047356196
80	0x3dfcd09a	0.12344475
81	0x3d961336	0.07327883
82	0x3dadca59	0.084858604
83	0xbd87ead2	-0.06636585
84	0x3d844d5d	0.064600684
85	0xbbe8d0ac	-0.0071049538
86	0x3d32bef1	0.043639127
87	0x3da6075f	0.08106875
88	0x3db581fd	0.08862684
89	0x3d77190a	0.060326613
90	0x3dd75533	0.10514297
91	0x3d2f9c49	0.042873655
92	0xbcde9989	-0.02717282
93	0x3e00127a	0.12507048
94	0x3da46082	0.0802622
95	0xbbbe7db6	-0.0058133258
96	0x3db3cf96	0.08779828
97	0x3dcc7b80	0.09984493
98	0x3dc3ecd5	0.095666565
99	0x3c3b8880	0.011446118
100	0x3d541281	0.05177546
101	0x3d5c7b1a	0.053828336
102	0xbd60c138	-0.054871768
103	0x3d0d578b	0.034507316
104	0x3c43075c	0.01190361
105	0x3d9c75eb	0.076396786
106	0x3daba01d	0.083801486
107	0x3ceb590c	0.028728984
108	0xbda7f964	-0.08201864
109	0xbd1726e7	-0.036902335
110	0x3d9cc13a	0.076540425
111	0x3c9cfb0d	0.01916268
112	0xbd6b09da	-0.057382442
113	0xbd4c8a3e	-0.049936526
114	0xbcc3e3fe	-0.023912426
115	0xbd9239e1	-0.07139946
116	0x3c182f95	0.009288688
117	0x3c907c35	0.017637352
118	0xbd8b5de3	-0.06805017
119	0x3c9eefbb	0.019401422
120	0x3d74cbec	0.059764788
121	0x3c4002f9	0.011719459
122	0xbd147e45	-0.036253233
123	0x3da43637	0.08018153
124	0xbcd4c449	-0.025972502
125	0xbbb0207a	-0.0053749653
126	0xbd799caa	-0.060940422
127	0xbcb90bff	-0.022588728
128	0x3d2416fd	0.040060986
129	0x3cb4c6ea	0.022067506
130	0xbd530f17	-0.051528063
131	0x3c91588b	0.017742416
132	0x3caf741a	0.021417666
133	0xbd8b018b	-0.06787404
134	0xbd2e1b0a	-0.042506255
135	0x3d92788c	0.07151899
136	0x3d24135e	0.040057532
137	0x3d344bf0	0.044017732
138	0x3caffa7e	0.021481749
139	0xbd60362e	-0.05473917
140	0xbd673baf	-0.056453403
141	0x3dc363bb	0.095405065
142	0xbdbb5460	-0.09146953
143	0xbc4560b5	-0.0120469825
144	0x3d3d1986	0.04616692
145	0x3dc00d87	0.0937758
146	0xbce0e4ed	-0.02745291
147	0x3d6917b6	0.056907378
148	0xbd92bc14	-0.07164779
149	0xbd0dc0ac	-0.034607574
150	0x3d402a39	0.046915267
151	0xbd6a93f3	-0.05727
152	0x3c3c2932	0.011484431
153	0xbd057db8	-0.032590598
154	0x3cc16cc0	0.023611426
155	0xbd87c03a	-0.06628461
156	0x3bf753d6	0.007547836
157	0xbd9ea7b3	-0.0774683
158	0xbda80d9e	-0.08205722
159	0x3c418c20	0.011813194
160	0xbda088ea	-0.07838614
161	0xbd7de60b	-0.061986964
162	0xbc978c15	-0.018499414
163	0xbc0bec0b	-0.008540164
164	0xbcc6b74b	-0.024257323
165	0xbbf4d564	-0.007471727
166	0x3c7d310b	0.015453587
167	0x3c51e620	0.012811214
168	0xbcc838f4	-0.02444122
169	0xba89e003	-0.0010519031
170	0xbc54d67a	-0.012990588
171	0x3d3c702f	0.046005424
172	0x3cdb0084	0.026733644
173	0x3d14c06b	0.036316317
174	0xbe74eb1e	-0.23917815
175	0x3d933d7c	0.071894616
176	0xbcf63923	-0.030056542
177	0xbe349eed	-0.1763875
178	0x3e3a487c	0.18191713
179	0x3e8487aa	0.25884753
180	0xbc08eb8f	-0.008356943
181	0xb9999342	-0.0002929215
182	0x3bbcc631	0.005760931
183	0x3d9d293e	0.07673882
184	0xbd9b3473	-0.07578363
185	0x3d499a74	0.049219564
186	0x3cc02905	0.02345706
187	0x3b60bbb7	0.0034291574
188	0x3d0f8475	0.03503843
189	0x3dbca35e	0.09210847
190	0x3ce9c11d	0.028534466
191	0xbcdb2044	-0.026748784
192	0xbe6ddadd	-0.23228021
193	0xbe913ac5	-0.2836515
194	0xbe20a501	-0.15687944
195	0x3e6a6457	0.22889839
196	0x3d1930b6	0.03739997
197	0x3e412f0e	0.18865606
198	0xbd7e750e	-0.06212335
199	0x3b99aa8e	0.004689521
200	0xbd902e8a	-0.070401266
201	0x3d33ad33	0.043866348
202	0xbda019e4	-0.07817438
203	0xbd425dc5	-0.047452707
204	0xbc70e019	-0.014701867
205	0xbda43a8e	-0.08018981
206	0x3d9c8e43	0.07644322
207	0xbd54742c	-0.051868603
208	0x3cece0c6	0.028915774
209	0x3c9d5da1	0.019209685
210	0xbd92e2ee	-0.0717219
211	0x3bbcd684	0.005762877
212	0xbbb340e0	-0.00547038
213	0xbd005412	-0.031330176
214	0x3d9676f4	0.07346907
215	0xbb4922f9	-0.0030691011
216	0x3f28bd96	0.65914285
217	0x3d2c1ee4	0.042021647
218	0xbe89f143	-0.2694188
219	0x3f1c29a4	0.6100104
220	0x3d898640	0.06715059
221	0xbeb67e2a	-0.3564313
222	0xbebc2bd1	-0.3675218
223	0xbd370834	-0.044685557
224	0xbe8131a2	-0.2523318
225	0xbac19d1e	-0.0014771556
226	0x3d0b76ad	0.034048725
227	0x3c8ab94f	0.016934065
228	0x3c901faf	0.017593233
229	0x3d52ebc5	0.05149438
230	0x3daadab1	0.08342493
231	0x3d444f52	0.04792721
232	0x3b4c8aa6	0.003121057
233	0x3d3ee9ea	0.046609797
234	0xbdc35751	-0.09538139
235	0x3d227788	0.039664775
236	0x3d70e120	0.058808446
237	0xb8c83cae	-9.548046e-05
238	0x3be10569	0.0068671
239	0x3de09bda	0.10967226
240	0xbdd425ac	-0.10358748
241	0xbe034b0a	-0.12821594
242	0x3cf549aa	0.029942352
243	0xbd117e21	-0.035520677
244	0xbc15e208	-0.009148128
245	0x3beae33f	0.007168203
246	0xbca9de20	-0.0207358
247	0xbcea4853	-0.02859894
248	0x3c7725a3	0.015084657
249	0x3d83db90	0.064383626
250	0x3d969b6f	0.07353865
251	0xbce62edb	-0.028098514
252	0x3d266ee6	0.040633105
253	0x39a6c000	0.00031805038
254	0x3cb1c8b6	0.021702152
255	0xbcc36929	-0.023853855

model.encoder.blocks.2.layer.bias f4 [16]
0	0x3d8b0405	0.06787876
1	0xbca18950	-0.019718796
2	0xbc159e83	-0.00913203
3	0x3d9e8b46	0.07741408
4	0x3cb40cdb	0.021978786
5	0x3ca069d7	0.019581718
6	0xbd8f3380	-0.06992245
7	0x3d96c879	0.07362456
8	0xbda5662d	-0.08076129
9	0xbd514c6c	-0.051098272
10	0xbc0306c9	-0.007997223
11	0x3dff3aa5	0.124623574
12	0x3d3863f1	0.045017187
13	0x3d23438c	0.03985934
14	0xbcbe9261	-0.023263158
15	0x3e085083	0.13311963

model.decoder.blocks.0.layer.weight f4 [16, 16, 3, 3]
0	0xbc8d46a4	-0.017245598
1	0xbb925d10	-0.0044666603
2	0x3cc7a0b3	0.02436862
3	0x3cfe45ee	0.031039204
4	0x3d7a55c0	0.061116934
5	0xbd991401	-0.074745186
6	0xbd5075e0	-0.050893664
7	0x3d5e0e98	0.054213136
8	0x3cdeb6b5	0.02718673
9	0xbcf04541	-0.029329898
10	0x3c789378	0.015171878
11	0x3d8e7c78	0.06957334
12	0xbcdd9d58	-0.027052566
13	0xbd9a7c3e	-0.075432286
14	0xbd54c87e	-0.051949017
15	0x3d31363c	0.043264613
16	0xbd982f6d	-0.07430921
17	0xbbad45dd	-0.0052878694
18	0x3ce60a4d	0.028081084
19	0x3c6e88f2	0.0145590175
20	0xbd3f434c	-0.04669504
21	0xbd886b22	-0.06661059
22	0x3d841aea	0.06450446
23	0xbb8c9132	-0.0042897696
24	0xbd3c1653	-0.045919728
25	0xbc0462c3	-0.008080187
26	0xbd539265	-0.051653285
27	0xbda243ac	-0.07923064
28	0xbd1f0826	-0.03882613
29	0x3d86fe0c	0.06591424
30	0x3d6d50b0	0.057938278
31	0xbd891d6d	-0.06695066
32	0xbc983266	-0.01857872
33	0xbcc6349b	-0.024195006
34	0x3bb24b1e	0.0054410836
35	0xbd6e37c4	-0.05815865
36	0x3cbc41b3	0.022980547
37	0xbd8063d7	-0.06269043
38	0x3d979b1d	0.074026324
39	0x3c337621	0.010953457
40	0xbd88dfdd	-0.066833235
41	0xbd25af0e	-0.04045015
42	0x3d1a0a50	0.03760749
43	0xbb2fa55b	-0.002680144
44	0xbd1d5e31	-0.038419906
45	0xbd67d5b7	-0.0566003
46	0xbd1f89c8	-0.038949758
47	0xbd548f26	-0.05189433
48	0xbd3e93f5	-0.04652782
49	0x3d5d1046	0.053970598
50	0xbd9eff80	-0.077635765
51	0xbd74ea31	-0.059793655
52	0x3d777d15	0.060422022
53	0x3d4042e6	0.0469388
54	0x3d93603b	0.07196089
55	0xbd180458	-0.037113518
56	0x3d5b0c8e	0.05347877
57	0x3baeea00	0.0053379536
58	0xbd6cb858	-0.05779299
59	0x3c814bd0	0.01578322
60	0x3da815cf	0.08207285
61	0xbba20aeb	-0.004945149
62	0x3d105408	0.03523639
63	0xbda8a9e4	-0.08235529
64	0xbd116080	-0.03549242
65	0x3d789ec0	0.06069827
66	0xbd1d145d	-0.038349498
67	0x39b2be98	0.0003409281
68	0x3cb3abb9	0.02193247
69	0x3b906527	0.0044065895
70	0xbd467f70	-0.048461378
71	0xbba22a4a	-0.004948889
72	0x3c382c7b	0.011241074
73	0xbd489268	-0.04896775
74	0xbce9728c	-0.028497003
75	0x3d22100f	0.039566096
76	0x3bd536ba	0.006506768
77	0x3cacd5de	0.021098074
78	0xbc05f1e7	-0.00817535
79	0xbce88755	-0.028384844
80	0x3c43b677	0.0119453585
81	0xbb6c0aae	-0.0036017108
82	0xbd44b813	-0.04802711
83	0xbdae0463	-0.084969305
84	0xba2c2169	-0.0006566258
85	0x3d6fb6b7	0.05852386
86	0xbcf797f7	-0.03022383
87	0xbdb18556	-0.0866801
88	0x3d51e133	0.051240157
89	0xbbcd4387	-0.0062641534
90	0xbd44f620	-0.048086286
91	0x3ccf2803	0.025287634
92	0xbd871c30	-0.06597173
93	0x3ce40c8b	0.027838012
94	0xbcdbaeed	-0.02681681
95	0xbcba42ba	-0.022736896
96	0x3cb7cfcd	0.022437954
97	0xbdad0b6b	-0.084494434
98	0xbd1f84a8	-0.03894487
99	0x3c8ab308	0.016931072
100	0x3d2a1e71	0.041532937
101	0x3d805cef	0.06267726
102	0x3d0e5469	0.03474847
103	0x3d3e7f6c	0.046508238
104	0x3c97e4fe	0.01854181
105	0xbc0caacc	-0.008585643
106	0xbd7e2a38	-0.06205198
107	0x3ce3c783	0.027805096
108	0xbda73752	-0.081648484
109	0xbdb788d3	-0.08961644
110	0xbd97579e	-0.073897585
111	0xbd8b7f23	-0.06811359
112	0x3d7394b5	0.05946799
113	0xbba7c5fc	-0.005120037
114	0xbd234091	-0.039856497
115	0xbc941605	-0.018076906
116	0xbda00984	-0.07814315
117	0xbd94dda9	-0.07268841
118	0xbd9b6ab3	-0.07588711
119	0xbcda75b1	-0.026667448
120	0xbc44b2a3	-0.012005481
121	0xbd141a39	-0.03615782
122	0xbc2dd04e	-0.010608746
123	0xbd8936df	-0.06699919
124	0x3be320c5	0.0069313967
125	0x3c76d09d	0.015064386
126	0xbd50eb23	-0.051005494
127	0x3d0439b3	0.03228159
128	0xbd50f53e	-0.05101513
129	0x3d5f3bda	0.05450044
130	0x3d3cad96	0.046063982
131	0x3d84d42f	0.06485783
132	0xbbc1c50a	-0.0059133815
133	0x3ccc88d0	0.024967581
134	0x3d80e912	0.06294455
135	0xbdb38703	-0.08765986
136	0xbd0eba44	-0.034845605
137	0xbcb5e928	-0.022205904
138	0x3cf48241	0.029847266
139	0x3cb6f92a	0.022335608
140	0x3c75bb08	0.014998205
141	0xbd9c0ad7	-0.07619255
142	0x3b959bab	0.004565676
143	0x3d83109b	0.063996516
144	0xbd5cdc0d	-0.053920794
145	0xbe3aaaf7	-0.1822928
146	0xbbc2f2dc	-0.0059493612
147	0xbe3aac99	-0.18229903
148	0xbd567b75	-0.05236383
149	0x3d5edfd1	0.054412667
150	0xbe6b8cae	-0.23002884
151	0xbe43bdfe	-0.19115445
152	0xbda71731	-0.0815872
153	0xbead526c	-0.33851945
154	0xbdb47e59	-0.088131614
155	0xbe4f6d0d	-0.20256443
156	0x3dc5d11c	0.09659025
157	0x3e068c3b	0.13139431
158	0x3e07deb1	0.13268544
159	0x3b3bd1dc	0.0028659021
160	0x3e3c74d5	0.18403943
161	0x3e588d97	0.21147762
162	0xbd8a76f3	-0.06760969
163	0x3b7d532b	0.0038654308
164	0xbd490768	-0.04907933
165	0xbd2ec14e	-0.04266482
166	0xbd89b25c	-0.067234725
167	0x3d1a2548	0.03763321
168	0x3c655376	0.013996949
169	0x3cedd60b	0.029032728
170	0xbd246fae	-0.04014557
171	0xbdd48ffa	-0.10379024
172	0x3c78c934	0.015184689
173	0x3da393e0	0.07987189
174	0xbe890b37	-0.2676637
175	0xbd0a9f14	-0.033843115
176	0x3cb711f7	0.022347433
177	0xbe202116	-0.15637621
178	0x3dcd0f9a	0.100127414
179	0x3cd67787	0.026180042
180	0xbc01a6fd	-0.007913348
181	0xbbf17093	-0.007368156
182	0xbd886355	-0.06659571
183	0xbde96043	-0.113953136
184	0x3d85b3e5	0.06528453
185	0x3e13f145	0.14447506
186	0xbd35fcd2	-0.04443056
187	0x3e31e10d	0.17371006
188	0x3e4e05d4	0.20119411
189	0x3ae1bf00	0.001722306
190	0x3c385ff6	0.011253348
191	0xbd3288a8	-0.043587357
192	0xbd9608b3	-0.07325878
193	0xbc852f46	-0.016257893
194	0x3d90f6cb	0.07078322
195	0x3d2aaebe	0.041670553
196	0x3c8665b6	0.016405921
197	0xbd9ef02e	-0.077606544
198	0x3d7d3dd0	0.061826527
199	0xbba42a16	-0.0050099
200	0xbcb44926	-0.022007536
201	0x3c797d76	0.015227666
202	0xbd5bd696	-0.053671442
203	0x3d9f1bba	0.0776896
204	0xbd52da98	-0.051478
205	0xbd975dab	-0.073909126
206	0xbd5b91c3	-0.053605806
207	0xbef2e549	-0.47440556
208	0xbec98cd8	-0.39365268
209	0xbe72ecab	-0.23723094
210	0xbde16d84	-0.110072166
211	0xbda1e917	-0.079057865
212	0x3d9f0eb1	0.07766474
213	0xbdf94e06	-0.12173085
214	0x3e3b1a63	0.18271784
215	0x3e79b944	0.2438708
216	0x3d18c8c8	0.037300855
217	0x3d257ed6	0.040404163
218	0x3d8dbadc	0.06920406
219	0xbc9c19b6	-0.019055229
220	0x3d639a53	0.055567097
221	0x3d94bbbc	0.0726237
222	0x3da399ab	0.07988294
223	0xbd0f90f0	-0.035050333
224	0xbd7ec2c3	-0.062197458
225	0x3e63eaaa	0.22257486
226	0x3ec0acdc	0.3763188
227	0x3eb3cffc	0.35119617
228	0xbda0c153	-0.07849374
229	0x3e85fa03	0.26167306
230	0x3eafe2bf	0.3435268
231	0xbe803809	-0.2504275
232	0xbd91f90a	-0.071275786
233	0xbdbf3fc7	-0.093383364
234	0xbd59250a	-0.05301384
235	0x3da63b1d	0.08116744
236	0xbdcdc455	-0.10047213
237	0xbd47d11a	-0.0487834
238	0x3d166b9a	0.03672371
239	0xbd9143ca	-0.07093008
240	0xbdfc1071	-0.123078234
241	0x3da0945e	0.07840799
242	0x3bc63eea	0.0060499804
243	0xbe0867e5	-0.13320883
244	0xbdaf44c7	-0.0855804
245	0xbe42a85b	-0.19009535
246	0xbe668e09	-0.2251512
247	0x3e0d74ab	0.13814037
248	0xbec869d2	-0.39143234
249	0xbdc00ea5	-0.09377793
250	0x3e4a952b	0.19783466
251	0x3e864f0d	0.26232186
252	0xbdc09961	-0.09404255
253	0xbd7caa6b	-0.06168596
254	0xbccdae77	-0.025107605
255	0xbea90997	-0.3301513

model.decoder.blocks.0.layer.bias f4 [16]
0	0xbb89a907	-0.004201058
1	0x3d29b373	0.0414309
2	0x3c872997	0.016499324
3	0x3d20afac	0.039230034
4	0xbd718def	-0.05897325
5	0x3b2e7910	0.0026622452
6	0xbd8ffd6f	-0.070307605
7	0xbbc345e4	-0.0059592593
8	0xbd000f54	-0.031264618
9	0x3d8bb22f	0.06821095
10	0x3d85e7fe	0.065383896
11	0x3da420da	0.080140784
12	0x3dd566e4	0.104200155
13	0xbdbdc35b	-0.09265777
14	0xbd885289	-0.06656367
15	0x3cac6bc6	0.021047484

model.decoder.blocks.0.upsample.weight f4 [16, 16, 2, 2]
0	0x3c456211	0.012047307
1	0xbdd66621	-0.10468698
2	0x3da886d0	0.082288384
3	0x3dc7a435	0.09748117
4	0x3de906de	0.11378263
5	0xbdaa45d0	-0.08314097
6	0x3d88fec6	0.06689219
7	0x3d91fe0f	0.07128536
8	0xbd8d5046	-0.069000766
9	0xbdb8600b	-0.09002694
10	0x3df06cbb	0.11739489
11	0x3ddea7e3	0.108718656
12	0x3d51d8e0	0.05123222
13	0xbdcb402a	-0.09924348
14	0x3d125622	0.035726674
15	0xbd726ef0	-0.05918783
16	0x3c3672b0	0.011135742
17	0x3ce9648a	0.028490324
18	0xbcab392c	-0.020901285
19	0x3ddeeba0	0.10884786
20	0x3dd1a4e1	0.10236526
21	0x3dc35f20	0.09539628
22	0xbcf7904a	-0.03022017
23	0xbdd41f52	-0.103575364
24	0xbcd01ac8	-0.025403395
25	0x3cc8e113	0.024521386
26	0xbdc79af5	-0.097463526
27	0x3db67fe2	0.089111105
28	0xbd58ca13	-0.052927088
29	0x3d0194fa	0.031636216
30	0xbcc784ba	-0.024355281
31	0xbdf3f654	-0.11912218
32	0xbd848b61	-0.06471897
33	0xbdd19249	-0.1023298
34	0x3dc8da9e	0.09807323
35	0x3dba6201	0.09100724
36	0xbda64f80	-0.08120632
37	0xbd0bad5b	-0.03410087
38	0x3ce5c9b1	0.028050276
39	0x3dc3bf87	0.09558015
40	0x3d66b96b	0.056329172
41	0x3d23ec0e	0.04002004
42	0xbc58b63d	-0.013227043
43	0xbdaad794	-0.083418995
44	0x3c864714	0.016391315
45	0xbdb63b46	-0.08898024
46	0x3d976d78	0.073939264
47	0x399921ba	0.00029207562
48	0xbd6dd402	-0.058063515
49	0x3dc9d7e9	0.09855635
50	0x3ccef788	0.025264516
51	0x3b9b109f	0.004732206
52	0xbcc02fd3	-0.023460304
53	0x3c86f12f	0.016472427
54	0xbd59bb41	-0.053157095
55	0x3b97a79c	0.004628135
56	0xbdb5dbab	-0.08879789
57	0x3ba5ab6c	0.0050558355
58	0xbc579380	-0.013157725
59	0x3c1283a8	0.008942522
60	0xbdf341f2	-0.118778124
61	0xbd59ec5a	-0.053203918
62	0x3d35bc2d	0.04436891
63	0x3d07d911	0.033165995
64	0x3e6b4ddc	0.2297892
65	0x3cacaf9b	0.021079829
66	0xbde5f1bf	-0.1122775
67	0x3daa74d2	0.08323063
68	0x3d766143	0.06015135
69	0xbe1e5d00	-0.15465164
70	0x3cd44fb0	0.025916904
71	0x3dbd889f	0.09254574
72	0xbd33b194	-0.043870524
73	0x3dd9d34a	0.10636003
74	0xbe9454ed	-0.28971043
75	0xbcd0519a	-0.025429536
76	0x3e98b0d5	0.29822412
77	0xbd8bcfd1	-0.06826747
78	0x3de9af57	0.114103965
79	0xbd3e451a	-0.04645262
80	0xbd14d66a	-0.036337294
81	0x3e73c324	0.23804909
82	0x3c5ed042	0.013599457
83	0xbdea7d96	-0.11449735
84	0xbd191c86	-0.037380718
85	0xbe060369	-0.13087238
86	0xbe0cd26a	-0.13752142
87	0xbebce1fa	-0.36891156
88	0x3e421e69	0.18956913
89	0x3ed9db53	0.42550144
90	0x3cd2b379	0.025720345
91	0x3eac3f16	0.3364188
92	0xbe13770c	-0.14400882
93	0xbe052de9	-0.13005795
94	0xbdeff50f	-0.11716663
95	0x3e306c23	0.17228751
96	0x3c685686	0.014180785
97	0xbdbee804	-0.09321597
98	0xbcb0db8b	-0.021589061
99	0xbe2e7c02	-0.17039493
100	0xbddfe2fc	-0.10931966
101	0xbea970e4	-0.3309394
102	0xbe4b18bc	-0.19833654
103	0xbe88cd91	-0.26719335
104	0x3efb7a2b	0.49116644
105	0x3e8a1b3f	0.26973912
106	0x3f0e1818	0.55505514
107	0x3ea1c5c1	0.31596187
108	0x3da086a3	0.0783818
109	0xbdc2c2dd	-0.095098235
110	0xbdf831d2	-0.121188775
111	0xbe3b51e5	-0.18292959
112	0xbdd9a38a	-0.10626896
113	0xbe0dfb77	-0.13865457
114	0xbd71bd6e	-0.059018545
115	0xbea5338e	-0.32265896
116	0xbe377a05	-0.1791764
117	0xbd9ca89f	-0.076493494
118	0xbd34d4f7	-0.04414841
119	0xbe00d0b8	-0.1257962
120	0x3d842937	0.064531736
121	0x3e4564ff	0.19276808
122	0x3c884fe4	0.016639657
123	0x3d092bb5	0.033488948
124	0x3df3cc6d	0.119042255
125	0x3e2cd94b	0.16879766
126	0x3ebea4e6	0.37235183
127	0x3e78f914	0.24313766
128	0x3d8cac01	0.06868745
129	0xbd81c7d8	-0.06336945
130	0x3da9b220	0.08285928
131	0x3b0b6e30	0.0021275394
132	0xbd50d85c	-0.050987586
133	0xbc94d6f9	-0.018168913
134	0xbde4e3e5	-0.1117628
135	0xbdc3b345	-0.09555677
136	0xbd0ba1a6	-0.034089707
137	0x3d1ff25b	0.039049488
138	0xbd076bc4	-0.033061758
139	0x3d00e094	0.031464174
140	0x3c65bcc1	0.014022053
141	0xbdabc156	-0.08386485
142	0x3df4080c	0.11915597
143	0xbdc91304	-0.0981808
144	0xbdbd09d5	-0.09230391
145	0x3d88b53b	0.06675192
146	0x3ad0c0a5	0.0015926553
147	0xbd0deb68	-0.03464833
148	0x3aa5cbe5	0.0012649266
149	0x3dcec983	0.10097029
150	0xbdd317d2	-0.10307278
151	0x3e1f921f	0.15583085
152	0x3d7c8973	0.06165452
153	0x3da452fe	0.08023642
154	0x3de82272	0.11334695
155	0x3c2de6a7	0.010614074
156	0x3dc01b62	0.09380223
157	0xbcbe6ed5	-0.023246208
158	0x3d9db301	0.07700158
159	0x3de11ba1	0.10991598
160	0x3bef472d	0.007302186
161	0x3d2e42b2	0.042544074
162	0x3dba9c59	0.09111852
163	0xbdf23b63	-0.11827733
164	0x3c2816b3	0.010259318
165	0xbbc7e369	-0.0061001075
166	0x3c1b3f9d	0.009475616
167	0x3d3c94d6	0.04604038
168	0xbc88b925	-0.016689846
169	0x3cac0501	0.02099848
170	0xbc15bf49	-0.009139844
171	0x3d5224d5	0.051304657
172	0x3db05ee1	0.08611847
173	0xbdd9de1d	-0.10638068
174	0xbd9fc4fd	-0.078012444
175	0x3d3085cc	0.04309635
176	0x3da7abf7	0.081870966
177	0x3db59156	0.08865611
178	0x3debd6c7	0.11515575
179	0x3c81dd3c	0.015852563
180	0x3dbd9be1	0.09258247
181	0x3d496aaa	0.04917399
182	0xbc805781	-0.015666725
183	0xbd809cac	-0.06279883
184	0x3d2744c5	0.040837068
185	0xbd260705	-0.040534038
186	0xbd5f3da5	-0.05450215
187	0xbcbc5028	-0.02298744
188	0xbd03fa2a	-0.032220997
189	0xbd2a960f	-0.041647013
190	0x3d4b4d71	0.0496344
191	0xbc7388c1	-0.014864148
192	0xbd355b2e	-0.04427641
193	0xbd67a852	-0.056557007
194	0x3cd02502	0.025408272
195	0xbdc6d995	-0.09709469
196	0x3dd1d1e5	0.10245112
197	0x3e115828	0.14193785
198	0xbe6b134b	-0.22956578
199	0x3c9b3e6e	0.018950667
200	0xbc7386dd	-0.014863697
201	0x3e4f16c8	0.20223534
202	0xbc01b240	-0.007916033
203	0x3e1217e0	0.1426692
204	0xbe2c47de	-0.1682429
205	0xbdc4d3fc	-0.09610745
206	0xbe8d2527	-0.27567407
207	0x3daf917d	0.085726716
208	0xbe28463f	-0.16433047
209	0xbe028a1b	-0.12747996
210	0x3d01bdea	0.031675257
211	0xbe163e00	-0.14672089
212	0xbeb38380	-0.35061264
213	0xbc5a62d7	-0.013329229
214	0x3eb47d79	0.35251978
215	0x3e12a90a	0.14322296
216	0xbdc66260	-0.09686732
217	0x3e8159e3	0.2526389
218	0xbd18994c	-0.03725557
219	0xbd028204	-0.031862274
220	0xbe913874	-0.28363383
221	0xbea5ac63	-0.32358083
222	0x3d58da43	0.052942526
223	0xbea13dd8	-0.31492496
224	0xbd526c16	-0.05137261
225	0x3ceecbc3	0.029149896
226	0xbb268076	-0.0025406159
227	0x3ccf5d5e	0.025313076
228	0xbbcb5840	-0.0062055886
229	0xbdb77f8c	-0.089598745
230	0xbe7cd937	-0.24692236
231	0xbd9c5469	-0.076332875
232	0x3cd74fac	0.026283108
233	0x3d02b346	0.03190925
234	0xbdd5f152	-0.10446419
235	0x3d9b4267	0.075810246
236	0xbe12a52f	-0.14320825
237	0x3dd76564	0.105173856
238	0xbc28bac9	-0.010298439
239	0x3db1b312	0.08676733
240	0x3e6dd5f8	0.23226154
241	0xbdc688c0	-0.09694052
242	0xbea36a8f	-0.31917235
243	0xbc87b348	-0.01656498
244	0xbdc41b7a	-0.09575553
245	0xbe25c8bd	-0.16189857
246	0x3d2187b3	0.039436053
247	0x3e236b9b	0.15959017
248	0x3d471f4c	0.04861383
249	0x3da03ff4	0.07824698
250	0xbd96a976	-0.07356541
251	0x3d5426ea	0.051794924
252	0x3e2c2740	0.16811848
253	0x3d4ca7ba	0.049964644
254	0xbe12031a	-0.14258996
255	0x3e399860	0.18124533

model.decoder.blocks.0.upsample.bias f4 [16]
0	0x3d1d63ae	0.03842514
1	0xbe096051	-0.13415648
2	0x3de4c75a	0.11170836
3	0xbc6c72d6	-0.014431676
4	0xbe09e06d	-0.13464518
5	0xbdd099f6	-0.10185616
6	0x3c7a00f8	0.01525902
7	0x3d526f23	0.05137552
8	0xbe0d61f4	-0.13806897
9	0xbe071e66	-0.1319519
10	0x3b7f3b9c	0.0038945442
11	0x3de0641a	0.10956593
12	0xbdbe47fd	-0.092910744
13	0xbd534bea	-0.05158607
14	0x3dd6e552	0.10492958
15	0x3d859b40	0.06523752

model.decoder.blocks.1.layer.weight f4 [16, 16, 3, 3]
0	0xbe50201a	-0.20324746
1	0xbe583ce1	-0.21116973
2	0xbe002dea	-0.12517515
3	0xbd134365	-0.035952944
4	0xbd907c36	-0.07054941
5	0x3915ae28	0.00014274626
6	0xbdb9adc1	-0.09066344
7	0xbd93b764	-0.07212713
8	0xbcdab5d0	-0.026698023
9	0x3e0e6a4b	0.13907735
10	0x3e19192a	0.14951006
11	0x3d5efe26	0.054441594
12	0x3d927145	0.07150511
13	0xbd348d04	-0.044079795
14	0xbd61c585	-0.05512001
15	0x3cbeefa4	0.023307629
16	0xbd05bcc6	-0.03265073
17	0xbdc910a5	-0.09817628
18	0xbe51b122	-0.20477727
19	0xbc2a6c84	-0.010401849
20	0x3d7c8b07	0.061656024
21	0x3c06dc50	0.0082312375
22	0x3d53ae55	0.051679928
23	0x3d94d901	0.07267953
24	0xbde9ba60	-0.11412501
25	0x3e5c1e37	0.21495901
26	0x3dccafc9	0.09994466
27	0xbc5ee566	-0.013604498
28	0x3d81a8b1	0.063310035
29	0xbe184e01	-0.14873506
30	0x3d702a2d	0.058633972
31	0xbc39f26f	-0.011349305
32	0x3a558b0a	0.00081460236
33	0x3d8f7662	0.070050016
34	0xbcd710e9	-0.02625318
35	0xbd966b9a	-0.07344742
36	0x3e3a676e	0.18203518
37	0x3d7450e5	0.05964746
38	0x3dd51f8d	0.104064085
39	0x3e167bc4	0.1469565
40	0x3b20c663	0.002453231
41	0xbd640a7f	-0.055674072
42	0x3ceea0e5	0.029129455
43	0xbd873c41	-0.066032894
44	0x3ca44965	0.020054528
45	0xbdc123db	-0.09430667
46	0xbe232fcd	-0.15936203
47	0x3c734798	0.014848612
48	0x3c9b6f56	0.018973988
49	0xbcd2741e	-0.025690135
50	0x3c1a05d3	0.009400803
51	0xbd0963b7	-0.03354236
52	0xbdfad2c3	-0.12247231
53	0xbdb99b8c	-0.09062871
54	0xbe0c751f	-0.13716553
55	0xbe34dc03	-0.17662053
56	0xbe6f43c1	-0.2336569
57	0x3bcb1dcd	0.006198621
58	0xbb7bee5d	-0.0038441636
59	0x3d521595	0.051290113
60	0x3d990d54	0.07473245
61	0xbdb2ec37	-0.08736461
62	0x3cd1ce4c	0.025611065
63	0xbc59c1a5	-0.013290797
64	0x3d9f56f1	0.07780255
65	0xbc8ccd97	-0.017187877
66	0xbdc3d506	-0.09562115
67	0x3cc2bce9	0.02377172
68	0x3db2eac1	0.08736182
69	0xbcc18c35	-0.023626426
70	0xbcde7ef7	-0.02716015
71	0xbd923040	-0.07138109
72	0x3e36501f	0.17804001
73	0x3e8019af	0.25019595
74	0xbcc08f95	-0.023505965
75	0x3c38838e	0.011261834
76	0xbd83b595	-0.064311184
77	0xbd7d6081	-0.06185961
78	0x3cc67d3b	0.024229636
79	0x3d1a6f22	0.03770364
80	0xb99ce56d	-0.00029925574
81	0x3e438b05	0.19096
82	0x3c928329	0.017884808
83	0x3d2eb8bb	0.04265664
84	0xbd91bfea	-0.07116683
85	0xbddddd8f	-0.108332746
86	0xbdb7a25d	-0.08966515
87	0xbaaa5a08	-0.0012996802
88	0x3d081bec	0.033229753
89	0xbdacd977	-0.084399156
90	0x3d53e1d0	0.051729023
91	0x3d39751c	0.0452777
92	0x3e2f08a3	0.17093138
93	0xbe0bcdb7	-0.13652693
94	0x3d228494	0.039677218
95	0x3dc51f63	0.09625127
96	0xbd1d6139	-0.038422797
97	0xbcf842c5	-0.030305276
98	0xbc5c6196	-0.013451001
99	0xbcfe8ab7	-0.031072004
100	0x3cdee29f	0.02720767
101	0xbdeb1d14	-0.114801556
102	0xbdfa51fb	-0.12222668
103	0x3da10e55	0.07864062
104	0x3d928425	0.07154111
105	0xbe492d81	-0.19646265
106	0xbd2642e6	-0.040591143
107	0x3ce6b909	0.028164404
108	0xbd88afb8	-0.06674141
109	0xbd903f79	-0.070433564
110	0xbe0df162	-0.13861611
111	0x3e020ee3	0.12700991
112	0x3da56f1f	0.08077835
113	0xbc296660	-0.0103393495
114	0xbe3f8832	-0.18704298
115	0xbd318065	-0.043335337
116	0xbe8a4653	-0.27006778
117	0x3e4be1cb	0.19910352
118	0x3e2f4bd1	0.17118765
119	0x3dd63215	0.10458771
120	0x3e34c7d9	0.17654361
121	0x3dbcd9a9	0.09221203
122	0x3d26d602	0.040731438
123	0xbd160c3b	-0.036632758
124	0xbd8931ba	-0.06698938
125	0xbda989ea	-0.08278258
126	0x3c01904e	0.00790794
127	0xbdb22c3b	-0.086998425
128	0x3d575b85	0.052577514
129	0x3d2db02f	0.04240435
130	0x3e05eaf5	0.1307791
131	0x3dfe070a	0.12403686
132	0xbd0540c3	-0.032532465
133	0x3de564a3	0.112008356
134	0x3d1e8af5	0.03870674
135	0xbde56e6c	-0.11202702
136	0xbdd908e4	-0.10597399
137	0x3d711a17	0.05886277
138	0xbe195ebd	-0.14977546
139	0x3d236d7b	0.03989933
140	0x3cd20bdb	0.025640419
141	0xbd067663	-0.032827746
142	0xbdd814be	-0.10550831
143	0xbd61d8fe	-0.05513858
144	0xbd8a4211	-0.067508824
145	0x3d898167	0.06714135
146	0xb933ffa6	-0.00017166007
147	0x3cf2cdfc	0.029639237
148	0x3c9d94cd	0.019235993
149	0xbd822a91	-0.06355775
150	0x3d818e0c	0.063259214
151	0xbc288366	-0.010285234
152	0x3d70a0d8	0.058747143
153	0x3d219d34	0.03945656
154	0x3cfe06f5	0.031009177
155	0xbd5f302e	-0.054489307
156	0x3d781164	0.06056346
157	0x3d299e19	0.04141054
158	0xbdb390d5	-0.08767859
159	0xbdaefc6e	-0.08544241
160	0xbd0057c7	-0.03133371
161	0x3b22952b	0.002480815
162	0x3d01e7ec	0.03171532
163	0x3d91b793	0.07115092
164	0xbd86c124	-0.065798074
165	0x3d3b8b64	0.04578723
166	0xbceb5240	-0.028725743
167	0x3de1df83	0.110289596
168	0x3b7c88c4	0.0038533667
169	0x3d3db56f	0.046315607
170	0x3dd7d32f	0.10538327
171	0xbd2949bd	-0.041330088
172	0xba81343d	-0.0009857487
173	0x3ce4f297	0.027947707
174	0xbd65cdf3	-0.05610461
175	0x3cf96ce3	0.030447429
176	0xbcab9a86	-0.020947706
177	0xbd284aa4	-0.041086808
178	0x3c24a6c1	0.010049523
179	0xbd826c7e	-0.063683495
180	0x3c120f6f	0.0089148125
181	0x3b587647	0.0033029483
182	0x3d551eae	0.05203121
183	0xbdd2a883	-0.10286047
184	0xbdcb4400	-0.09925079
185	0x3d6a497a	0.05719898
186	0xbd8ac944	-0.067766696
187	0xbdae1840	-0.08500719
188	0xbda9e656	-0.08295886
189	0xbd2f2f25	-0.04276957
190	0xbdb0e136	-0.086367056
191	0x3c9dcc6f	0.01926252
192	0x3ccbe5bb	0.024889817
193	0x3d135c08	0.03597644
194	0x3bb5a47c	0.0055432897
195	0xbdd2ee70	-0.102993846
196	0xbcd07daa	-0.025450546
197	0xbdac2c79	-0.0840692
198	0xbd31f11c	-0.04344283
199	0x3d785293	0.060625624
200	0x3d90be20	0.070675135
201	0xbdb10f24	-0.08645466
202	0xbd00a012	-0.031402655
203	0x3d7f9081	0.06239367
204	0xbbd2fc79	-0.0064387885
205	0xbd01da19	-0.031702135
206	0x3d07bff6	0.033142053
207	0x3d2f92b3	0.042864513
208	0x3c0e2174	0.008674968
209	0x3dbca099	0.09210319
210	0x3dabd3b9	0.08389992
211	0x3dbd4363	0.092413686
212	0x393ee5d9	0.00018205437
213	0xbd6ce1a5	-0.05783238
214	0xbcf4886a	-0.029850204
215	0xbd469bf7	-0.048488583
216	0xbd918821	-0.07106043
217	0x3cfdb06e	0.030967917
218	0xbd5ae9d2	-0.053445645
219	0xbd8a7fab	-0.06762632
220	0xbd4d04e0	-0.050053477
221	0xbdc767fa	-0.09736629
222	0xbda36d01	-0.07979775
223	0x3bef8be8	0.0073103793
224	0xbd8eb962	-0.06968953
225	0x3cd9f6a1	0.02660686
226	0xbdbf25b8	-0.09333366
227	0xbd1d4bee	-0.03840249
228	0xbd4b5129	-0.049637947
229	0xbdae0b96	-0.084983036
230	0xbd415c31	-0.04720706
231	0x3cc55d27	0.02409227
232	0x3d73d7e7	0.059532072
233	0x3cf1f797	0.029537005
234	0xbda3e131	-0.08001936
235	0xbd14f545	-0.03636672
236	0xbc929369	-0.017892556
237	0xbc540dd0	-0.012942746
238	0xbc19dba6	-0.009390747
239	0xbd401e3a	-0.046903826
240	0xbd0f6012	-0.03500373
241	0xbc728c53	-0.014803964
242	0x3d72b572	0.05925507
243	0x3d535bf6	0.051601373
244	0xbccfdc0f	-0.025373487
245	0x3d4c840c	0.049930617
246	0x3c8fd195	0.017555991
247	0x3d45392d	0.04815023
248	0x3c5c9d53	0.013465243
249	0x3dbfc951	0.0936457
250	0x3d000e65	0.031263728
251	0x3d6060e0	0.054779887
252	0x3cd8be2b	0.026457867
253	0xbc6cff46	-0.014465159
254	0xbdbda5d3	-0.09260144
255	0xbdf97367	-0.121802144

model.decoder.blocks.1.layer.bias f4 [16]
0	0x3d6e6c6b	0.058208864
1	0x3d5e3296	0.05424746
2	0x3dae921b	0.08523961
3	0x3daddcd4	0.08489385
4	0xb9eba4b2	-0.000449454
5	0x3d89a1cc	0.067203134
6	0x3d888b44	0.06667188
7	0xbd90449c	-0.07044336
8	0xbcca38c0	-0.024685264
9	0x3bfd17ed	0.0077237994
10	0x3e15282d	0.14566107
11	0x3d917df1	0.071040995
12	0xbd0c243f	-0.034214254
13	0x3cc6dce3	0.024275249
14	0x3db9bcc3	0.090692066
15	0x3d8ac99f	0.067767374

model.decoder.blocks.1.upsample.weight f4 [16, 16, 2, 2]
0	0x3ddbcaca	0.10732038
1	0x3dc6ad7e	0.0970106
2	0x3d84cb48	0.06484085
3	0xbd8ca74f	-0.06867849
4	0xbeb827ad	-0.3596777
5	0xbe0eae44	-0.13933665
6	0xbdc2f41b	-0.09519216
7	0x3dd55207	0.10416036
8	0x3e37d573	0.17952518
9	0x3e8a0150	0.26954126
10	0x3d21cdbe	0.03950285
11	0xbe3e2664	-0.18569332
12	0x3e0e2915	0.13882859
13	0x3d1f8e90	0.038954318
14	0x3e508907	0.20364772
15	0x3d165637	0.036703315
16	0xbe811b6d	-0.25216237
17	0xbe86f42f	-0.26358172
18	0xbe0fe89a	-0.14053574
19	0x3b9ef6e8	0.004851211
20	0x3e366ea4	0.17815644
21	0x3dad119e	0.08450626
22	0x3db73f9f	0.08947682
23	0xbe317a45	-0.17331798
24	0xbe32afac	-0.17449826
25	0x3e3e707c	0.18597597
26	0xbea0c223	-0.31398115
27	0xbd4aa83a	-0.04947684
28	0xbec60319	-0.38674238
29	0xbdee6721	-0.11640764
30	0xbda1d3ff	-0.07901763
31	0x3cbc7bc2	0.023008231
32	0x3de8100d	0.113311864
33	0x3eab78d3	0.3349062
34	0x3e438e8c	0.19097346
35	0x3e96fd04	0.2948991
36	0xbafa201f	-0.0019083059
37	0x3d5b6f8f	0.053573187
38	0xbf2f45b8	-0.6846576
39	0xbef53973	-0.47895393
40	0x3e8ce282	0.27516562
41	0xbdd5165b	-0.104046546
42	0xbe146cf9	-0.14494695
43	0xbdd38b24	-0.10329273
44	0xbe97c6c8	-0.29643846
45	0xbd84fbcd	-0.0649334
46	0x3b963df7	0.0045850235
47	0x3dde55fe	0.108562455
48	0xbec18f5d	-0.3780469
49	0xbd659ef1	-0.05605978
50	0xbe737a75	-0.23777182
51	0xbcccb342	-0.02498782
52	0x3e477c5d	0.19481035
53	0x3de35855	0.111008324
54	0x3e76d82e	0.24105904
55	0x3dc709c0	0.097186565
56	0x3ed3c3c5	0.41360298
57	0x3d53f604	0.05174829
58	0x3e311c8d	0.17296048
59	0x3cd16fa2	0.025565926
60	0x3e539260	0.20661306
61	0x3e2f35fb	0.17110436
62	0x3e62276b	0.2208535
63	0x3dfb5596	0.122721836
64	0x3da11b53	0.0786654
65	0xbd975fa8	-0.07391292
66	0x3d22ad21	0.03971589
67	0x3e06734b	0.13129918
68	0x3cd6305e	0.02614611
69	0x3c8f48d0	0.017490774
70	0x3d2dbc01	0.042415623
71	0x3d520cb1	0.051281635
72	0x3cdf9d72	0.027296755
73	0xbd8ff259	-0.07028646
74	0x3e0a25c1	0.13490964
75	0xbc42f9b1	-0.011900351
76	0x3caf6dd7	0.02141468
77	0x3cd78444	0.026308186
78	0x3ccf4f95	0.025306502
79	0xbc9175ce	-0.017756369
80	0xbd9ad5cc	-0.0756031
81	0x3c78a023	0.015174898
82	0xbcb17032	-0.021659944
83	0xbd2508c5	-0.040291566
84	0x3da81e84	0.082089454
85	0x3e18f988	0.14938939
86	0xbda7cdff	-0.081935875
87	0x3d91a980	0.07112408
88	0x3d9a95c0	0.07548094
89	0xbc0764f4	-0.008263815
90	0x3ccb8118	0.02484183
91	0xbddf71f0	-0.10910404
92	0xbe119dd9	-0.1422037
93	0xbe0d4832	-0.13797072
94	0x3c7e554a	0.015523264
95	0xbd441cb6	-0.047878943
96	0x3bd559b8	0.0065109394
97	0x3c67937a	0.014134282
98	0xbd5ae29a	-0.05343876
99	0xbdf4675b	-0.11933776
100	0x3e14d8e0	0.14535856
101	0x3d95fe2e	0.073238716
102	0x3dbb239b	0.091376506
103	0xbe44ddad	-0.19225188
104	0x3dcded7a	0.10055061
105	0xbcee2744	-0.029071458
106	0x3da123dd	0.078681685
107	0x3de955e2	0.11393334
108	0x3dfdd2ec	0.12393746
109	0x3d8c069c	0.06837198
110	0xbd8d374f	-0.06895315
111	0x3c4f5616	0.012654802
112	0xbd0229b7	-0.031778064
113	0xbd96284e	-0.07331906
114	0xbe00a0e9	-0.12561382
115	0xbe316a21	-0.17325641
116	0x3d13a83b	0.03604911
117	0x3c737850	0.014860228
118	0x3cf6b4a2	0.03011543
119	0x3dddb4ad	0.10825477
120	0xbe0bc948	-0.13651001
121	0x3d06e392	0.03293187
122	0x3d5b3e65	0.0535263
123	0xbbdc72a5	-0.006727534
124	0xbd7c1809	-0.06154636
125	0x3d328e40	0.04359269
126	0xbcf07736	-0.02935372
127	0x3e0e6681	0.1390629
128	0xbd869eeb	-0.0657328
129	0x3c06c37c	0.008225318
130	0xbcd5500f	-0.026039151
131	0x3e04261f	0.12905167
132	0x3d852492	0.06501116
133	0xbe25665b	-0.16152327
134	0x3d85ff07	0.06542783
135	0xbd3262f5	-0.043551404
136	0x3d804353	0.06262841
137	0x3d830667	0.063977055
138	0x3d8068cf	0.06269991
139	0xbd86fb40	-0.06590891
140	0xbccc9472	-0.024973128
141	0xbd2f8ffd	-0.042861927
142	0xbcb620ec	-0.022232495
143	0xbb89557c	-0.0041910987
144	0x3cbc67eb	0.02299877
145	0x3c457da6	0.012053883
146	0xbb06ad06	-0.0020549907
147	0xbdcde347	-0.10053115
148	0xbd3dac77	-0.046307053
149	0xbccc0667	-0.024905397
150	0x3d0a6905	0.03379156
151	0x3dfdf5d7	0.12400406
152	0x3d46079e	0.048347108
153	0xbe0d9ae2	-0.13828614
154	0xbd8d54b2	-0.0690092
155	0xbda8a2e6	-0.082341954
156	0xbe007bd6	-0.1254724
157	0xbe027b17	-0.12742268
158	0xbd1c25c9	-0.038121972
159	0x3d3d878c	0.046271846
160	0x3c821495	0.015878955
161	0xbd95e2db	-0.0731866
162	0xba296136	-0.0006461324
163	0xbd018944	-0.031625047
164	0x3e07b318	0.13251913
165	0xbdfed5de	-0.12443136
166	0x3dae0829	0.0849765
167	0x3cf9c4bf	0.030489324
168	0xbd641318	-0.05568227
169	0x3d2d7d3c	0.04235576
170	0x3d971842	0.07377674
171	0x3e0db6f8	0.13839328
172	0x3d9e18df	0.077195875
173	0x3d3b45af	0.045720752
174	0xbd9e2420	-0.07721734
175	0xbd007c27	-0.0313684
176	0xbd7e5a6f	-0.062097963
177	0xbc373659	-0.011182391
178	0xbe1d598c	-0.1536619
179	0xbd4203db	-0.047366958
180	0xbd63cc06	-0.055614494
181	0x3db867e7	0.09004193
182	0xbdb743e2	-0.089484945
183	0x3db660a1	0.08905149
184	0xbe06d4f9	-0.1316718
185	0x3d03a460	0.032139182
186	0x3c9c4b3f	0.019078849
187	0xbb926960	-0.004468128
188	0x3d40de91	0.047087256
189	0xbdb3b9cf	-0.087756746
190	0x3da473fc	0.08029935
191	0x3e1cb33b	0.15302746
192	0xbdb3c401	-0.08777619
193	0xbcabf5aa	-0.020991165
194	0x3dd17476	0.10227291
195	0x3e0a37cb	0.13497846
196	0x3ced7f86	0.028991472
197	0x3c14d322	0.009083541
198	0x3d851850	0.06498778
199	0x3d914eef	0.070951335
200	0xbd10e9fc	-0.035379395
201	0x3d635467	0.055500414
202	0xbd335979	-0.0437865
203	0xbc2e149a	-0.010625029
204	0x3de5d933	0.11223068
205	0x3e054923	0.1301618
206	0x3dbefa78	0.09325117
207	0xbdbc9b55	-0.09209315
208	0xbb949dfb	-0.0045354343
209	0xbdeba8be	-0.115067944
210	0xbe150c96	-0.14555582
211	0xbd58fede	-0.052977435
212	0xbda059ee	-0.07829653
213	0xbdb58d37	-0.08864825
214	0x3e1964dd	0.14979883
215	0x3ddec53f	0.108774655
216	0xbd199e87	-0.0375047
217	0x3dbb3240	0.09140444
218	0xbcae10d4	-0.021248259
219	0x3d8ea796	0.06965558
220	0x3cdaf740	0.026729226
221	0xb93dcb92	-0.0001810028
222	0x3d743ef0	0.059630334
223	0xbe164c90	-0.14677644
224	0xbe1910fa	-0.14947882
225	0xbc68b4c2	-0.014203252
226	0x3d9b4b49	0.07582719
227	0x39e4e2d1	0.0004365654
228	0xbd9bd212	-0.07608427
229	0xbcbad731	-0.02280769
230	0xbd7bcc51	-0.06147415
231	0xbdf12821	-0.11775232
232	0x3d65ecf3	0.056134176
233	0x3dabf053	0.083954476
234	0xbd472b83	-0.04862548
235	0x3d611ba8	0.054958016
236	0x3deca604	0.115551025
237	0xbd63def2	-0.05563254
238	0xbcef1ca1	-0.029188456
239	0x3bcd356c	0.006262472
240	0xbd1173cd	-0.035510827
241	0x3dab52f8	0.083654344
242	0xbde4c44a	-0.11170252
243	0x3d247f7d	0.040160645
244	0x3d375d87	0.04476693
245	0x3d2749ff	0.040842053
246	0x3d7216ca	0.059103765
247	0x3dbab529	0.09116585
248	0x3d0c2871	0.034218255
249	0x3d6d9f06	0.058012985
250	0xbdb6983f	-0.089157574
251	0xbe05a3a4	-0.13050705
252	0x3c9a04d2	0.018801127
253	0xbd50e7e0	-0.051002383
254	0xbd6d5655	-0.05794366
255	0x3d88d4a5	0.06681184

model.decoder.blocks.1.upsample.bias f4 [16]
0	0x3e0d14e2	0.13777497
1	0xbdbfc566	-0.09363823
2	0x3db845aa	0.08997662
3	0x3e13b7fd	0.14425655
4	0xbe101675	-0.14071067
5	0x3d8ae94c	0.06782779
6	0xbde570d1	-0.11203159
7	0xbd5a3e14	-0.05328186
8	0x3da5f06a	0.08102496
9	0xbc60a8f9	-0.013712161
10	0x3d94f088	0.0727244
11	0x3dab74d7	0.08371895
12	0xbdbccbb5	-0.092185415
13	0x3de16143	0.11004879
14	0x3d29a2d4	0.04141505
15	0x3e1a2bb9	0.15055741
