02_Homeworks/Assignment_A_Graph/modeldata/model_32.pt (torch, 8663 bytes, 11 tensors)

conv1.lin_rel.weight f4 [16, 4]
00000000: 427c 92bd 8759 4a3f cefc d2bd 2d3a 843e
00000010: 1fd1 193c 4e21 083f 8543 e63d 789f 943c
00000020: 2d87 223f 1953 b2be e17c e53d 450a d43e
00000030: 510a 4d3e 45fc c93d 0509 9abe d305 acbe
00000040: 84d5 14c0 6ae0 1bbf fc2b abbe 6c85 03be
00000050: 932d 0fbe 6b65 5a3f 7182 203e c304 4d3c
00000060: f210 dfbe f891 83be 9cb2 1d3e 1c66 eebe
00000070: 46e4 f3bc b16f 623e e51c 903d 0b1e 413c
00000080: 600e f0be 0e32 543e 41a8 483c 5380 59be
00000090: 9120 4dbe 393c f7bd 9939 efbb c21f 993e
000000a0: 8cb9 c8be c187 5dbc c083 7f3b 1d2d ea3d
000000b0: e08a cfbc bab4 c2be f667 b5be 9aa5 d9be
000000c0: ed6b 12bf e536 d2bd df99 87bd 7ef3 2f3e
000000d0: 6634 0c3f 5bf3 df3d 7a7a f6bd f7e2 8dbe
000000e0: 24c2 c0be 800e 3dbd 107d dcbd 809e c2bc
000000f0: d6e4 d1bf 92fa 3a3d 190e ab3c ba44 5fbe
-0.071526065 0.7904286 -0.10302125 0.25825635 0.009388237 0.5317582 0.11243347 0.018142447
0.6348751 -0.34829023 0.112054594 0.41414085 0.20023467 0.0986257 -0.30085006 -0.33598194
-2.325532 -0.60889304 -0.33431995 -0.12843865 -0.13982229 0.85311 0.1567476 0.012513342
-0.43567616 -0.25697303 0.15400165 -0.46562278 -0.029771935 0.2211292 0.07036761 0.011786948
-0.46885967 0.2072222 0.012247146 -0.21240358 -0.20031954 -0.120720334 -0.0073005673 0.29907042
-0.3920406 -0.013521136 0.0038988441 0.11434386 -0.025334775 -0.38028508 -0.35430878 -0.42509156
-0.5719593 -0.102643766 -0.066211455 0.17182729 0.54767454 0.10935088 -0.12035079 -0.27712223
-0.37648118 -0.046156406 -0.10766041 -0.02375722 -1.639796 0.04564912 0.020880746 -0.21803561

conv1.lin_rel.bias f4 [16]
00000000: e03f f0be 1c3d cd3e eefb c5be 76f9 02bf
00000010: e2c4 7f3f da35 23bf 90ae 50be 453a bebf
00000020: 25a5 2d3f 5e5d a1bf 5039 a43f 1c66 a4be
00000030: 8fc6 10bf bd33 273f 2821 f33d 6bdc 973f
-0.46923733 0.40085685 -0.3866877 -0.511619 0.99909794 -0.63754046 -0.2037909 -1.4861532
0.67830116 -1.2606618 1.282999 -0.32109153 -0.56552976 0.6531332 0.118715584 1.1864141

conv1.lin_root.weight f4 [16, 4]
00000000: 4b4d 38bf 27b9 463e bb2c 913d 3290 60bf
00000010: f142 ba3e 4a09 61bf 11ad d33f 7220 b2bd
00000020: 558d 7f3f 6987 65bf 5a1e 3bbd 873e e2bf
00000030: 4e27 f73d d069 1dbe 2662 69be 8dd3 b53c
00000040: ea4d a3bf bccb be3f 793d a9bf e29c f83d
00000050: 951b 63be 5277 8dbf e746 053f f385 1fbd
00000060: 00c0 133b 609b 68bd c2a4 edbe f832 27be
00000070: 58ca 63c0 e5a2 c7be 0dad 5b40 7b60 2c3d
00000080: 95f3 433f 2802 3a3f 704d ebbd e8c0 4dbe
00000090: 2a95 8c3c cf91 25c0 f588 a5bc 0deb 5340
000000a0: a9db ab3f 52d7 91bf ba64 d03b 6dd0 40c0
000000b0: dad7 a93e 006c 73be ca2e dabe b27f b4be
000000c0: f324 543e 0003 c03e 7612 b73d f2a8 9abe
000000d0: 58fd bc3e 2d76 c63d ea35 4bbf 1ee6 f2be
000000e0: bc84 dabe 6076 15be 80b5 c8bd 6809 c3be
000000f0: 1eae 723f f65e adbf 97ca 173c 4658 0fc0
-0.7199294 0.19406568 0.0708861 -0.87720025 0.36379197 -0.879048 1.6537191 -0.08697595
0.9982503 -0.89659745 -0.045683242 -1.7675332 0.12068044 -0.15372396 -0.22791347 0.022195602
-1.2758152 1.4905925 -1.3221885 0.12139298 -0.2217849 -1.1052039 0.52061313 -0.038946103
0.002254486 -0.056788802 -0.46414763 -0.16328037 -3.559225 -0.38991466 3.4324372 0.0420842
0.7654355 0.7265954 -0.114893794 -0.20093119 0.01716097 -2.5870245 -0.020206908 3.3112214
1.342641 -1.1393836 0.006359664 -3.0127213 0.33172494 -0.23771667 -0.42613822 -0.35253674
0.2071722 0.3750229 0.08939068 -0.3020702 0.36912036 0.09690509 -0.7937914 -0.4744119
-0.42679393 -0.14595938 -0.098002434 -0.38093114 0.9479693 -1.3544605 0.00926461 -2.2397628

conv2.lin_rel.weight f4 [16, 16]
00000000: 7ac5 89bd f1a2 d5bd d122 f6bf 8767 38be
00000010: 181e 71bf e1fa bc3c 28a6 363e 824d 443b
00000020: 971b c1be 271a d2bf 69c0 8ebe 563e 58be
00000030: 6844 2b3e 3052 7abe d4cd efbd c02d a2bf
00000040: 6971 45be 3e83 b5be 1d1c c43d d08d d5bd
00000050: 9ab8 c3be 8b44 373e f8f4 eb3d 8097 acbe
00000060: d33f 49bd af4d 49be fccd 8bbe fe27 37be
00000070: b435 0b3e 0b7e 8f3c 54a4 5fbe d3b6 c43d
00000080: 49f3 54bd ce50 46be 2653 8abe 3e2e 793e
00000090: a0a1 67bc 48e6 65bc 4059 bf3b 0e4d 00be
000000a0: 0d49 86be 7a0c 8bbe 52d9 923d c828 68bd
000000b0: 9778 8abd 5f84 31be d00e 7c3e 8e3b 33be
000000c0: e789 7fbd 6cc6 3bbe bea4 34be eaae 13be
000000d0: e70a 16be 5067 263d 1cac ecbd 3502 8cbd
000000e0: 5608 b43d 2b36 63be aeb1 a6bd 9285 243e
000000f0: f23b 2ebe e6b6 57be a08a 5dbe b265 07be
00000100: 93ec 8a3d f370 313f 7e8d 11bf dcf3 7f3e
00000110: 258b 393f b32c cdbf 7806 7ebd 39dd c5bf
00000120: 9ad1 29be bae0 12bd d525 1bbe 8057 253d
00000130: adfa 213e 57d3 0d3f 1486 7fbe bab7 bd3f
00000140: c94f 36bd 5533 26be d6e4 36bf ce3d 74bc
00000150: 518d aabf bf6d 2d3d 2c4e 953d ff05 113e
00000160: b887 0abf 9d8d c8bf 1cc7 2c3e cc97 ccbd
00000170: a2ea 87bd 4ad4 20bd 32cc 323e 3a42 19bf
00000180: d345 55bf 9eb0 e13e e7cb 90be 0c29 d2bd
00000190: 9a24 7abe bcc5 28be 029b 143e 5f60 053e
000001a0: e20d 82be 1c05 24be 8047 403f 7c00 033e
000001b0: 0016 a3bd 0589 93bf 98a2 d9bd 70a4 d7bd
000001c0: 0973 1b3e 30a7 afbd 1b97 8a3d 544f 98be
000001d0: e408 5dbe 8677 5abe f004 773e 5187 05bf
000001e0: 922a dabd fae8 8abd 37c0 1cbe b61d 233e
000001f0: 8934 41be a1e1 2fbe 28af 283d 00c4 c93b
00000200: 22e4 90bf c53c d53e fd7d 29be 74a6 d33d
00000210: 39d1 a1bf 0c3d 32c0 58f7 5c3d 5e43 66be
00000220: e709 313d 08a0 ec3e 409b 143f f413 36be
00000230: 7561 273d 8a56 bdbd a0b2 5abe d81f 84be
00000240: 0a33 1bbf b170 95be 36da 2cbe 1052 e93d
00000250: 8aa9 f73f 90aa 263f 70af 773e 046c 513f
00000260: 4d75 4bbe ba16 f13d 4e62 d1be 2885 7c3d
00000270: f31d 8a3c 62b3 ec3b e080 473e 9e48 4f3d
00000280: bf17 623d 015c b63c a5c2 d9bd c63b 4a3e
00000290: 5b15 d93e 2646 bbbd 4ae6 653e 2657 ffbb
000002a0: 3c2a 5f3e c641 ab3c 464d 92c0 4ee5 313e
000002b0: 77c1 5bbe 0157 b33d a451 cb3d ffc6 523f
000002c0: 783d 87be c68b 573e 8712 b3bd 1f52 0dbe
000002d0: 3c89 e53e 97dd 4fbe ce00 7bbe 21f0 2340
000002e0: 3fd6 25bd b078 143e ed6a b83d 5439 883d
000002f0: 65b8 d4bd 7ba4 e1bd 6464 1d3e ff15 d13d
00000300: 1a29 cabd 356a 99bd c7c0 d6bd e066 ed3d
00000310: 5e6a 1fbe 1570 69be 1ee0 1bbe a3d7 88bc
00000320: 5cfb c13d a4b6 eebd d7d8 80bd 801f 64bd
00000330: e4dd 7abe f477 67be 684c 3e3e 9cdc b1bd
00000340: e1cf 0fbe b4a8 c0bd ba15 853b e495 1cbe
00000350: 9a24 5fbe 7fe6 bebc 6c05 44be 1dcf 66be
00000360: 4e1d d2be f338 91be 2f3f fd3d 3eb1 4b3e
00000370: 0095 b33d 2328 9c3d 783d 203e d0f1 0e3e
00000380: bf14 74be 8675 8fbd 1ad5 0cbd 2071 fbbd
00000390: aae6 68be e20a 7ebe 4038 8abd eaa7 563e
000003a0: e30a 79be c953 0c3d e529 83be 763f 7fbe
000003b0: 9610 44be efc4 07be 7094 65bd ec28 cd3d
000003c0: f869 14be 708f 8e3d 286a 15be 9043 f0bd
000003d0: b4b7 2e3e 867a 45be 60c4 06bc f253 3bbe
000003e0: b7ea 1eba c77a c63b f7c9 29be 90f0 8dbc
000003f0: 844d 163e 5203 20be 707a 363d 4413 8c3d
-0.06727119 -0.10431469 -1.9229375 -0.18008243 -0.94186544 0.023068847 0.17836821 0.0029953425
-0.37716362 -1.6414231 -0.27881172 -0.2111753 0.16725314 -0.24445415 -0.117091805 -1.2670212
-0.19281544 -0.35451692 0.09575675 -0.10427439 -0.38226777 0.17897241 0.115213335 -0.33709335
-0.049133133 -0.1965854 -0.2730559 -0.1788635 0.13594705 0.017516157 -0.2184003 0.096051835
-0.051989827 -0.19366762 -0.27016562 0.24334046 -0.0141376555 -0.014031954 0.005839497 -0.12529394
-0.26227608 -0.27157956 0.07170357 -0.056679517 -0.06761282 -0.17335652 0.24615026 -0.17503187
-0.062387373 -0.1833741 -0.17640969 -0.14422193 -0.14652596 0.04062587 -0.11556265 -0.068363585
0.087906525 -0.22188632 -0.081393585 0.16066578 -0.17015055 -0.21065864 -0.21634912 -0.13222387
0.06783404 0.6931297 -0.56856525 0.24995369 0.7247794 -1.6029266 -0.062017888 -1.5458137
-0.16583863 -0.035858847 -0.1515115 0.04036665 0.15818281 0.55400604 -0.2495349 1.4821694
-0.044509683 -0.16230519 -0.71442926 -0.0149073135 -1.3324376 0.04234099 0.07290301 0.14162444
-0.5411334 -1.5668217 0.16872829 -0.099898905 -0.066365495 -0.039264955 0.17460707 -0.5986668
-0.8330967 0.4408006 -0.28280565 -0.10261735 -0.24428025 -0.1648168 0.14512256 0.13025044
-0.25401217 -0.16017574 0.751091 0.12793154 -0.079631805 -1.152619 -0.106267154 -0.10529411
0.15180601 -0.0857681 0.06767102 -0.29748023 -0.21585423 -0.21334657 0.24122977 -0.521596
-0.10652651 -0.06782718 -0.15307699 0.15929303 -0.18867697 -0.17175914 0.041182667 0.006157398
-1.1319621 0.41647926 -0.16551967 0.10334483 -1.2641975 -2.784976 0.053946823 -0.22486636
0.043222334 0.46215844 0.5804939 -0.17781049 0.040864427 -0.09245022 -0.21357203 -0.25805545
-0.60624754 -0.2918754 -0.16880116 0.11392605 1.9348614 0.6510401 0.24188018 0.81805444
-0.19868965 0.11771913 -0.40895313 0.061650425 0.016859984 0.0072235325 0.19482756 0.050606363
0.055198427 0.022260668 -0.106328286 0.19749364 0.42399105 -0.09144239 0.2245113 -0.0077923713
0.21793455 0.020905387 -4.571933 0.17372629 -0.2146052 0.08756829 0.09927681 0.82334894
-0.26414084 0.21049413 -0.08743768 -0.13800858 0.44831264 -0.20299374 -0.24512026 2.5615313
-0.040487524 0.14499164 0.090047695 0.066515595 -0.10386733 -0.110177 0.15370327 0.102092735
-0.09871121 -0.074909605 -0.10485988 0.115918875 -0.1556792 -0.22796662 -0.15222213 -0.016704386
0.09471771 -0.1165593 -0.06291359 -0.055694103 -0.24498707 -0.22604352 0.18583834 -0.08684656
-0.14044143 -0.094071776 0.004061428 -0.15291554 -0.21791306 -0.023303268 -0.19142693 -0.22539945
-0.41037983 -0.2836376 0.12365567 0.19891831 0.08768654 0.07624843 0.15648448 0.13959432
-0.23836039 -0.07004838 -0.034382917 -0.12277436 -0.22744241 -0.24808839 -0.0674901 0.20962492
-0.24320559 0.03425959 -0.256179 -0.24926552 -0.19146952 -0.13258718 -0.056049764 0.10017571
-0.14493549 0.06960952 -0.14591277 -0.117316365 0.17062265 -0.1928502 -0.00822553 -0.18293741
-0.0006062197 0.0060571167 -0.1658095 -0.017326623 0.14678007 -0.15626267 0.04455036 0.06839612

conv2.lin_rel.bias f4 [16]
00000000: 37fa 4a3f 5739 a2be 9f59 9ebe 2079 aabe
00000010: 5849 18bf fc7c 393f ef91 9ebe 4ae3 8abe
00000020: d3f6 a53f 7823 f13e 993d 3abf b1e3 8f3e
00000030: e11d 66be 677e afbe 797b 8e3d 8ce2 67be
0.7928805 -0.31684372 -0.3092775 -0.33295536 -0.59486914 0.72456336 -0.30970713 -0.27126533
1.296595 0.47097373 -0.7275024 0.28103402 -0.22472335 -0.34276125 0.06957144 -0.22645015

conv2.lin_root.weight f4 [16, 16]
00000000: 3ecd 33be 2846 703f e582 b83e 652d eb3c
00000010: fe62 203f 1149 e13e 50b1 713e 5c88 863e
00000020: 2617 283f 8d75 903e bd15 af3e b492 1c3e
00000030: 38db 883e 0130 d53f 26a0 59be ab44 2fc0
00000040: c396 42be 64cf b83d d306 133d 3381 47be
00000050: 99b3 09be 3f50 a23d 107f cbbd 15cc a7be
00000060: 7962 10be 0661 b5be 95c4 25bd f278 283e
00000070: acea c43d 41cd 09be 407f 393e c0c4 c0be
00000080: e93f 3d3e 006c 11ba 562b 93bd d852 893d
00000090: 7256 24be 8de6 e3bc 1408 bc3d 52aa 7bbe
000000a0: 11da 49be 687f eabd d95f d03d 4630 013e
000000b0: 3b6b c6bc ff08 903d f8a8 40be 241e dabd
000000c0: f32e c2bd ced0 e63d 026f 343e 98d7 633e
000000d0: 1aeb 4b3d 261e 20be f036 ff3c f42e ccbd
000000e0: 6d43 c5bd b48a 3fbe 07c7 3dbe 0457 cd3d
000000f0: 587e 33bd de1a ef3d 90f6 983c fcca e0bd
00000100: fbf7 6f3f 815a 23bf d544 053f e8ef 08bd
00000110: 3431 fd3f 0302 d33f dc97 c13d 7672 33bf
00000120: dd63 5cbe 3467 a6be aaf7 fabe 64be e13d
00000130: 51fb 473e 4031 02c0 48ea 8abd 3247 1c3e
00000140: 760d b0bd 1b88 733f e47e 983f 98e9 2abe
00000150: 7a7a 003f b59a 9d3e f892 40be cafe fcbe
00000160: 8ca9 6f3f d9c0 1ebf d735 aabf 6a63 3c3e
00000170: cfb7 ddbd f656 803f 80d2 793e baf1 d93f
00000180: 78f0 3440 bedb bbbf 0f6c 0f40 7496 483e
00000190: c839 d23e e9d6 11bf 22b5 4ebe 7878 57c0
000001a0: 8aba c0be 2c24 9ebf 4dec adbf c0db c9bd
000001b0: 4099 d23d 7ea6 d8be 0c32 abbd 85c6 00c0
000001c0: 5a49 d3bb 97f9 0abb 37f5 a03d 801a 89bb
000001d0: 2dc7 f5bc 076b 95bd 503a f4bd 3043 6f3d
000001e0: e685 50bd bc83 55be 2cf2 463c 82ea 64be
000001f0: 4d37 153e d339 9fbe 181c 2a3d ebc6 aabe
00000200: ee97 7fbe 725f 82bf e522 a2bf 5c07 f03d
00000210: bba1 da3d 5816 1fbf a8be c2bd f2bc b9bf
00000220: 9bce 233f 0b9f c7bf 4322 ccbf e075 353c
00000230: ad8e 81be 4e3a cc3e 80dc 553d d66b 28bd
00000240: 134d 67bf 489b 2b3f 03d9 503f bd59 8ebd
00000250: 3ad2 513f 5ed1 1b3e a05b 6fbd 229f a7bf
00000260: 3070 8bbe 532c 1b3f 3c86 b43e 8c28 8c3d
00000270: 4b51 57bd d50a da3e c044 3cbc 4281 c73e
00000280: 3cad 2abf 4ffd 89be 4c65 053f b80d 0b3e
00000290: aaf7 debe a06a eb3e 6031 7abc c17e f5bf
000002a0: 041c 8f3e 971e 2dc0 ef67 2240 f061 e33d
000002b0: 2f6e 3f3e 0595 c4be 4cbf b33d 370d 0ec0
000002c0: e902 0dbf 9b73 6fc0 8563 983d 2ca2 30bc
000002d0: 6564 cb3d 4c0a bcbf 4ca2 33be 1ab0 2dc1
000002e0: e3b3 6d3e 267d d2be 3cc5 593f 004b 2a3d
000002f0: 7d46 d2bd 2f7c 693f 581a 7dbd c64d 1bbf
00000300: cb2e 1abe 4d06 babd 0283 35be ac6b 2dbe
00000310: 5cc7 fc3c 5629 10be f243 193e 4d4e a03d
00000320: 08d6 adbd 2e17 44be 6994 5fbd b8e3 19be
00000330: 8012 c6bd 7e78 f4bd 9c6a c03d ca6e 9f3d
00000340: b4c1 0a3d 3cbf 25be 482b 8fbc 152e 92bc
00000350: 232e 4d3e 838e 51bc 9c78 383e 2ab9 2fbf
00000360: 7375 bcbe 422d afbd 763f e23d 84e8 49be
00000370: 5971 093e 5de5 bbbd c03d 6dbe 7c2d 37be
00000380: ee94 98be 5bb8 45be bf85 17be caeb 4dbe
00000390: e219 40bd 0b46 83be 604b d63c 3efa a03c
000003a0: 567a 02be 613d b4bd 7af6 6fbe 7048 7abe
000003b0: 561d 7a3e 7725 88bd 88aa c0bd 749a da3a
000003c0: 774c 1a3e f296 21be 1ec4 24be a008 64bc
000003d0: 6606 13be b8ba 38be d2a7 45be 5008 75be
000003e0: c231 17be 6055 063c 0377 063e 50a1 6c3e
000003f0: 1e4a 90be a0ee 5ebe 2efc 4d3e c4c7 e0bd
-0.17558762 0.9385705 0.36037365 0.02870817 0.6265105 0.44001058 0.23602796 0.2627591
0.6566032 0.28214684 0.34196272 0.15290338 0.2672975 1.6655275 -0.21252498 -2.7385662
-0.19002824 0.090239316 0.03589518 -0.1948288 -0.13447417 0.07925462 -0.099363446 -0.3277289
-0.14100064 -0.35425586 -0.04047068 0.16452387 0.096150726 -0.13457204 0.18114948 -0.37650108
0.18481411 -0.0005547404 -0.07186 0.06705254 -0.16048601 -0.027819896 0.09181228 -0.24576691
-0.19712092 -0.11450082 0.101745315 0.12616071 -0.024221053 0.07032966 -0.18814456 -0.1065028
-0.09481611 0.11270295 0.17620471 0.22250211 0.049784757 -0.156365 0.031154126 -0.09969893
-0.09632001 -0.18705255 -0.18532954 0.100263625 -0.043821663 0.116750464 0.018672258 -0.10976216
0.93737763 -0.63809973 0.52058154 -0.033431917 1.9780641 1.6484989 0.09452793 -0.7009653
-0.2152247 -0.32500613 -0.49017078 0.11022642 0.19529463 -2.034256 -0.06782967 0.15261534
-0.085963175 0.95129555 1.1913724 -0.16690671 0.50186884 0.30782095 -0.18806064 -0.4941314
0.93618083 -0.6201301 -1.3297681 0.18397298 -0.10826074 1.0026538 0.24396706 1.7026894
2.827177 -1.4676435 2.2409704 0.19588643 0.4105971 -0.5696855 -0.20186284 -3.3667278
-0.37642318 -1.2354789 -1.3587738 -0.09856367 0.10283136 -0.42314523 -0.08359155 -2.0121167
-0.006447953 -0.0021205896 0.07859271 -0.0041840672 -0.030002201 -0.072958045 -0.11925185 0.058413684
-0.050908946 -0.20851034 0.012142699 -0.22355083 0.14571877 -0.31098804 0.0415307 -0.33354887
-0.249603 -1.0185378 -1.2666899 0.11720154 0.10675379 -0.6214347 -0.09509021 -1.4510787
0.6398713 -1.5595411 -1.5947956 0.011075467 -0.25304165 0.39888233 0.05221224 -0.041118465
-0.9035198 0.67033815 0.81581134 -0.0695071 0.81961405 0.15216586 -0.05843699 -1.3095438
-0.2723403 0.6061451 0.35258663 0.06843671 -0.05256776 0.4258639 -0.011491001 0.38965803
-0.66670585 -0.26951072 0.5210769 0.13579452 -0.43548328 0.45979786 -0.015270561 -1.9179307
0.27951062 -2.704992 2.5375936 0.111026645 0.18694375 -0.38394943 0.08776721 -2.2195566
-0.55082566 -3.741431 0.07440857 -0.010780852 0.09931258 -1.4690642 -0.1754238 -10.855494
0.23213153 -0.41111106 0.8506658 0.04157543 -0.10267351 0.91205114 -0.0617927 -0.6066555
-0.15056913 -0.09083233 -0.17725757 -0.16935605 0.03085678 -0.14078268 0.14967325 0.07827435
-0.08488089 -0.19149467 -0.054584894 -0.15028274 -0.09671497 -0.119370446 0.09395334 0.07784803
0.033876136 -0.16186231 -0.017476693 -0.01784424 0.20037131 -0.012790325 0.18014759 -0.6864191
-0.36808357 -0.08553554 0.110472605 -0.19717604 0.13422145 -0.09174607 -0.23168087 -0.17888445
-0.29801124 -0.19308607 -0.14797114 -0.20109478 -0.046899684 -0.25639376 0.026158988 0.019650575
-0.1274198 -0.088007696 -0.23433867 -0.24441695 0.24425253 -0.06647771 -0.09407526 0.0016678111
0.15068232 -0.15780237 -0.16090438 -0.013918072 -0.1435791 -0.18039978 -0.193023 -0.23928952
-0.14765075 0.008199066 0.13131337 0.23108411 -0.28181547 -0.21770716 0.2011573 -0.10975602

conv3.lin_rel.weight f4 [16, 16]
00000000: 9e54 4ebe b140 ff3c 1679 233e c66f 36be
00000010: 25d2 603d ffce 953e fc00 e53c f2bd 8dbd
00000020: 9e8b 63bd f1eb ea3d 1cbf 93bc 4db2 3cbd
00000030: 0434 aabd 1f66 4fbd 289a f7bc 3446 a63d
00000040: 7c9c 863e 8b2c ff3d 3f24 873e c88a 08bd
00000050: 4660 b93c 379e 80be e523 463d 5404 323c
00000060: d69f 30bc 7fad ecbd 665d b83c 7bee 313c
00000070: 9925 86be 6d20 09be 3c4e f53b 1932 eebd
00000080: 57f6 d83d 9111 cc3d c6f8 e1bd dab6 3f3e
00000090: 6a01 8a3f 8825 90bd 48b2 1bbf afe7 f93b
000000a0: 3b02 1fbe 8e55 a73d 5f88 f8bd b7b4 a6bd
000000b0: 3972 163e a538 013e e842 f5bd c944 a43d
000000c0: 6c2b f33c 5c7b f03d d23f 15be 4bb7 86bc
000000d0: 8c00 4bbf 076c 1bbd fa0a e93d c6b3 58be
000000e0: 267f 57be 2bde 0cbe 3c40 19bd 98e2 f3be
000000f0: 67b1 0d3e 9399 1f3d e753 cbbb bcc7 3b3c
00000100: d81b 75be 04ad 053e 004a 00be 245c 993d
00000110: e03d 953c 30f1 883e 4369 873d 1f94 1a3e
00000120: caf5 10be ca10 e73d 9dc3 563d d5c9 e9bd
00000130: 041c 9c3d d247 36be f505 cd3d bebc 293d
00000140: a7ad 743e c9e8 58be 1024 213d 14ab 94bd
00000150: 9c22 9dbd 0fd0 8cbe d82d f43d 7a1e 33bb
00000160: dcd0 423d 9c8c 11be 688d d3bd ac11 8c3b
00000170: 1aea 85be db26 2d3e f552 593c 8094 16bd
00000180: cf67 51bd 6340 a4bd 7d4e 78bd bc6f 5e3e
00000190: d12c 713f e739 f13c 0a2f 06be 5fe0 32bd
000001a0: 7071 25bc e8a8 253e f6ba 903d 9b66 fd3e
000001b0: f47c 183e 595a 4a3e 014f 1bbd c0b6 0cbe
000001c0: 1e99 ecbc 6112 34be 0496 9dbd 8327 4abd
000001d0: b963 63bf c0df 2abd a0d2 523e a2ee 19be
000001e0: 579b 36be 2b5d 23be 55ea acbd e522 eabe
000001f0: dc99 fd3d 05ea e43d 7ada 39be bade 38be
00000200: 852c 1a3c 3d9f a63d 6e1b 34be 7451 1ebe
00000210: e33b 633f effd 073d b81b febd 464e 3bbe
00000220: 16bb e63d 9b41 033e aa05 c63d 1ea9 e33e
00000230: b2dc 0abe 5647 aa3d 55ff 5d3e 4b50 4ebe
00000240: ce3a 583c dda0 363e 41fc d63c 5013 dc3d
00000250: 6208 4e3f e6b1 2d3d cbb0 45be 7763 09be
00000260: ae71 bc3a ef91 f43d 296f 3f3d 41fc 103f
00000270: e229 3abd 3bf3 52bd 0ad4 9abe 4c89 20be
00000280: a3b1 7d3e 33f3 3c3e 8340 36bd 60a4 e53d
00000290: 0c1f 06bd fcae 94be cbcc 5dbc c617 183e
000002a0: 5be4 d33d e16a cabd 057e a4bd 54d4 0b3e
000002b0: 9d72 e6bd ba77 dfbc 8d59 55bd f4c7 113d
000002c0: 26da 41bc 586c 793d 543c 863d eaaa 713e
000002d0: 23a8 86bf 7934 babc 132f 493e 1ac3 3e3e
000002e0: 96fc 853d f83d 00be fccd dbbc d91f dfbe
000002f0: 9c11 913d 5c22 a5bc 611b 3d3e cc47 273e
00000300: d333 81be e040 4cbe a545 3dbc 82fc 403e
00000310: 5b8f f3bc c6ed 8e3e f696 e13e ad4d 4bbe
00000320: 647c d83c 34ae fd3d 0c5c 173d 16cc 1cbd
00000330: 44e7 813c a753 053e 8add e43c c30f 493e
00000340: 5e9e 8e3e 9f7c 343c bfab 38be e016 e13d
00000350: 3dcf 5f3d 90de 97be c4e8 443d dcb5 043e
00000360: cef4 113d e275 d6bd b8a6 1dbd 351a 5b3d
00000370: ac93 813e a720 97bd 2206 3cbe 5426 10bc
00000380: 37f2 033d d321 043e 4d59 22bd a6c2 75be
00000390: 5ea9 5d3f e8ac 543d c18c 03be 3991 dcbd
000003a0: 07e8 59bc 6690 113e f2a0 3f3c 97d7 d43e
000003b0: bab5 763d 620e d7bd b245 9f3d cc7f d8bd
000003c0: 25d9 47be 4565 b43d 35cf 80be b470 ffbd
000003d0: d9e1 b63c a336 8f3e adf6 be3c 7f16 21be
000003e0: 24e9 973a cfa3 d83d af6b ed3d a13d 0ebe
000003f0: 1e36 3ebd cf11 063e 3296 3c3e 7a17 7a3e
-0.20149466 0.031158777 0.1596416 -0.17816076 0.05488791 0.29259488 0.027954571 -0.06920995
-0.05555307 0.114707835 -0.018035464 -0.04606848 -0.083107024 -0.0506345 -0.030224875 0.08118859
0.26291263 0.12459668 0.2639484 -0.033335477 0.022628915 -0.25120708 0.048374075 0.01086529
-0.010780295 -0.11556529 0.022505473 0.010860081 -0.2620056 -0.13391276 0.007486133 -0.11630649
0.105938606 0.09964288 -0.11033778 0.18722096 1.0781682 -0.070384085 -0.6081891 0.007626496
-0.15528195 0.08170615 -0.12135386 -0.08139937 0.1469201 0.12619264 -0.11975652 0.08020932
0.029683791 0.11742279 -0.14575127 -0.016444823 -0.7929771 -0.03794482 0.11379047 -0.21162328
-0.21044597 -0.13756625 -0.037414774 -0.47633815 0.13837205 0.03896482 -0.0062050703 0.011461195
-0.23936403 0.13054281 -0.12528229 0.074882776 0.01821798 0.2674651 0.06611874 0.15095566
-0.14156261 0.11282499 0.052432645 -0.114154495 0.07622531 -0.17800835 0.10010902 0.041439764
0.23894368 -0.2118255 0.039341033 -0.07259193 -0.07672617 -0.27502486 0.119228065 -0.0027331398
0.047562465 -0.14213794 -0.103297055 0.0042745676 -0.26155168 0.16909353 0.013264407 -0.036762714
-0.05112439 -0.08020093 -0.060621727 0.21722311 0.9420901 0.029446555 -0.13103881 -0.04367101
-0.010097846 0.16177714 0.0706691 0.49492344 0.14891416 0.19761027 -0.03791714 -0.13741589
-0.028881606 -0.17585136 -0.07694629 -0.049354088 -0.8882404 -0.04171729 0.2058816 -0.15032437
-0.17832695 -0.1595351 -0.08443133 -0.45729747 0.12382862 0.11177448 -0.18149748 -0.18053713
0.009410028 0.08135841 -0.17588589 -0.1546076 0.88763255 0.033201154 -0.12407631 -0.18291578
0.112661526 0.12817995 0.09669049 0.44464964 -0.13560751 0.083143875 0.21679433 -0.20147817
0.013197614 0.17834802 0.02624333 0.10745871 0.8048154 0.042405985 -0.19305722 -0.13416849
0.0014377141 0.11941897 0.04673687 0.5663491 -0.0454501 -0.051501494 -0.30239898 -0.15677375
0.24774794 0.18452148 -0.044495117 0.11212993 -0.032744452 -0.29039752 -0.013537596 0.14852819
0.1034629 -0.09883667 -0.08031849 0.13655216 -0.112523295 -0.02727877 -0.052087355 0.03559108
-0.011831796 0.06089434 0.065544754 0.23600355 -1.0520061 -0.022730099 0.19646864 0.18629113
0.065423176 -0.12523639 -0.02683162 -0.43578985 0.07083437 -0.020157985 0.18467475 0.16335982
-0.2523485 -0.19946623 -0.011552249 0.18846324 -0.029731443 0.27915782 0.44060487 -0.1985385
0.026426502 0.12386742 0.036953017 -0.03828057 0.015857346 0.13020192 0.02793767 0.19634919
0.278552 0.01101604 -0.18034266 0.10990691 0.054640997 -0.2966199 0.048073545 0.12959999
0.035633855 -0.10471703 -0.038489074 0.05349179 0.25307977 -0.07379275 -0.18361714 -0.008798201
0.032213416 0.12903528 -0.039635945 -0.24000034 0.8658656 0.05192271 -0.12846662 -0.107698865
-0.013299949 0.1421524 0.011696087 0.41570732 0.0602319 -0.1050079 0.07776965 -0.1057125
-0.19516428 0.08808378 -0.25158086 -0.12472668 0.02232449 0.27971372 0.023310984 -0.15731238
0.0011589867 0.10578119 0.11592805 -0.13890697 -0.04643833 0.13092731 0.1841667 0.24423018

conv3.lin_rel.bias f4 [16]
00000000: 0d0e 05be e8cd dc3d fdd5 163e b993 20be
00000010: df64 ccbd 3760 ce3d 0d6e 293e a75e 21be
00000020: 7a45 1c3e 014e 323e 6b12 023e 4728 0bbe
00000030: b879 bcbd f53a b13d 44ad 333e ad57 a7bd
-0.12993641 0.10781461 0.14730068 -0.15681352 -0.09980177 0.10076945 0.16545887 -0.15758763
0.15260878 0.17412569 0.12702338 -0.13589583 -0.092029035 0.08653823 0.17546564 -0.0817102

conv3.lin_root.weight f4 [16, 16]
00000000: 90bb fcbf bd7f d13d 2890 333e 1039 52be
00000010: 1d88 8ebe c195 b23f 2a0b 2c3d a623 52be
00000020: ed3a 7c3c 9b4d 30bf fc24 3740 9593 9b3e
00000030: 7872 353d 9e47 033a 9951 28be 00a8 6fba
00000040: ad32 e53f 3512 f3bd 10b7 343e 9568 973d
00000050: d7cd 4a3e 2ed6 9bbf c19e 343e 54ca e7bd
00000060: 45b9 b23d c1b8 1e3f d25d 1dc0 8227 b3be
00000070: 7fa7 84bd dc45 fc3d 852f 913e f38c 8bbe
00000080: dca4 c3bf 2e2a babd d394 f73d e4bd 15be
00000090: daa3 42bf 707c 993f 444d 3440 c085 7a3d
000000a0: ecbc 0440 ef5b 32bf 694c f23f 06b5 4a40
000000b0: 1c85 f7bd ba9c 95be ed46 c1bd a104 12be
000000c0: e454 043e f201 39be f51d 56bd 0a30 84bd
000000d0: f411 78be 6495 f13e 1284 f7bf d4b6 2ebe
000000e0: 28d5 0cc0 f38d b33f c9bb f53e 3f3e 2cc0
000000f0: 1dc9 7fbe 9a86 88be 9e37 d73d 3334 873b
00000100: ed7d d8bf e208 b83d 2498 e8bd bdf2 3d3e
00000110: e72c 0dbe 0cc0 9d3f b7e4 38bf b5c0 4e3c
00000120: 1077 efbc 2215 2dbf f96c 2640 12fc 973e
00000130: 008e 64be a6fc 38bd a939 a3be 5003 3b3e
00000140: ea6e e93f 9ee2 d33c 2ac1 6bbe 584b 973d
00000150: 5c7b 273e 8fee a6bf dc1a 86bb 9b74 9dbe
00000160: 7054 1a3e 0ca0 2b3f 6a37 16c0 0154 d2be
00000170: 72b9 4a3e 5d58 933d a2f1 d4bd a0d1 e3bd
00000180: 3c99 8dbe 35a2 2f3c 2a4d edbd 5101 10be
00000190: 2e63 d63d 77c2 e4be e8bb 0240 f94f a43d
000001a0: 2231 1240 9297 bfbf 32e3 4dbf 0857 3640
000001b0: bf50 883e 93d3 3abe 5769 913c 274c b93d
000001c0: 2493 3e3e 0d46 8e3e d0fd 33bd d0c7 fe3d
000001d0: 5829 a33c 9ff3 f13e 49ff e0bf a426 8f3b
000001e0: 2c56 06c0 1d11 bc3f 895e 3b3f 0286 27c0
000001f0: 4e51 1e3e 8e6e ec3d 0bfe 243e 448b f5bd
00000200: 68ed 13be ccf5 3c3e f60f d43d a026 083e
00000210: d554 ed3d f548 d6be a811 e03f 5033 373d
00000220: c804 0a40 1383 b5bf ae52 08bf 00c7 2740
00000230: 93b2 03be 614e 4fbe 5a12 6ebd 2273 d3bd
00000240: 0c55 43be 9a9c 26be 7bb6 f63d d279 8bbc
00000250: 3568 1a3e 8f90 ecbe 1acd e43f 8053 8fbc
00000260: db27 f93f d7ad b4bf 9570 3ebf 5adc 3140
00000270: 58d9 7b3e 03e1 4d3e c82c 4dbd c46e 933d
00000280: ad0d d53f 43ef ebbd 5775 10be a76c 3ebd
00000290: ee6f 873e 6b4e acbf 30e4 e23d 6f58 2ebe
000002a0: 8718 2cbd 9398 2e3f 4ba0 21c0 42ea 05bf
000002b0: d3ac 483d 5eef 9dbd 1a13 a2bd d2be 76bd
000002c0: f4cc 9b3d 1d79 9a3e 8b9b 893d b9fd 44be
000002d0: c3a8 d63d 2aad 0c3f 2892 03c0 6718 fa3d
000002e0: 71d5 21c0 82f3 be3f a4a9 8a3e 213b 39c0
000002f0: 6b28 5dbd d69d 7e3d 63e7 8e3c 10db 4c3d
00000300: c6b8 debf 4a29 87be 395a 393e 435f 473c
00000310: d382 a3be 8a80 b73f 5a22 76bf 7245 b4bd
00000320: da6e a0bd 1114 2abf 2fa6 2d40 9de6 413e
00000330: 8ed2 3bbe 147b 0bbd 1bb1 8f3d f37e eabd
00000340: 9219 d53f e95b 1dbd 4643 2f3e 2696 5fbe
00000350: b197 8f3e ecf7 9ebf b341 36be c443 71bc
00000360: d603 e63c 4b36 163f 0d7d 22c0 9c11 83be
00000370: 1a9f 3b3e ca64 213e 6151 c1bd abf7 91bd
00000380: 8334 5abe 0a5a 4e3e 21d4 9fbd 757c 34be
00000390: 6320 023e 23fb febe 3435 d43f 7c04 743d
000003a0: d0cb 2040 ee74 b9bf 5d1b f6be 5821 3340
000003b0: 2d23 ea3d 6b8e 1a3e 18a7 193d 7495 afbd
000003c0: 8d9f cdbf 1b63 7c3d 1267 02be a794 593d
000003d0: 9d2b fcbd b6b0 963f 2065 3e3c 01ac ba3d
000003e0: cd6a 37be 8782 1bbf 103e 2140 e8ce 843e
000003f0: 10b2 a63d eac5 20be c980 0f3e 2a7c 4bbe
-1.974474 0.10229442 0.1753546 -0.2052958 -0.2783822 1.3951951 0.042002834 -0.20521411
0.015394908 -0.68868417 2.8616323 0.30386034 0.04429862 0.0005007925 -0.16437377 -0.00091421604
1.790609 -0.11868707 0.17647958 0.07392994 0.19805084 -1.2174737 0.17638685 -0.11317888
0.087267436 0.6200066 -2.4588513 -0.3499108 -0.0647726 0.12318012 0.28356567 -0.27255973
-1.5284686 -0.090900764 0.12088933 -0.14623219 -0.7603127 1.19911 2.817216 0.06116271
2.0740309 -0.6967153 1.8929569 3.1672988 -0.120859355 -0.29221135 -0.09437356 -0.14259578
0.12923008 -0.18067148 -0.052274663 -0.06454475 -0.24225599 0.47184289 -1.933718 -0.17061931
-2.20051 1.4027694 0.4799483 -2.6912992 -0.24979062 -0.26665193 0.10508655 0.0041260957
-1.691343 0.08986069 -0.113571435 0.18549629 -0.1378666 1.2324233 -0.7222399 0.012619187
-0.029231578 -0.6761037 2.6004012 0.29684502 -0.22319794 -0.04516282 -0.3187993 0.18262982
1.8236973 0.025864895 -0.23022905 0.073874176 0.16355652 -1.3041552 -0.0040925574 -0.30753025
0.15071273 0.6704109 -2.3471322 -0.41079715 0.19797304 0.07194588 -0.1039765 -0.11123967
-0.2765597 0.0107198255 -0.115869835 -0.14063002 0.10468136 -0.44679615 2.042719 0.08023066
2.2842488 -1.496813 -0.804248 2.849062 0.26624104 -0.18244772 0.017750425 0.09047728
0.18610817 0.2778782 -0.043943226 0.12440455 0.019917175 0.4725618 -1.7577907 0.00436862
-2.0990095 1.4692723 0.73191124 -2.6175542 0.15460703 0.11544524 0.16112535 -0.119894534
-0.14446032 0.18453139 0.10354607 0.13295984 0.11588446 -0.41852537 1.7505388 0.04472667
2.1565418 -1.4180626 -0.5325116 2.621521 -0.1286109 -0.20244743 -0.05812297 -0.10324694
-0.19075412 -0.16270676 0.12046524 -0.017025862 0.15078814 -0.4620404 1.7875092 -0.01749587
1.9465288 -1.4115552 -0.74390537 2.7790742 0.24594629 0.20105366 -0.050091535 0.07198861
1.6644799 -0.11520245 -0.14107262 -0.046490338 0.26452583 -1.3461431 0.110786796 -0.17025922
-0.04201558 0.6820156 -2.5254085 -0.52310574 0.048992943 -0.07711671 -0.079137996 -0.060240574
0.07607451 0.30170527 0.067191206 -0.19237413 0.104814075 0.5495173 -2.0557957 0.12211686
-2.5286524 1.4918063 0.2708255 -2.894234 -0.053993624 0.062162243 0.017444318 0.0500136
-1.7400138 -0.2639869 0.18100823 0.012168708 -0.31935748 1.4336102 -0.96146166 -0.08802308
-0.07833643 -0.6643687 2.713268 0.18935628 -0.18342039 -0.034052923 0.07016202 -0.11449995
1.6648428 -0.03841773 0.17115507 -0.21834621 0.2804542 -1.241941 -0.177985 -0.014725629
0.028078001 0.58676594 -2.5388825 -0.25599372 0.18322411 0.15761104 -0.0943935 -0.07127317
-0.21309094 0.20151535 -0.07804132 -0.17625602 0.12707667 -0.49800977 1.6578736 0.05957459
2.5124397 -1.4488809 -0.48067752 2.7989101 0.114324905 0.1509339 0.03751287 -0.08573428
-1.6064316 0.06161795 -0.1273463 0.05312028 -0.12313006 1.1772678 0.01162079 0.091148384
-0.17911835 -0.60746044 2.519413 0.25939107 0.081394315 -0.15700498 0.14013971 -0.19871584

lin.weight f4 [4, 16]
00000000: 6c04 63be 7c71 873e ad63 a3be 19a3 e63e
00000010: dd15 7bbe fe12 463e 0748 04be 54ac a83e
00000020: 4b77 ebbd 07dd b2be 773f 503e 1721 753d
00000030: 5d7a b7be d5e9 203e 6417 a6be 22a0 15be
00000040: 1743 8f3e 3ddd 9dbe 8fec e33d 7b1c e53e
00000050: cf44 833e 1589 a6be ca76 a9bd 9d0d ad3e
00000060: be48 18be c2bc c3be ded1 8fbe 0704 bd3d
00000070: d600 5a3e 5718 c3be a4a7 a5be 0378 bc3e
00000080: aef3 5fbe 9ebd 6a3e 68e4 203e bc8e afbd
00000090: f0c1 60be 75ca 113e a3dd d93e 91a3 6fbe
000000a0: 4213 e23e a319 883e eabe 553e 323f e3be
000000b0: 8839 9bbe d916 1b3e cc84 6d3e 48aa 39be
000000c0: 2fba 713e ea3c 89be 6296 443e f48f a5bd
000000d0: 3943 973e a44a b7be 3aaa e83e 3496 83be
000000e0: 2697 d33e fe39 793e 4247 8cbe 0ac1 f4be
000000f0: d4ed 5e3e 2551 a4be ca0f 3a3e c957 a93e
-0.22169656 0.2645377 -0.31911984 0.4504631 -0.24520059 0.19343182 -0.12918101 0.32943976
-0.11497363 -0.34934255 0.2033671 0.05984601 -0.35835543 0.157142 -0.3243972 -0.14611867
0.27980873 -0.30832854 0.11129104 0.4474829 0.25638434 -0.3252646 -0.0827461 0.3379945
-0.14871499 -0.38229948 -0.28089803 0.09229284 0.21289381 -0.38104507 -0.32354462 0.36810312
-0.218703 0.22923896 0.1571213 -0.08572146 -0.21948981 0.14237387 0.42551908 -0.2340224
0.44155318 0.2658206 0.20873609 -0.44384152 -0.3031733 0.15145434 0.23195189 -0.18131363
0.2360618 -0.26804286 0.19197991 -0.080840975 0.29543474 -0.35799134 0.45442373 -0.25700533
0.41326255 0.24338529 -0.27398115 -0.47803527 0.21770412 -0.32093158 0.18170086 0.33074787

lin.bias f4 [4]
00000000: 680e 6e3f 0a7d 31be bdae 04be d0c0 9bbf
0.9299073 -0.17332855 -0.12957282 -1.2168217
