02_Homeworks/Assignment_A_Graph/modeldata/model_64.pt (torch, 73668 bytes, 11 tensors)

conv1.lin_rel.weight f4 [64, 4]
00000000: 29ee e1be b7a7 e3bd 1ae0 3e3f 33f6 41bf
00000010: ea5f 253f e4e8 e6bd 7f6b 2c3d e2cd 1c3e
00000020: cc0a 8dbe 1f50 a3be 2dd0 07bd 18a5 debd
00000030: 6eda 123e 3981 c23d 5269 0bbb 0607 d7be
00000040: bfe4 023e ccb9 fbbd 2900 8f3d 83bf b6be
00000050: 8696 30be 73c1 1cbf 608b e63e 755f 593e
00000060: da7d 12be cce8 4bbe 0f2e 8bbf 5b55 e9be
00000070: 74c6 333a dfaa 3e3f 72be ec3d 1a3e e8bc
00000080: 7eb3 cebc 1e02 e1be 498d acbe b610 253d
00000090: 76eb 25bf 49ab 663e 825f ac3e c449 3b3e
000000a0: 584a 73bc d8d3 0ebd 9b63 123e 75f0 393d
000000b0: 0e85 a43e 37f5 3fbd 26cd d939 ac52 24bf
000000c0: 965a 093e 006d 99bd a044 32bf d397 063e
000000d0: e587 ea3e 5d39 ad3e 8b3e 9ebf 3728 1cbc
000000e0: 5cc7 12bd db55 abbd 229f 8cbd 7f6a 123e
000000f0: bd42 183f 6875 693e 6a49 4fbd 3c32 94bf
00000100: 8a8a bbbe 4675 1fbe c45b 413f c917 b8be
00000110: 145e 44bf e3c5 233d 75c1 c6be e31c 4ebf
00000120: 667e 78bc ab6d 1f3f a1b0 a43c 1e76 653a
00000130: d7b5 8ebf 9293 0dbd c816 243d ed5b 75bd
00000140: 0d3a 003e bc82 8fbe 008c 37be 79f3 43be
00000150: eafc b63d c4bf 65bf b027 1e3c 5726 8cbe
00000160: 7c5a 4d3e f0fb 5dbf 2141 1cbf d474 50be
00000170: 4c76 043e 2c24 9cbe cca7 26be 6696 8bbe
00000180: 00cb 5e3d f05c 773d 64f4 66be 40d4 073d
00000190: 6508 143f 127b 6dbf 4cd9 36be c589 59bf
000001a0: 4ae0 b0bd ba36 99be 2dea 923e e7cd 2abe
000001b0: 4dae b93e b421 00bd c165 bb3c c02d fd3d
000001c0: ffe8 30bf 2b33 52bf 5864 643f e7ea 423e
000001d0: e169 e0be 8a36 e23e a62d 6bbe a2e0 8bbf
000001e0: e56a 1abf d3a7 48bf 1ffb 0abe e71b 913f
000001f0: 7eb7 b3be 6d83 f43d 789d 693e 8d0f ecbe
00000200: 326b df3e bf61 95bf 9021 adbf f83d 7bbe
00000210: 4d11 303e 3118 d9be 0f7c 2bbe ba1f f73e
00000220: cc42 11be 7673 bebe 00fc a33b 30c7 6ebe
00000230: 8647 f53e 6bca 6dbd cb87 b7be 4392 98bf
00000240: afe2 34bf 01c7 ecbe 20e2 86bc fdbc 7e3f
00000250: 9c18 443f db14 8c3d 8734 db3c 3c26 aebd
00000260: 8843 d9bd b403 03be f8ec f8bd 6c05 e3be
00000270: 92f3 87be e2da 843b 50b5 16bc 358a 89bd
00000280: 3736 a8bf bffd 5abe ceb0 f6be cf4a 473f
00000290: 24f7 c73e 8d9a dc3b d4ed a23c f486 b9bd
000002a0: 61e0 42be 10f6 f238 c048 b83e 745c 553c
000002b0: 8f5c 08bf fb7b eebd c60e 1e3d 8693 3b3e
000002c0: 6a99 83bf 45f8 e2be 11ab 8abc 6721 293f
000002d0: 6055 013d 96c1 9dbe 8a1d b8be d06d 4dbd
000002e0: 281f 6ebf acc2 193e ab44 9e3e 72aa 38bf
000002f0: 5c86 1a3f 37ed e4be ed9a dcbc 81e4 5c3d
00000300: 0773 f03b e970 1c3c 8574 4fbd eaa2 883b
00000310: 0320 9d39 067f bcbb 3471 08be 1128 cb3d
00000320: 4f8f fc3d 7d1a 963e e212 a1bf 1bd0 d83d
00000330: 3aee b9be a9d6 bfbe 757f 743f 0cbb 9abe
00000340: a0d6 fc3e 5898 2ac0 d273 8bbf a4a7 90b9
00000350: 570c 6dbf 2a8b 57be 87dc 5abd be10 b2bd
00000360: 9512 afbd 0a5b 703e c649 62bf 6354 64be
00000370: bbeb 363d 0638 003e b364 95be 5e63 15bc
00000380: 1fe9 2cc0 ef75 f73e ee7f 963b 1a5d 7bbf
00000390: 3604 b7be bd35 8abe 9f64 b23e 2380 04be
000003a0: ac5c c2be 16cf e6bf 8c6e 40bf 2f06 94bf
000003b0: 4554 363e 8df9 84bf 5a15 55be d283 27be
000003c0: e89d 6a3d 8584 62be 305d 073f 3cbf 01c0
000003d0: 58d6 1bbf 72c6 4c3c 4246 103d 959b 78be
000003e0: dcf6 343e 409e 743c d42b 9abe 563e d8be
000003f0: 3fe2 4d3d 70d4 e5bf 6036 59bf 1677 a73d
-0.44127014 -0.111159734 0.745607 -0.75766295 0.6459948 -0.11274889 0.042094704 0.15312913
-0.275473 -0.31897065 -0.033157516 -0.10871333 0.14341137 0.094973035 -0.0021272493 -0.41997546
0.12782572 -0.12291297 0.069824524 -0.35692987 -0.1724492 -0.6123268 0.4502821 0.2122782
-0.14305821 -0.19913024 -1.0873431 -0.45572934 0.000685788 0.7447948 0.11559762 -0.028349925
-0.025232073 -0.43946928 -0.33701542 0.04029914 -0.6481241 0.22526278 0.33666617 0.18289858
-0.014849268 -0.03487 0.14295809 0.045395333 0.32132763 -0.046864714 0.00041542313 -0.6418865
0.13413462 -0.07491493 -0.69635963 0.13143854 0.45806804 0.33832827 -1.2362837 -0.009531072
-0.035834655 -0.08365985 -0.0686629 0.14298438 0.59476835 0.22798693 -0.050607122 -1.157783
-0.36629134 -0.1557208 0.7553065 -0.35955647 -0.7670605 0.03998364 -0.3881947 -0.8051283
-0.0151668545 0.62276715 0.020103754 0.00087532576 -1.1149243 -0.034564562 0.04006079 -0.05990212
0.12522145 -0.2802943 -0.179245 -0.19135846 0.08934958 -0.89745736 0.009653017 -0.27373
0.20054048 -0.8671255 -0.6103688 -0.20357066 0.12935752 -0.30496347 -0.16274947 -0.27263182
0.054392815 0.060391366 -0.22554165 0.0331614 0.5782531 -0.92765915 -0.1785633 -0.84975845
-0.0863653 -0.29924566 0.28694287 -0.16680108 0.36265793 -0.03128214 0.022875668 0.12362242
-0.69105524 -0.82109326 0.8921561 0.1903492 -0.4383078 0.44182235 -0.22966632 -1.0927927
-0.6031936 -0.7838108 -0.13572358 1.133664 -0.3510093 0.1193913 0.22813976 -0.46105614
0.4363647 -1.1670455 -1.3525867 -0.24535358 0.171941 -0.4240127 -0.16746543 0.48266393
-0.14185637 -0.37197465 0.005004406 -0.23318172 0.4790613 -0.05805437 -0.3584579 -1.1919636
-0.7065839 -0.46245578 -0.016465247 0.99507123 0.7660005 0.06839915 0.026758445 -0.085033864
-0.10608584 -0.12794381 -0.12154573 -0.44340074 -0.26553017 0.004054413 -0.009198502 -0.06715814
-1.3141545 -0.21385859 -0.48181766 0.77848524 0.3905574 0.006732291 0.019888796 -0.090589434
-0.19030906 0.00011585292 0.35993004 0.013022531 -0.53266233 -0.11644741 0.038588308 0.18317994
-1.0281193 -0.4433004 -0.016927274 0.6606659 0.03157556 -0.30811757 -0.35960037 -0.050153553
-0.9301629 0.15015668 0.30911765 -0.7213508 0.60361266 -0.4471223 -0.026929343 0.053928856
0.007337931 0.009548404 -0.05064823 0.0041698115 0.00029969224 -0.005752447 -0.13324434 0.099197514
0.123320214 0.29317084 -1.2583888 0.10586568 -0.36314565 -0.3746846 0.95506984 -0.3022083
0.49382496 -2.6655483 -1.089472 -0.00027590722 -0.92596954 -0.2104918 -0.053432968 -0.086945996
-0.08548466 0.23472229 -0.8839382 -0.22297816 0.044658404 0.12521371 -0.2917839 -0.009117929
-2.7017286 0.48332164 0.004592887 -0.98188937 -0.357454 -0.26994124 0.34842393 -0.12939505
-0.37961328 -1.8031948 -0.7516868 -1.1564387 0.17805584 -1.0388657 -0.20808926 -0.16358879
0.057279497 -0.22120865 0.5287657 -2.027297 -0.6087394 0.012498485 0.035223253 -0.242781
0.17672294 0.014930308 -0.30111563 -0.4223506 0.050264593 -1.7955456 -0.84848595 0.08177011

conv1.lin_rel.bias f4 [64]
00000000: 4a93 f8be 5f69 56bf 23a6 153e 9c54 84bf
00000010: 35d9 a7be 51ff 2f3f 3b61 a73e acd2 bbbf
00000020: 0b57 23be 0748 96bf 574f 463e c5e9 51bf
00000030: 76c8 f8bd d478 43be 7a83 38bf 5d58 f0be
00000040: 904d a9be 237c 4dbf d0f4 68bf f096 6f3f
00000050: 2c96 bbbd 2d38 69be 350c 4abc 0e4d 80be
00000060: 5c1a cfbe f8d4 e2be 1fd8 8fbe 2e77 23be
00000070: 55c8 f43e 6d65 e9be b877 783e c477 f8be
00000080: ff97 a8be 2d09 49bf bea4 b4be 36ff f0bd
00000090: 9781 903d a142 a0bf 1cac 6cbe 9b7b 9dbe
000000a0: 416a 923e 7e54 ce3c e22b 3c3e f33f 983f
000000b0: 6fa2 673e e6b6 d7be 3d2b 54bf fded 00bf
000000c0: b334 8a3f 0c67 b73e ad78 59bf d45a f23e
000000d0: 5a93 853e 7347 03bf 0c5d 06bf 53f1 60bf
000000e0: 3256 fd3e addd d1be fa45 0d3e e1b9 383f
000000f0: fc48 01be 0915 3f3f 1486 ffbe b899 6a3e
-0.48549873 -0.83754534 0.14614157 -1.0338321 -0.32782903 0.68748957 0.32691368 -1.4673667
-0.15951173 -1.1740731 0.19366203 -0.8199733 -0.1214761 -0.19089061 -0.7207562 -0.46942416
-0.33066988 -0.8026754 -0.90998554 0.9358969 -0.091595024 -0.22775336 -0.012332012 -0.25058788
-0.40449798 -0.44303107 -0.28094575 -0.15963432 0.4780909 -0.45585194 0.24264419 -0.48528874
-0.32928464 -0.78529626 -0.35281938 -0.117674276 0.07055967 -1.2520334 -0.2311253 -0.30758366
0.2859669 0.025186773 0.18376115 1.1894516 0.22620557 -0.42131728 -0.82878476 -0.5036314
1.0797333 0.35820806 -0.8494976 0.4733492 0.26088983 -0.512809 -0.5248573 -0.8786823
0.49479824 -0.40989438 0.13796225 0.7215863 -0.12625498 0.7464147 -0.4990698 0.22910202

conv1.lin_root.weight f4 [64, 4]
00000000: 067a 84bf f340 993e 74f0 d03d ec86 643f
00000010: 301b 0abf 6d47 b6be 84af e4bd e991 a6bf
00000020: 9c19 3bbf db10 9fbe 97cc 293f b2e3 2ebf
00000030: bb3e 16bf 7306 16bf 6f9d 133d d409 2740
00000040: 35e4 f3be 6f25 2a3e 38be 84be 3b45 84bc
00000050: ec48 07bf 03d8 0f3f 25dc 91bf f48b cbbf
00000060: 83c2 293f f5c5 18be cec4 2fbf 947f a9be
00000070: 4522 f6bf 857f d0be 00c9 f0bf 200a 7abd
00000080: 6294 9f3e 532e 1cbe 1d57 afbd 5b6e 43bf
00000090: 15f7 e2be fc45 b1bf 1825 eb3c 9f45 8abf
000000a0: 0fe7 1b3f 22c0 40be 1562 00c1 f82f a7bd
000000b0: 6175 7abe 5686 a1bf bcfb 06bf 6545 ad3f
000000c0: 2afe 84be 43e3 f7be b4b4 19bf 4ef0 d3bc
000000d0: 2bdb 87be e8e1 a2bf b46a b03f 18ce b6bf
000000e0: 26db cdbf 500f ab3e 18a5 eb3f 6b43 30bf
000000f0: 6927 dcbf 3946 b33d 27a9 9bbf c078 b03f
00000100: a0b8 1e3c 6560 9cbf 0343 f0be 25ce 733e
00000110: 93d4 30be 807a b8be 9f4d 293f 366b ae3d
00000120: dc0e 88bf eedd 11bf 064b 0dbe 8b75 d0bd
00000130: 9326 963f 01f4 70bf 3981 ec3d a69e 22bf
00000140: cc63 f9be 0d23 06bf 3c31 e8be ec2e a93e
00000150: 5c30 afbf fb36 813e 9623 fc3f abd1 783f
00000160: bdaa 3c3e 4dbe 8abf 01e8 f23e fa1b b83e
00000170: 1007 87be 8821 40be a451 4b3e 1863 e3be
00000180: e8b7 b5be 507e 58bd e03b 01bd 508c b5be
00000190: 3825 49bf a85c b73e f6b1 723e 3e78 b73f
000001a0: dc66 8f3d ffb4 1bbf 28ec 29bf da54 6dbe
000001b0: 7f3a 263e a52b 54bf c23b f8be 80cb 92c0
000001c0: 5bb0 ed3e dd1f 3e3e 956a e9bf 6442 18be
000001d0: 70f5 97bd 49e9 73bf 983c b13e 647e ec3f
000001e0: bc33 ad3e fe64 62bf 5f50 883e df0c b0bf
000001f0: ae32 02bf e440 08bf 820c 7f3e bec7 9bbe
00000200: 5ddd 1ebf 7eb9 ec3e 65d4 913f f625 6a3d
00000210: 563a 6fbf 8588 5fbe c8c9 69bf 7911 b1bf
00000220: 5c93 f7be fc4b 72be d89b 813d 3eb1 cb3e
00000230: 96bf 003f 6def 6a3f a723 6f3f e891 9cbf
00000240: 280e 99bf 0b3d b13e a881 253e 9aee 03c0
00000250: e8b5 90bf 4dd0 e2bf 60ef 83be 492b a4be
00000260: 1285 b0be dcb8 5a3e cc0b c0be 763f ffbe
00000270: a993 90be e433 a5bf 3b5d 09be a2fd 2440
00000280: acb3 91bf fcb6 f83e 6718 cdbf 54e9 4cbf
00000290: d7f9 993f e1cc c4bf ff1f a13c 0a8a 22c0
000002a0: 6e6d cebf a8f9 0e3f 19ee 82c0 89de c8bd
000002b0: 1244 b33f 7926 08bf 6bb2 9abd 4136 26c0
000002c0: d049 583f 46db a0bf e007 e0bd c4e2 02c0
000002d0: 8867 e4bd f8bf c73d 68ec babe 0c6c cfbe
000002e0: 438d 403e c208 1b3b e5d6 2ebf 2053 8dbf
000002f0: f2a8 7d3e da5f 25c0 b656 acbe 4892 02c0
00000300: 95e5 99bf ed7f 913f 942b 3ac0 09eb 13be
00000310: a384 f53e 6776 993e 5588 613f 4d04 a9c0
00000320: 5071 05c0 7fd0 87be 77d3 1e40 fccd 6bbe
00000330: a550 1a3f 20f0 1fbc 1359 0bc0 9429 23c0
00000340: 56d1 ecbf 7f08 3b3f c12c babe 6aa1 eebe
00000350: bd54 47be f098 153d 905e 41bf 9f0b 3b3f
00000360: 8fbc 54be f9b2 68bf f523 b53f 3353 5c3f
00000370: debd 82bf 9323 58bf f2ed 2c40 7bd3 6cbd
00000380: 9a9d a03f 03ea ccbf d39d febd 734b 8fbf
00000390: 7256 a4be 2535 9fbb 42c9 e83d 180b 0cbf
000003a0: 32c4 93be 2cbe 26be 332a 8e3f 0f04 5d3f
000003b0: 90ac 44bf 0fe9 a93f c180 4dbf 8d8a 7c3e
000003c0: 92f2 783d 6397 23bf 46c2 4abf ac81 ca3f
000003d0: 3b13 ca3f a4a3 7dbe 1371 ff3b c342 96bf
000003e0: c087 113e 78ab 66be 9c48 61be 0457 4d3e
000003f0: 3424 8bbf e307 023f 0ad9 7cbf 8c56 9cbe
-1.0349739 0.29932365 0.10202113 0.89268374 -0.53947735 -0.3560137 -0.111662894 -1.3013278
-0.7308595 -0.31067547 0.66327804 -0.68316185 -0.5868947 -0.5860359 0.036038812 2.6099749
-0.47635046 0.16615842 -0.25926375 -0.016146293 -0.52845645 0.5618898 -1.1395308 -1.5902085
0.66312426 -0.14919265 -0.68659675 -0.33105147 -1.9229208 -0.4072229 -1.881134 -0.061044812
0.31167895 -0.15252046 -0.085615374 -0.76340264 -0.44329134 -1.3849483 0.028704211 -1.0802497
0.6089944 -0.18823293 -8.023946 -0.08163446 -0.24458839 -1.2619121 -0.52727866 1.3536803
-0.25975162 -0.48415574 -0.60041356 -0.025871422 -0.265344 -1.2725191 1.3782563 -1.4281645
-1.6082504 0.3341012 1.8409758 -0.6885287 -1.7199527 0.08753628 -1.2160996 1.378685
0.009687573 -1.2216917 -0.46926126 0.23809107 -0.1726859 -0.3603096 0.66134065 0.085165426
-1.0629535 -0.5697926 -0.1379815 -0.101786695 1.1730522 -0.9412232 0.11548085 -0.6352333
-0.4870895 -0.52397233 -0.45350063 0.3304361 -1.3686633 0.2523726 1.969836 0.9719493
0.18424506 -1.0839325 0.4744263 0.35958844 -0.26372576 -0.18762791 0.19855362 -0.4441154
-0.35491872 -0.052854836 -0.031551242 -0.35458612 -0.78572416 0.3581288 0.23700699 1.433357
0.07002041 -0.60823053 -0.6637597 -0.231769 0.16233252 -0.82879096 -0.48483092 -4.5873413
0.4642361 0.18566842 -1.8235651 -0.14869076 -0.0741986 -0.9527784 0.34616542 1.8476071
0.33828533 -0.8843535 0.26623818 -1.3753928 -0.5085858 -0.53224015 0.24907115 -0.3042583
-0.62056524 0.4623527 1.1392943 0.05716511 -0.9344839 -0.21829422 -0.9132352 -1.3833457
-0.48354614 -0.23661798 0.06328553 0.39783663 0.50292337 0.91771585 0.93413776 -1.2232027
-1.1957445 0.34616885 0.16162741 -2.061438 -1.1305513 -1.7719818 -0.25768566 -0.32064274
-0.34476525 0.21359581 -0.37509 -0.49853104 -0.28237656 -1.2906461 -0.13414471 2.5779805
-1.1382957 0.48577106 -1.6023072 -0.8004353 1.202937 -1.5375024 0.019668577 -2.5396752
-1.6127145 0.55849695 -4.0915647 -0.0980807 1.4005148 -0.53183705 -0.07553562 -2.5970614
0.8448763 -1.2566917 -0.10939002 -2.0450907 -0.111525595 0.09753412 -0.3650849 -0.4051212
0.18803887 0.0023656343 -0.68296653 -1.1040993 0.24771479 -2.5839753 -0.33659905 -2.0401783
-1.2023188 1.1367165 -2.9089098 -0.14445128 0.47952756 0.29973146 0.8809865 -5.281775
-2.085041 -0.26526257 2.4816568 -0.23027796 0.60279304 -0.00976184 -2.1773117 -2.5494127
-1.8501384 0.7305984 -0.3636227 -0.46607524 -0.19465919 0.036522806 -0.75534916 0.7306461
-0.20775054 -0.9089809 1.4151598 0.8606445 -1.0214193 -0.8442928 2.702023 -0.05781887
1.2548096 -1.6008915 -0.12432446 -1.11949 -0.32097203 -0.0048586302 0.11366512 -0.5470443
-0.28860623 -0.16283482 1.1106628 0.8633432 -0.7682581 1.3274249 -0.8027459 0.24662228
0.060778208 -0.6390287 -0.7920269 1.5820823 1.5787119 -0.24769455 0.007795462 -1.1739124
0.14211941 -0.22526348 -0.22000355 0.20052725 -1.0870423 0.50793284 -0.98768675 -0.3053478

conv2.lin_rel.weight f4 [64, 64]
00000000: 1a6f 5abb 45bd 5bbd fe9d 10be f417 42bd
00000010: 4749 0abe fd8e fdbd 2664 2fbe 0a33 023c
00000020: 689d 92bd 2727 84bd d4cc 76bc a0ed 40bd
00000030: a2d2 3cbd a77f ef3c 311e 0e3d 5ad5 e2bd
00000040: fb93 87bc 1001 b23b 5a27 48be 4d3f 59bd
00000050: fc93 2ebd 1045 07bd 49b2 2a3d c065 023b
00000060: e239 9dbd 47d6 71bd ff99 093d c567 233d
00000070: 084f f2bd 9ddb 0dbe e46b 2abd f634 03be
00000080: daff fc3d 821f 18bd 521d 8a3d 64fe 55bd
00000090: 7fdf 3fbe fdc1 e9bd 3058 3dbd 0e6b 06bf
000000a0: 658e d6bd eda3 3bbe ce85 cdbe a4d1 f5bd
000000b0: b4ab 77bd dcc3 843d bb9d c0bd 61f8 9cbd
000000c0: 4e6e ccbd c71c d6bc 9e12 833c 160b 82bd
000000d0: 102f 2bbe f399 653d 2f3a ffbd d446 40be
000000e0: 11f0 78bd 5c01 34be 85cd 95bd cced bcbc
000000f0: 4aba f8bc 4d49 c8bd 8899 50bd 6f5a e6bd
00000100: cc4b c2be 57b3 42be 12af 88bc bdbd 96bf
00000110: a450 2cbe 87a7 15be 7b44 5b3e 4f47 c7bd
00000120: 41a3 02bd e6ab 7dbe 0f06 0bbe db92 bdbd
00000130: 0c12 9bbd 9bff 1fbd 7e70 b8be b404 06bd
00000140: 9b48 66bd f917 f2ba 9fce 9bbd f4be 373d
00000150: 0340 c0bd 3ada c7be a5ec 38bd e08d e93d
00000160: c0c6 d3bc 52d8 e6bf ab9a b8bc 1650 0c3d
00000170: 708c 8cbe 1f2e 78bf b757 6bbd 760c c6bc
00000180: 7d21 9fbe f22d b4bc a84f a63c 006c 54bd
00000190: 3825 2a3d 2922 18be e081 ab3d 05d1 2ebf
000001a0: 2c15 2ebe 87d3 c1be dc0e 08c0 6b7c 51be
000001b0: ffd2 1b3f 4869 93bc 1c7a 2dbe 7f93 56be
000001c0: 6bf0 93bf 9ba5 bcbe 53f5 62be e880 38be
000001d0: 518d acbe aade e93e 34ee 11be 6c13 e3bc
000001e0: 6bc8 32be af10 053b e9cc 72bf bd80 6dbe
000001f0: d0f1 ca3e 596e 06be d007 f93c 9a9a 8d3d
00000200: 603f 21be 28d6 cebd e1d3 aa3c 8d09 0fbe
00000210: 1c6e 863d 2b32 633e 088c 5a3d a54a 1cbf
00000220: 6299 6ebd 3c44 2e3d c7ae febe 548b 523b
00000230: a93e 07bd 2554 3e3e 57b0 4fbd a0f9 c6bd
00000240: 03f7 25be daa1 3cbe 84eb 54be 3b0b 55bd
00000250: 722b ad3d 0342 fc3d 7921 1abe ccc2 ecbd
00000260: 60e7 7b3c 447e b7be 0840 1ebd 109c 83be
00000270: 43e8 18be efad 32be 6cd7 85be c1c0 b4bb
00000280: 0a9f 74bf c6a4 dbbd 6008 39bc d0e9 9ebd
00000290: 2df8 07be e4db 58bd 2ca4 713d ec84 083d
000002a0: 9a78 5b3d bc9d ccbd f134 85be c8ea f63b
000002b0: 22c9 933d f4da 973d d5b3 373e e18c ba3c
000002c0: 2bcb a1bb 258b 503e 0ecc 49bf 163b d9bd
000002d0: 6f13 c0bf 8111 e13c 5ecc 4a3d e4bf a6bf
000002e0: ef06 793d 1e44 f9bd f20f 4c3f ff82 323e
000002f0: a65b 6dbe d301 973d 9062 423c ff7d 6dbf
00000300: dcc6 0bbf c5c8 f5bd 0c45 acbe 8094 29bf
00000310: f387 8fbe df27 27bd 5101 f13d a53c 66be
00000320: 9699 9cbe e2ca a9be 5ed2 b4be b0b9 5dbe
00000330: 7bb3 92bc eed4 6cbe 4e30 77be c125 09bf
00000340: 4d17 ebbe 7d04 a6bb 2b31 fcbe 87d6 c03e
00000350: c27d ce3d 1757 83be af51 3abe dc16 f2bd
00000360: 7c2a c1bd a52d d8be 5eb7 18bf 9110 c8be
00000370: 3bbc edbe 59f5 643e b47e 87be 6a39 e1bd
00000380: 92a3 babe a3a8 a4be e0ee 593d 2cd4 15be
00000390: 8482 2dbe 29d6 b7be 288a c2bc 3ae8 b3be
000003a0: 6d9e 57be 4846 6fbe 8bb1 e8be b37d f5bd
000003b0: e031 41be 5687 b0bd 98a5 a23c 2ff1 98be
000003c0: e595 e5be 452a a4be 32ca 71be 4076 2abf
000003d0: fefc e6be 04b6 3bbe 6e02 55be 0f48 67be
000003e0: 4c8e 61bd 90d4 f1bc e846 3f3d 6394 a2bd
000003f0: dc66 b23e e94d babe b038 bb3c c4f6 acbe
-0.0033330382 -0.0536473 -0.14122769 -0.047386125 -0.13504516 -0.123807885 -0.17128047 0.007946739
-0.07158929 -0.0645278 -0.015063483 -0.047101617 -0.046099313 0.029235674 0.03469676 -0.1107585
-0.016550055 0.0054322556 -0.19546261 -0.053038884 -0.042621598 -0.033024848 0.041673932 0.0019897074
-0.07677056 -0.05904224 0.033594128 0.039893884 -0.1183148 -0.13853307 -0.0416068 -0.12813172
0.12353487 -0.037139423 0.06743874 -0.05224456 -0.187376 -0.114139535 -0.04622668 -0.525071
-0.10476378 -0.18324251 -0.40141147 -0.120028764 -0.060466483 0.0648267 -0.09405085 -0.07664562
-0.099819764 -0.026136769 0.016000088 -0.06349771 -0.16717172 0.05605502 -0.124622695 -0.18777019
-0.06077582 -0.17578644 -0.0731459 -0.02306261 -0.030362267 -0.09779606 -0.05092767 -0.112477176
-0.37948453 -0.19013725 -0.016685043 -1.1776654 -0.16827637 -0.14614688 0.21412842 -0.09730398
-0.031893972 -0.24772605 -0.1357653 -0.09256526 -0.075718015 -0.039062124 -0.36023325 -0.03271933
-0.056221586 -0.0018470279 -0.07607769 0.04485984 -0.09387209 -0.3903368 -0.045147557 0.11404014
-0.025851607 -1.8034766 -0.022534689 0.034256063 -0.27450895 -0.96945375 -0.0574567 -0.024175864
-0.31080237 -0.021994565 0.020301655 -0.05186081 0.0415394 -0.14856781 0.08374381 -0.6828769
-0.17000264 -0.37856695 -2.125907 -0.20457618 0.6086883 -0.017994538 -0.16941112 -0.20954703
-1.1557745 -0.36845097 -0.22163896 -0.18017924 -0.33701566 0.45677692 -0.14251024 -0.027719222
-0.17459266 0.0020304134 -0.9484392 -0.23193641 0.39637613 -0.13128032 0.030399233 0.069142535
-0.15746832 -0.10099441 0.020852985 -0.13968487 0.065639704 0.22187106 0.0533562 -0.610514
-0.058251746 0.042545542 -0.4974272 0.0032126503 -0.03301874 0.18586786 -0.05070528 -0.09715581
-0.16207509 -0.18421116 -0.20792967 -0.052012663 0.08455552 0.12317278 -0.15051831 -0.11560592
0.015374988 -0.3583852 -0.038635284 -0.25705004 -0.14932351 -0.17449163 -0.26140916 -0.005516142
-0.95555174 -0.107247874 -0.011293501 -0.0775944 -0.13278265 -0.05294408 0.058994457 0.03332989
0.05358181 -0.09991023 -0.26016954 0.0075353123 0.072160974 0.07414809 0.17939694 0.022772254
-0.0049375496 0.2036558 -0.7882699 -0.10606973 -1.5005931 0.027474167 0.049511306 -1.302731
0.060797628 -0.121711954 0.7971183 0.17432784 -0.23179492 0.07373395 0.011864319 -0.9277038
-0.5460031 -0.120011844 -0.3364643 -0.6624222 -0.2803341 -0.04080951 0.11767829 -0.22484072
-0.30585927 -0.331626 -0.35316747 -0.21652865 -0.017907849 -0.23128101 -0.2413952 -0.5357323
-0.45916215 -0.005066453 -0.49256262 0.3766367 0.1008258 -0.25652382 -0.18195222 -0.11820766
-0.094319314 -0.42222324 -0.59654796 -0.3907514 -0.4643267 0.22359218 -0.26463854 -0.10997279
-0.3645292 -0.3215991 0.053206325 -0.14631718 -0.16944319 -0.3590558 -0.023747519 -0.35138112
-0.21056528 -0.23366654 -0.45447955 -0.11986866 -0.18866682 -0.08619563 0.019854352 -0.29871508
-0.44840923 -0.320635 -0.23612288 -0.66586685 -0.45114893 -0.18331152 -0.20801708 -0.22586082
-0.055067345 -0.029520303 0.04669848 -0.07938459 0.348441 -0.36387566 0.02285418 -0.33782017

conv2.lin_rel.bias f4 [64]
00000000: 5737 1cbe 2065 d7be db27 a83f 5412 8dbe
00000010: 9e6d 90bd 3384 07bb e23f 75bf 88db 98be
00000020: e2d9 8dbd 732c 3bbd 3fd4 50be 4eb6 28be
00000030: 4415 b0be 5869 1a3f e377 0cbe 766d b8be
00000040: da59 02bd 32d1 e73c c631 b6be 3827 113c
00000050: e0e1 7bbe 6404 a03d 4bca 143f 16bc abbe
00000060: 5172 f2be 599a e93e 7cdb c1be 0627 72be
00000070: 5125 143f 520b 9ebd 81b8 3fbe f5d5 3fbe
00000080: c372 a33f 5150 a5bf 5646 9fbe 3d58 dfbe
00000090: 383a 33be 4d11 24be b051 18bf 9f09 11bd
000000a0: ee4a 16be 1551 753e bd18 44be eb86 e93d
000000b0: c75d ccbe d77a 1abe 3a69 afbb a977 2bbe
000000c0: 887f 1dbe 921e 5cbe 6f6e 1c3f 040d b9bd
000000d0: ff29 d7be d4f3 ba3d be44 bc3c b875 9ebe
000000e0: 6ccb de3d b8ae e63d 80cd 2ebe 06ba c7bd
000000f0: cb27 1fbe 8160 bbbe 5907 55bf 3637 b3bd
-0.15255485 -0.4206934 1.3137163 -0.27553046 -0.07052158 -0.0020678162 -0.958006 -0.2985499
-0.069263235 -0.045696687 -0.20393465 -0.16475794 -0.34391224 0.6031699 -0.13717608 -0.36021012
-0.03182397 0.028297994 -0.3558485 0.008859448 -0.24597883 0.078133374 0.58121175 -0.33541936
-0.47352841 0.4562557 -0.37862766 -0.23647699 0.5786944 -0.07717003 -0.18722726 -0.18733962
1.2769397 -1.2915136 -0.3110835 -0.43622008 -0.17502677 -0.16022225 -0.59499645 -0.035409566
-0.14677021 0.23956712 -0.19150062 0.11402687 -0.39915296 -0.15085922 -0.00535312 -0.16744865
-0.1538068 -0.21496037 0.6110601 -0.09035686 -0.42024228 0.09128538 0.022981998 -0.30949187
0.108786434 0.11263794 -0.1707058 -0.09752278 -0.15542524 -0.36597064 -0.83214337 -0.08750765

conv2.lin_root.weight f4 [64, 64]
00000000: 87a5 5abd 45fe edbc 82a5 adbc 8240 20bc
00000010: b6de b03c 0dde e23c cb39 1fbe bdfc dbbd
00000020: a36f 2abe 75b8 36be 0286 00be e48d 2ebe
00000030: 7452 55be dd9a ff3c ace1 99bd 9d0f 533b
00000040: a182 743d 7664 43be 19da a9bc 7fda b7bd
00000050: 996e 22bd 9265 10be 42d1 f23d d069 363d
00000060: 7c1c 833d 431c 433d 8421 d2bc 8fc2 9cbd
00000070: e1c9 e33a a58d 87bc c822 4bbe 67e7 4d3c
00000080: c0cf c2bc 97aa ec3c 5c26 c5bd 1bae b0bd
00000090: 837b 0cbe c193 3d3c 0ab7 d5bd b98d 61be
000000a0: 04d2 0fbd cc66 19be c102 34be e5b9 3bbd
000000b0: da60 6cbe 4051 513d dd7d 3b3c d43e 8fbd
000000c0: b0c6 36be 0796 a23b cfe4 a1bd b33d 3cbe
000000d0: 27ff 76bd 5368 66bd dd56 acbd 68ef 84bc
000000e0: 0c81 273d 0321 98bd d5a5 5c3d 626b 59bd
000000f0: 4520 d7bd ba23 abbd 183a 8ebd c3bd 733c
00000100: 74cc cabc 1b38 7c3c 59eb 7fbd 47dd c6be
00000110: f391 b0bd 350a 16be 7de1 873e 5a92 033e
00000120: ff94 623e 2b75 75bd e450 03bf c19b 2cbe
00000130: e4b8 54bb 1996 18bf f36b e7be 406c 0cbe
00000140: c895 d13d 86ad a0be 2e51 a6be 5c07 35be
00000150: a205 9dbd 3c3a 8a3e 5504 5e3b 804e dfbd
00000160: 2c28 42bd 6d10 66bf fa7a 15be d284 13bc
00000170: f186 0b3e 31a7 cfbf 1fe0 fc3e 6274 15be
00000180: 4902 48bf c635 c6bc 0043 933c db0d c93e
00000190: bc1f 17bd 7c21 19be 00ee 7bbd 4107 b9bf
000001a0: a3a5 85be 939a 5c3d 25dd 0abf 06de 6a3d
000001b0: 792c 013f 208d 39bc e05d 03bd 0cae 06be
000001c0: 88b7 2fbf fd42 d5be b1d2 2abe 3646 0d3d
000001d0: 1dd3 b6be c3cb 92be bfd4 d3be 34ec a73d
000001e0: 535e 41be d56f f23c 6d17 ecbe 1183 27bf
000001f0: 3c62 12be 9b9b d43b 7855 a73c e2c2 493d
00000200: 22fb 113f e99f c53d 2d09 813e ea15 ecbd
00000210: e9b7 b7be 460b 58bf e64c abbe 384e a6bf
00000220: 026e 703e 5e2f 3fbd 0405 273f bc84 363f
00000230: 98c5 8f3e 0dfa 6e3f 3f71 533c 97d6 47bf
00000240: 6cca 083f 8a0d 0dbd aa50 283f 3e06 9b3c
00000250: 003d 51bb 7489 a43e cdfc 6e3d 38e0 3c3d
00000260: 781a bebc 1e12 b0bf 39f2 5a3e 661f 4b3f
00000270: fd4b 483e af0b f73d b842 943f e970 10be
00000280: c7ab 8ebe 437d f63c b0da d63d 4d33 333f
00000290: 48fc 703e 8b0b 5bbc d826 83bc be08 263e
000002a0: 6750 843e 520a 2b3f 8765 2dc0 ecc5 89be
000002b0: 87b1 343d 52cc 9bbd 8bd7 56be 1242 823f
000002c0: 058a d83e ba08 98bd 4ac2 61bf e978 e93e
000002d0: df05 b9bf 2031 57be b083 363e 98a7 35bf
000002e0: d43e 113e 4861 b03d 301c bfbe dd76 dabd
000002f0: eaac 7dbe 93e3 113e 007b dd3b f7a8 58bf
00000300: 3bcf d4be fc13 3fbe 8da9 893e 1c39 debe
00000310: c01d a4be 7ed7 49be 20d0 a33d 1618 b3be
00000320: fa00 cdbe ed7c 90be aa81 1fbf 8798 84be
00000330: bb24 ef3b abe5 66be c480 5ebe 5bb2 0ebf
00000340: deee 15bf 57c2 4ebe ce74 e4be 4e81 87be
00000350: d604 e6bd eb37 1dbe 57e5 20bf e8cc 203d
00000360: 2097 3dbc 61be a3be ef8a 10bf 64c4 abbe
00000370: 6b43 07bf 8553 b6bd f50c 93be 74cf 473d
00000380: b30e 623e 3db3 47be 0cf0 4cbd d23b 06bf
00000390: 31c8 a5be 16b4 4cbe e6b5 b0bd 49d5 e1be
000003a0: 7754 993e 7872 84be 055a f13c 5f86 ccbe
000003b0: 0afe bbbd c04d c63b 80b2 663b fc3c 9cbe
000003c0: 728f c0be 107c 89be 9cb2 a2bd e16f e7be
000003d0: fd81 02bf 906c 833e 4126 cdbe f1f1 95be
000003e0: 8938 04bc c0b3 40bb 0e3a ab3e 6081 8dbe
000003f0: 8d4f 213e 7acf 8abe 4c7e ffbd 58a7 b9be
-0.053380515 -0.02905191 -0.021197084 -0.009781005 0.021590572 0.027693773 -0.1554939 -0.107415654
-0.16644149 -0.17843802 -0.1255112 -0.17046314 -0.20832235 0.031201774 -0.075137466 0.003220535
0.05969489 -0.19081292 -0.02073388 -0.08977222 -0.039656255 -0.14101246 0.11856319 0.044534504
0.06401917 0.047634374 -0.025650747 -0.076542966 0.001737889 -0.016547034 -0.19837487 0.012567378
-0.023780704 0.028889937 -0.09626457 -0.08626958 -0.13718991 0.011570872 -0.104353026 -0.22026719
-0.035112396 -0.1498062 -0.17579176 -0.04583158 -0.23083821 0.051102877 0.011443582 -0.069944054
-0.17849231 0.0049617323 -0.0790497 -0.18382911 -0.060301926 -0.056251835 -0.08415005 -0.016227439
0.040894553 -0.074281715 0.053869087 -0.053080924 -0.10504202 -0.08356424 -0.06944674 0.014876786
-0.024755694 0.015394236 -0.062480304 -0.38840696 -0.086215876 -0.14652331 0.2653922 0.12848797
0.2212715 -0.059926193 -0.51295304 -0.1685629 -0.0032458836 -0.5960403 -0.45199546 -0.13713169
0.10233647 -0.31382388 -0.3248381 -0.17678589 -0.0766709 0.26997554 0.0033877094 -0.109036446
-0.047401592 -0.89868814 -0.14597693 -0.009003835 0.13625695 -1.6222898 0.4938974 -0.14595178
-0.78128487 -0.024195563 0.017976284 0.39268383 -0.0368955 -0.1495418 -0.06150627 -1.4455339
-0.26102933 0.05385835 -0.5424369 0.057340644 0.50458485 -0.011325151 -0.032071948 -0.13152331
-0.6863942 -0.4165267 -0.16681935 0.034490786 -0.35707942 -0.28671083 -0.4137325 0.08199349
-0.18883638 0.029594341 -0.46111622 -0.65434366 -0.14295286 0.006488276 0.020426497 0.04925812
0.57023823 0.09649641 0.25202313 -0.11527617 -0.358825 -0.843922 -0.33457106 -1.299262
0.23479465 -0.046676032 0.6524203 0.71296287 0.2808044 0.933503 0.012905418 -0.78061813
0.5343387 -0.03443674 0.65748084 0.018923875 -0.0031927228 0.32136118 0.05834656 0.04611227
-0.02320598 -1.3755529 0.21381463 0.79344785 0.19560237 0.12062775 1.1582861 -0.14105572
-0.2786543 0.030089026 0.1049093 0.70000154 0.23533738 -0.013369451 -0.016009733 0.16214272
0.25842592 0.6681262 -2.7093217 -0.26908815 0.044114616 -0.076073304 -0.2098066 1.0176413
0.422928 -0.074235395 -0.88187087 0.4560006 -1.4454917 -0.21014833 0.17823672 -0.7095885
0.14184123 0.08612305 -0.37326193 -0.106672026 -0.24772993 0.14246969 0.0067590475 -0.8463282
-0.41564354 -0.18659967 0.2688717 -0.43402946 -0.32053947 -0.1971111 0.07998681 -0.34979314
-0.40039808 -0.2822031 -0.62307227 -0.2589762 0.00729808 -0.22548549 -0.21728808 -0.557409
-0.5856761 -0.20191322 -0.44620365 -0.2646584 -0.11231391 -0.15353362 -0.62849945 0.039257914
-0.011571676 -0.31981185 -0.56461996 -0.33548272 -0.52837247 -0.08902649 -0.28720823 0.048781827
0.2207592 -0.19501968 -0.050033614 -0.5243503 -0.32379296 -0.19990572 -0.086284444 -0.44108036
0.29947254 -0.25868583 0.02946187 -0.39946267 -0.091793135 0.006051749 0.003520161 -0.30515277
-0.3760944 -0.26852465 -0.07944223 -0.45202544 -0.50979596 0.25668764 -0.40068248 -0.2928615
-0.00807012 -0.0029404014 0.3344273 -0.27637768 0.15753002 -0.27111417 -0.12475261 -0.36260486

conv3.lin_rel.weight f4 [64, 64]
00000000: f95a 9d3d b563 c13d 5571 5dbc 0e50 693d
00000010: e2c3 b43d c91b 9fba 8482 a5bd 2a93 7fbc
00000020: 0a5f 80bd d521 983d ae32 e83d 6c90 053c
00000030: dbcf d3bb 93e4 2bbe 79fd 04be 9e4a 16be
00000040: de70 633d 9326 ba3b ffe3 9b3e 1a5f 163e
00000050: ca7b d43d 9da6 56be 8aee ef3d bbee 363d
00000060: c9e9 df3d 1e2d b3bd 538a bebe 1da4 3bbd
00000070: 701e c83c d3e8 9bbe cbea b4bc b454 76bc
00000080: b77f 613e f3f9 0fbf 1f36 d1be 3513 50be
00000090: ff85 b03c d0a4 23bb ea43 96bc 1f4c 86be
000000a0: bf9f 4f3d 3aa9 82be f8dd 593c 3c14 edbc
000000b0: 5289 783d 148e bebe 8867 c93d 71df dd3d
000000c0: 5144 993d ae85 40bc fcba 3e3e fd2e dc3d
000000d0: fa6c 21be 076a dcbc 23ea 09be ed4a cfbd
000000e0: cd0e 0d3e df47 253e 1ac2 033d 1e9c 97bd
000000f0: 0e95 f63d bfb9 5ebe 879a adbd a29d 6abd
00000100: d902 9abb e883 88bd 2fb4 963d f0e4 97bd
00000110: b123 223d b5f0 b8bd ce9d 353e c866 43bd
00000120: fcce d63d 4d25 233e 8308 ba3c fd90 bd3d
00000130: bc5d 873d a7d3 84bc f8fd c2bd 8867 033e
00000140: d724 a9bc 8b4f 37bd 6216 cdbd 8aeb 283d
00000150: 3773 32bd 87d5 5d3e 0736 49be f90d 8c3d
00000160: 5fa5 bbbc 82d0 1c3c 311d 653e 3018 b53d
00000170: 28a6 c13d 6f5e 2b3e 3032 aabd b86d 6cbc
00000180: 9df3 13be d528 fc3e b497 3abe 1e45 61be
00000190: 3644 5ebd 22e5 2cbd c305 b93d 4e63 14bd
000001a0: 2a45 ddbd 8b65 af3e 9171 adbd 47eb 14be
000001b0: d529 9f3d 65e5 473e 6a78 10be bc1d 9bbd
000001c0: 7269 fbbd a8c8 a5bd 3644 a5be c235 803d
000001d0: 1c2d 863e 727e 37bd a0c0 22bc 8441 183d
000001e0: e966 75bd ffc1 65bc acdc a4bc 858c bd3c
000001f0: dbe9 1ebe 7fba 75be 4c21 02be 2b06 dbbd
00000200: 5cb0 7dbd fa26 7ebc 5226 28bd de6c f83d
00000210: a33f 573d d6d9 1b3e aad9 883d de9e 9cbc
00000220: 0bda 873d 70a4 44bd b4e8 15be 4451 82bd
00000230: e7bd 2c3e ceda 7cbe 0cd0 70bd 6ec6 8abe
00000240: bed4 2bbd c20d 1ebe b1d8 34be 68fa aa3d
00000250: d075 a4bd 581e 03bf 6f2a 5b3e b864 a1bd
00000260: f20e 2bbc 8a44 893c 7c8d 50bf d95f e7bd
00000270: 0e2e e1bc 72e8 9c3d 0e22 e53c fca8 783d
00000280: 08f7 2e3e 4c02 f8be ce40 7e3e bdec 42be
00000290: 38aa 5abd 6965 4c3d 5d44 253d f218 8c3d
000002a0: 2613 9b3d 583e e2be cbed abbc 01a0 cc3d
000002b0: c4ce ab3d b2a5 26be d788 f83d 2da9 e03d
000002c0: a3a0 0b3e c662 97bd e7c5 4d3e 91f8 5ebd
000002d0: 0cb1 a5bd 4d22 bb3d 139f 573c a0ea ba3d
000002e0: 642c ed3b 9834 5c3e 073b 913e 457f a9bc
000002f0: 180b 88bc a428 483e 29d7 b8bd 5ec2 11bd
00000300: e5d8 be3d 50bb debc 66ec b3bd ff16 133d
00000310: af43 fb3a 0975 9fbd 045d a73e 819b 8dbd
00000320: 443b fabb cf7a 1bbd 3182 8dbe 0327 1fbd
00000330: ab1d 5ebc cafc fbbe 921d 843c 239b 93be
00000340: d996 8a3b 5d6e e0be 99f5 52be 0193 bb3c
00000350: 10bb 263c dd58 cfbe 428e 4a3d 0dc4 51be
00000360: 29cb ccbd 3e11 983d e725 29be 0d99 39be
00000370: 669c fabd c6f8 2dbe a3cb efbb 8811 55bd
00000380: 959d 123d ef95 d43d cb81 c33d 404d ac3e
00000390: 90c1 b9bd 0a8d f3bd e2c2 8abd 4280 eebc
000003a0: fc9b 60bc 44c0 9cbc 5086 42bd 3ce3 703e
000003b0: c301 d83d 913b 523d c1c1 eabd 80f3 4a3d
000003c0: 0bee 2fbe fc17 b6bd 4f42 8d3d 93c0 613c
000003d0: 02c2 3e3e c437 d13c a918 313d 83d4 de3d
000003e0: 5b01 44be c0b3 45be 657c 7bbe affd 5a3c
000003f0: 05fa b2bb 60b3 3a3e dc9c 53be 6d5b b1bd
0.07683367 0.09442846 -0.01351579 0.05696111 0.08826424 -0.0012139018 -0.080815345 -0.0155990515
-0.06268127 0.07428328 0.113377914 0.008152109 -0.0064639873 -0.16786413 -0.12987317 -0.14676902
0.05552756 0.005680868 0.30447385 0.14684716 0.103751734 -0.20961995 0.117154196 0.044661265
0.10933263 -0.0874884 -0.37214908 -0.045810807 0.024428576 -0.30451068 -0.022084614 -0.015034843
0.22021376 -0.5624077 -0.40861604 -0.20319827 0.02154827 -0.0024970062 -0.01834293 -0.2622995
0.050689455 -0.25519735 0.01329755 -0.028940313 0.060677834 -0.37217772 0.098342 0.10833634
0.074837334 -0.011750622 0.18626016 0.1075115 -0.15764228 -0.026906027 -0.13468222 -0.10121713
0.13775177 0.16140698 0.03216753 -0.07402824 0.12040149 -0.21750544 -0.084767394 -0.057279237
-0.0047000465 -0.06665784 0.07358586 -0.07416713 0.03958482 -0.09030286 0.17735979 -0.04770544
0.10488698 0.15932198 0.022709137 0.0925617 0.06609675 -0.016214205 -0.09521097 0.12832463
-0.02064745 -0.044753592 -0.10014035 0.041240253 -0.04356691 0.21663485 -0.19649516 0.068386026
-0.022906004 0.0095711965 0.22374417 0.08842504 0.0945552 0.16735242 -0.08310354 -0.014430456
-0.144484 0.49249902 -0.18221933 -0.21999022 -0.05426427 -0.042210706 0.09034302 -0.036227517
-0.108042076 0.3425716 -0.08468927 -0.14542876 0.07771651 0.19521101 -0.14108434 -0.07574031
-0.122759715 -0.08094913 -0.32278603 0.062602535 0.2620629 -0.044798322 -0.009933621 0.037171856
-0.059912596 -0.014023303 -0.020124756 0.023138294 -0.15518896 -0.23996924 -0.12708014 -0.10694536
-0.061935768 -0.015512222 -0.04105217 0.1213014 0.052550923 0.15219817 0.06682141 -0.019118723
0.06633385 -0.048008382 -0.1463955 -0.063631564 0.16869317 -0.24692842 -0.05879216 -0.27104515
-0.041950934 -0.15434936 -0.17660786 0.083485425 -0.080302835 -0.51218176 0.21402906 -0.07880539
-0.010440575 0.016756315 -0.8146589 -0.11297578 -0.02748778 0.07661523 0.02797034 0.06070803
0.17086422 -0.48439252 0.24829409 -0.19035621 -0.05338499 0.0499014 0.0403484 0.068406954
0.07572012 -0.4418819 -0.020987412 0.09991456 0.08389047 -0.16274145 0.12135475 0.10969768
0.13635497 -0.073918864 0.20095025 -0.05443627 -0.0809041 0.09137402 0.013160485 0.091267824
0.007237958 0.21504438 0.28365347 -0.02069057 -0.016606852 0.19546753 -0.090254135 -0.035585754
0.09318713 -0.027188927 -0.08785324 0.035910603 0.0019169952 -0.077859946 0.32688153 -0.06914426
-0.0076364595 -0.037958916 -0.2763839 -0.038855564 -0.013556878 -0.492163 0.016127381 -0.28829297
0.004229408 -0.438342 -0.206015 0.022897245 0.010176435 -0.40497485 0.049452074 -0.20484944
-0.09999687 0.07425164 -0.16518365 -0.1812479 -0.12236862 -0.16989431 -0.0073179766 -0.052018672
0.035794813 0.1038016 0.095462404 0.33652687 -0.09070122 -0.118921354 -0.06775452 -0.029113892
-0.013709065 -0.019134648 -0.04749137 0.23524183 0.10547211 0.05132634 -0.11462737 0.049548626
-0.1718065 -0.088912934 0.06897413 0.013778823 0.18628696 0.025539286 0.04323641 0.10880377
-0.19141142 -0.1930685 -0.24559171 0.013366147 -0.0054619336 0.18232489 -0.20665306 -0.08660016

conv3.lin_rel.bias f4 [64]
00000000: 4f6d 83be 6074 b53e 83e1 5fbe 4298 843e
00000010: 0b47 883e 2bb8 4fbe 91bd 60be aac2 11be
00000020: de03 6cbe 6db8 89be 2c31 8abe 7194 8a3e
00000030: e757 7ebe f349 97be a401 98be 7ce1 a3be
00000040: 61a8 7a3e b61d 793e ceb9 64be 8f01 b53e
00000050: 1448 703e 4442 b93e 4200 5c3e b73e 73be
00000060: a325 8e3e 6dc9 803e b787 9a3e 03d8 613e
00000070: ebf8 c03e 1493 9b3e c135 b4be 7fa7 73be
00000080: ee46 a43e bacc 8fbe c43e c43d ba92 4dbe
00000090: e97f 24be 1c44 ac3e f640 023e 3734 563e
000000a0: c2c4 873e 6bed 753e eaec c5be daab 85be
000000b0: 6c95 8d3e 0a55 0ebe fff2 8fbe 0f65 91be
000000c0: f166 b8be 030f b73e 2915 55be cca1 6c3e
000000d0: d7a9 c5be 0032 223e 0e08 643e f1b6 94be
000000e0: c03d b5be ad01 55be fd48 56be 30cd a3be
000000f0: 26d3 1d3e ab4f d43d bed2 e43e 8ef2 80be
-0.25669333 0.3544035 -0.2186337 0.25897413 0.266167 -0.20285098 -0.21947314 -0.14234415
-0.2304835 -0.26898518 -0.2699064 0.27066377 -0.2483822 -0.29548606 -0.29688752 -0.32007968
0.24478294 0.2432774 -0.22336504 0.35352752 0.23464996 0.3618337 0.21484473 -0.23754393
0.2776309 0.25153676 0.30181667 0.22055058 0.3768991 0.3038565 -0.3519726 -0.23794363
0.32085365 -0.2808588 0.09582284 -0.20075503 -0.16064419 0.33645713 0.12720093 0.20918356
0.26517302 0.24016349 -0.38657314 -0.26107675 0.27653062 -0.13899627 -0.2811508 -0.28397414
-0.36016038 0.3575364 -0.20808853 0.23108596 -0.3860614 0.15839386 0.22268698 -0.29045823
-0.35398674 -0.2080142 -0.2092628 -0.31992483 0.15412578 0.10366758 0.44692034 -0.25185055

conv3.lin_root.weight f4 [64, 64]
00000000: 4efa e3bd f3c1 e03e da80 253e ade5 043e
00000010: 870b 8c3d 7833 bb3c dfb1 48be 5653 5a3d
00000020: c3c9 fa3d 8dfc 5abd 3e83 a5be 152e 6a3d
00000030: aff6 f6bd f11c df3e 0df7 333d 4ab1 f33c
00000040: 78b0 b23d 15b5 a73e 8a26 833e 1c00 063e
00000050: 501c 6abd d20a 89bd 2507 203f 198e ab3d
00000060: ba9f 19bd d6c9 0c3e 4daf f13d f750 963b
00000070: 5ec9 b13e 4461 d43d 9fcd 2dbd 8b29 103e
00000080: c976 bc3e c66a 69bf e45f 40be 62d6 66bd
00000090: 9e2c 4abd 237f 2ebd 35c6 0f3e eeff 823d
000000a0: f2da 223e 6b3e 5a3e 9c78 41bd 6475 4f3f
000000b0: 4ccf 393e c559 a6be 7ca9 8f3c 13fe ce3d
000000c0: 25ec bfbb eb83 2cbc 2b9e b03e c38a 92bc
000000d0: 91a5 8dbe 9884 863e dd9f 443d 33ad e93c
000000e0: 706a df3e 0fba be3e cd53 3fbd e66d c6bd
000000f0: 250f ef3d 957c 23be 8c56 1bbe 8a79 6ebd
00000100: 2279 d63c 42e5 78bc 6294 07be 9e71 00bd
00000110: 1da1 ba3d b18e dcbd 4968 503b 02ce 8e3d
00000120: aadc f43d d2e6 f03d d4bb af3c 3c00 8d3d
00000130: 5320 b33d 69bc b8be 64f8 993c 5970 0e3e
00000140: 9a3e 2cbe b17c dabe 0540 a0bd 104f e43c
00000150: 27ee f53c c4f7 8d3e de69 a7be 0508 2d3d
00000160: eddc afbd 8964 1abd da73 90be f56e 3d3d
00000170: a804 a23c c0a8 0f3d 168e be3d e21e ca3c
00000180: f605 babe 3ff4 233f ffcc d4be 7399 fcbc
00000190: 0735 d9bd 2b11 e7bd 88c0 92be 39c6 a1be
000001a0: 9518 0f3b 4330 09bd 2c67 4dbd 8b3a 80bf
000001b0: e7e0 1ebc e0ed 4e3b be19 e5bd 644c d13d
000001c0: 2451 95bb 2d66 8c3d 160d c5be 1ec7 00be
000001d0: 1d5f a43d 7b55 57be 984f d93d 30bb 22bd
000001e0: ec70 00bf 13c3 0bbc b83e 1bbd 0898 d8bd
000001f0: 964c 3bbd d0d0 aebe 7625 99bd 2617 283d
00000200: 3558 dd3a e2d4 95bd 3171 ea3d 018e d03b
00000210: 437a 67bd a336 7dbd 2054 8a3c ea50 e23d
00000220: 6b93 973d 0515 bcbc 6c87 e03d e172 78bc
00000230: 0aa2 6b3d f93c 903e d2c0 cc3d c7ef 183e
00000240: 51d2 813d fee6 523e f3e9 f43c 99c9 993d
00000250: 4096 1ebd ebc7 eebe 1364 0e3f 1489 28bd
00000260: 963e 013e af77 763e 9636 1abe 5675 36be
00000270: 3556 643e d8d0 413d e84f 803d f89c 3b3c
00000280: 9719 cc3e 36ee 31bf 4c86 a63e 70da 233d
00000290: f806 1dbd 0886 8e3d c009 a33e 7ba3 843e
000002a0: 5e0f 8c3d 9fe7 0a3e 60e6 58bd a6fa 333f
000002b0: 0803 8b3d 1fdf 8bbe 8cd5 113e ed2a 20bd
000002c0: b19d 513d 65b5 c53d e96d 113e 6319 133e
000002d0: 6568 41be 963d 123f cc07 e6bd 4c78 7abd
000002e0: 3737 ce3e a4f6 3e3e 5a7a 8d3e ec82 b43c
000002f0: 0c09 dabc c14e 3f3e 895d 203d 6bda 77bd
00000300: 9f69 92bd d603 f9bc 0b3a 15bf 3ae9 473e
00000310: c2c4 2fbc e945 6ebc 46ab 233f 7c82 46bd
00000320: 01fa 30be 6911 4fbd dedf 0cbf 3d45 cd3d
00000330: fabd 653d c1b1 c7be b0b4 a33c 484e 9ebe
00000340: 8565 763d 396d 9fbd b079 ddbc 57d0 34be
00000350: 2897 f2bc 3d73 78be 91c8 94be ec4b 8fbd
00000360: 6b24 f7be 8beb 773f f9b8 9fbe ddf8 febd
00000370: 11d2 bd3d be8a dbbd 3729 6c3d c6d1 823c
00000380: 9886 acbe 539a 3abe 8430 b83c 739c a73e
00000390: 822e 743d 137e b73b 2ea9 2cbe 3c56 e53d
000003a0: 43cc cdbd 9886 04bd 65f2 5dbd 645b 15be
000003b0: 775c 493d a9d3 17bd 3217 b93c 418b 013e
000003c0: 3aca ce3d 773e 943d 0f32 43be 13b4 763d
000003d0: 752d 9d3e 9477 fdbd 5c88 263e 0e5e 7fbd
000003e0: cf29 ce3d 5eab 54be b960 2ebe b745 f6bc
000003f0: d266 f1bd 6842 163e 9b1b b1be c832 7a3d
-0.11131726 0.43897972 0.16162434 0.1297824 0.06838136 0.02285169 -0.19599102 0.05330213
0.12245514 -0.053463507 -0.32326692 0.057172853 -0.1205877 0.43576768 0.043936778 0.029747624
0.08725065 0.32755342 0.2561534 0.13085979 -0.057155907 -0.06691517 0.625109 0.08376712
-0.037505843 0.1374887 0.11801014 0.0045872885 0.34723943 0.103701144 -0.042432424 0.14078347
0.36809376 -0.9117855 -0.1878658 -0.056356795 -0.049358957 -0.042601716 0.14040454 0.06396471
0.15903834 0.21312873 -0.047234163 0.810385 0.18145484 -0.32490364 0.017536871 0.101070546
-0.005857008 -0.010529499 0.34495673 -0.017888432 -0.2766538 0.26273036 0.04800402 0.02852497
0.43635893 0.37251326 -0.046710778 -0.0968893 0.116728105 -0.15965493 -0.15169734 -0.058221377
0.026180808 -0.015191378 -0.13240197 -0.031358354 0.09112761 -0.10769404 0.003180044 0.069728866
0.11956151 0.117627755 0.021451868 0.0688481 0.087464 -0.36081246 0.0187952 0.13910045
-0.16820756 -0.42673257 -0.07824711 0.027869731 0.030020786 0.27728093 -0.32697958 0.042243976
-0.0858706 -0.037693534 -0.28213388 0.046248395 0.01977761 0.035073042 0.093044445 0.02467293
-0.36332673 0.64044565 -0.4156265 -0.030834889 -0.10605817 -0.112825714 -0.28662515 -0.31596544
0.002183472 -0.03349329 -0.05014722 -1.0017866 -0.009697176 0.003157489 -0.111865506 0.102196485
-0.004556792 0.06855426 -0.38486546 -0.12575957 0.08025954 -0.21028702 0.106108844 -0.039729297
-0.50172305 -0.008530396 -0.03790161 -0.10575873 -0.045727335 -0.34143686 -0.07477848 0.0410377
0.001688725 -0.07315995 0.11447371 0.0063645844 -0.056513082 -0.061819684 0.016885817 0.110505894
0.074011646 -0.022959242 0.1096333 -0.015164108 0.05752758 0.28171518 0.09997715 0.14935218
0.06338943 0.20595929 0.029896712 0.07509155 -0.03871751 -0.466369 0.5562145 -0.041146353
0.12621531 0.24069093 -0.15059885 -0.17818198 0.2229851 0.04731831 0.06265241 0.0114509985
0.39863274 -0.69504106 0.32524335 0.04000324 -0.038336724 0.06959158 0.31843376 0.25905976
0.068388686 0.13564919 -0.052954078 0.70304334 0.067876875 -0.27318665 0.14241618 -0.039103437
0.051175777 0.09653739 0.14202084 0.14365153 -0.1888748 0.5712522 -0.11231956 -0.06114988
0.402765 0.18648773 0.2763241 0.022035085 -0.026615642 0.18682386 0.039151702 -0.060511034
-0.07149052 -0.030397337 -0.5829169 0.19522563 -0.010728063 -0.014543035 0.6393322 -0.048464283
-0.17282869 -0.050553713 -0.55029094 0.10022972 0.05608938 -0.39002803 0.01998362 -0.309191
0.06015541 -0.077845044 -0.027035564 -0.176576 -0.029613093 -0.2426271 -0.2905927 -0.06996903
-0.48269972 0.96843785 -0.3119581 -0.12449811 0.092685826 -0.10719822 0.057656493 0.015969168
-0.33696437 -0.18222933 0.022484072 0.3273655 0.059614666 0.005599746 -0.16861412 0.111980885
-0.100487255 -0.03235492 -0.054186244 -0.14585644 0.049160447 -0.03706709 0.022594068 0.12650777
0.100971654 0.07238477 -0.19062065 0.060230326 0.30698743 -0.12376323 0.16262954 -0.062345557
0.10066568 -0.20768496 -0.17029084 -0.03006254 -0.117871895 0.1467377 -0.34591374 0.061083585

lin.weight f4 [4, 64]
00000000: f9a8 3a3d f220 d4bd e837 ca3d 5254 2dbd
00000010: 7a07 50bd 0fb7 033c cf6e a6bc 10f6 fd3d
00000020: 4de4 bc3d 68f9 983d eda7 8f3d c72e 3dbd
00000030: 80c3 5cbc eaf6 d23c 091a 3e3d 1897 383d
00000040: 5225 fabc e5aa 94bd a1de f03c 4ddb a7bd
00000050: 1491 3dbd acc0 fcbc c2b5 98bd e07a 9e3d
00000060: debb a1bd e78e 1bbe bae5 9db9 1c2d 97bd
00000070: cc17 2ebd d2aa 2ebd 89bd ef3c 3a38 343c
00000080: 0be6 3abd c44a 2a3d 7242 81bd d14d 8b3d
00000090: 48cb ae3d 6913 07be e4bc 0fbe 155d a7bd
000000a0: eaf4 b9bd 0aa8 b8bc 0e3a 423d c216 7c3c
000000b0: 22e8 ecbc e186 473d 68e0 a63d 90b1 2e3d
000000c0: f3f4 ad3d 083d 03be e973 b93d c0e3 133c
000000d0: 9fac ed3c 1803 d3bd c2bc dcbd 6d80 983d
000000e0: aa09 373d ae4d b6ba 7700 743d 11e1 f23d
000000f0: 0890 b4bd 5911 11bd 2084 4bbd 29e1 8e3c
00000100: afea 1abe a98b 7c3d 2b8c 70bd 6e28 99bd
00000110: a2f1 7abd 25cd 0fbe ba0b 4fbe e8cf 9ebd
00000120: 533a 51bd 9da4 fd3d c376 853d f791 243e
00000130: 17fb 1abe 9ebd a03d 700d 823d 8b8f 05be
00000140: dc29 7bbd 7bb2 8a3d 798b 10be 9a91 25bd
00000150: 4c71 b73d 4651 82bd 3047 98bd 6742 bdbd
00000160: 8d93 01bd 72c2 e4bc 5d0a ddbd 47ab 3ebd
00000170: 783a 45bd 744e b03d ba82 713c 242c aabd
00000180: 2352 c8bc 87f3 f63a 23a1 f23d 5268 633d
00000190: b21d b5bd eaf0 4e3d b923 413d 8da7 223e
000001a0: b81c 9fbc 553a 463e 2f1d c13c 40e8 3a3d
000001b0: 2a70 0ebd 99c4 e4bd 2fa4 d33d 963b 01be
000001c0: e314 753d be2b 21be 5b83 0f3e 34e6 fabc
000001d0: 3219 d6bd 0615 863d 251b a5bc f194 8f3d
000001e0: 796c 433d 5862 89bc 2daf 90bd 786c 48bd
000001f0: 475c a23d bc79 9a3d a2fb 0d3d bfa3 bcbd
00000200: 0f82 0c3d 76f9 49bd c7bd 8f3d e529 413d
00000210: ce40 2a3e 055c 49bc ee72 04bd 8098 ce3d
00000220: 3f4d d23d 556e bfbd 35ad f3bd 7d52 da3b
00000230: 2870 233a 98f2 d6bd 8e47 dfbd 2a54 473d
00000240: 2d4c 393e 38c4 9fbd 2785 ae3c 609d ea3d
00000250: fb97 22bd 7ae2 343e 859a ee3d 2a2c 473d
00000260: 084b c63d ef18 22be c1df c53d 07d0 ab3d
00000270: 73ca 003e 3eb9 e1bd a554 e3bd af88 873d
00000280: 9f80 a23b 88ec d1bd a1d6 09bd c46a 8ebd
00000290: 75a5 b53d 7564 84bd b601 82bd ceb8 30bc
000002a0: ae07 2a3e ac97 b6bc ff6a 3ebe 2d2d d5bd
000002b0: 4c15 a03d b69e c53d e5d3 b3bd c767 f33d
000002c0: b550 f0bd 9d23 c63d 5927 c5bd 2966 293e
000002d0: a403 8c3c 223f e6bd e99d d63d 7b7a 15be
000002e0: 029c 99bd e5a4 57be 70fa 073e dfde c63d
000002f0: fd05 a0bd 1a45 cebc d79d b13d fd1f 403d
00000300: 92be 0dbe 7bf4 cd3d dcbe b2bd fd56 f73d
00000310: d500 d53c e908 22be 0e17 54be 4b01 12bd
00000320: 7ba7 48bd 36f1 94bd dacb ffbd 2ff7 123e
00000330: f505 1ebe f426 d4bd fc2b 03be 4dea 44be
00000340: 364e ef3d 44ab b63d 2cfc 01be a647 463d
00000350: 6885 e93d 25ab 153e 50c4 2c3d d480 01be
00000360: ede1 b23c 3daa 603c 637b 2b3e 9202 593d
00000370: a30a 153e 1633 bf3d d2b2 30be 7a78 0bbe
00000380: ad82 083e 6abf c4bd d7a5 e13d dd1d 9fbd
00000390: 3c45 acbd 6b90 463d 98aa 2e3d 7444 003e
000003a0: 1079 b63d f0a7 273e fb42 1dbe b040 c1bd
000003b0: 87ca 013e 4ccd fbbd eb28 79bd 2d2b 4cbd
000003c0: ce2a 553b 74e0 da3c 9b52 62bc 2f61 ca3d
000003d0: 709c 1ebe b565 153d 08b5 bd3d cbe2 77bd
000003e0: eea1 acbd de76 56be 3632 21bd c889 4abd
000003f0: 3138 403d f2de f73d 360c ce3d 094b 1abb
0.0455713 -0.10357846 0.098739445 -0.042316742 -0.05078838 0.00803925 -0.02031651 0.12400448
0.092232324 0.074694455 0.07014451 -0.04618719 -0.013474345 0.025752503 0.046411548 0.04506597
-0.030535374 -0.07259158 0.029403033 -0.08196125 -0.046280935 -0.030853592 -0.074565426 0.0773828
-0.07897161 -0.15191232 -0.00030116533 -0.07381651 -0.042503163 -0.042643376 0.029265182 0.010999734
-0.045629542 0.04157521 -0.063115016 0.06801952 0.085348666 -0.13190998 -0.140369 -0.08172051
-0.09079917 -0.022541065 0.047418647 0.015386285 -0.028919283 0.048712615 0.08148271 0.042649806
0.08493986 -0.1281625 0.09055311 0.009026468 0.029012976 -0.103033245 -0.1077819 0.0744637
0.04468695 -0.0013908648 0.059570756 0.11859334 -0.08816534 -0.035416935 -0.04968655 0.01744135
-0.15128587 0.061656628 -0.058727425 -0.074784145 -0.061265595 -0.140431 -0.20219317 -0.07754499
-0.051081013 0.12384913 0.065167926 0.16071306 -0.15134846 0.078486666 0.06350219 -0.13043039
-0.061319217 0.06772324 -0.14115705 -0.04042206 0.089571565 -0.06363158 -0.07435453 -0.09241181
-0.031634856 -0.02792475 -0.10792992 -0.04655006 -0.048151463 0.08608714 0.01474064 -0.083092004
-0.024453228 0.0018840887 0.11847141 0.05551941 -0.088435546 0.050522722 0.04715321 0.15884228
-0.019422874 0.1935819 0.023573486 0.045631647 -0.034774937 -0.111703105 0.1033405 -0.12620386
0.059834372 -0.15739343 0.14014952 -0.030627348 -0.104540244 0.06546979 -0.020154545 0.0701083
0.04771087 -0.016770527 -0.07064662 -0.04893157 0.07927757 0.0754275 0.034663804 -0.092109196
0.03430372 -0.04931017 0.07018619 0.047159094 0.16626284 -0.012290006 -0.032336168 0.10087681
0.1026864 -0.09347216 -0.11898271 0.0066626654 0.0006234669 -0.1049549 -0.1090232 0.04866425
0.18095465 -0.07801098 0.021303726 0.11455798 -0.03969572 0.17664519 0.11650566 0.048626103
0.0968228 -0.15829824 0.09661818 0.083892874 0.12577228 -0.1102166 -0.11100129 0.06617867
0.0049591805 -0.10250193 -0.03365195 -0.06953958 0.08869449 -0.06464473 -0.063479826 -0.010786248
0.16604492 -0.02228912 -0.18595503 -0.10409007 0.07816562 0.09649412 -0.0878065 0.11885028
-0.11734144 0.096747614 -0.096266456 0.16542877 0.01709158 -0.112425104 0.10479338 -0.14597504
-0.07500459 -0.21058996 0.13279128 0.09710478 -0.07813642 -0.025179435 0.08672684 0.046905506
-0.13842228 0.100563966 -0.0872781 0.120771386 0.026001373 -0.15823711 -0.2071192 -0.035645764
-0.048987847 -0.0727257 -0.124900535 0.14352106 -0.1543196 -0.10358992 -0.12809747 -0.19230004
0.116848394 0.08919385 -0.12693852 0.048408173 0.11402398 0.14616068 0.042179406 -0.126468
0.021836245 0.013712463 0.16746287 0.052980967 0.14554839 0.09335916 -0.17255715 -0.13620177
0.13331099 -0.09606822 0.110179596 -0.07769368 -0.08411643 0.04847757 0.04264316 0.12526113
0.089098096 0.16372657 -0.15357582 -0.09436166 0.12674914 -0.12295017 -0.060830038 -0.049845863
0.0032526734 0.026718356 -0.01381364 0.098818175 -0.15489364 0.03647395 0.092630446 -0.06051902
-0.08429323 -0.20943782 -0.039354526 -0.049447805 0.04692859 0.1210307 0.10060923 -0.002354326

lin.bias f4 [4]
00000000: 6947 fe3e 5422 fbbd e04d 7fbe 5045 6cbf
0.49663857 -0.12262407 -0.2493205 -0.9229326
