03_Workshops/03_Encoder-Decoders for Latent Space Manipulation/Denoising/lightning_logs/version_4/checkpoints/epoch=33-step=1088.ckpt (torch, 278483 bytes, 60 tensors)

model.encoder.blocks.0.layer.weight f4 [16, 1, 3, 3]
00000000: 5bac 7ebe f4b7 86be 2414 683e 8492 6f3e
00000010: 1058 aa3e 15d8 4cbe 1832 0dbe 23f0 923c
00000020: d8a8 813e 5d2c 7bbe 0955 6e3e 07d1 1ebe
00000030: 42d5 dcbc f659 913d 52b5 84be 287e 713e
00000040: b55e 9abd d01d 5dbe eaf5 893e 47c6 433e
00000050: 6a46 d5bd 44bb 16be 548c 823d bb3a 2cbe
00000060: 8c5b 5e3e bc22 513d 1b83 0b3d 43de 93bb
00000070: 26ad 65be a3c2 9fbc ab14 afbd f89c 82be
00000080: 8a81 8dbd 7484 483e 445d 6c3e ecb6 dfbd
00000090: 113c 14be 7cf1 9d3e 5e8a 2d3e 8726 983e
000000a0: 48e6 6d3e 722f 903e 6f38 a63e cc8e a33c
000000b0: 0895 e13d 0534 4a3e 161b 80be 2057 9a3e
000000c0: a0e7 443e aba4 8e3c 9163 d03d 2c33 71be
000000d0: 8e97 56be cf99 453e 0e59 403e bb82 893e
000000e0: 58e5 9b3d e211 8dbe d4c2 08be f8be aa3e
000000f0: 32a7 8abd 5b51 31be 89fe 50be 1834 43be
00000100: a81a 6dbe 9b99 853e 1000 a53d 86d8 a4bd
00000110: 40ae e1bd ab67 59bc d3d6 8dbe 7a69 98be
00000120: bb97 513e 42d0 c4bd 5eca debd 4fcf cfbd
00000130: 2984 92be 9cf6 10be 7e64 0cbd 0545 1b3d
00000140: d7c2 1dbe 9cfa 2a3e db60 66be c8cb 8f3e
00000150: 4849 eb3d c81b 423c dbe0 b1be af48 c43d
00000160: d02f 33be 302f 243e 6bea 1f3e 5da0 813e
00000170: d923 a73e 7a1b 483d a314 783e 86cc 95bd
00000180: 38e5 083e bd11 673e c95d cf3b ad43 7f3d
00000190: 7289 143d 09de a03e 67a5 31be 0f63 36bd
000001a0: 4314 bb3d 1a0e 0e3e 8f3a 5dbb e05d 76be
000001b0: 1565 0bbe a134 0c3d 08ed 803e 7128 503d
000001c0: 98e6 94be e0a9 5c3d 7f5e e93d b722 63bd
000001d0: 064a a9bc 6360 6f3e 5919 523e baa3 9fbe
000001e0: 67da 98be 923d 8d3e 8d7a 5cbe a35b 86be
000001f0: 689d 10be a38a 8fbe ad1f ea3d 0c83 2cbe
00000200: b892 9abe 0346 8e3e bb53 85be 0196 8f3e
00000210: 1f05 df3d dee4 80bc 4238 8c3e eeab 4abe
00000220: d0ab 573d 2cae 56bd a62a 9ebe 5483 2ebe
00000230: bb17 da3d cc5c bcbd 5b08 ac3e ed87 453e
-0.24870436 -0.2631222 0.22663933 0.23395735 0.3327031 -0.20004304 -0.1378864 0.017936772
0.2532413 -0.24528642 0.23274626 -0.15509425 -0.026957158 0.07097237 -0.25919586 0.23583281
-0.07537595 -0.21593404 0.2694543 0.19118606 -0.10413821 -0.14719874 0.06374422 -0.16819279
0.2171461 0.051058516 0.03406058 -0.0045125796 -0.22429332 -0.01950199 -0.08548864 -0.25510383
-0.06909473 0.19581777 0.23082453 -0.109235615 -0.14476039 0.308483 0.16947314 0.29716894
0.23232377 0.28161198 0.3246493 0.019965552 0.110147536 0.19746406 -0.25020665 0.30144596
0.19228983 0.017412504 0.10175241 -0.23554677 -0.20956251 0.19296955 0.18783972 0.26857552
0.07612103 -0.27552706 -0.13355571 0.33348823 -0.06770171 -0.17316191 -0.20409597 -0.19062841
-0.231547 0.26093754 0.080566525 -0.08049111 -0.11019564 -0.013269345 -0.2770296 -0.29767972
0.20468037 -0.096100345 -0.10878442 -0.10146963 -0.28616455 -0.14156574 -0.034275524 0.03790762
-0.15406357 0.16697162 -0.22497885 0.2808516 0.11488587 0.011847444 -0.34741864 0.09584176
-0.17498708 0.16033626 0.15616767 0.2531766 0.32644537 0.04885433 0.24226622 -0.073144004
0.1336869 0.2256536 0.0063283187 0.0623204 0.03626389 0.314194 -0.17348252 -0.044528063
0.09134724 0.13872567 -0.0033756827 -0.24059248 -0.13612778 0.03422988 0.2518084 0.050819818
-0.2908218 0.053872943 0.11394977 -0.05545303 -0.02066518 0.23376612 0.20517482 -0.311796
-0.29854128 0.27586037 -0.21531124 -0.26241788 -0.14122546 -0.2803546 0.11431823 -0.16846865
-0.30190063 0.2778779 -0.26040444 0.2804413 0.10889649 -0.015734132 0.2738667 -0.19792148
0.052654088 -0.052412197 -0.30891913 -0.17042285 0.106490575 -0.09197387 0.33600125 0.19290133

model.encoder.blocks.0.layer.bias f4 [16]
00000000: 3c5c 76be 43b0 e53d f552 7d3b 91be abbe
00000010: e7e7 b03d ad5e 5fbd 2994 d7bd 3849 84be
00000020: eff7 723e b538 883e 669d 82be 9502 853e
00000030: 4ad3 a53d 0d03 993e 4c30 cabd c883 12bd
-0.24058622 0.1121526 0.0038654183 -0.33543828 0.08637982 -0.05453365 -0.10526306 -0.2583711
0.23727392 0.26605764 -0.2551071 0.25978532 0.08096941 0.2988514 -0.09872493 -0.035770208

model.encoder.blocks.1.layer.weight f4 [24, 16, 3, 3]
00000000: 4b34 ecbd 93e6 bdbd 1237 67bd 107d 13be
00000010: d86a 253b 488a ddbc f836 a7bd 97a1 63bb
00000020: b0a1 a2bd 5e5d 3b3d 2aca 143c 04c2 bebc
00000030: 2438 84bc 1bf1 493d 2630 8fbd d8be 543c
00000040: 2777 78bd bff1 193d 0733 9e3d c49b 8abd
00000050: 588e 313c 77e6 b13d f323 8c3d 9863 4d3d
00000060: 5e35 243d 7e41 7ebd 93e9 3a3c 12be fabc
00000070: 144a a5bd a4c1 2f3d 4e13 4b3c 04aa fabc
00000080: 82a1 44bd e767 48bd 2170 7bbd c644 a8bc
00000090: 7521 6c3d 9233 9dbd 89a4 7aba 9308 2bbd
000000a0: 81e8 f1bc 4ed6 abbc 185b d03d db44 2ebd
000000b0: 1def b33d c34f ef3c e0e8 1dbd 7b36 803d
000000c0: 8bb5 ac3d 53cc 9b3d f13a 9dbc 0ca6 933b
000000d0: 3d19 0cbd 58ad 2d3d 30f1 87bd 8737 e4bd
000000e0: f3f0 67bd b702 febd 2e13 82bc 7e6b e4bd
000000f0: ed9e 553d 101b 68bb ffec c43d 7bc8 913d
00000100: 56ea eebb 9c18 803d db94 9e3c d605 2ebb
00000110: 6ba3 af3b 2e85 823d 6a20 86bd 4c66 9ebd
00000120: e469 61be 3e17 1cbe 3ba5 debd a975 0fbe
00000130: 06c8 debd f618 7cbd 7277 85be 796b 5cbe
00000140: d229 34be 4a48 e93c 14d0 4fbc 8e2c 74bb
00000150: d411 a53c e5d1 1fba 4543 523d 1a01 a33d
00000160: 1f9f 7c3d a5b2 033b a906 12bd 31e3 3dbd
00000170: 06b7 553b 57d1 a63d d446 853d e086 3fbb
00000180: c76d b53b 37b7 513d 09f1 3b3d 5f8d 93bc
00000190: 8382 99bd 9081 6dbd 87b9 eebc 5cb3 02bd
000001a0: 639e 353d 6602 6f3d dc66 e63c e5ec 1f3d
000001b0: aee7 c3bc adfb cabc 8cc0 01bd 3514 113d
000001c0: 72dd 83bd 0e75 95bb ba8f 083d 9c30 67bc
000001d0: bbc0 d4bb a335 11bd 438e 553d f460 40bd
000001e0: 262b 11bd a606 69bd 4e74 053d a447 013d
000001f0: 67fe e23c 1b0a 8b3d 82c3 76bd df13 203d
00000200: 8d54 80bc 8833 b43d 06e0 a53d e9a6 88bd
00000210: 81c1 993d 9021 8d3d c0a9 0e3d 85ac 4a3b
00000220: f889 3c3d 11b5 9fbd 4b9f 0cbd c050 88bd
00000230: 06b0 debd 27cb b8bd b2c3 96bc 5aa2 0bbd
00000240: 8341 1bbe 6c1f a9bd ec13 1bbe 1430 9abc
00000250: 19e3 9abd f201 46bd b61a 79ba b21d 5ebd
00000260: 882b 02be b6f5 e5bc f5be 4cbd 934e 4e3b
00000270: bb7e 043d ad45 a4bd ca9b 8abc 9d12 32bc
00000280: 1b64 9cbb 4dc7 b7bc 0791 44bd aa5a cbbc
00000290: 9da1 a03d 7aa6 ea3b cb81 333d 70a9 92bd
000002a0: ab26 99bd 3e30 ddbc c768 91bd 4ccd 523c
000002b0: fd4f 563d ae18 a0bc 326f 1a3d a020 9dbd
000002c0: 96b6 5f3d 961b 973d 42e7 5dbd b454 183a
000002d0: 678d 793d 2b19 bc3d 7e05 983d b105 b93d
000002e0: c045 cb3d ac74 70bb 86b5 fc3c 9725 873c
000002f0: a4aa 923d 0db7 a63d 644d 343c b138 a23c
00000300: 2dd3 6c3d 9353 bdbc e774 90bd 1e11 c3bb
00000310: f4d3 883d c13a 01bc c887 0cbe f21c 64be
00000320: 1769 28be fdcc f63c aa38 d23c b303 d6bc
00000330: a1be b53c f9cc babd 6abe babd 766d 43bc
00000340: d057 a53d 4ed7 25bd b647 7a3c 909f db3c
00000350: ae7a a73d b3f7 933d fb05 dc3c 33a6 4dbd
00000360: aebd 7bbe 4999 62be d38e 89bd 9c0e 22be
00000370: 3cb9 14be 40af 40be e43b d2bd f668 5cbe
00000380: 0b38 3bbe ad2f 0abd ce9c 983d 2cab 593d
00000390: 147f 0ebd e518 ffbc c01d 693c 3f9f 863d
000003a0: f302 13ba 6423 813d eec7 413c c640 8b3c
000003b0: 0e62 503d a2b6 58bd abce e23d f8cd 8b3d
000003c0: c80b 2c3d e4fe 213d 8452 ba3c 968d 79bd
000003d0: e50a 833d 8739 95bd dc69 203d f970 56bd
000003e0: d3de a7bc 9586 9a3d 6609 da3c cfae 80bc
000003f0: 8a0c 913c 24d2 28bc 8e1c a03d c224 92bc
-0.115334116 -0.09272494 -0.056449004 -0.14403176 0.0025240686 -0.027043477 -0.08164781 -0.0034733766
-0.07940996 0.04574334 0.009081403 -0.023285873 -0.016140051 0.0493022 -0.069916055 0.012984954
-0.060660508 0.037584063 0.077245764 -0.06767991 0.01083716 0.08686536 0.06842794 0.050143808
0.040089957 -0.062074177 0.0114082275 -0.03060821 -0.0807077 0.04290928 0.012394739 -0.030598648
-0.04800559 -0.048927214 -0.06138623 -0.020540606 0.057649095 -0.07675852 -0.0009561261 -0.041756224
-0.029529812 -0.020976212 0.10173625 -0.042546134 0.087858416 0.029212838 -0.038552165 0.06260391
0.08433064 0.07607331 -0.019193145 0.0045058783 -0.034203757 0.04240164 -0.066378 -0.111434035
-0.05662627 -0.124028616 -0.015878286 -0.11153315 0.052153517 -0.003541652 0.09615516 0.07118317
-0.0072911186 0.06254694 0.01935809 -0.0026553771 0.005360057 0.06373058 -0.06549151 -0.07734355
-0.2201305 -0.15243241 -0.10871359 -0.14009728 -0.10877995 -0.061547242 -0.26067692 -0.21525373
-0.17594078 0.028476853 -0.012683887 -0.0037258002 0.020150103 -0.00060966454 0.051333684 0.079591945
0.061675187 0.0020095494 -0.035650883 -0.046359245 0.0032610311 0.08145397 0.0650765 -0.002922468
0.005536768 0.051200118 0.045884166 -0.018011747 -0.07495596 -0.05798489 -0.0291412 -0.03190933
0.044340502 0.058351897 0.028125219 0.03904428 -0.023914184 -0.024778211 -0.031677768 0.03541966
-0.06438722 -0.004561073 0.033340193 -0.0141107105 -0.006492702 -0.035451543 0.052137624 -0.04696746
-0.03544154 -0.056891106 0.03258162 0.031562462 0.0277092 0.06789037 -0.060245045 0.03908145
-0.015665317 0.08798891 0.0809937 -0.066724606 0.07507611 0.06891167 0.034829855 0.0030925584
0.046030015 -0.077982076 -0.0343316 -0.06656027 -0.108734176 -0.09023123 -0.018403862 -0.034090377
-0.1516171 -0.08257946 -0.15144318 -0.018821754 -0.07562847 -0.0483417 -0.00095025764 -0.05422754
-0.12711918 -0.028071266 -0.0499868 0.003147994 0.032347422 -0.08021102 -0.01691999 -0.010868696
-0.0047726757 -0.022433901 -0.04798987 -0.024823505 0.07843325 0.007160959 0.043824952 -0.07161224
-0.074780785 -0.027000543 -0.07100063 0.012866329 0.052322377 -0.019543018 0.0377037 -0.07672238
0.054617487 0.073783085 -0.054175623 0.00058109616 0.060925867 0.09184488 0.074229226 0.09034289
0.09925413 -0.0036690636 0.030848276 0.016497416 0.07161453 0.08140383 0.0110047795 0.019802423
0.05781858 -0.02311114 -0.07053547 -0.0059529683 0.06681052 -0.007887543 -0.13723671 -0.22276667
-0.16446339 0.030127043 0.025661785 -0.02612481 0.022185626 -0.09121127 -0.0911835 -0.011927953
0.080733895 -0.040488534 0.015275886 0.026809484 0.08177696 0.07224979 0.02685832 -0.050207328
-0.24584076 -0.22128786 -0.06716695 -0.15825886 -0.14523786 -0.18816853 -0.102653295 -0.21524414
-0.18283097 -0.033736873 0.07451783 0.053141758 -0.03478916 -0.0311398 0.014228284 0.065733425
-0.00056080444 0.06305578 0.011827452 0.01699866 0.050874762 -0.052908547 0.11074575 0.06826395
0.042003423 0.039549723 0.022744425 -0.060926042 0.06398562 -0.07286363 0.039163455 -0.052353833
-0.020491993 0.07545201 0.02661581 -0.015708355 0.017706174 -0.010304008 0.078179464 -0.017839793

model.encoder.blocks.1.layer.bias f4 [24]
00000000: be06 8e3d 9fde 003d f663 743d 932a 4ebd
00000010: 7e9d 1fbd 51bf ab3b 1703 b13d c9cb 863d
00000020: 4e5d 843d c940 2b3d 776e b03d 1096 55bc
00000030: 042d 84bc 7aa5 16bd 36ee cb3d 1885 293d
00000040: 2079 133c dceb 4cbc 243e 723d 037a 983b
00000050: d4bf 7dbd 5a36 6cb8 fbf4 54bd 57f9 18bc
0.0693488 0.031462308 0.059665643 -0.05033357 -0.038968556 0.0052413126 0.086431675 0.06581838
0.06463109 0.04180983 0.086148195 -0.013036266 -0.016134746 -0.036778904 0.099575445 0.041386694
0.009001046 -0.012507405 0.059141293 0.004653217 -0.06195052 -5.6317404e-05 -0.051991444 -0.009336791

model.encoder.blocks.2.layer.weight f4 [24, 24, 3, 3]
00000000: 4fa2 7dbd 1afa a1bc 67ff 633d de04 29bd
00000010: a1bf c4bb bc25 24bd 118f 283d 5f25 39bd
00000020: 40a2 49bd 251a 77bd 99f4 7bbc 5c91 91bc
00000030: 7962 6bbc a065 803c 764c 3c3c 51e5 b3bb
00000040: 855a 14bd 1ae4 ed3c c423 6c3d 4927 dc3b
00000050: 9c16 8d3c 4f66 323d 9246 a43c 9e0f 133d
00000060: 78e0 5d3c 6c59 1e3d ad4f 5e3d 78fa 47bd
00000070: 3958 77bd ad1f 75b9 b3bc be3c cb21 ad3c
00000080: fb2b 913c 83c9 88bc 0078 4ab9 c36f 59bd
00000090: a4e9 32bd df38 623d 9335 a2bc 5b96 db3c
000000a0: aa78 2cbd 3130 0c3d 041b e8bc 12bc 69bd
000000b0: 7663 a1bd 9ee0 1f3b 1da6 18bd 3c93 543d
000000c0: c29a fcbc 31a2 88bd e86d 2f3d f68d 33bc
000000d0: 1185 6fbd ccab eabc d59a 36bd 02c3 48bc
000000e0: 7ff9 4c3d 8117 7a3d 0265 1d3d 98fc 3abb
000000f0: 96f8 c7bc aaf1 6f3d b95f 2a3d 0f5b 02bd
00000100: 456a d3bc 7a66 503d d788 e23c a308 74bd
00000110: ca3c 823d 81d7 64bd d6fc b93c aa2e b1bc
00000120: 5b38 0f3d 09ef 313c f55a 483d aa92 13bd
00000130: 9e74 26bd 61a9 1abd fbbf 52bd 418b edbc
00000140: d640 753c a099 41bc f7d7 1c3d ad69 46bd
00000150: c11e 923c 9278 273d 1eb5 80bd 9026 26bd
00000160: 0c35 0a3c 3aed cdbb 937d 6cbd 51e6 2e3d
00000170: 78ee 78bc 0551 1a3d 63a0 8dbd 5f4b 54bd
00000180: d531 cc3c acce 0c3c 4d13 e73c 88e8 3ebd
00000190: 7254 37bd 591d 89bd 9aa6 ea3c fc60 263d
000001a0: a090 23bd eee6 8bbd e2a6 4a3d bab0 8bbd
000001b0: 60dc 19bd 31c8 b83c 9974 d23c 5896 83bd
000001c0: 11e7 fa3c a646 993a 2e3a 813c 47c6 903c
000001d0: e65b 5ebd 6a50 6fbd 46c0 733c cf39 c6b9
000001e0: d523 633d e56c 793d 6fa5 12bd 7f6b 7a3d
000001f0: a34e 9ebb 2718 093d b328 43bd 6771 2fbd
00000200: 3cd3 86bd 82bd 66bd e6d6 6fbd 4952 24bd
00000210: dacf f1bc 8aa1 82bc 8e02 753d 9d53 44bd
00000220: a953 523a bfc4 2cbc 543f 4d3d c4fb 81bd
00000230: 8d83 523c a07b 57bd 97c0 7d3c f9c8 633d
00000240: f6f4 e53c 4013 47bd 9a20 edbb 4cdc 66bc
00000250: 4cfa 80bd a5da 573d 069c d6bb b026 0a3d
00000260: 93e3 c9bb b92c 843d c3ed 07bd 7a16 993b
00000270: 42ea e13c c2fa 693d 5f30 d33c b5cc 323d
00000280: 00d2 3c3c 49eb 10bd 9614 2d3d 874f 90bd
00000290: 504d 82bd 027d e73c 5cb9 7ebd ee12 8bbc
000002a0: 410d b03c 3018 3c3d c722 f63a 8e49 2b3d
000002b0: 7ccc 7abd 8d70 463d fb44 d0bc 48df 413d
000002c0: cafb 5bbd 82b8 43bd e113 443c a661 0d3d
000002d0: faae bb3c 936e 2abb 5e46 58bc f1ef a53c
000002e0: 060e 983c 20f4 88bc 1581 783c 191c 2b3d
000002f0: 85e0 0fbd 3629 6dbd 8cb3 d23c 185a 2f3d
00000300: 5b19 b4bc 40b6 08bd f4e2 d23c ecd6 6abd
00000310: a7a5 663d 3ddf 16bd 9846 dd3c e5e9 613b
00000320: b8f7 413c 8a4c 8dba 1c28 69bd eec1 a03c
00000330: 581a 3bbc 8966 13bd f49c 6ebd 0dbb 99bc
00000340: b2b1 82bc e166 523d 207b 7c3c 6a1d 6d37
00000350: 6c18 6e3c ba89 18bd 4095 87bd f83e 6abd
00000360: 6c8e 833d 14fa 593d 00fa 0a3c 8b2c 42bd
00000370: c562 d8bb 653b 74bd 341a 52bd feca 5cbd
00000380: 0500 043d 7ea1 18bd 4438 123c 8837 053d
00000390: 194c 533c b7a7 f33b f182 09bd 603d 46bc
000003a0: 0443 6a3d 6911 babc d38a a13c 3253 74bd
000003b0: 9c9e 03bd 0c48 603d 8947 043a 874d 1039
000003c0: ed35 27bd 0dd5 593c 13e0 58bc 36e9 a33d
000003d0: 0d97 86bc 24b6 f8bc 9728 873c 174e 263d
000003e0: b0af 813d 373b 833d d218 e63b c3db c93b
000003f0: fe60 863d b2f3 1c3d 35ba 7c3d baa7 723d
-0.061922368 -0.019772578 0.055663493 -0.041264407 -0.0060042893 -0.04007505 0.041152064 -0.045201655
-0.049227 -0.060327668 -0.015378141 -0.017769508 -0.014366739 0.015673459 0.011492839 -0.005489983
-0.03621914 0.029039431 0.057651296 0.0067185503 0.017222695 0.0435546 0.020053182 0.035903566
0.013542287 0.038659498 0.054275203 -0.04882285 -0.06038687 -0.00023376821 0.023283338 0.021134278
0.017721167 -0.01669765 -0.00019308925 -0.0530851 -0.04367985 0.055230018 -0.019800937 0.026805094
-0.04210726 0.034225646 -0.028333195 -0.057064123 -0.07880299 0.0024395357 -0.037267793 0.051898226
-0.030835513 -0.066715606 0.042829424 -0.010959139 -0.05847651 -0.028646372 -0.044581253 -0.012253525
0.050042626 0.06105757 0.038426407 -0.0028531905 -0.024410527 0.05858008 0.041595194 -0.03182512
-0.02580751 0.05087898 0.027653141 -0.05957855 0.06359251 -0.055869583 0.02270357 -0.021628696
0.034965854 0.010860213 0.04891487 -0.03602854 -0.04063856 -0.03775919 -0.051452618 -0.028997065
0.014969071 -0.011816412 0.038291898 -0.048440624 0.01783693 0.04088647 -0.06284545 -0.04056412
0.008435499 -0.006284383 -0.057736944 0.042700116 -0.015193574 0.037674922 -0.06915357 -0.051829692
0.024926106 0.008594196 0.028207446 -0.046608478 -0.044758268 -0.06695051 0.028643895 0.040619835
-0.039932847 -0.06831156 0.049475558 -0.06820817 -0.03756368 0.022556396 0.025690364 -0.0642516
0.03062776 0.0011694029 0.015774813 0.017672671 -0.05428686 -0.0584263 0.0148773845 -0.00037808574
0.055454094 0.060894866 -0.0358023 0.061137673 -0.0048311516 0.0334703 -0.047646236 -0.04283276
-0.065832585 -0.056333072 -0.058554552 -0.040117536 -0.029518057 -0.015946168 0.05981689 -0.047931302
0.00080233306 -0.010544955 0.050109223 -0.063468486 0.012848747 -0.052608132 0.0154878115 0.055611584
0.028070908 -0.048602343 -0.0072365524 -0.014090609 -0.0629774 0.05269875 -0.006549361 0.0337283
-0.006161162 0.06453843 -0.03318573 0.004671869 0.027577523 0.057123907 0.025779901 0.043652255
0.011524677 -0.035380635 0.04225596 -0.07046419 -0.063624024 0.02825785 -0.06218849 -0.0169768
0.021490695 0.045921504 0.0018778675 0.041818194 -0.061230168 0.04844718 -0.025423517 0.04733208
-0.05370692 -0.047783382 0.01196763 0.034516953 0.022910584 -0.0026005849 -0.013200371 0.020256015
0.018561374 -0.01671797 0.015167494 0.041774843 -0.035126228 -0.05790063 0.02572038 0.04281053
-0.021984747 -0.033376932 0.025742985 -0.05733387 0.056310322 -0.03683399 0.0270112 0.0034471687
0.011838846 -0.0010780257 -0.056923017 0.019623723 -0.011419855 -0.035986457 -0.05825515 -0.01876595
-0.015953872 0.051367644 0.015410215 1.4133149e-05 0.01453219 -0.03724072 -0.06620264 -0.057188958
0.06423649 0.05321701 0.008482456 -0.04740576 -0.006603571 -0.059626956 -0.05129452 -0.053904526
0.03222658 -0.037263386 0.008924548 0.03252366 0.012896561 0.0074357647 -0.03357214 -0.012099594
0.057192817 -0.02271338 0.019719517 -0.059649654 -0.032133684 0.05475621 0.000504606 0.00013761791
-0.040822912 0.013295424 -0.013237017 0.08003466 -0.016429449 -0.030360289 0.016498847 0.040601816
0.06332338 0.06407779 0.007022002 0.006160231 0.065614685 0.038318343 0.06170102 0.059241988

model.encoder.blocks.2.layer.bias f4 [24]
00000000: 6b83 bfbc 9676 3dbb ee05 5abd 7409 15bd
00000010: 779a ce3c 44b3 963d e03d f43c a052 e739
00000020: 2e62 483d e127 e03c e940 59bd 136a 853d
00000030: 7761 9ebd 0d98 4cbd 3a90 933d b49d 733d
00000040: 9115 7b3d 2177 0b3c 012f d13c 2c75 b03d
00000050: 2ff3 9a3d 59cb 29bd a272 543d 0480 c83c
-0.023378095 -0.0028909794 -0.05322831 -0.03638597 0.025220139 0.07358411 0.02981466 0.00044121314
0.048921756 0.027362766 -0.05304042 0.06514373 -0.07733434 -0.049949694 0.072052434 0.05947657
0.061299864 0.008512289 0.025535109 0.08616099 0.07565915 -0.041453693 0.051867135 0.024475105

model.decoder.blocks.0.layer.weight f4 [24, 24, 3, 3]
00000000: 5241 703d edd0 223d 7bca 873b b7b4 3b3d
00000010: c6d3 86bd fdd8 e3bc 72c8 50bd 793c 5a3c
00000020: f2c0 83bd 0bd0 493d 96a5 64bd 3420 173d
00000030: 262b 063d 7b1e 5ebd f1bf 643d 3aab abbc
00000040: 9e29 6f3d 5c6e 6a3d 1c43 2dbd 2176 fb3c
00000050: d52a fdbc ac51 35bd 6132 2fbc 22b6 1a3d
00000060: 01e9 abbb bc5d 58bb fd2a 41bd 94ea 16bb
00000070: 508d 893d 49ea 063d b7d7 733d bb83 3fbc
00000080: f044 82bd bcd4 153d a69a 513d 6b71 0f3b
00000090: 3198 5ebc c031 53bd 775d 793c 07b4 84bd
000000a0: b08d 8abd 8f0a 583d 61ad 983c cd8e 943c
000000b0: 0641 72bd 3695 6abc 2d95 1b3d 2157 353d
000000c0: c26d 88bc 0372 88bd b153 c33c 4e33 9d3c
000000d0: 8446 d83b 75aa 0dbd b73b debb 7243 a1bc
000000e0: a3df 6dbd 15ac 253d 142f 393d a15d 4d3d
000000f0: 4ea2 fc3c 57b7 4ebd 7100 8cbc 61bd 1c3d
00000100: caa0 143c 9c52 94bd d6c2 10bd bba3 243d
00000110: 75ea 94bd 02dc 78bd 30e0 d2bc fdbc 3c3d
00000120: 35c8 543d 799e 2fbd 6333 4c3d ce69 3c3d
00000130: 548b 893d 9ca1 263d c245 80bd 22ec 8bbc
00000140: f7ba 11bc 7d3c 0a3d 169e 48bd d9ac 98bd
00000150: 6eff 8ebd 66a0 24bd 5c0e 12bb 5589 bcbc
00000160: 7ab7 793d 2a62 0ebc 8e3c fa3b f85e bf3c
00000170: 6dc3 63bd 363a 213d 869f 703d b82b 833d
00000180: 3237 ac3c 0d83 17bd 18e6 8bbc d145 be3c
00000190: b329 373d 7da9 6abd daf4 68bd 9a49 a7bb
000001a0: 9130 083d e593 47bd ba16 78bc 3358 fd3c
000001b0: 96b7 e7bc bbee 70bc 566e 52bc 951e 00bd
000001c0: 0466 783d 29f7 393d fe67 52bd 999a 3d3d
000001d0: 54bd 26bd 2677 fc3a c991 debc 08ee 8abc
000001e0: df8d 843c ad62 4f3d c0ae 723d 7713 85bd
000001f0: f729 6a3d b667 68bd eec7 da3c 8760 63bd
00000200: 80b5 833d 008b 403d a781 c2bb 45e0 cdbc
00000210: fc85 8a3c 9b2f 4fbc 3333 e03c 0e89 4a3d
00000220: 280d 243d bc18 39bd e582 91bd e23e b6bb
00000230: a6fe 5d3d 1e3f 60bd 952d ff3c e964 34bd
00000240: 93aa 1abd 85af a53c eff0 ea3c 4c13 71bd
00000250: be1b 5bbd b3cc 7ebd d5d8 f2bc 9ebe 563d
00000260: c5fd 89bd 391e 083d e5fa 88b9 86cd 6e3d
00000270: 439f 873d e233 813d a5a8 7e3d 1f55 c2bc
00000280: edae eabc f8ea a23c f51b febc ca4d f73c
00000290: a0ed 4ebd 86c9 053d 7d1b 85bd 5ab6 3ebd
000002a0: 7b05 59bd a3ad 36bd 3e9c e4bc db08 a73c
000002b0: 61c1 5fbc 757b 2ebb ec3f cebc 7801 8e3c
000002c0: a5cf f9bc c307 69bd 6061 85bc 73d8 90bd
000002d0: 0e2f 233d 4900 d53b 6219 48bd 09fb 8abd
000002e0: 527b 3cbd cfbe 8dbb db51 3cbc 0eaa 3cbd
000002f0: cfd8 513d 9c3a e63c d358 603c 8d65 b43c
00000300: 4384 30bd 1e4d 5c3a 1d4b 0a3d 0102 3ebd
00000310: 58f5 3bbd b40b 303d ddab 9dbc 7a6d dfbc
00000320: 1921 493d ca6f 6ebd 3804 d0bb 8dac 88bd
00000330: 7e24 043d 9529 0e3d 533f 5cbd 1406 67bd
00000340: 2484 73bd 1468 91bd 67e1 0b3d 0b61 7dbd
00000350: c8f0 e5bc c962 87bd ac4f 053d 71d5 61bd
00000360: bbd8 aa3b d39b 1ebd f016 243d 7306 37bd
00000370: 1017 823d 9ad8 4fbd c8dc 07bd 9d27 5f3c
00000380: 4e2a a13c 4c23 873c e1a2 f03b 1d57 99bc
00000390: a022 aebc ae52 4d3d 52c7 8d3d 0341 a8bd
000003a0: 05a9 7f3b 101c 67bd 4de9 603e 3044 6e3e
000003b0: 3d30 913e 8372 473e 59aa b93d cf80 d63d
000003c0: e1b0 343e cbd5 efbc de01 2f3c 2411 a33d
000003d0: 2f53 20bc b34a aa3c 28a4 5abd c85e 25bd
000003e0: c347 62bb 6986 a7bc aebe 8b3c 93c3 9dbb
000003f0: 20a4 9539 4c2a 1cbd affa 763d 3bb1 443b
0.058656044 0.03975003 0.0041440106 0.04582664 -0.06583361 -0.027813429 -0.05097241 0.013320082
-0.06433286 0.04927067 -0.055821978 0.036895946 0.032755993 -0.054228287 0.055847112 -0.02095567
0.0583893 0.057234153 -0.04230033 0.030695977 -0.030904213 -0.04426734 -0.010693164 0.03777135
-0.005246282 -0.0033014854 -0.047160137 -0.0023028003 0.06716406 0.032938275 0.059531894 -0.011689122
-0.06360805 0.036579832 0.051172875 0.002188767 -0.01358609 -0.051561117 0.015220038 -0.0647965
-0.06765306 0.052744444 0.018637361 0.018134499 -0.059144042 -0.014317801 0.037984062 0.044272546
-0.0166539 -0.06662371 0.023843618 0.019189503 0.006600203 -0.03458639 -0.006782021 -0.01968548
-0.058074605 0.040447313 0.045210913 0.05013812 0.030839112 -0.050467815 -0.017090054 0.038266543
0.009071538 -0.07242319 -0.03534206 0.040195208 -0.07271282 -0.06075669 -0.025741667 0.04607867
0.051948745 -0.04287574 0.049853694 0.04599934 0.06716028 0.040681466 -0.06263305 -0.01708037
-0.008894674 0.033749092 -0.048978887 -0.07454843 -0.06982313 -0.04019203 -0.002228639 -0.023014704
0.060965993 -0.008690396 0.007636613 0.023360714 -0.055606294 0.039362155 0.058745883 0.06404823
0.021022413 -0.036990214 -0.01707749 0.02322665 0.0447175 -0.057290543 -0.056874134 -0.0051052095
0.03324944 -0.048725028 -0.015142137 0.030925846 -0.028285783 -0.014705355 -0.012843689 -0.031279165
0.060644165 0.045401726 -0.051368706 0.046290014 -0.0407079 0.0019261583 -0.027169125 -0.016959205
0.01618093 0.050631214 0.059248686 -0.06497853 0.057168927 -0.05673953 0.026706662 -0.055511978
0.06431103 0.04700756 -0.005935866 -0.025131354 0.016909592 -0.012645627 0.027368164 0.04944711
0.04005161 -0.045189604 -0.07105044 -0.0055616954 0.05419793 -0.054747693 0.031149665 -0.044041548
-0.03776033 0.020225296 0.02867934 -0.058856294 -0.053493254 -0.062206935 -0.02964441 0.05242788
-0.06737856 0.033231948 -0.00026126872 0.05830147 0.06622174 0.06308724 0.06217255 -0.02372223
-0.028647864 0.019887432 -0.03101919 0.03018846 -0.050519586 0.03266289 -0.064993836 -0.046560623
-0.052983742 -0.044599187 -0.027906533 0.020389965 -0.013656945 -0.002662388 -0.025176965 0.017334685
-0.03049452 -0.056892168 -0.016281784 -0.070725344 0.039839797 0.006500278 -0.048852332 -0.067861624
-0.046016045 -0.0043257247 -0.011494125 -0.046060614 0.051232155 0.028104119 0.013693052 0.02202108
-0.043094885 0.00084038253 0.03376304 -0.04638863 -0.045888275 0.04297991 -0.01924699 -0.027273882
0.04910383 -0.05821208 -0.006348159 -0.066735364 0.032261364 0.034707624 -0.05377133 -0.05640228
-0.05945219 -0.070999295 0.034150507 -0.061860126 -0.028068915 -0.06610639 0.032546684 -0.055135194
0.0052138246 -0.038722824 0.040060937 -0.044683885 0.06352055 -0.050743677 -0.033169538 0.013620284
0.019673493 0.016496323 0.0073436354 -0.018718297 -0.021256745 0.050127678 0.06922783 -0.08215525
0.0039010656 -0.056423247 0.21963997 0.23268199 0.28357115 0.19477277 0.09065694 0.10473787
0.17645599 -0.02927675 0.0106815975 0.07962254 -0.0097854575 0.020787572 -0.053379208 -0.040373594
-0.0034527637 -0.020449834 0.017058697 -0.004814574 0.00028541777 -0.038126275 0.060297664 0.0030012864

model.decoder.blocks.0.layer.bias f4 [24]
00000000: 8d52 a5bd 7aa5 0d3d f169 9e3d d14a bebc
00000010: f626 c9bc 0db9 0dbd 30ae c03c 33a1 d239
00000020: 58ce 073d 9334 64bc 56cd 103d 7dab 573d
00000030: c87f 48bd 387b cc3c 9b27 13bd 79f2 8fbc
00000040: 9831 ae3d a28d a33c 258d f13c 0b24 adbc
00000050: 55ed 12bb 0578 aabb 0141 4ebd 19c6 f2bc
-0.08072386 0.03458164 0.077350505 -0.023229035 -0.02455471 -0.034600306 0.02352056 0.00040174424
0.03315577 -0.01392855 0.035352074 0.05265378 -0.048949987 0.024961099 -0.035926443 -0.017571675
0.08505553 0.019964997 0.029486248 -0.02113535 -0.0022419293 -0.0052022957 -0.05035496 -0.029635476

model.decoder.blocks.0.upsample.weight f4 [24, 24, 2, 2]
00000000: 270d 903c 1010 ae3d bb2f bb3d 612d b33d
00000010: 6138 b13d b9eb a13d aee3 63bd aa85 5fbd
00000020: 3cda 8ebb 7ff6 97bb ad75 c33d cbca 1ebd
00000030: c50c 9bbc 6820 183d 711c aabd 3a4a 8b3d
00000040: a3de 6d3d 25a8 11bd 2d95 85bd 2a42 783d
00000050: 6bb4 c33d 37f8 d7bc 2c79 dabc 7515 b2bd
00000060: 752d 9ebd 9008 143d 0a97 a63d b17e 833d
00000070: a6ff 4e3b e7d9 73bd 4bb2 b9bd e8d1 93bd
00000080: ff8a 15bd 84f4 85bd 55ee acbd 625a aabd
00000090: 419b a4bc 57b3 a83c 2526 923d ec93 bfbd
000000a0: f9cc 033d 74cc 853d fd89 02bd c96b 6a3d
000000b0: 9035 e4bc 4fb3 0abd 405b d2bc 7177 cb3d
000000c0: d44c 0e3c 4261 c93b 3d8e 033d 8165 58bc
000000d0: 781e 0a3d b824 563d 2d58 3f3b 8e7e 87bb
000000e0: 0e9f 4cbd 969d 313c 5b3f 863d b6a6 3fbd
000000f0: 04fb adbd 076f b33d 1f93 2d3d 7581 903d
00000100: 016d a83d a124 61bd c037 653d 67d9 0cbc
00000110: 22aa 6fbd 6818 83bd fe93 89bd 20d8 d0bd
00000120: 5523 ba3c 1a62 67bc 0837 51bd 4469 adbd
00000130: aed0 293d 398a e839 e023 b73d 2c38 203d
00000140: 263a 8a3d b0b1 3f3d 297f c23b 9547 cbbc
00000150: 5205 b13d eaf0 b93d 0ee8 693d 213a cb3d
00000160: 36bb 97bd 0b5a 123c b400 b93d 5ff3 ccbd
00000170: 3539 2dbd ca64 4cbb 7d3e 76bc c32b 2c3d
00000180: 005b a13d 025d b63c 170c 90bd a737 0e3e
00000190: 8dbc 81bc 9931 b83d b5e0 20be da5a a9bc
000001a0: 0dad 49ba 4d32 89bc 1eb2 273d 7e49 4f3d
000001b0: eb6f 1e3d 0eab 013e 73e2 193d 3572 e03c
000001c0: f18d 093d 3b41 05bd 26e9 b8bd 2e30 21be
000001d0: 6dc8 47bc 8efe 993d b0fe b7bd 5eeb 493d
000001e0: af5b 343d 3dc0 68bd 181b 193e d082 303e
000001f0: 49ad 9a3d 00f7 f53a fa19 0f3e 0410 803d
00000200: 72fb 06bd a041 913d 1528 0ebc 4da1 24bd
00000210: 360a d33b ea5c 35bc 2493 94bd eb13 c33c
00000220: 1ff6 c5bb ee06 b43d 8adb 3b3e 1ae5 873d
00000230: a7fa 123e e57c 303c 7e7f c7bd 566f 81bc
00000240: 5e64 a7bd 917f 3cbc b6e2 17be fd48 1cbe
00000250: 1bd5 b93d 3409 30bd 5618 0cbc 53da 1f3e
00000260: 3027 ecbd 9dcb b3bd f0ce 72bd 6626 173d
00000270: d4a7 3fbc 1a36 973d 9de8 7dbd fccb 4a3d
00000280: f398 373d 0691 4dbd 72c8 d33d 468b 48bd
00000290: 6e70 913d 85e4 a6bc 6c30 46bd c712 ffbd
000002a0: 929d 2a3d 793c 8d3d aede 00bd 0720 073e
000002b0: ba77 e0bb cdbc a33d de56 b6bd b0e4 2fbe
000002c0: 6aae 963d 93a9 8bbd 7f6c 40bd 98a4 d2bd
000002d0: 3b93 e73c f241 483d 59f4 06be ccd8 af3c
000002e0: 10dc df3d a639 943d cffd 6ebc 69ab 36bc
000002f0: 334e e9bc f7fd 8f3b 8ed9 0b3d 6f2c edbd
00000300: 7b70 a13d 5032 ad3d feab 1e3c 0a20 a93d
00000310: ab06 053c 39d3 c93c a150 3a3d 7ebd fdbc
00000320: aa8b 8fbd dcb5 9abd 1fd2 333d 1854 b63d
00000330: 30c8 d63d 7389 e83d fb2b 983d 0aab ebbb
00000340: cce4 8abc 1806 98bd c1bc 833d b488 893c
00000350: aa1b 4dbd b3b4 63bb 53d4 8dbd cdc7 083d
00000360: e1d6 0a3d 084a 4b3c e26e d0bb 2bfe 80bd
00000370: b7de e43d 9c9d a4bb f775 92bd cccc 56bd
00000380: 3cac 66bd d638 60bd 1be6 643c f696 9cbd
00000390: fd80 a3bc 1b1a 933d fe59 85bd c3ad 063d
000003a0: 8e20 163d 93b2 923d 3e08 99bc 085d af3d
000003b0: 9c26 ddbd 309a 953d ea9a cfbd ad65 99bd
000003c0: 86c1 afbc c5ae 92bd 13c8 da3c 14b5 cc3d
000003d0: f184 683c 09ce db3d c8d5 e03d f9b7 2fba
000003e0: 14bb 723d 3ad8 a83d 3c56 8f3d 053a bc3b
000003f0: 74c1 adbd e717 1cbb 4077 693d 919d 9a3b
0.017584397 0.084991574 0.09139963 0.0874889 0.086533315 0.07906289 -0.055637054 -0.05457083
-0.0043595117 -0.004637539 0.09543929 -0.038767617 -0.018926987 0.03714028 -0.08306206 0.06801267
0.05807365 -0.035560746 -0.06522594 0.060609974 0.09555896 -0.026363475 -0.026669107 -0.08695499
-0.07723514 0.03614098 0.08134277 0.06420649 0.0031585484 -0.05953398 -0.0906721 -0.07217771
-0.03650951 -0.06540778 -0.08443896 -0.083180204 -0.020093562 0.020593328 0.07136182 -0.09354386
0.0321779 0.06533137 -0.031869877 0.0572317 -0.027857572 -0.03386241 -0.025678277 0.09934891
0.008685309 0.0061456272 0.03211807 -0.013207794 0.033720464 0.05228111 0.0029196844 -0.0041349595
-0.049956374 0.010840794 0.06555053 -0.046789847 -0.08495143 0.08761411 0.042376634 0.07055942
0.08223916 -0.054966573 0.05596137 -0.008596755 -0.05851186 -0.064011395 -0.067176804 -0.101974726
0.022721926 -0.01412251 -0.051077873 -0.084673434 0.041458778 0.00044353472 0.089423895 0.03911607
0.06749372 0.046800315 0.005935569 -0.024814406 0.08643593 0.09079154 0.05710607 0.099231966
-0.074087545 0.008932601 0.09033337 -0.10007357 -0.042290885 -0.0031188005 -0.015029547 0.042033922
0.07878685 0.022261146 -0.07033556 0.13888417 -0.015836978 0.08993835 -0.15710719 -0.020673204
-0.0007693328 -0.016747618 0.04094135 0.050607197 0.038680952 0.12662908 0.037569474 0.027398208
0.03358263 -0.03253291 -0.090288445 -0.15741035 -0.012193781 0.075192556 -0.08984125 0.04929673
0.04403275 -0.056823958 0.14951742 0.17237401 0.07552583 0.0018765628 0.13974753 0.06253055
-0.03295464 0.07092595 -0.0086765485 -0.04019289 0.006440426 -0.011069516 -0.07254627 0.023813209
-0.006041303 0.08790384 0.18345466 0.066354945 0.14353429 0.010771965 -0.09741114 -0.01580016
-0.081734404 -0.011505024 -0.14832577 -0.15262218 0.0907385 -0.042977527 -0.008550724 0.15610628
-0.11530912 -0.087790705 -0.059279382 0.036901854 -0.011697728 0.07383366 -0.061989415 0.04951094
0.044823598 -0.050187133 0.10340966 -0.048960947 0.071015224 -0.020372638 -0.048386022 -0.12454753
0.041654177 0.068963 -0.031462364 0.13195811 -0.00685021 0.07994995 -0.08903287 -0.17177081
0.073574856 -0.06819453 -0.04697847 -0.102853 0.028268447 0.048891015 -0.13179149 0.021465681
0.109306455 0.07237558 -0.01458688 -0.011149266 -0.028479671 0.0043942886 0.034143023 -0.11580741
0.07882782 0.08456862 0.009684561 0.08258064 0.008119266 0.024636852 0.04548705 -0.030974146
-0.07009061 -0.07554218 0.04390156 0.08902758 0.104874015 0.11354341 0.074302636 -0.0071920203
-0.016954802 -0.07423037 0.06432486 0.016788818 -0.05007521 -0.0034745156 -0.06925263 0.03339367
0.03389633 0.012407787 -0.0063608745 -0.06298479 0.11175292 -0.0050236713 -0.07151406 -0.052441403
-0.0563166 -0.054741703 0.013970877 -0.07645981 -0.019958967 0.071827136 -0.06511305 0.032880556
0.03665214 0.071629666 -0.018680688 0.08562666 -0.1079838 0.073047996 -0.101369694 -0.07490096
-0.021454584 -0.07162241 0.026706731 0.099954754 0.014191852 0.107326575 0.109782755 -0.0006703134
0.059260443 0.08244367 0.0699887 0.005744221 -0.08484164 -0.0023817958 0.05699849 0.0047184904

model.decoder.blocks.0.upsample.bias f4 [24]
00000000: c3e1 84bc ac25 8c3d 2bac a13d 2900 813d
00000010: 4e8d f8bd 2227 c33d 00a6 b93d 13f3 013e
00000020: f4a2 99bd 0481 e7bc 273f fc3d 3c4d 983c
00000030: b4db 76bd bf67 a23d a464 abbd 394e b23d
00000040: 068f 9e3d f5d3 e3bd 7db9 ea3d 4073 3cbd
00000050: 7b7d 10bd f075 bdbd d6ce f83d c45d c8bd
-0.016220933 0.06843123 0.078941666 0.06298859 -0.12136327 0.09528948 0.09064865 0.12690382
-0.07501784 -0.028259762 0.12316733 0.018591516 -0.06026812 0.07929944 -0.08368805 0.08706326
0.07742123 -0.11124412 0.1146116 -0.04600835 -0.035275918 -0.092510104 0.12148826 -0.097835094

model.decoder.blocks.1.layer.weight f4 [16, 24, 3, 3]
00000000: ec9a b0bc 153c a43d 5345 3b3d 0f35 c9bc
00000010: f5ff c539 2541 6c3c 2d34 c0bc e271 943d
00000020: c771 4c3d 696d 58bd e484 a8b8 ab5f 203d
00000030: 3e82 d0bd 72e2 2fbd e5af 86bd d897 04be
00000040: ca0b 7fbc f612 153d aa01 09bd f5fb 76bc
00000050: 2fe4 8c3d baeb 633d 297f cd3d a13c 8d3d
00000060: b8df 163d e6d7 2abc 8ecc 3a3d a33c 7c3d
00000070: 8f02 5b3d 7f14 8a3d cd21 223d 0cd8 7f3d
00000080: e62c 873d f08a d23c a61d 8a3d d424 a03d
00000090: 2100 843c aada 55bd ed69 a7bc c4e5 3bbd
000000a0: 845b 51bc 9887 c23b cb97 613c 0511 26bd
000000b0: f5e9 5fbd c44e acbc abcf 303d 213e f5bc
000000c0: 3f25 dc3b 3e84 9f3c b68c 78bc 41e0 543b
000000d0: e443 18bb 12e8 083d b964 36bb 6aa1 dc3c
000000e0: 04e4 de3c 6531 11bc cc36 053d de76 053d
000000f0: c1d3 353d 6cd4 a43d c823 25bd cdc0 843c
00000100: 6461 9a3d 34ff c7bc 80f0 07bd 2936 633d
00000110: ee17 c33d baff 6b3a 3c78 c8bc 7b7b 473b
00000120: 947e 84bd 8667 96bc bcf9 863b 5f12 89bd
00000130: dea7 853a ebe9 43bd 7b3f 3e3d f990 513c
00000140: ce34 65bd 93e4 363d 6998 a6bd fa39 2e3d
00000150: 6a2b 323c 08d9 cfbd 072b a9bd c4a5 b3bd
00000160: 3edd f539 9571 21bd e1e7 463c 5f37 53bc
00000170: c7ab 453d d6b9 c83d 2bbc dcbc 3941 0b3b
00000180: 8cb2 86bc 372d 8ebd 472d 71bd 6c0f 42bd
00000190: 59a3 713b 9f8f 38bc b401 8abd 340d 46bd
000001a0: 8f45 3d3d a82b 123d 7c86 82bd edea 5f3d
000001b0: 1490 9abd 1baf 7fbd 6add 1ebc a84f 9abb
000001c0: 51a5 8cbd 313f 25bc 8656 0d3c 03c6 243d
000001d0: 2602 7d3d 924d 4d3d debc 793d 4c5d c4bc
000001e0: 7b1f 753d 15f0 ad3d 4e0f 303b a723 533d
000001f0: 6f59 f8bc 76c9 b13c f082 cdbd 0aac 37bc
00000200: 88f3 55bb bad6 f7bb a686 b0bc 916d 52bb
00000210: fd35 96bd 1d68 093d c909 acbc c61e 9a3d
00000220: e0db a0bc 804e 203c a78f 81bc 0c21 7c3d
00000230: 608d 9a3c 75e4 cb3c 4062 833c c816 f4bc
00000240: 38c0 903d bce2 df3d 13f6 ac3d cfc4 3c3d
00000250: 7c82 923d 9658 b1bc eb9f 873d eb5c 893d
00000260: 6e85 db3b cf7b 4ebd 3613 d03c 4b96 bbbc
00000270: a71c 5bbd e0d6 53bd de8a 75bd 484a 91bd
00000280: a5d1 ecbc 661d 69bc 1c95 a33d e590 a43d
00000290: 2357 a43d 87dd 983d cf57 c73c 1ff2 b73d
000002a0: d6db 4dbd ec04 9c3d c2ca a03d cfa1 0ebd
000002b0: 38e4 973c b7d0 22bd 6a25 863c 65dc a6bd
000002c0: 17d8 53bc 31be ee3c e1db f13a 0d96 90bd
000002d0: d5be 45bd c590 503d ea64 08bd 87d2 233d
000002e0: a312 3f3d f536 2ebd 9eb7 1bbd 12c8 3ebd
000002f0: f1c4 bf3c 578d 82bb 5f26 c33c dabd 123d
00000300: 17fe 8c3c 7c19 abbd a3da a4bd 94f6 d6bb
00000310: 2864 93bd 820d ca3a 7471 583d b209 b23d
00000320: 4ec8 0bbd 6421 893d 1882 b93b 2936 223c
00000330: 2ac9 22bd 2d58 e8bb 660d 823d cd8d 97bd
00000340: 4754 1cbd 9b95 d9bc 8a00 adbd 7d38 843c
00000350: 686b 86bd 52a8 1f3d 568d 373c 3d5f 3abd
00000360: 3f23 4b3d 348f 993d da33 f83d 469a cebc
00000370: c94f 8cbb ed26 483d 7291 913d 9f68 1cbd
00000380: 78f0 323d dbd7 26be 9a7d 5dbe ef6c 4cbe
00000390: a487 09be 4819 0ebe 238e 7bbe ddcd 07be
000003a0: ad53 f4bd 3193 c3bd b810 45bd 5022 70bd
000003b0: 2e1e c8bd 4d16 05be 895e e3bd ddad c5bb
000003c0: 26c5 e9bc d28a 9dbd fd5e 97bd a784 08bd
000003d0: 5960 57bd 6876 95bd 0a1e 9ebd 6843 92bd
000003e0: 0a78 b1bd 8e32 92bc bc0b 6d3b d20a 55bd
000003f0: 46da 59bc c96c 783b 0525 f2bc ffd6 d9bc
-0.021558248 0.08019272 0.04572041 -0.024561433 0.0003776547 0.014419829 -0.02346238 0.07248284
0.049913194 -0.052838717 -8.035617e-05 0.039153736 -0.10181092 -0.042940564 -0.06576518 -0.12948549
-0.015566776 0.036395036 -0.033448853 -0.01507472 0.0687946 0.05564473 0.100340195 0.0689633
0.03683445 -0.010427451 0.045605235 0.061581265 0.053469237 0.067421906 0.039583016 0.062461898
0.066003606 0.025701016 0.06743936 0.078195244 0.016113343 -0.052210487 -0.020436252 -0.04587342
-0.012778167 0.005936574 0.0137691 -0.040543575 -0.05466648 -0.021033652 0.043166798 -0.029936852
0.0067183073 0.019472238 -0.015170267 0.0032482299 -0.0023233825 0.033424444 -0.0027831031 0.026932437
0.027208336 -0.008861874 0.03252296 0.032584064 0.044391397 0.08048329 -0.040317327 0.016205216
0.07538107 -0.024413683 -0.033188343 0.055471573 0.095260486 0.0009002645 -0.024471395 0.003043859
-0.06469455 -0.01835991 0.004119126 -0.06692957 0.0010197123 -0.047830503 0.04644726 0.012790912
-0.05595856 0.04465158 -0.08134539 0.04253576 0.0108746085 -0.10148817 -0.0826016 -0.08771852
0.0004689488 -0.03941496 0.012140245 -0.0128916195 0.048259523 0.098010704 -0.026945194 0.0021248593
-0.01644256 -0.06942218 -0.05888107 -0.04737799 0.0036871044 -0.011264711 -0.06738606 -0.048352435
0.046208914 0.035686165 -0.06373307 0.054667402 -0.07547012 -0.062422853 -0.009696344 -0.004709203
-0.06867469 -0.010085867 0.008626586 0.0402279 0.061769627 0.050122805 0.060971133 -0.023970269
0.059844475 0.08493058 0.002686459 0.051547673 -0.030316083 0.02170251 -0.1003474 -0.011210451
-0.0032646377 -0.007563439 -0.02154858 -0.0032108764 -0.07334516 0.033546556 -0.02100076 0.07525401
-0.019636095 0.009784341 -0.01581557 0.061554953 0.018866241 0.02488921 0.01603806 -0.02979602
0.07067913 0.10931918 0.084453724 0.04608613 0.07153794 -0.021648686 0.06622299 0.06707176
0.0066992557 -0.05041104 0.025399785 -0.022898814 -0.053494122 -0.051718593 -0.059946887 -0.07094246
-0.02890856 -0.014228201 0.07987425 0.08035449 0.080244325 0.07464128 0.024333863 0.08981728
-0.05025848 0.07618126 0.07851173 -0.03482228 0.01854144 -0.039749827 0.016375262 -0.08147506
-0.012929938 0.029143425 0.001845237 -0.0705987 -0.048277695 0.050919313 -0.033299364 0.039995696
0.046648633 -0.04253288 -0.038016908 -0.04657752 0.023409339 -0.003984134 0.023822008 0.035825588
0.017211003 -0.0835447 -0.08049514 -0.006560156 -0.07196838 0.0015415403 0.052842572 0.086932555
-0.034126572 0.06695822 0.0056612603 0.009900608 -0.039742626 -0.0070905895 0.06350212 -0.07400093
-0.03816631 -0.026560595 -0.084473684 0.016140217 -0.06563455 0.038978882 0.011203131 -0.045500983
0.04959416 0.07498017 0.12119265 -0.025220048 -0.004281972 0.048865248 0.071078196 -0.038185712
0.04368636 -0.1629328 -0.21629944 -0.1996343 -0.13430649 -0.13876832 -0.2456594 -0.13262124
-0.119300224 -0.09549559 -0.048111647 -0.058626473 -0.09771381 -0.12996788 -0.111020155 -0.006032689
-0.02853639 -0.076924935 -0.073911645 -0.033329632 -0.05258212 -0.07297975 -0.07720573 -0.07141763
-0.08665474 -0.017846372 0.0036170324 -0.052012272 -0.013296669 0.0037906638 -0.029558668 -0.026591776

model.decoder.blocks.1.layer.bias f4 [16]
00000000: e964 e03d 05e9 e93c 0c02 c53d 6d49 3cbb
00000010: 886e dc3c 60a7 883d 0da9 453d 7c99 233d
00000020: cecd 573d c244 91bd 6b44 00bd 9197 4a3d
00000030: b534 d83d 08af 583d 8774 413d 880b d13d
0.10956747 0.028553495 0.09619531 -0.0028730289 0.026908174 0.06672549 0.048256923 0.039941296
0.052686505 -0.07093193 -0.03131525 0.04946095 0.10556928 0.052901298 0.04723027 0.102072775

model.decoder.blocks.1.upsample.weight f4 [16, 16, 2, 2]
00000000: 4a29 203d 99fb 8e3d 7af7 10be b079 ab3d
00000010: 8ce1 c7bd 11b0 a23d 9933 0dbd bc22 64bd
00000020: e7a4 153d 96cf 27bd e69d 843d e953 4e3d
00000030: 45a0 32bd e095 163e d0bb babd ffee 3c3d
00000040: 5b33 0d3e 4dbf 813d 6fb4 aebd 0bb4 d13b
00000050: 1a06 bdbb a37a 13be f821 8abd 121b 0ebe
00000060: b6da bc3c da09 723d 38b2 62bd 4ddd d83c
00000070: e786 28be cfe8 89bd 50b6 92bc 7041 613c
00000080: de60 3e3c 0617 0e3d ff4c afbd d6d0 583d
00000090: 584b 1f3e f6f3 0a3e 16ee 0c3c 6f56 163e
000000a0: 6829 ddbd b06c c13c 3092 393d c435 13be
000000b0: a790 8ebd 4983 103b d9b4 0c3d 0e04 edbc
000000c0: 4f78 0f3e 1040 14bc 250a 1bbd 11b3 053e
000000d0: 205c 443d b524 a83d ef1d 0c3e a6d9 c7bd
000000e0: 5a2d a2bd 04c7 b23c 8cde 193d c1c2 5a3d
000000f0: fcf2 00be 5efc b03d f8e6 eebc 75f6 94bd
00000100: 107e 513e 1fba 423e c379 8f3e 3b85 b73e
00000110: 3415 3bbe ee5e 84be 849f 72be 9492 35be
00000120: 7d61 b03e 103f ff3d 422c 813e 74e9 a93e
00000130: 0458 56be 7483 d6be 1792 87be a2d9 74be
00000140: 6a67 b93e 5f2c 823e 35e4 243e bf35 5e3e
00000150: 4198 093e de50 9a3e 0dad 533e 6846 4f3e
00000160: 85c9 1e3e 984a 6a3e d1d7 8a3e 16e1 3a3e
00000170: 60da 3bbe 8910 b7be 0713 0bbe 21bb ccbe
00000180: 8238 413e 914e ed3d 571e be3e 6e18 863d
00000190: 0e5d bfbe 6a7b 61be 95f8 a5be 52a7 68be
000001a0: df3a b33e 58e0 663e a17f e83d e036 6b3e
000001b0: cf5f 3bbe 6538 28be 7e57 4cbe 02af acbe
000001c0: 74d5 3cbe 0781 7dbe 9b8d 85be 63b8 89be
000001d0: b2d0 643d 023c dabd 502e 7a3e 4eaf 913d
000001e0: 7ccc 4f3e 80c3 0d3e 8078 3f3e 956f 153e
000001f0: a1f5 793e c0de fb3d d64f 563e 7e6f ae3e
00000200: e4c5 88bd e19b 963c e4f9 133d efe5 02be
00000210: 0fe1 553d a576 bdbd b180 cbbd 3f96 573d
00000220: 8c4c ebbd 4180 f7bc 23cc c33d af90 0b3d
00000230: 5edb 1d3d 1d3d 1b3e 45d7 c7bd 7972 dd3d
00000240: 79f3 a1bd bfa6 2dbd b176 38bc 4251 ab3d
00000250: 095b afbd 23b5 11be c14e 14be ee46 1d3d
00000260: f0c9 7fbd 3ba5 d23d 7fed c7bd 3540 153e
00000270: 6e1b 46be 6514 28bd c8bd 353d 69fb 0d3e
00000280: 3e71 02bc 4328 4d3d a5bc 0bbc b888 81bd
00000290: cb04 eb3d 68a9 723d 38a6 92bd bc9f 1dbd
000002a0: df89 0d3d f81e 07be ca1e d0bd 525a 923d
000002b0: d878 fbbd b387 b5bd d501 4dbd 081a 993d
000002c0: 2af9 793d 2622 4b3d 07cb adbc 643d e73d
000002d0: 6db2 20be 9939 18bd 2f08 8d3c 2c1c 153b
000002e0: 6900 c6bd ee8a db3d 736b 8abd ba2d 8abd
000002f0: 01f0 f0bd 3ff1 383d fa0c 813d f36c 613d
00000300: 3f02 883d 4f63 2bbc 01ca 29be a3ee bbbd
00000310: c33e ca3d 4c9c aebd 6672 0cbd 7ed9 d33d
00000320: 5471 183c 4c2c f2bd 9435 bf3d c611 4e3d
00000330: f0ff b83d 69f5 ea3d 681e 063d 4146 65bb
00000340: 0f17 f6bc cb17 3c3d fefc f2bd 9a3d c1bd
00000350: c181 723b 6101 a73d 009b d6bd f497 15be
00000360: 0d17 f83c bff4 ec3c 4d05 7fbd 79b2 a13c
00000370: bb37 ed3c 3627 bfbb d927 e2bc 160e 8fbd
00000380: 4ba6 e43b df99 57bd 04b9 ed3c 1ebd 0c3d
00000390: dc1d 013e d096 02bd 5c45 0d3e ff7d 313d
000003a0: 47cd 0ebd 76d3 cabd 0c63 0ebc 238e 85bc
000003b0: 869a 0bbe 7976 f9bc 14ba e03d e4d5 3cbd
000003c0: 9024 f53d 18ea 96bc de24 0b3e 2628 d4bc
000003d0: 94c6 44bd 523f fb3b c01a 7ebd 4621 0fbc
000003e0: a473 653d fb3a d53d 5e1b e3bd b0b8 123e
000003f0: 5e9d bcba 64d9 1e3d 951f 2c3c 87bf e1bd
0.039101876 0.06981582 -0.14156905 0.083728194 -0.097598165 0.07943738 -0.034473035 -0.055697188
0.036534216 -0.040969454 0.06475429 0.05037299 -0.043609876 0.1470561 -0.09117854 0.046126362
0.13789122 0.06335316 -0.08530509 0.0063996366 -0.0057685496 -0.14402251 -0.0674476 -0.13877514
0.023053508 0.059091426 -0.055345744 0.026472712 -0.16457711 -0.06733858 -0.017909199 0.013748512
0.011619775 0.034689926 -0.08559608 0.052933536 0.15556085 0.13569626 0.008601686 0.1468141
-0.10798913 0.023611397 0.04530543 -0.14375979 -0.06961184 0.0022050908 0.034352157 -0.028932597
0.14010738 -0.009048477 -0.03785147 0.1305659 0.04793942 0.08210126 0.13683294 -0.0975831
-0.079188064 0.021823414 0.037565753 0.053408388 -0.12592691 0.08641885 -0.029162869 -0.072735704
0.20458245 0.19016312 0.28022584 0.35843834 -0.18269807 -0.25853676 -0.23693663 -0.17731696
0.34449378 0.124632 0.2522908 0.33185923 -0.20932013 -0.41897166 -0.26478645 -0.23911145
0.3621171 0.25424477 0.16102679 0.2170019 0.13436987 0.30139822 0.20671482 0.20241702
0.15506561 0.22880018 0.2711778 0.18249926 -0.18345022 -0.35754803 -0.13581477 -0.39986518
0.18869212 0.11587251 0.37132522 0.06547628 -0.37375683 -0.22019735 -0.32416216 -0.22720078
0.35005853 0.22546518 0.11352468 0.22970152 -0.18298267 -0.16427763 -0.1995525 -0.3372727
-0.18440801 -0.24756251 -0.260846 -0.26898488 0.05586309 -0.10655977 0.2443173 0.07113515
0.20292848 0.13844109 0.18698311 0.14593346 0.24410106 0.122983456 0.20928892 0.34069437
-0.0667837 0.018384876 0.036126986 -0.12783025 0.052216586 -0.09251145 -0.09936655 0.05263352
-0.114892095 -0.030212523 0.0956042 0.034073528 0.038539283 0.15160032 -0.09757856 0.108128496
-0.07907767 -0.04239535 -0.011258767 0.08365108 -0.085622855 -0.14229254 -0.14483167 0.038397722
-0.062448442 0.102854215 -0.09762096 0.14575274 -0.19346401 -0.041035075 0.044370443 0.13865437
-0.007961569 0.050087225 -0.008528863 -0.06324905 0.114755236 0.05924359 -0.0716061 -0.038482413
0.034555312 -0.13195407 -0.101621225 0.071461335 -0.122789085 -0.08863773 -0.050050575 0.07475668
0.061028637 0.049593113 -0.021214975 0.11291006 -0.15693064 -0.037164304 0.017215816 0.0022752387
-0.09668047 0.10719858 -0.067587756 -0.06747003 -0.11764527 0.045151945 0.06301303 0.055035543
0.066410534 -0.010460689 -0.16580965 -0.09176376 0.09875252 -0.08525905 -0.034288786 0.10344218
0.009304363 -0.11824855 0.09336391 0.05030992 0.09033191 0.114725895 0.03274384 -0.0034984502
-0.030040292 0.04592113 -0.11864661 -0.09435578 0.003700361 0.0815456 -0.10478783 -0.14608747
0.030284429 0.028925298 -0.062260915 0.019738423 0.028957238 -0.0058335317 -0.027606891 -0.069851086
0.0069778315 -0.052636977 0.029018886 0.034360044 0.12609047 -0.031882107 0.1379599 0.04333305
-0.034863736 -0.09903614 -0.008690607 -0.016303128 -0.13633165 -0.030452 0.109729916 -0.04610242
0.11969864 -0.018422171 0.13588282 -0.02589805 -0.04804094 0.0076674605 -0.06203723 -0.00873596
0.056018487 0.1041164 -0.11089204 0.14328265 -0.0014390161 0.03878154 0.010505577 -0.11022859

model.decoder.blocks.1.upsample.bias f4 [16]
00000000: 1095 abbd 2f8a 933c 2f28 0ebe 2099 413b
00000010: aadd 0fbe 05f0 7cbd 79e6 71bc 527d 2d3d
00000020: 3c53 d1bc 12ac 553d 61d5 74bd 1dda e33d
00000030: 7c5d 5b3b 4064 27bc ab15 82bd b36c 24be
-0.08378041 0.018010227 -0.13882516 0.0029540733 -0.14049402 -0.061752338 -0.014764422 0.042355843
-0.025552385 0.052166052 -0.059773806 0.11125586 0.003347247 -0.010216773 -0.06351789 -0.1605709

model.decoder.blocks.2.layer.weight f4 [1, 16, 3, 3]
00000000: 8859 2e3d 9762 b3bd 8597 a83d 2199 e8bd
00000010: aeee 02be 212f 2bbc 3c22 6dbd 1875 533c
00000020: 334b 8dbd d484 4e3d b14d 5cbd dedf bfbb
00000030: d917 e23c 07a8 3abc 5803 9c3d f90b cebb
00000040: 5311 243d e104 903d a967 d3bd 4997 2bbd
00000050: 17e8 d6bd 3e16 97bd 31a8 dfbd b4e9 80bd
00000060: 13be bcbd dcff c0ba ddfe 26bd 68e5 6e3d
00000070: c153 a83d de15 ab3c 1303 40bd 6687 0abc
00000080: 8a21 413d fb4c a9bd 590b 453d 4201 2b3d
00000090: 60c7 963c 2532 fbbb 9633 66bb d570 82bd
000000a0: e318 1cbd 4c00 29bd 6af5 9c3c 0c90 b0bd
000000b0: d58f 97bd b891 543c 0ca3 dbbd 6ce9 0fbd
000000c0: 3699 64bb 0854 c6bd 4c19 37bd 8dcb 2fbd
000000d0: 3406 81bb 5313 8fbd 7984 48bd 0d97 803d
000000e0: 5d5a bb3c 79da ccbd e14a 31bd 5da7 883d
000000f0: f929 abbd b83f 4cbd 944c 043d e290 dfbc
00000100: e449 76bd f32d 063d 9951 30bd 709e c53c
00000110: ffb6 fa3c 5321 e23b be4c 98bb 92bf e73d
00000120: ae41 38bd ec4c 4e3d a538 a23c cad3 2d3d
00000130: 2832 393d 062e 773b 9bf5 afbd 3d6b 71bd
00000140: 02db a0bc 25ab 823d 0e02 7e3d 2b82 653c
00000150: c7f7 9b3d 8bb5 f73d 6d5e bc3d 3687 a8bc
00000160: 79e0 bc3d 4bda f4bc 3af9 84bd da25 f1bd
00000170: 3052 aabd ac7c 4ebd ede6 adbd 9a19 c3bc
00000180: f1cf 85bc f003 5bbd b333 93bd fa5e 943b
00000190: 2957 adbc b67d 7fbd 0e63 0b3d ab4e 8f3c
000001a0: e360 523d c9a9 b5bb b7a2 c23d ec25 9c3d
000001b0: fa2e 93bb 5b9a b13d dbf5 96bd d488 a03d
000001c0: 4499 2ebd fd0f 8e3d cefb 6bbb 1f3f 5e3d
000001d0: 3771 31bc c9ec 753d bdf6 a1bd 9013 79bc
000001e0: dc44 193d 069d e73c d9da 8f3d 6d59 f3bc
000001f0: 1460 b0bd 0b41 4f3c cad7 a3bd ac63 48bc
00000200: 2fcd cd3c 7b20 cebc 4b26 b43b ac9d 13bd
00000210: 4c27 bfbc 9bed 57bd 1b80 523d b4d8 49bd
00000220: f64f afbd db3a 1bbd fd7e 94bd 7543 4abd
00000230: 022a 37bd d209 a8bd 8a52 09bd 11a9 3dbd
0.042565852 -0.08759039 0.08232025 -0.11357332 -0.12786362 -0.010448248 -0.057893977 0.012906335
-0.06899109 0.050419644 -0.05378503 -0.0058555445 0.027599262 -0.0113926 0.07617825 -0.0062880483
0.040055584 0.070321806 -0.10322506 -0.041892324 -0.104934864 -0.07377289 -0.10920752 -0.06294575
-0.09215941 -0.001472469 -0.0407704 0.058324248 0.082191 0.02088445 -0.04687793 -0.008455133
0.047151126 -0.08266636 0.048106525 0.041749246 0.018405616 -0.00766589 -0.0035125962 -0.06369177
-0.03810967 -0.04126005 0.019159991 -0.08621225 -0.07400481 0.012974195 -0.10724458 -0.035134718
-0.003488136 -0.096839964 -0.04470186 -0.04291873 -0.003937507 -0.06986108 -0.04895446 0.06278811
0.022870237 -0.10002608 -0.0432843 0.06672547 -0.08357615 -0.049865454 0.032299593 -0.027290765
-0.06012906 0.032758664 -0.043046568 0.0241234 0.030604837 0.006900945 -0.0046478203 0.11315836
-0.044984512 0.050366327 0.0198024 0.042438306 0.04521385 0.003771664 -0.085917674 -0.05894016
-0.019635681 0.063802995 0.06201368 0.014008085 0.07615619 0.120951734 0.09197698 -0.020572286
0.09222502 -0.029889246 -0.06492849 -0.11774798 -0.08316457 -0.050411865 -0.08491311 -0.023815919
-0.016334506 -0.053470552 -0.07187595 0.0045279237 -0.021159725 -0.062375747 0.034030013 0.017493566
0.05136193 -0.0055439216 0.09503692 0.076244205 -0.004491684 0.08672019 -0.07371112 0.07838598
-0.042626634 0.06936643 -0.0036008242 0.054259416 -0.010830215 0.06004027 -0.0790839 -0.015202418
0.037419185 0.028273117 0.07024164 -0.029705727 -0.086120754 0.012649785 -0.08000143 -0.012230795
0.025122253 -0.025161972 0.005497729 -0.03603904 -0.023334168 -0.052716833 0.051391702 -0.04927893
-0.08560173 -0.037897926 -0.072507836 -0.04938074 -0.044717796 -0.08204998 -0.03352598 -0.046303812
