03_Workshops/03_Encoder-Decoders for Latent Space Manipulation/Denoising/lightning_logs/version_14/checkpoints/epoch=149-step=4800.ckpt (torch, 761931 bytes, 84 tensors)

model.encoder.blocks.0.layer.weight f4 [32, 1, 3, 3]
000000 1c e1 48 3d a9 9e 97 3e 20 9d da 3a 58 e2 3c 3d
       0.049042806 0.29613236 0.0016678907 0.046114296
000010 be 67 15 bc 77 d9 81 3e e2 12 72 3e 30 6c a6 be
       -0.009118972 0.25361225 0.23640016 -0.32504416
000020 95 1b 19 be 8e d6 6b be 9b 2e 0a be ec 83 3a 3e
       -0.14951928 -0.23031065 -0.13494341 0.18214387
000030 50 07 01 3e 81 c1 a5 3d 76 8f ea 3c 2c 49 0a 3e
       0.12600446 0.080935486 0.02863286 0.13504475
000040 c8 1f 4d be 35 71 25 be 23 b3 ff 3c 9a 5e 94 3e
       -0.20031655 -0.16156466 0.031213349 0.28978425
000050 71 3e 32 3d 66 12 86 be c9 49 85 be 7b c1 ac bd
       0.04351658 -0.26185912 -0.26032856 -0.08435341
000060 96 3e 09 be ff 32 1e be 82 38 13 bd 68 8f 92 3d
       -0.13402781 -0.15449141 -0.035942562 0.07156259
000070 10 6e e1 bd 93 19 08 be ec 23 b1 bd 53 4f a0 3e
       -0.11007321 -0.13291006 -0.0864943 0.3131052
000080 e7 79 59 3e a3 7c 2d 3d 25 9c 80 be 14 39 31 3e
       0.21237908 0.04235519 -0.2511913 0.1730693
000090 e9 81 e9 3d 31 44 a2 be 26 93 24 3e 24 f8 cf bc
       0.114017315 -0.3169265 0.16071758 -0.025386877
0000a0 5b 5b 4e 3e a5 71 de 3d d5 d0 af be 44 11 44 3e
       0.20152037 0.1086152 -0.34339014 0.19147211
0000b0 81 79 5f 3e 5d 19 c9 bc 1d 5c 74 be 22 96 2e 3e
       0.21823694 -0.024548227 -0.23863263 0.17049459
0000c0 07 d6 ab be 2e b5 43 3d 69 d1 80 be 68 7d 90 be
       -0.33561727 0.04778021 -0.25159767 -0.28220677
0000d0 ff 24 8d bd 3e 98 37 be 4e 24 a4 b9 ae ff c2 bd
       -0.06891822 -0.1792917 -0.00031307567 -0.09521423
0000e0 fc ba 95 3e 38 e3 ca bd f5 3f 75 be 88 00 63 be
       0.2924422 -0.0990662 -0.23950179 -0.22168171
0000f0 75 a4 cd bb fe f8 80 be 6a 6d 6e be 24 94 41 be
       -0.0062757083 -0.25189966 -0.23283926 -0.18904167
000100 35 90 9f 3e 61 94 89 3e 67 51 65 be f1 2e 91 be
       0.3116471 0.26871017 -0.22394334 -0.28356126
000110 e0 5f d2 bd e2 d2 aa bd f6 c4 20 bb cc d4 b1 bb
       -0.10272193 -0.08341004 -0.002453146 -0.0054269787
000120 db 5a 60 be 50 30 48 3e d1 a9 8b bd 89 3b 3a be
       -0.21909659 0.1954968 -0.06819499 -0.18186773
000130 6b fc 92 3e d4 1d cb 3d 2d ca 34 be 28 13 5f be
       0.28708205 0.09917799 -0.17655249 -0.21784651
000140 46 f7 a2 3e 12 ac b1 bd c1 e2 69 be e7 94 af 3d
       0.3182928 -0.08675398 -0.22840406 0.08573323
000150 88 fa 9a be 3d 24 90 be 4a ed 16 be 80 6c 91 3e
       -0.30269265 -0.28152648 -0.14738956 0.2840309
000160 22 10 62 be 4b 85 b3 bd 5c 2d 41 3e ed bd 17 be
       -0.22076467 -0.08765658 0.1886496 -0.14818545
000170 b1 24 50 bd 92 89 85 3e fe 25 0a 3e 10 44 a2 3e
       -0.05081624 0.2608152 0.13491055 0.31692553
000180 23 59 60 3e 4e ea 1b be a1 7a 21 be ae 30 85 3e
       0.21909003 -0.15226099 -0.15769435 0.26013702
000190 c8 ae 75 be 4d f9 8c 3e 26 0f 8b 3e c6 ba 95 3e
       -0.23992455 0.2753395 0.27159995 0.2924406
0001a0 83 2d 7a 3d ec ab 51 be 51 df 4b 3e 10 3c 4d 3e
       0.06107856 -0.20475739 0.19909407 0.20042443
0001b0 94 52 94 bd ec a8 25 be 40 4d 4a be 36 12 7f be
       -0.07242313 -0.1617772 -0.19756031 -0.2490929
0001c0 8c 2b 28 3d b6 49 db 3d 66 9d a9 be 6d af 45 be
       0.041057155 0.107074186 -0.33127898 -0.19305201
0001d0 ab 52 97 3d 54 5b 97 3d e8 72 96 bd 8b 7a 1d bc
       0.073888145 0.07390466 -0.073461354 -0.009611736
0001e0 f5 85 3f bd e7 68 6a 3e 24 c5 ed bd ed 62 a0 be
       -0.04675861 0.2289158 -0.11609867 -0.31325474
0001f0 9a 13 cf bd a3 98 3a 3e 4a ef fc 3d 5a e0 8a 3e
       -0.101111606 0.18222289 0.12350328 0.27124292
000200 5e f5 92 be 28 b6 4f be 26 ff 1f be bf 24 a2 be
       -0.28702825 -0.20284331 -0.15624675 -0.3166866
000210 8d e0 4d 3e 03 e2 97 bd 1f ee 9a be d6 c7 49 be
       0.2010519 -0.07416155 -0.30259797 -0.19705138
000220 eb 7d 55 be 80 81 5e be c7 65 47 3d 69 18 33 3e
       -0.20848815 -0.21729088 0.048681047 0.1748978
000230 36 c6 89 be 07 3b 1d 3e 9a 3e 7a 3e 9e a0 4a 3d
       -0.26909035 0.15354548 0.24437943 0.049469583
000240 3b 54 2b be 01 87 8e 3e 63 ff 33 3e 8c 79 5d 3e
       -0.1673135 0.27837375 0.17577891 0.21628398
000250 a5 6f dd bd 77 7c 0d 3e 52 96 a2 be 6b 55 34 be
       -0.1081231 0.13817011 -0.3175531 -0.1761071
000260 a0 83 12 3e 28 fa 47 3e 0b be a8 be 00 4c ff 3b
       0.14308023 0.19529021 -0.3295749 0.0077910423
000270 ab f1 b5 3c 3c 3e 8a be eb 59 34 3e 60 8d be 3d
       0.022209963 -0.27000606 0.17612426 0.09304309
000280 3b aa c5 bd 88 18 81 be e3 49 14 be c3 29 19 be
       -0.096516095 -0.25214028 -0.1448131 -0.14957337
000290 82 85 04 3e 09 e9 38 be 28 db 34 3e 6c 73 a2 3e
       0.12941554 -0.18057646 0.17661726 0.31728685
0002a0 ea 34 2f 3e 74 60 d0 bd 8d 51 8a 3e c4 55 3b 3e
       0.17110029 -0.10174647 0.27015343 0.18294436
0002b0 37 8a f8 3c 16 93 c4 bd fb 6f 0c 3e 5f 7f de bd
       0.030339343 -0.09598367 0.13714592 -0.10864138
0002c0 13 69 7d be 6b 29 d7 bd 68 8d 6f be 06 06 a2 3e
       -0.24747114 -0.10505947 -0.23393786 0.3164522
0002d0 d7 1e 3a 3e e1 89 66 3e 5e 38 97 be 2e c0 fe bd
       0.18175827 0.22513534 -0.29535192 -0.12438999
0002e0 f2 da a4 3d 41 62 a4 bd 6f 9a 80 3d bd 99 76 3d
       0.08049573 -0.08026553 0.06279456 0.06020521
0002f0 42 55 85 be cb f7 de bd 9c d9 a6 be 3b 86 b1 bd
       -0.2604161 -0.108871065 -0.32587898 -0.086681806
000300 8e 0c 72 3e d6 bd b8 bc 70 b3 09 be 2b 67 c7 bc
       0.23637602 -0.022551458 -0.13447356 -0.024341187
000310 26 fa ad bd 56 83 93 bb f5 0a 86 3e 3a 2d 34 3e
       -0.08494978 -0.0045017404 0.26180235 0.17595378
000320 d2 8c 65 bd f5 d6 06 3a 19 3a 69 be af 60 28 3e
       -0.0560425 0.00051437254 -0.22776069 0.16443132
000330 ed 9f fe bd fc 67 1b 3e fd 63 81 be a0 03 3a be
       -0.12432847 0.15176386 -0.25271598 -0.18165445
000340 23 38 c2 3c 5b 10 ed 3d 4f b1 90 be d3 e5 59 bd
       0.023708409 0.11575385 -0.28260276 -0.053197693
000350 48 1e 29 3d dc 1e 6d 3d fd 42 ab bd c0 e0 e3 bd
       0.041288644 0.057890758 -0.083623864 -0.11126852
000360 ae 80 3c be 23 0c 5b be 6b b2 0a bd 43 5c 95 be
       -0.18408462 -0.21391349 -0.03386156 -0.29171953
000370 44 35 9a be 08 83 2e 3e b8 a1 a6 be a8 0f 55 3e
       -0.30118763 0.17042172 -0.32545257 0.20806754
000380 4e ea 67 be 6c 34 3d be 1d 1a 3d 3e 49 58 80 3e
       -0.22647974 -0.18477029 0.18466993 0.25067356
000390 61 f0 9f be 42 96 06 bd 5b 99 20 be 76 64 9a be
       -0.31238082 -0.03285814 -0.156835 -0.3015477
0003a0 20 15 69 be a2 a8 75 3e 68 91 b1 bc 8a 2a 73 bd
       -0.22761965 0.2399011 -0.02167578 -0.05936674
0003b0 97 fb 8a 3e 94 cd eb 3c bc 77 6b 3e 97 2b 89 be
       0.27145073 0.02878455 0.22994894 -0.2679107
0003c0 90 a7 f4 bb 62 d4 81 3e 08 3f 57 3b d0 bf 54 bc
       -0.007466264 0.25357348 0.0032843966 -0.012985185
0003d0 e1 b4 bd bd db 10 7f 3e 86 ef 6e 3e f0 b1 8b be
       -0.092630155 0.24908774 0.23333558 -0.27284193
0003e0 c7 c3 8d 3e df 22 8b 3e 13 fe 88 3e 55 4b 84 bc
       0.2768843 0.27175042 0.26756343 -0.016149202
0003f0 c8 60 19 3e 27 7a 28 3e b4 6c 2d be 41 28 49 3e
       0.14978325 0.16452847 -0.16935998 0.19644262

model.encoder.blocks.0.layer.bias f4 [32]
000000 22 a5 6e 3e 3b f7 65 3e cb 06 57 be 5b 8f 7b be
       0.2330518 0.22457592 -0.20998685 -0.24566405
000010 04 a5 64 be 37 63 41 3e 0c 1d 10 3e 9d f6 98 bd
       -0.22328573 0.18885504 0.1407358 -0.07468913
000020 ad 9b 96 3e 34 53 2c bd ba 8e 2d be c8 66 ac be
       0.29415646 -0.042071536 -0.16948977 -0.33672166
000030 59 60 54 bd e2 80 11 3e 59 bf 32 3d b0 71 eb 3c
       -0.051849697 0.14209321 0.043639515 0.028740734
000040 ad 91 8e 3d a0 6f a1 be 68 7f 86 3e ad 58 3c 3e
       0.06961379 -0.31530476 0.26269078 0.18393202
000050 e5 5b 9c 3d 08 40 5c be 8b 46 5e 3d fe 1c 81 bd
       0.07634715 -0.21508801 0.054266494 -0.06304358
000060 76 56 88 be c5 a4 41 bd 9e 6c 6f be c5 11 60 be
       -0.26628464 -0.047276277 -0.23381278 -0.21881779
000070 d0 0c 90 be 3f e2 4f be 4c 52 cb bd f8 1c a1 3e
       -0.28134775 -0.2030115 -0.09927806 0.31467414

model.encoder.blocks.1.layer.weight f4 [64, 32, 3, 3]
000000 7a 28 15 3d 52 89 57 bd ca 9d d7 bc 8a cc 09 3d
       0.036415555 -0.052621193 -0.026320357 0.03364233
000010 ed 70 4e 3b 0c b0 1e bd c2 e6 b6 3c 9a cc 68 bc
       0.0031500414 -0.03874211 0.02232683 -0.014208937
000020 77 98 19 bd 01 55 97 3c 6b 1e 06 3d e3 65 17 bd
       -0.037498917 0.01847315 0.032743853 -0.0369624
000030 be 74 21 bd 90 4b 90 3c 29 a7 25 bc c1 6c 73 bd
       -0.039417975 0.017614156 -0.010110655 -0.059429888
000040 74 26 4d bd 89 c7 5b 3d 88 ae 32 bd e2 38 1e 3d
       -0.0500855 0.05365709 -0.043623477 0.038628466
000050 d9 83 6d bd a7 b5 5b bd e1 48 60 bd 18 28 4f 3d
       -0.057987068 -0.053640034 -0.054757003 0.050575346
000060 63 62 4f bd ac e1 5f 3d 90 0a fb bc 75 8e 26 3c
       -0.05063094 0.054658577 -0.030644685 0.0101658
000070 42 56 e6 3c ac 95 27 3d d6 5c 7a 3c 72 0f 20 3d
       0.028117303 0.040914223 0.015280923 0.03907723
000080 9a 76 7a 3a 1b 9b 60 bd 24 7c aa 3c 67 f0 51 3c
       0.0009554416 -0.05483542 0.020811148 0.012813664
000090 46 22 c5 bb 30 c1 41 39 10 1f 35 3b 16 5d d3 3c
       -0.0060160486 0.00018477882 0.0027636923 0.025801223
0000a0 73 f0 2b 3d 7a 77 de b9 5d 0b 57 bd 20 1c 0f bd
       0.041977357 -0.00042432157 -0.05250107 -0.03493893
0000b0 a2 7a e2 3c 73 4c 5e 3d ea e5 08 bd 72 4a 2f 3d
       0.027646367 0.054272126 -0.033422388 0.042795606
0000c0 01 05 b1 ba dc 4f 4b 3c 50 c2 cc 3c 87 dc 74 bc
       -0.001350552 0.012409177 0.024995 -0.014945156
0000d0 d1 7a 34 bd 98 88 3e 3d 40 c7 51 3d bd f6 51 bd
       -0.04406244 0.046516985 0.05121541 -0.0512607
0000e0 42 2c a0 bc 9f 51 5e bd 64 24 fe 3a d7 93 66 3c
       -0.019552354 -0.05427706 0.0019389507 0.014073334
0000f0 94 12 5b bd 2b d7 6d bd f1 35 b0 3c b8 d8 6e bb
       -0.053484514 -0.05806653 0.021510096 -0.0036445092
000100 e8 46 b9 3c 7b dd 01 bd 2b 4e 07 bd 0f d9 1b 3d
       0.022616819 -0.03170536 -0.03303353 0.0380488
000110 34 40 a6 3b 35 3a b9 bc ec 92 09 3c 29 df 02 3d
       0.0050735716 -0.022610763 0.008396845 0.031951103
000120 9c f7 d2 bc d2 1e 1f 3d d8 e9 2e bc 24 a4 95 bc
       -0.025752835 0.038847752 -0.01067587 -0.018266745
000130 c0 2f c8 3c d8 94 cd bb a0 8b 8c bb ce 53 f9 bc
       0.024436831 -0.006273847 -0.0042891055 -0.030435469
000140 0a 15 7c bd 0b fc 6e 3c a7 3b 57 bc e3 44 c1 3b
       -0.061543502 0.014586459 -0.013136781 0.0058981045
000150 a8 2b 52 bd 9c 47 46 3d 99 57 67 3d e9 d1 2c bd
       -0.051311165 0.048408136 0.056480024 -0.042192373
000160 95 59 61 3d 28 2b cd bc ca 7e 05 3d 93 0b 1f 3d
       0.055017073 -0.025044993 0.03259162 0.038829397
000170 81 ab 34 bd 99 73 48 bd da 2b 19 3d dd 92 60 bd
       -0.04410887 -0.048938368 0.037395336 -0.05482756
000180 27 79 01 3d e6 d4 69 3c 67 1b d8 bc 7b 1d 0c bd
       0.03160968 0.01427195 -0.026380254 -0.034207802
000190 33 af 5f bd 15 0e 47 bd 64 94 51 3b 52 6c 4e 3c
       -0.054610442 -0.048597414 0.0031979317 0.012599068
0001a0 12 60 aa 3c 7d 1e 80 bc 43 0c 27 bd da 7c bb 3c
       0.020797763 -0.015639538 -0.040783178 0.022886682
0001b0 7d 89 07 bd cf 39 0a 3d 35 c7 1e bc db e4 41 3d
       -0.033090103 0.033746537 -0.009691049 0.047337394
0001c0 4e e0 13 3d 3a 00 41 3d 5f d8 e4 bc e1 b7 cf bb
       0.036102585 0.047119357 -0.027935205 -0.0063390587
0001d0 37 e4 52 bd ec 0f b9 3c 2f cb 1c 3d fe 0c 54 bd
       -0.051487174 0.0225906 0.03827971 -0.051770203
0001e0 60 80 48 bd e4 29 27 bd 47 b8 ff bc 71 02 0c 3d
       -0.048950553 -0.040811434 -0.0312158 0.034182016
0001f0 00 4a 30 3d 47 d5 1d 3b ca d4 6a bc 50 fa ac 3c
       0.043039322 0.0024083422 -0.014332959 0.021115452
000200 7b aa 50 3d 4a 76 ba 3b 27 ee 6a bd 5e 5f 94 3c
       0.050943833 0.0056903707 -0.057356026 0.01811188
000210 12 c0 b2 3a 54 c5 50 3d c1 52 63 3c 9b b6 19 bd
       0.0013637564 0.050969437 0.013874711 -0.03752766
000220 88 2f 3b bd f7 66 56 3d ef d3 46 bc 34 ce 5f 3a
       -0.045699626 0.05234429 -0.01213549 0.00085375016
000230 74 c4 59 bd ed ed 00 bd bf 80 09 3d 4f d8 3b 3c
       -0.053165868 -0.031476904 0.033570047 0.011465146
000240 0b 31 f5 bc 96 20 5c 3d 24 f1 53 3c c4 eb a6 3c
       -0.029930612 0.053742014 0.01293591 0.020376094
000250 79 99 ca bb c1 41 39 3d 39 9f 91 bc 2e 4d a7 bc
       -0.006182846 0.045228723 -0.017776119 -0.020422544
000260 b1 00 3b bd d2 07 3b 3c c2 b1 66 bd b3 17 ba bc
       -0.045654956 0.011415439 -0.056321867 -0.022716379
000270 33 fa ae 3c da 93 c6 bc ee d1 7d bc 26 d5 69 3d
       0.021359539 -0.024240423 -0.015491946 0.05708804
000280 4d 6a e5 bc 7b de 08 3d 6e 19 5f 3d ad 61 e8 3c
       -0.02800479 0.0334153 0.05446761 0.028366888
000290 0c 06 78 bd ec bd 6f bd 92 4a 64 3d 08 5c 19 bd
       -0.06055264 -0.058530733 0.05573518 -0.037441283
0002a0 77 92 1e bd 54 2b 27 3d a2 10 41 bd f9 cb 92 bc
       -0.0387139 0.040812805 -0.047135003 -0.017919527
0002b0 fd 02 32 3c 80 f6 fe bc a0 0e 33 38 40 6c 03 3d
       0.01086497 -0.0311234 4.2690546e-05 0.032085657
0002c0 15 2c 42 3c 29 46 d9 bb df f2 dc bc df b1 d1 39
       0.01185133 -0.006630678 -0.026971279 0.0003999611
0002d0 f0 12 4f 3d 22 f0 50 bb 00 a2 2a bd 04 6b 4a bc
       0.05055517 -0.0031881412 -0.0416584 -0.012354616
0002e0 3b 59 71 3c ca 22 44 bc dc 76 66 3d ad fd f7 3c
       0.014730747 -0.011971185 0.056265697 0.03027233
0002f0 e9 75 69 3b 73 7f d4 3c 45 6e 22 bc de 7d 67 bd
       0.0035623258 0.025939679 -0.009913986 -0.05651652
000300 99 65 14 bd 82 db 41 3d b3 e9 24 bd fa ae bb 3c
       -0.036229704 0.04732848 -0.040261935 0.022910584
000310 a2 7e 44 b9 0e ee 41 bd 6b 40 60 bb cc b6 01 3d
       -0.00018739191 -0.047346167 -0.0034218084 0.03166847
000320 b9 fe 86 bb 44 a8 14 3c 90 4e d9 3c d7 f4 a1 bb
       -0.004119721 0.009073321 0.02652672 -0.0049425173
000330 de 98 54 3d 49 cb 5e bd 18 e8 46 bd 69 d2 1d 3c
       0.051903598 -0.054393087 -0.048561186 0.009632685
000340 1f 40 71 ba ad 3f b6 bc 6f eb 6a 3c 16 a6 2a bd
       -0.0009202975 -0.02224716 0.014338358 -0.0416623
000350 75 70 43 bd 17 a8 8d bb cd 22 aa 3c 38 88 47 3d
       -0.04771467 -0.0043230164 0.020768547 0.048713893
000360 16 ba 46 3d fb d7 02 bd f0 56 2b bd 7e 82 69 3d
       0.04851731 -0.031944256 -0.041830957 0.057009213
000370 2d 8d 23 bc 2e 3d 54 3d 3f aa 72 bc c6 39 60 3d
       -0.009982389 0.051816158 -0.014811098 0.054742597
000380 57 3d 64 bd 48 02 8f bb d5 ae 69 bd 41 df 5e bd
       -0.05572256 -0.0043642856 -0.0570515 -0.05441213
000390 a8 e7 0d bd c2 fd 5d bc 64 87 a2 3c fa c9 08 bd
       -0.034644753 -0.01354927 0.01983995 -0.033395745
0003a0 c4 cd dc 3c a4 81 69 bd db 5d a1 bc 8e b8 c9 bc
       0.026953585 -0.0570084 -0.019698074 -0.024624135
0003b0 b8 6d 0f bd 28 cb 3c 3d bb 89 55 bd 6a bb 3d 3d
       -0.035016745 0.046092182 -0.052133303 0.04632131
0003c0 69 5f 8c bc 8a c2 26 bd d8 34 89 bc ec 44 27 bd
       -0.017135339 -0.04071287 -0.01674883 -0.040837213
0003d0 c8 eb 44 bd b3 d3 19 3d a0 a6 8d 3b 95 6c 2f 3d
       -0.04807642 0.037555408 0.0043228418 0.04282816
0003e0 3f 30 13 bd 45 c1 40 3c 70 0f 92 3c ea 57 06 3c
       -0.035934683 0.011764829 0.017829627 0.008199671
0003f0 9a 06 6b 3d f6 f9 fa 3a 3a ff 10 bd c1 2f 2a 3c
       0.057379343 0.001914798 -0.035399653 0.010387362

model.encoder.blocks.1.layer.bias f4 [64]
000000 ed 20 e2 3a 17 d6 30 bd 05 c5 71 bd ea 32 c4 bc
       0.0017252244 -0.043172922 -0.059025783 -0.023950059
000010 e4 dc 25 bd 5a 29 ef 3b 35 a4 82 bd c9 4e 36 3d
       -0.04049386 0.0072986307 -0.06378976 0.04450873
000020 c9 7d 29 3c ab 90 1c 3d 96 00 4d bd 51 ed 56 bd
       0.010344931 0.038223904 -0.050049387 -0.052472416
000030 4e c6 91 3b 4c 7d 95 3c f9 95 46 bc 34 b8 29 3d
       0.0044486886 0.018248223 -0.012120717 0.041435435
000040 87 9a 3a 3d d8 27 98 bb 11 52 ef 3b c7 f0 9a bb
       0.045557525 -0.0046434216 0.0073034842 -0.00472841
000050 c6 12 43 bd fe 48 20 3d 7b 43 0b 3d fd 6e 43 3d
       -0.047625326 0.03913211 0.0339999 0.04771327
000060 41 8e d5 3b 49 85 97 bb 80 86 28 bd c9 3f 27 3d
       0.006517202 -0.004624043 -0.041143894 0.040832315
000070 c2 e2 22 bd 09 b5 3a 3d f5 e4 7d bd 7d 33 5d 3c
       -0.039767034 0.045582805 -0.06198593 0.013501045
000080 79 fb 09 bd cd bc 15 bd cb df 46 3c 79 3c 4a bd
       -0.03368709 -0.036557008 0.012138317 -0.049374077
000090 3d 22 09 bd 6b 8e 0e bd aa ac 78 bd bc dd 5a bd
       -0.033479918 -0.03480379 -0.06071154 -0.05343412
0000a0 1f a2 db bc 61 4d ed bc 1e c4 83 b9 10 7f 6b bd
       -0.026810704 -0.028967561 -0.00025132386 -0.057494223
0000b0 db 7a dc 3c a1 47 82 bd ed 9a e2 bc e2 4b 57 bd
       0.02691405 -0.063613184 -0.027661765 -0.052562602
0000c0 2c c4 03 3d fb c5 5e 3c 41 94 2f bc a7 e9 26 bb
       0.032169506 0.013597007 -0.010716499 -0.0025468857
0000d0 b2 ba 2c bc 5d 69 51 bc e3 60 70 3c 68 ab 34 bc
       -0.0105425585 -0.012781468 0.014671537 -0.011027195
0000e0 51 24 40 bb af 73 f9 3c 9a 6b 5b 3c 7e 5c 71 bd
       -0.0029318521 0.03045067 0.013392353 -0.058926098
0000f0 9e 44 33 3c e0 63 09 bd 11 6a 60 bd 9b 3b 4b 3b
       0.010941653 -0.033542514 -0.054788653 0.003101087

model.encoder.blocks.2.layer.weight f4 [2, 64, 3, 3]
000000 26 6a 34 3c 8b 1b 24 bd b0 28 63 3c 33 f3 d2 bc
       0.011011636 -0.04006533 0.013864681 -0.025750732
000010 5a 08 a0 bc 27 d1 16 3d 16 b2 20 bc 73 ae 05 bd
       -0.019535232 0.036820557 -0.009808084 -0.03263707
000020 1a 2f 17 bd 2b 03 1a 3b 0a 1c 02 bd 70 7a 4a 3c
       -0.036910154 0.0023500423 -0.03176502 0.012358293
000030 b0 a7 28 bc 9b af af bc 56 8e 78 ba 80 d5 ef 3b
       -0.010293886 -0.02144604 -0.0009481659 0.0073191524
000040 0e b0 0d 3d a3 1b 98 3c a4 44 14 3d 52 42 22 bd
       0.034591727 0.018567866 0.036198273 -0.03961403
000050 e0 ae c6 3c 23 d8 d6 3c 1b 4a 95 3c b6 4c c0 3c
       0.024253309 0.026226109 0.018223813 0.023474079
000060 36 f6 f2 bc b6 38 81 3b ff 24 1a bd fb 64 0d bd
       -0.029658418 0.003943528 -0.03763294 -0.03452013
000070 20 28 c3 bc 70 71 69 3c 2e 8d b2 bc 2b 5b d7 ba
       -0.023822844 0.014248237 -0.021795835 -0.0016430368
000080 b6 85 be bb c3 2d d0 3c e6 c7 30 3c 30 66 15 bc
       -0.0058142794 0.025412446 0.010789847 -0.009118602
000090 f8 9d 05 3d 03 0c 2a 3d d0 f6 3b bc 96 14 af bc
       0.032621354 0.04151536 -0.011472419 -0.02137212
0000a0 c9 ca b8 bc f6 5c d2 bc 93 5d 07 bb 6b 39 0d 3c
       -0.022557633 -0.025679093 -0.002065514 0.008619647
0000b0 b6 a5 c2 bb 8b d9 0b bd b3 2f e3 bc 8b 3a 08 3c
       -0.0059401644 -0.034143012 -0.027732706 0.008314739
0000c0 d1 81 1a 3d 1a 53 0b bd 80 18 cc 3c 0e 4a 9c bc
       0.03772146 -0.0340148 0.024914026 -0.01907828
0000d0 70 65 10 bc eb a7 3f 3c 6a 11 0d bd 2e 48 ae 3c
       -0.008813247 0.01169775 -0.034440435 0.021274652
0000e0 16 4f 70 bb 70 cd 8c bc 53 a5 09 3d f8 40 b6 bc
       -0.0036668233 -0.017187804 0.03360493 -0.022247776
0000f0 6a 5e 18 3d f6 6b ac bc ae 41 86 bc 6c 88 10 3d
       0.037199415 -0.021047574 -0.01638874 0.035286352
000100 1b 95 eb bc 38 9d 97 bc 88 c0 ce 3c e5 94 53 bb
       -0.028757622 -0.018507585 0.02523829 -0.0032284793
000110 6b ca c9 bc 68 70 b0 bc 60 69 50 bc fb d7 0e 3c
       -0.024632653 -0.021537974 -0.012720436 0.008718486
000120 ce fe 98 3c c3 2f da bc 46 5d 8c bc 63 fb a5 bc
       0.018676188 -0.026634103 -0.01713432 -0.020261472
000130 90 86 e0 3c 02 d8 24 3d 90 47 6e bc b2 66 0a 3d
       0.027407914 0.040245064 -0.014543429 0.033789344
000140 4c c7 02 3d f0 0c fe bc bb 66 82 3c 44 32 11 3d
       0.031928346 -0.031012028 0.015918126 0.035448328
000150 b3 57 9c 3c 56 41 b7 bb 9b 86 58 bc 70 d4 d6 bc
       0.019084787 -0.0055925054 -0.013215686 -0.026224345
000160 2e 48 14 bd ab 32 6c bc 34 24 08 3d 38 1f 8c bc
       -0.03620165 -0.014416377 0.03323765 -0.01710473
000170 90 b9 0c 3c 86 b2 7e 3c 63 95 e7 3c 56 9c 89 3a
       0.008589163 0.015545493 0.028269475 0.0010498862
000180 80 d3 0b bd f6 b3 86 bb 63 80 84 3c c3 ee b1 bc
       -0.03413725 -0.0041108085 0.0161745 -0.021720296
000190 13 a1 e0 bc 78 d1 e7 bc cb a1 55 bc ec a8 09 3d
       -0.027420556 -0.028298125 -0.013039063 0.033608362
0001a0 b0 86 9a 3c c6 da 23 3c b6 25 12 bd 56 e1 53 3c
       0.018863052 0.01000089 -0.035680495 0.012932142
0001b0 20 95 a8 3b c6 98 c9 bc 00 e0 7d 3a b0 fe c2 bc
       0.00514473 -0.02460898 0.00096845627 -0.023803085
0001c0 3f 86 b2 3c 30 cc 5b bc c0 fc 0a bd ca 1e b6 3c
       0.02179253 -0.013415381 -0.033932447 0.022231478
0001d0 9f bd 04 3d ef a8 08 3d c8 af dd bc d3 3f ab bc
       0.0324074 0.033364233 -0.027061358 -0.020904457
0001e0 96 26 48 3c c4 64 11 bd 8b 01 7a 3c b6 d7 b6 bc
       0.012216231 -0.03549649 0.015259157 -0.022319656
0001f0 16 5e b2 3b a0 f4 1e 3d 8e 2e c5 3c a0 67 05 3c
       0.005443345 0.03880751 0.02407005 0.008142382
000200 8a c7 09 bd 77 a1 6a 3b 30 8d 01 3d 0b 55 a0 bb
       -0.03363756 0.0035801807 0.031628788 -0.0048929504
000210 d9 7f b0 bc 92 25 25 bc 73 24 fa bc 80 9c 01 3d
       -0.021545338 -0.010079758 -0.030534958 0.03164339
000220 4e a6 84 3c b3 48 a5 bc 87 ed 0c 3d 48 31 eb 3c
       0.016192582 -0.020176267 0.03440621 0.028710023
000230 66 84 e0 bc 44 50 1d bd 13 af 1c bd 56 7c 1f 3a
       -0.027406882 -0.038406625 -0.0382529 0.0006083896
000240 b6 ef e8 bb de 0c 10 3d 38 f7 90 bc c0 dd 91 bc
       -0.007108654 0.03516852 -0.017696008 -0.017805934
000250 5f 74 dd bc 86 89 78 3c 53 a8 dc bb b6 0e 23 bc
       -0.02703303 0.015169507 -0.006733933 -0.009952238
000260 b8 32 db bc c6 93 2b bc de c1 00 bd 63 65 e9 3c
       -0.026757583 -0.010472244 -0.031434886 0.028490728
000270 21 d9 f2 bc 05 5d 9b bc e6 bb 7e 3c 1a c8 ab 3c
       -0.02964455 -0.018965254 0.015547728 0.02096944
000280 19 c8 56 3c 76 f9 85 bc 20 66 56 bc 12 a3 26 bd
       0.01310923 -0.016354304 -0.013085872 -0.04068286
000290 ea e9 1a 3d 30 ff 21 bd e2 7b 01 3d 0a 9f 0d 3d
       0.037820734 -0.039550006 0.031612284 0.0345755
0002a0 36 a0 13 bc 5e d2 88 bc 10 aa 16 bc 6e 17 bd bc
       -0.009010365 -0.016701873 -0.0091958195 -0.023082461
0002b0 b0 dc e9 3c 17 8a 20 3d 16 c5 c5 3b fe 64 9b bc
       0.028547615 0.039194193 0.0060354574 -0.018969055
0002c0 0b 1b b7 3b 00 fc d1 39 a0 ed 62 3c e8 d6 d8 3c
       0.0055879406 0.0004005134 0.0138505995 0.026469663
0002d0 58 3c 20 bd e0 f1 57 bc 96 75 46 bc c6 bc 0a bd
       -0.03912005 -0.013180226 -0.012112996 -0.033871435
0002e0 ab 46 11 bb 93 80 fb 3c 3b c9 44 bc c3 97 a3 3c
       -0.0022167366 0.030700957 -0.012010868 0.019969827
0002f0 42 be 15 bd ee ed 20 3d b0 7f 1c 3d bb 7c 3c 3c
       -0.036558397 0.039289407 0.03820771 0.011504347
000300 2b 0a 0c bb d6 3c 36 3b 23 82 cc 3c 60 b7 50 3c
       -0.0021368365 0.0027807257 0.024964398 0.0127390325
000310 90 e5 c9 3c 90 5f 01 3d 16 5c 26 bc 43 f2 1b 3d
       0.024645597 0.031585276 -0.010153791 0.038072836
000320 c6 bb 3e 3c b2 e8 fa bc 33 49 1a 3d 96 35 7b bb
       0.011641448 -0.030628536 0.037667464 -0.00383315
000330 0e c1 9b bc 03 2d 8e 3c 4a c6 0b 3d c6 21 e1 bc
       -0.019012954 0.017355448 0.03412465 -0.027481925
000340 56 d3 8c 3a cb a2 43 bc 70 5f 10 bd 1d f5 a3 bc
       0.0010744135 -0.011940668 -0.035247266 -0.02001434
000350 56 b0 3f 3a b2 47 28 bd 8a f1 e6 3c 00 6b 22 bc
       0.0007312348 -0.041084 0.028191347 -0.009913206
000360 6b 34 29 bb 03 99 e5 bc ae 85 c9 3c 7e ed 82 bb
       -0.0025818597 -0.028027063 0.024599876 -0.0039955964
000370 c8 66 bd ba c0 55 76 bc 77 77 1d 3c c7 3a fb bc
       -0.0014450187 -0.015035093 0.009611002 -0.030667676
000380 1b c6 0d bc bb 20 c4 3c 4b e9 04 bd f0 77 bf bc
       -0.008653189 0.023941388 -0.032449048 -0.02337262
000390 00 06 3f 3b fc 59 7b bc fb a5 dd 3c 6e 21 c4 3c
       0.0029147863 -0.015341278 0.027056685 0.023941722
0003a0 4e 26 97 bc d4 b3 08 bd 0e 34 93 3c db da e0 bc
       -0.018450882 -0.033374622 0.017969158 -0.027448108
0003b0 53 a9 ae 3c b3 4c 88 3c 96 64 c5 bb 9b 80 c9 3c
       0.021320974 0.016638136 -0.0060239537 0.024597457
0003c0 9b ef 2c 3c 23 95 e6 bc 70 f4 e2 bc 6b 61 82 bb
       0.010555173 -0.028147286 -0.027704448 -0.0039788983
0003d0 16 92 cf bc eb 36 94 3b 33 55 b3 3c 48 ff bd bc
       -0.025338214 0.0045231483 0.021891212 -0.023193017
0003e0 50 59 86 bc 57 dd 11 bc ce af e7 3c f6 01 a1 bc
       -0.01640001 -0.008902869 0.028282072 -0.019654255
0003f0 80 c0 57 bb 5e 27 93 bc 0e ce e4 3c 1b 00 72 3c
       -0.0032921135 -0.017963108 0.027930286 0.014770533

model.encoder.blocks.2.layer.bias f4 [2]
000000 ee 5e d4 bc 8c 44 ae ba
       -0.025924172 -0.0013295575

model.encoder.blocks.3.layer.weight f4 [2, 2, 3, 3]
000000 8f cc 18 3c e5 11 1a be 31 ed cf bd bc 49 13 be
       0.009326114 -0.15045889 -0.101526625 -0.14383596
000010 8d 28 a6 bd c3 87 51 3e 83 5a 6e bd 74 4b 70 3e
       -0.08113203 0.20461945 -0.058191787 0.23466283
000020 b5 f0 b3 ba 83 fe 44 3e 6b 50 06 3d 62 d5 68 3e
       -0.0013728352 0.19237714 0.032791536 0.22737649
000030 d0 03 84 bc 93 88 ec 3c af 94 ae bd 8c 79 f0 bd
       -0.0161151 0.028873717 -0.08524453 -0.11741933
000040 4c 5e 02 be bf 22 42 3e 25 f3 8c 3d 45 78 1b bd
       -0.12731284 0.18958567 0.06882314 -0.037956495
000050 18 57 d9 bd 3d c1 77 bd 10 74 82 3d 9c 56 4c 3d
       -0.10612315 -0.06048702 0.063697934 0.049887285
000060 cd 15 98 3d f2 04 dc bc 7a 9f 69 be cb 51 43 3e
       0.07426033 -0.026857827 -0.22814742 0.1907417
000070 31 71 d2 3d d7 df a7 3d cd 9a 2f bb cc c9 05 be
       0.10275496 0.08196991 -0.002679515 -0.1306526
000080 70 fb ac bd bd aa 10 3e 03 60 49 be d0 67 49 bd
       -0.084463954 0.14127631 -0.19665532 -0.04917127

model.encoder.blocks.3.layer.bias f4 [2]
000000 25 25 76 3d 3d 8e e3 bd
       0.060094018 -0.11111114

model.decoder.blocks.0.layer.weight f4 [2, 2, 3, 3]
000000 45 e9 88 bd 0a 4d 88 3d f0 3c a9 bd e0 c0 14 be
       -0.06685118 0.06655319 -0.08263576 -0.14526701
000010 75 64 a3 3d a1 64 0b be 98 cf 13 3d 58 b3 81 3d
       0.07978145 -0.13612606 0.03608665 0.06333035
000020 c1 b5 7d bc 6b f7 af 3a f5 38 ef bd 56 c9 66 be
       -0.015485228 0.0013425177 -0.116807856 -0.22537741
000030 8b 7f b7 3d 66 bb 68 3d 68 eb 9a bc 68 38 a7 bd
       0.08959874 0.056819342 -0.018911079 -0.081650555
000040 18 0b a5 3d 80 0b 6d bc a3 93 46 3e af b8 47 3d
       0.080587566 -0.014468074 0.19392256 0.048760112
000050 3b 4f 68 be eb a8 13 be 86 e0 f5 bb d8 b8 0c be
       -0.22686474 -0.14419906 -0.007503572 -0.13742387
000060 cf 65 3c 3e f3 cb 66 be f0 7e 2c 3e 3d bc 04 be
       0.18398212 -0.22538738 0.16845298 -0.12962432
000070 39 82 65 be e1 87 2d be 57 df 09 be 45 2c 33 be
       -0.22412957 -0.16946365 -0.13464104 -0.17497356
000080 61 1e 58 be 1d e9 52 3d 14 4c 9b 3c 55 ec 47 bd
       -0.21105339 0.051491845 0.018957175 -0.04880937

model.decoder.blocks.0.layer.bias f4 [2]
000000 c7 25 aa 3b cb c9 4a be
       0.0051924917 -0.1980354

model.decoder.blocks.0.upsample.weight f4 [2, 2, 2, 2]
000000 da 6e 26 be c0 e2 1a be 38 19 9e bc 92 99 46 be
       -0.16253224 -0.15125561 -0.019299135 -0.1939452
000010 cc 79 9c be af d5 1d be 9d 7b 07 be ef 9b 7c bb
       -0.30561674 -0.15413545 -0.13230748 -0.0038545092
000020 49 fd 6a 3c 45 36 b5 bc 26 59 48 bd 55 67 b2 3e
       0.014342614 -0.022120604 -0.048913144 0.3484446
000030 9e 52 96 be 56 cd 6c be 69 45 0a 3d 00 47 eb 3c
       -0.29359907 -0.23125204 0.0337576 0.028720379

model.decoder.blocks.0.upsample.bias f4 [2]
000000 15 63 14 be 2f 5c 71 3e
       -0.14490922 0.23570322

model.decoder.blocks.1.layer.weight f4 [64, 2, 3, 3]
000000 ef 46 bc 3d e1 bb 86 3e 62 f0 29 be 1d d6 69 3e
       0.09193217 0.26315215 -0.16595605 0.22835584
000010 67 cb 81 3d 42 6b e1 3d 75 16 cb 3d d5 79 27 bd
       0.06337624 0.11006786 0.09916393 -0.040887672
000020 f5 1b 7f bd 8a 5a 04 bd 48 5a 4f 3c ec 84 78 be
       -0.06228252 -0.032312907 0.012655802 -0.24269456
000030 13 bd d4 bd 61 47 57 3d 0e 9b 97 3d 49 b5 50 3d
       -0.103876255 0.052558307 0.07402621 0.050954137
000040 d5 93 4b 3e 42 f3 09 3e ac 51 b3 3d 1a f0 33 be
       0.19880612 0.13471702 0.08755812 -0.1757206
000050 3a 13 26 be 9b 7a 1c be c2 6e 46 3e e6 45 8b 3d
       -0.16218272 -0.15281145 0.19378188 0.068004414
000060 60 97 f7 bd f9 8e fb 3d 3a 58 33 bd 55 64 7c be
       -0.12089419 0.12283129 -0.04378531 -0.24647649
000070 61 4f 15 3d 4e 59 af 3d 13 75 c5 3d fb 4e e0 bd
       0.036452655 0.085619554 0.09641471 -0.10952564
000080 50 9c c1 3d da f2 f1 3d 0b fa 43 3e d0 54 3b 3e
       0.09453642 0.118138984 0.19138353 0.18294072
000090 b9 0e 16 3e 1d 07 6b be a8 ea 57 3d 44 86 6d 3d
       0.14654054 -0.22951932 0.05271402 0.057989374
0000a0 0f 70 35 3e 8b 56 14 be 65 5c 49 bd 33 90 0e 3e
       0.17718528 -0.14486139 -0.04916038 0.13922195
0000b0 fe 85 e3 bd d7 5c 46 be e8 0a 62 3e 88 f8 14 be
       -0.11109541 -0.19371353 0.22074473 -0.14547932
0000c0 7d aa 91 3d 33 12 00 3e 26 50 21 3e f1 26 68 3e
       0.07112596 0.12506942 0.1575323 0.22671105
0000d0 33 f9 0e be a7 ac 05 3d 67 45 9b 3d 0a 3d aa 3d
       -0.1396225 0.032635357 0.07581597 0.083124235
0000e0 ea f6 a1 bd 63 f4 d4 bd e5 d4 34 be ad 1d 51 3e
       -0.07908423 -0.103981756 -0.17659338 0.20421477
0000f0 aa 5f 30 3e 79 e6 3c 3e d0 56 a1 3c 92 a0 14 3e
       0.17223993 0.18447293 0.019694716 0.14514378
000100 86 ef 18 3e 9d 20 65 be fb de 1f 3e e5 9f 27 be
       0.14935121 -0.22375722 0.15612404 -0.16369589
000110 8a 49 0b 3e 0c d3 15 3e cf 04 b8 3d 86 a3 68 be
       0.13602272 0.14631289 0.08985292 -0.22718629
000120 04 b0 73 be 4a 8b aa 3d 92 c5 05 be cc f2 b4 bc
       -0.23797613 0.083273485 -0.13063648 -0.02208843
000130 c2 b2 c3 bd 0c e4 08 3e 64 97 71 3e 1b db 95 3d
       -0.0955558 0.13368243 0.23592907 0.07317182
000140 d8 3b 91 3e 81 33 3d 3d ac 3b 84 3e e9 db 11 3e
       0.2836597 0.046191696 0.25826776 0.14244045
000150 87 6f 18 be a8 42 36 3d f2 6d 15 be 2c 4e 7b be
       -0.14886294 0.044497162 -0.14592722 -0.24541539
000160 f5 cd 00 be ab 76 34 be ab a7 d3 3d e4 02 1d be
       -0.12578566 -0.17623393 0.103347145 -0.15333134
000170 e0 2c 5d 3e 22 63 cd 3d b6 a8 01 3e e2 a8 2f 3e
       0.2159915 0.10028674 0.12662014 0.17154267
000180 a1 fa 05 be a1 51 2c be e4 00 4c 3e 68 01 69 3e
       -0.13083889 -0.16828014 0.19922215 0.22754443
000190 62 bd 39 3e 39 f6 b6 3d c6 a8 4b be a8 09 ee bd
       0.1813865 0.08933682 -0.198886 -0.116229355
0001a0 ce 27 fb 39 1c be 27 be 90 27 5b be a5 0f 26 3e
       0.00047904107 -0.16381115 -0.2140181 0.16216905
0001b0 86 e3 2d bd bc 47 1d be e7 c0 10 be be 49 58 bd
       -0.04245331 -0.15359396 -0.14136086 -0.0528047
0001c0 f1 bc 1e be 4c ae 5e 3e 02 9d 01 bc 62 bd fc 3c
       -0.15501763 0.21746176 -0.007910969 0.030852024
0001d0 88 21 3c 3e a4 81 40 3e 61 d0 95 bd 82 12 8d bd
       0.18372166 0.18799454 -0.07315136 -0.06888296
0001e0 49 2a 1d 3d 1b 9e 96 bd d9 15 40 3e 2e b4 6c be
       0.038370404 -0.07354375 0.18758334 -0.23115608
0001f0 1f af 39 be 02 32 3b 3d 4e d8 fb 3d 38 ec 3a 3e
       -0.1813321 0.045701988 0.12297116 0.18254173
000200 b3 d5 1d be 68 2b 3b 3e 75 73 2e 3e 30 b0 b7 3d
       -0.15413551 0.18278277 0.17036231 0.08969152
000210 2d da 52 3e 29 a4 65 3e a9 8a 64 3e 13 ad 0e 3e
       0.2059104 0.22425903 0.2231852 0.1393321
000220 db 7f 0b 3e 30 fe 01 bd 04 fc 27 3e 31 21 80 3e
       0.13622992 -0.031736553 0.1640473 0.25025323
000230 d2 05 ae 3d ae fc 83 ba 33 a6 72 be 76 68 de 3b
       0.08497204 -0.0010069811 -0.23696212 0.006787355
000240 e4 40 5f 3e ca 1d 37 be ee cc 65 bd f3 c7 19 bd
       0.21802098 -0.17882457 -0.05610364 -0.037544202
000250 c2 89 fe 3d 7d 73 63 3e 20 a4 42 be 58 5a 25 3d
       0.12428619 0.22212024 -0.19007921 0.04036936
000260 9c be 5d be 30 39 5f be 17 4f 90 3d 68 f8 6d be
       -0.21654743 -0.21799159 0.07046335 -0.2323929
000270 8b 45 75 be b9 74 3a 3e 88 0d 7c be 64 16 64 3e
       -0.2395231 0.18208589 -0.24614537 0.22274166
000280 03 8a 1b bd 29 80 9c 3d a0 ad 1c 3e b1 22 2d be
       -0.037973415 0.07641632 0.15300608 -0.16907765
000290 1c fa 85 bd f8 e1 2c bd 4e d6 bf bc 6f 10 48 3e
       -0.06541845 -0.042207688 -0.023417618 0.19537519
0002a0 41 6d 8d bb 33 d7 25 3e c1 2b 60 be 5f 83 62 3e
       -0.0043160026 0.16195373 -0.21891691 0.22120427
0002b0 64 85 5f 3e 70 60 25 be a1 ab 97 bc 87 99 88 3d
       0.21828228 -0.16150069 -0.018514456 0.06669908
0002c0 95 06 11 bd 66 a6 b0 3c 2a b7 09 be ed b7 13 be
       -0.035406668 0.02156372 -0.13448778 -0.14425631
0002d0 af f1 10 3e 66 a2 63 3e 74 4f 16 be 3d 15 22 3e
       0.14154695 0.22229919 -0.14678746 0.15828414
0002e0 14 ad 3e bd 79 6e ce bd 20 ca 3f be ba f4 91 3b
       -0.04655178 -0.10079665 -0.18729448 0.0044542225
0002f0 52 a5 f7 3d ef 6c 14 3e 6d d0 92 3d d6 5c 4d 3e
       0.12092079 0.1449468 0.0716866 0.20054945
000300 0d 28 f6 bd fb e7 63 3e 9a 6f 80 bd 53 8b 75 be
       -0.12019358 0.22256462 -0.06271286 -0.23978929
000310 c3 6b 0c 3e 2d e0 1a 3e ad 90 6f be 2c 40 d1 3d
       0.13712983 0.15124579 -0.23395033 0.10217318
000320 4c 28 3c 3e f6 d1 24 3e 0b ca c4 bd 12 df 19 3e
       0.18374747 0.16095719 -0.09608849 0.15026501
000330 38 d6 41 3e e6 37 0e be 12 d5 ba bd 71 ae 11 3e
       0.18929374 -0.13888511 -0.09122671 0.142267
000340 48 ef ae 3d 57 86 86 bd ac ed b9 bd d0 b3 9a bc
       0.08541733 -0.06568592 -0.090785354 -0.01888457
000350 68 04 1e be 5a ee 5d 3d 5c 31 47 bd 06 30 98 3d
       -0.15431368 0.054182388 -0.048631057 0.07431035
000360 3a ea 83 bd 64 a6 5f be 94 d9 b3 bd 22 23 f2 bd
       -0.064411595 -0.21840817 -0.08781734 -0.11823107
000370 45 20 62 3e 11 b9 25 3e dd 3e 3e 3e 6e 06 b8 3d
       0.22082622 0.16183878 0.18578668 0.08985601
000380 45 a6 22 be e7 8a ca 3c e6 a8 3d bd 23 92 8b 3d
       -0.1588374 0.024724437 -0.046303652 0.06814983
000390 f5 89 c8 3d 17 07 f6 bd ea 2a 43 3e 4f af 5e 3e
       0.09791938 -0.12013071 0.19059339 0.21746562
0003a0 8c 2b 19 bd 9d e3 91 3d cb 8a 9d bd c4 f3 30 be
       -0.037395045 0.07123492 -0.07692488 -0.17280489
0003b0 61 4f 2d 3d c2 56 56 3e 70 45 5d bd 28 e0 3b 3e
       0.04231203 0.20931533 -0.0540213 0.18347228
0003c0 c0 5d 2e 3e af d6 0e 3c bc 91 e2 bd b4 00 b0 3d
       0.1702795 0.008718177 -0.11062953 0.08593884
0003d0 4d f1 d9 3c 27 98 4e 3e dc f8 88 bd 57 f9 07 3e
       0.026604319 0.20175229 -0.06688091 0.1327871
0003e0 82 a6 82 be 67 67 7a be 6a f5 94 bd 0c 4f c5 3d
       -0.2551766 -0.24453507 -0.072733715 0.096342176
0003f0 d4 0e 70 bd 8e c9 1d be 12 7d 51 be 0a 81 b1 3c
       -0.05860789 -0.15408918 -0.20457867 0.021667976

model.decoder.blocks.1.layer.bias f4 [64]
000000 63 c0 4a 3e 59 31 9b 3d 2e 2d 9d bd c9 32 d3 bd
       0.19799952 0.07577772 -0.07674633 -0.10312421
000010 a6 0c 38 3d 71 11 ce bb 7c 8a 37 3c 1c 3a 5e 3d
       0.044933937 -0.0062887003 0.011202451 0.054254636
000020 bb 8f 74 3d 23 e4 1d bd 5b 2f dd bd 3f ed 61 be
       0.059707385 -0.038547646 -0.10800048 -0.22063158
000030 88 f8 34 be 43 6a 16 3d e2 fa 58 be ce d4 71 3d
       -0.17672932 0.036722433 -0.21189454 0.059040837
000040 38 3f 41 3e 12 70 f9 bd 7d bb 62 3d 6b 21 55 3e
       0.18871772 -0.12179579 0.055354584 0.20813529
000050 3f ff 1d 3e 44 01 87 bd cc 4e bb 3d 04 e0 3b 3e
       0.154294 -0.06592038 0.09145889 0.18347174
000060 ee f4 2f 3e 97 61 05 be 6f 40 62 be 3e 82 10 3e
       0.17183277 -0.13025509 -0.22094892 0.14112183
000070 56 8e 3c 3e 53 db e2 bc 1b cd e4 bc bb a8 10 be
       0.18413672 -0.027692473 -0.027929833 -0.14126866
000080 b3 9d 46 be 4a fd b4 3d f2 03 2a be 4a 43 01 bd
       -0.19396095 0.088373736 -0.16603068 -0.031558312
000090 f1 21 1a bd 87 b1 3b be f2 90 fb 3d 7a 3b a2 bd
       -0.037630025 -0.1832944 0.122835055 -0.079215005
0000a0 ae 9b e7 bc 88 5a da bd a6 39 33 be 49 a3 7b bd
       -0.028272476 -0.10661799 -0.1750246 -0.061435018
0000b0 9c f9 b9 3d f1 79 47 be 31 37 0f 3d 40 83 21 3e
       0.09080812 -0.1948011 0.034964744 0.15772724
0000c0 9a 9a 08 3e 64 c0 b5 bd e8 69 87 3c de bd ea 3d
       0.13340226 -0.08874586 0.016529992 0.114619955
0000d0 3b ec 31 be f1 22 50 3e 83 55 a8 3d eb 4c 3e bd
       -0.17375271 0.20325829 0.08219435 -0.046460073
0000e0 9f 04 88 3a ed fb 2c 3d 0d 3f 57 be 00 f0 17 3e
       0.0010377354 0.042232443 -0.21020146 0.14837646
0000f0 c8 e3 1a 3e 2b c4 00 be 46 e8 6a bd eb 2b d1 bc
       0.15125954 -0.12574832 -0.05735042 -0.025533637

model.decoder.blocks.1.upsample.weight f4 [64, 64, 2, 2]
000000 06 f7 80 3c 5c 7f 8a 3d 4b 29 12 3b 9c d5 a7 bb
       0.01574279 0.06762573 0.0022302445 -0.0051219
000010 b0 c3 cc 3b c8 0c 8d 3c 86 90 b5 3c c2 de 44 bc
       0.0062489137 0.017218009 0.02216364 -0.012016
000020 76 ad 23 3b cf 79 96 3b 63 12 9e bc 45 4d 27 3c
       0.0024975217 0.0045921574 -0.019295877 0.010211294
000030 c4 b0 39 3d f9 64 1b bd 9e 7f 96 bd 84 67 28 bd
       0.045334592 -0.037938092 -0.0734856 -0.041114345
000040 18 ff cc 3c 8f 09 e4 bb 34 dc 0d bd 5b ad 55 bd
       0.025023982 -0.0069591473 -0.03463383 -0.052167278
000050 05 f8 61 bc 56 80 b7 bb fb ab 42 bb a1 ce 60 bd
       -0.013792043 -0.0056000156 -0.002970456 -0.054884557
000060 48 ac f7 bc ee fb 9f bc f4 bc da 3c b7 f6 8c 3c
       -0.030233517 -0.01952931 0.026701428 0.017207487
000070 13 9f ce bc 30 86 f3 bc 15 0c 3c bd b4 2c 68 bd
       -0.025222337 -0.029727072 -0.04590996 -0.056683257
000080 84 77 10 3c 28 2f 75 bd 38 07 a1 3b 54 ad cc 3c
       0.008817557 -0.059859425 0.0049141906 0.024984993
000090 ed 5b ed 3c 7e 4e 84 bc 88 6d 33 bc 58 e2 64 3b
       0.028974498 -0.01615071 -0.010951407 0.003492495
0000a0 e0 08 2a 3c 1a 98 e7 bc ac bb ae 3c 4f 0b 58 3c
       0.0103780925 -0.02827077 0.021329723 0.01318629
0000b0 08 93 a3 bc 17 67 4f bc 9e ea 6b 3c 0a c8 25 3d
       -0.01996757 -0.012658856 0.014399199 0.040473975
0000c0 c2 7b 9e bb d8 3b 17 3d 1c fc 84 bd 4e 58 4e 3d
       -0.0048365304 0.036922306 -0.064933985 0.050377183
0000d0 90 9a 23 3d a7 ad 04 bd 61 57 91 3c 8d 06 0a 3d
       0.039942324 -0.03239217 0.01774186 0.033697654
0000e0 3c ca 20 bd 7f 5e 22 3c 59 69 a7 bc 5a a8 73 3d
       -0.039255366 0.009910225 -0.020435976 0.059486724
0000f0 f7 7b 89 3c 4a b0 1e bd 28 67 17 bb ec 4c 4b 3d
       0.016782744 -0.03874234 -0.0023102257 0.049633905
000100 7e 6e f6 bc 33 41 13 3c 8c f7 50 3d 78 8f f7 3c
       -0.030081984 0.008987713 0.05101733 0.030219778
000110 d4 69 69 3d 2d 1b 50 bd ee 30 d4 bc 19 32 00 3d
       0.05698569 -0.050807167 -0.025902238 0.031297777
000120 32 55 26 bd 6e e8 6e 3d 2b 47 7f 3d 4d 2d fe bc
       -0.040608592 0.05832713 0.06232373 -0.03102746
000130 f0 7f 53 b8 13 9e 1f 3e be 46 05 bd e1 87 41 bd
       -5.042547e-05 0.15587644 -0.032538168 -0.047248725
000140 81 5f f3 bb e9 df e4 3c a6 c7 45 3d 92 04 4d bd
       -0.0074271564 0.0279388 0.048286103 -0.050053187
000150 b6 f7 13 3d 69 30 f1 3b c8 e0 44 3d 35 6f 58 bd
       0.036124907 0.0073605073 0.04806593 -0.05284043
000160 2e 47 35 bd 73 8f ef bc 95 b3 59 bc 48 c9 54 3d
       -0.044257335 -0.029243207 -0.013287445 0.05194977
000170 c0 29 55 3d 85 73 f3 bb 62 a3 6c bc ac 59 14 3d
       0.05204177 -0.0074295425 -0.01444325 0.03621833
000180 5b 51 a0 3c 43 d8 1c bd 0a ff cd ba 81 a0 29 3d
       0.019570043 -0.03829218 -0.0015716266 0.041412834
000190 fa e5 8b 3d 66 be 89 3c a1 b6 ad bc 54 b6 c7 3b
       0.06830974 0.016814422 -0.021205248 0.0060947333
0001a0 03 f2 14 3d 72 96 82 bd 8f 98 8c bd bb 00 19 3d
       0.036363613 -0.063763514 -0.06865036 0.037354212
0001b0 33 8a 2d 3d 3a 8d 70 3d e2 9b 0f 3c a8 fc 58 3d
       0.042368125 0.058728434 0.008765193 0.052975327
0001c0 56 0d 5e bc a7 59 ba bc 93 37 16 bd f4 05 b6 3c
       -0.013552984 -0.022747828 -0.036674093 0.022219636
0001d0 b4 f4 7f 3d 45 f6 3f 3d 50 d5 50 3b cc 9c e0 bb
       0.062489226 0.04686572 0.0031865425 -0.006854629
0001e0 f4 ee 0b bc 94 c0 8a 3c f5 9e 85 3c 20 e9 34 bd
       -0.008540858 0.016937532 0.016311148 -0.044167638
0001f0 6c 2a 43 bd d8 04 a0 bc 25 de 24 3d bc 76 1b bd
       -0.04764788 -0.01953356 0.040250916 -0.03795503
000200 cf 54 3d bc 87 1a 8e bc 16 c2 a9 bc 47 3d 50 bd
       -0.0115558645 -0.017346634 -0.02072243 -0.05083969
000210 42 4a 49 bd 9d c7 4b bd 03 ca 34 bd d1 20 9b bc
       -0.049143083 -0.049750913 -0.044137966 -0.018936547
000220 fc b0 65 bd 1e f0 64 bd 5a 26 c4 3c 3a f5 3b 3b
       -0.05607699 -0.055893056 0.023944069 0.0028680102
000230 f2 64 56 3d c0 2d 36 3c 7d 4c 8b 3c 77 b5 18 3d
       0.052342363 0.011119306 0.017004246 0.037282433
000240 42 cd 23 3d f9 c7 d7 bc e7 b3 1c 3d 62 d2 84 3b
       0.03999067 -0.026340472 0.038257506 0.0040534
000250 02 2c f2 bb f1 ab e1 3c 4a a5 05 3d f2 d9 85 3d
       -0.0073905 0.027547808 0.032628335 0.065357104
000260 f6 3b 39 b9 0e b3 3b 3a 62 44 7b bd 4f 89 87 bd
       -0.00017665312 0.0007160165 -0.06134451 -0.066179864
000270 ac 13 51 3d 9f 8b eb bc c2 1c 01 3d 51 87 27 3d
       0.05104415 -0.0287531 0.031521566 0.040900532
000280 e9 56 81 ba 6f 65 cc bc 81 3a 91 bd 62 be 39 3d
       -0.000986782 -0.024950711 -0.07091237 0.04534758
000290 c6 a8 8e bb ac 30 4d 3d 33 e1 31 3d b6 ca d7 3c
       -0.0043536155 0.050095245 0.043427657 0.026341777
0002a0 0e 51 37 bd 5f 51 25 3d 5b 80 5b bd 24 e9 aa 3b
       -0.044755034 0.040360805 -0.053589206 0.005215781
0002b0 ad 1f 55 bd 25 55 eb 3b f3 67 7d bd 2d 75 82 bd
       -0.05203216 0.007181781 -0.06186671 -0.06370006
0002c0 19 8a 41 bd 2d 70 40 bd bd 7c 58 3d b1 fa da 3c
       -0.04725084 -0.04698198 0.052853335 0.026730867
0002d0 4d 06 1f bd 31 67 ab 3d f8 3a 92 3c 4b a1 57 3d
       -0.03882437 0.083692916 0.017850384 0.052644055
0002e0 de 41 d0 3c d4 d9 94 bb 5a 4d f7 3c 08 79 85 3d
       0.025422033 -0.0045425687 0.030188251 0.065172255
0002f0 ff be e5 bc eb d9 53 bd 00 7f bb 3c 5a 2f 14 3d
       -0.028045176 -0.051721495 0.022887707 0.03617797
000300 af 31 9e 3d ec 07 f9 3c b0 68 0e 3d 3d 90 a6 3b
       0.0772432 0.030399285 0.034767807 0.0050831125
000310 8a 38 d8 bc 04 b9 f1 bc 9a ca 4c 3c 4d f4 cf 3c
       -0.026394147 -0.029507168 0.012499476 0.025385046
000320 a3 56 12 3c 7c 7e a6 3c a2 2b 41 bd 65 e8 49 bd
       0.008931789 0.020323984 -0.047160752 -0.049293894
000330 d5 1d 7b 3d 8d 6c f4 3c b0 1d 5f 3d 45 52 0d 3c
       0.061307747 0.029836917 0.05447167 0.008625572
000340 5b c7 59 bd 7b 08 85 3d 58 03 e0 bc e8 90 6b 3c
       -0.053168636 0.06495758 -0.027345344 0.01437781
000350 eb ac 45 3d e1 04 7c bd 07 9f 65 3d 6a 86 77 bd
       0.04826061 -0.06152809 0.056059863 -0.06043092
000360 96 69 d4 bc f9 2d 08 bd fc d4 39 bd c5 8b a0 bc
       -0.025929254 -0.033246968 -0.045369133 -0.019597897
000370 4d 5d 43 3d ff 68 83 bc a2 58 20 3c 3d 40 50 3c
       0.0476964 -0.016041277 0.009786757 0.012710628
000380 3a ff 08 3c 5f fe 8c ba be 7c 2a 3d 90 65 18 3c
       0.008361632 -0.0010756961 0.04162287 0.009301558
000390 79 a4 6b 3d 19 7b a3 bb cc c8 3f 3d 48 86 cc bb
       0.0575299 -0.0049890396 0.046822354 -0.0062415935
0003a0 43 9b 58 bc ae 54 98 bb b8 a6 1c bd b6 8e 95 3d
       -0.013220611 -0.0046487665 -0.038244933 0.073026106
0003b0 8f ba 09 3d c0 4a e5 3c 59 8c dd 3b 7c ba 1b 3d
       0.03362518 0.027989745 0.0067611155 0.038019642
0003c0 2c be 82 bc 03 8d 8d 3d bf 2f 02 bd ce 4e d2 3d
       -0.015959822 0.069116615 -0.031783815 0.10268937
0003d0 c4 fe cb bb 0c df bd 3c 5d 81 33 3d 37 80 35 3d
       -0.006225439 0.023177646 0.043824542 0.04431173
0003e0 f2 5d 22 3d f5 d5 28 bd b8 d3 17 3d 7d 46 57 bd
       0.039640374 -0.04121967 0.037067145 -0.052557457
0003f0 60 9c 89 3d 2d da 5d bd a9 59 1f 3d 4d f1 24 bd
       0.06719279 -0.054163147 0.038903866 -0.040269185

model.decoder.blocks.1.upsample.bias f4 [64]
000000 7e a7 ab bc 6b f2 ca bc 12 1a 43 bd 05 df e0 3c
       -0.02095389 -0.024773797 -0.047632284 0.027450094
000010 4e e7 bb bb 46 e9 d7 bc 32 3c 3a 3b d3 a9 47 3d
       -0.005734361 -0.02635635 0.0028417227 0.04874594
000020 59 7c 10 3c fc 1b 0a bc 02 89 da 3b 35 aa ae 3c
       0.008818709 -0.008429524 0.0066691646 0.021321395
000030 c5 66 0c 3d 70 f0 12 3d 1e 9e 4b bd 3a 89 2d 3d
       0.034277696 0.03587383 -0.04971134 0.042367198
000040 e5 b8 11 3c 87 23 1c bd 68 16 26 3c e4 2c de bc
       0.00889418 -0.03811982 0.010137178 -0.027121015
000050 80 80 00 bc d2 a6 f2 bc d2 72 db 3c 04 e4 a0 3a
       -0.007843137 -0.029620562 0.026788149 0.0012274985
000060 ff 83 e4 3c 9f 41 fa bc c8 e4 a7 3c 41 f5 38 bd
       0.027894972 -0.030548869 0.020494834 -0.045155767
000070 0d 2b 19 bd 2a 03 8b 3b 75 db 29 bb 1e 51 e0 3c
       -0.037394572 0.0042423205 -0.002591816 0.02738243
000080 7f 94 4a bd a8 19 2e 3c 1c e3 3e 3d 9a 0e ea bc
       -0.049458023 0.010626234 0.046603307 -0.028571416
000090 26 f2 aa bb ce 6b 36 bd 16 3f 9a 3c 09 c0 10 3c
       -0.0052168546 -0.044536404 0.01882891 0.008834847
0000a0 89 16 eb 3b bf c5 41 bc 69 dd f9 3c 2d 9b 3a 3d
       0.0071743173 -0.0118269315 0.030501084 0.045558143
0000b0 32 f6 05 bc 3b 19 90 3c c9 9f 01 bd be 30 27 3d
       -0.008176373 0.017590156 -0.031646524 0.04081797
0000c0 ad 05 db ba 60 68 14 bd 24 26 71 bc 20 06 a5 bc
       -0.0016710066 -0.036232352 -0.014718566 -0.020144522
0000d0 c8 7a 4a bc a6 be 2b 3d 29 79 10 3d 31 bc 26 bd
       -0.012358375 0.041929863 0.035271797 -0.040706817
0000e0 c8 78 01 bd 71 e5 32 bd 8c c6 b7 bc ab fa 1b 3c
       -0.031609327 -0.043675844 -0.022433542 0.009520213
0000f0 3e d5 64 bb a4 c6 ac 3c d9 0c 45 3d 65 f5 8f 3b
       -0.0034917141 0.021090813 0.048107956 0.004393267
