03_Workshops/03_Encoder-Decoders for Latent Space Manipulation/Denoising/lightning_logs/version_9/checkpoints/epoch=99-step=3200.ckpt (torch, 166227 bytes, 60 tensors)

model.encoder.blocks.0.layer.weight f4 [16, 1, 3, 3]
00000000: 8fca 4a3e 4f96 da3c 7fd1 8d3c 37f2 443e
00000010: 9f60 183c 0bd5 f2bd 9034 7e3b e845 4ebe
00000020: a580 713e 6ecc 97be 65c2 0cbe 1c2c 313e
00000030: eff7 4c3d 138f 2f3e 9b6a c6bd 5d54 27be
00000040: 91a2 c6bd 2134 82be 8b0c 7cbe 7d64 583e
00000050: 94f4 893e 2a01 f13d 6426 553e a6dd 27bd
00000060: 00c5 0bbd 59a3 72bd 786c 363e 16e4 843e
00000070: bb49 12bd cd13 be3d 94de d63d 3735 773e
00000080: b425 a03e 39fe 913e 3b1f 7d3e a73d 8a3e
00000090: aa14 8fbe d7f5 a3be 8692 19be 2945 063e
000000a0: 07f3 1b3e 70d9 413e 43f4 57be fc45 21bd
000000b0: f068 76be 86ec 8e3e c769 fb3c 1097 923e
000000c0: 9333 ba3e 9ab2 ba3e ca45 9d3e 8680 513e
000000d0: b12d 853e dd11 b63e 1a4b 81be 0057 153d
000000e0: 861d bd3d 8ee1 0abe 5360 09be eb7e d4bd
000000f0: 5686 bdbb e21f 99be aeb8 063e db27 993e
00000100: 5e18 dfbb 8ed8 41be e0e6 953e f0f2 763d
00000110: f188 103d 4bf1 373e 5bf3 093e 218f 7bbd
00000120: 55e3 8ebe e46f a23e 330f 773e 83f1 80be
00000130: 0d2a 59be 9c48 e63c 63ca 53be 878d 82be
00000140: d28e bf3d 792d 683d 0934 533e 2a10 3a3e
00000150: 9554 61be d581 ad3e 5044 bf3d c2c8 b7be
00000160: ea46 adbe 7092 a9bd df1f e4bd d214 953e
00000170: 27cf 2abe 720e 723e ce8b 85be f9f9 9abe
00000180: 51ca 24be 27b0 93bc e556 8c3e f44a 2fbe
00000190: 329e 97be baed 993c 4195 013d 5727 463e
000001a0: 47fc 3f3d 2683 93be 69ad bfbd 26a8 e6bd
000001b0: fc0d eb3e 8361 0abe 37fe abbe 5a11 a63e
000001c0: 43e0 89bd 82c8 4cbe 06dc 64be 30a0 c83e
000001d0: d526 38be 6fb1 843e 0414 313e c8f6 273e
000001e0: f93a 86be ce6f 043e 1e5e 04bd 7bcb ea3d
000001f0: 5721 343e 90db bebd c9d6 b53c 3422 623e
00000200: e7e1 c7be 4662 223e 123c 5e3d de4e 0ebe
00000210: 7034 ebbd 7c75 0f3e d5e6 7abe 9e35 bcbd
00000220: 7a1a b6be f17f 97be a4f9 823e df98 7bbb
00000230: bcb5 d13d 51f3 05be efed 7abe 8225 a03d
0.19803832 0.026683 0.01731181 0.19233023 0.00930038 -0.11857041 0.0038788654 -0.20143855
0.2358423 -0.29648155 -0.1374603 0.17301983 0.050041135 0.17144422 -0.09688302 -0.16340776
-0.09698976 -0.25430396 -0.2461416 0.21132083 0.2694441 0.117678 0.20815426 -0.040982865
-0.03412342 -0.05923781 0.17814815 0.25955266 -0.035714846 0.092811204 0.10491672 0.24141394
0.31278765 0.2851427 0.24718945 0.27000162 -0.27945453 -0.32023498 -0.149973 0.1311232
0.15229426 0.18930602 -0.21089272 -0.039373383 -0.24063468 0.27914828 0.030690087 0.28630877
0.36367473 0.36464387 0.30717307 0.20459184 0.26011422 0.35560504 -0.2525261 0.036459923
0.09234147 -0.13562605 -0.13415651 -0.1037577 -0.0057838364 -0.29907137 0.13156387 0.2991322
-0.0068083247 -0.18930265 0.29277706 0.060290277 0.035286848 0.1796314 0.13471739 -0.061415795
-0.27907816 0.3172599 0.24126892 -0.2518426 -0.21207447 0.028110795 -0.20682673 -0.25498602
0.09353413 0.05668399 0.20625319 0.18170229 -0.22004922 0.33888116 0.093392015 -0.35895354
-0.33843166 -0.08279884 -0.111388914 0.29117447 -0.16680585 0.23638323 -0.26083225 -0.3026884
-0.16092803 -0.018028332 0.27410045 -0.17118436 -0.2961288 0.018790115 0.03163648 0.19350944
0.04687145 -0.28810996 -0.09359247 -0.112625405 0.45909107 -0.1351376 -0.33592388 0.32435113
-0.06732228 -0.19998363 -0.22349557 0.39184713 -0.17983563 0.2591662 0.17292792 0.16402733
-0.26216868 0.12933275 -0.03231632 0.11464592 0.17590843 -0.09319222 0.022197144 0.2208336
-0.39039537 0.15857801 0.054256506 -0.13897273 -0.11484611 0.1400966 -0.24502118 -0.09189914
-0.35567075 -0.295898 0.25581086 -0.0038390679 0.10239741 -0.13081099 -0.24504827 0.07819654

model.encoder.blocks.0.layer.bias f4 [16]
00000000: 7413 95bd 435e 493e f952 553e 517a 64bd
00000010: f3b3 783e 778b 413e 131d 5ebe ff21 813e
00000020: cc15 f83d e222 25bd 988a 5bbd db21 5b3e
00000030: 12a2 23be 7203 373d 4c67 3e3d ae42 3b3e
-0.07279101 0.19664864 0.20832433 -0.055780713 0.24287395 0.18900858 -0.21690778 0.2522125
0.121135324 -0.04031647 -0.05359897 0.21399634 -0.15979794 0.04468102 0.04648523 0.18287155

model.encoder.blocks.1.layer.weight f4 [16, 16, 3, 3]
00000000: 5a45 a6bd 6c38 83bd fbfa df3c ac44 953d
00000010: b08b 6ebd 0873 68bd 661a c5bc d83c 43bd
00000020: 0b33 423c 3666 5c3c 0bb0 653c c8e9 7dbd
00000030: 2b5e b2bc ebcb c2bc 6816 42bd d078 d5bc
00000040: 76b8 63bc 6016 8d3d 36e1 f5bc ebf0 37bd
00000050: c094 86bd 56ed 47bc bb78 40bd a349 8dbd
00000060: da50 aa3d f302 10bd 86ca c1bc 5635 a43a
00000070: 16be c3bb 76b3 0abd 1616 f9bc 3e17 6abd
00000080: 8e09 523d 2622 953d e30c 71bd c861 993d
00000090: cfd6 a43d 0e44 493d 4e12 9abd ac45 92bd
000000a0: 965f 833d 9264 85bd f610 913c 0089 ae3c
000000b0: 1607 81bd 23f1 37bd 6620 4a3d 1037 95bd
000000c0: 1608 113d 6b88 5cbd 0b1b 7dbc 0bc9 603c
000000d0: 7072 a73d 8076 dbbc 2b2d 823b 8096 77bd
000000e0: 2e78 7c3d 1ed4 333d 80aa 3bbb bc78 98bd
000000f0: 5c25 95bd c09e 83bd 2e4c a3bd 3bee 8c3d
00000100: 6693 3bbd 4e78 653d 3047 6cbd 0ebf 553d
00000110: a48f aabd e097 4bbc 68cb 56bd 78cf 1ebd
00000120: 40f7 1a3d b30f 383d 6b79 3bbc 581b 24bd
00000130: 8c15 9f3d da30 82bd 9619 afbb 9337 853d
00000140: 7b93 8fbd bf5f 843d b8ea 223d 2850 4f3d
00000150: 00e1 ebbc 50f7 9dbc c810 52bd 7439 97bd
00000160: 5615 a338 8bca a33c 020a 803d 1808 33bd
00000170: 83ad 573d e0d5 e93c 606c db3c e089 1abc
00000180: f645 b4bc c08f e23b 06c2 b33c ab82 0439
00000190: 2bfa 4b3d 005c b5bc f02b a23d 405e 08bd
000001a0: e4d7 a03d f6d2 59bd 567e a8bd 10ac 4cbd
000001b0: 8085 1cbb 9419 8cbd 9b3f 65bd a8e7 913d
000001c0: b065 e23c 68ea 3b3d 4076 aabd abf2 6e39
000001d0: b62e 3d3c 2bbb 96bd 2372 57bd d6ab 413c
000001e0: c202 aabd 9e7e 58bd a008 033c 089e 783d
000001f0: 43c3 6a3d 3eba 8f3d 73c5 70bd f070 993c
00000200: beb5 41bd 5e02 60bd 0090 d63a 7b24 5abd
00000210: 90cc 373d 180f 723d 18d3 853d aa80 a1bd
00000220: b0da c63c 705c f9bc 5c18 a9bd a6e9 97bc
00000230: b6c0 583c 0b30 d13c 7663 f23c 0090 ed38
00000240: 29ad 65bc 0d71 253d 04b2 26bb 83ed 2b3e
00000250: 7bd8 cc3d 2a65 2b3e 0961 803d 0ea5 9d3c
00000260: d578 52bd 9b54 acbd f783 b5bd 0fcd 8bbc
00000270: 37be eebd 2b84 c9bd 0131 ee3d 5807 e8bd
00000280: cb0c 50bd fb41 b0bc 7ad1 b1bc 86b7 ab3c
00000290: 3c51 b9bd 033e 453d 84d5 efbb 2943 cabd
000002a0: abaa 7cbd a417 41bd 20a7 dfbd 999c 363e
000002b0: 6ddb 473e faba 6a3c 1c7a 3a3e 8143 3c3e
000002c0: 3bfd a73c 14ee 0cbd 92fa 6e3c 74c9 dcba
000002d0: 2bd2 50bd b4c6 073d 5911 3e3e f4da 833d
000002e0: 646d 0dbc c409 e63c d020 82bd a308 2abd
000002f0: 6c66 acbd 1dd5 093e 7271 353d e135 c1bd
00000300: 9e3e 263e def9 153e 70a6 0fbd f3b4 62bd
00000310: 0b38 9ebc c492 12be 6e41 76bd f6e4 31bd
00000320: b63b 1abc 561a 223c 003c 273b a69e 3bbd
00000330: d3ed 5d3d 4036 cb3c db32 b93c d07f 08ba
00000340: abcd 483c f68d 0c3d a3d8 02bc 688f e53d
00000350: 8df5 46bc 1514 07be fcb3 c4bd 8722 ae3c
00000360: ffcc 9cbd 05ec 8bbe af10 48be 1d90 32be
00000370: 6e58 3bbd c3fa cfbd be60 a0bd 717f bbbd
00000380: 9aea 41be 282b 733e 3651 3f3e 0a03 d63d
00000390: 2fec 9e3e ff48 ce3e a822 3a3e 8ffa 953e
000003a0: 06ef 063f e69b 663e 7810 663e baed a93e
000003b0: 2790 fb3d 54b8 0c3e 9a06 8d3e 427a 5c3e
000003c0: bcef 533e 2371 a7bd 6258 9f3e 32d7 89bb
000003d0: 125f b9bc 6973 033e 2a2e 043d 0c9b 673d
000003e0: 5db6 523d 7a3b 55be ba96 1bbe eb0f 07be
000003f0: 3507 c83e a49a 903e a065 923e c0ce 573e
-0.081186965 -0.06407246 0.027341357 0.07288489 -0.058238685 -0.056750327 -0.02406044 -0.047665447
0.01185299 0.013452103 0.014019023 -0.06199053 -0.021773418 -0.023778876 -0.04738465 -0.026058584
-0.013898959 0.06889033 -0.030014616 -0.04490749 -0.065713406 -0.012202581 -0.046990138 -0.06898811
0.083162025 -0.035159063 -0.023656141 0.0012528102 -0.0059735877 -0.033862554 -0.03040604 -0.05715107
0.051278643 0.07281904 -0.05885018 0.074893534 0.08048784 0.049137168 -0.075230226 -0.07142195
0.06414716 -0.06513323 0.017708283 0.021305561 -0.0630018 -0.0449077 0.049347304 -0.07285893
0.035408102 -0.053841036 -0.015448342 0.013719807 0.08176124 -0.026789904 0.0039726696 -0.060446262
0.06163805 0.043903463 -0.0028635561 -0.07444903 -0.07282516 -0.064267635 -0.079735145 0.06881376
-0.045794867 0.056022935 -0.057685077 0.052184157 -0.083281785 -0.012426347 -0.052440077 -0.038772076
0.037833452 0.044936847 -0.0114425225 -0.04006514 0.077677816 -0.06356974 -0.0053436263 0.065047406
-0.070105515 0.064635746 0.039774626 0.050613552 -0.028793812 -0.019282967 -0.051285535 -0.07384005
7.77642e-05 0.019994041 0.06251909 -0.04370889 0.052655708 0.028544366 0.026785076 -0.009432286
-0.022006016 0.006914109 0.021943104 0.00012637179 0.049799126 -0.022138596 0.07918537 -0.03329301
0.07853678 -0.053179704 -0.08227222 -0.04996878 -0.0023883283 -0.06840816 -0.055968862 0.07124263
0.027636379 0.045877844 -0.08323336 0.0002278785 0.011546781 -0.07359918 -0.052599084 0.011820754
-0.08301307 -0.052855127 0.007997662 0.060697585 0.057315122 0.07017945 -0.058782052 0.01873061
-0.047292463 -0.054689758 0.001636982 -0.053257447 0.04487282 0.059096426 0.065344036 -0.07885869
0.0242742 -0.030439585 -0.08256599 -0.01854403 0.01322954 0.025535604 0.029588442 0.00011327863
-0.014018335 0.040391017 -0.0025435695 0.16789822 0.10002228 0.1673781 0.06268508 0.019243743
-0.051384766 -0.08414575 -0.08863061 -0.017065553 -0.11657374 -0.09839662 0.116304405 -0.11329526
-0.05079345 -0.021515837 -0.021706332 0.020961534 -0.09048697 0.048154842 -0.007319154 -0.09876091
-0.0616862 -0.047141686 -0.109205484 0.17833175 0.19517298 0.014326805 0.18210644 0.18385126
0.020506492 -0.034406736 0.014586108 -0.0016844706 -0.05098168 0.033148482 0.18561305 0.06438246
-0.008632038 0.028080828 -0.06353915 -0.041512143 -0.08417973 0.13460203 0.044297643 -0.09434105
0.16234824 0.14646098 -0.035070837 -0.055348348 -0.019313833 -0.14313799 -0.060120992 -0.043431245
-0.00941365 0.009893974 0.002551794 -0.045805596 0.054181885 0.024806142 0.022607258 -0.0005207034
0.012256066 0.034315072 -0.0079862205 0.11208993 -0.012143505 -0.13191254 -0.09604642 0.021256698
-0.076562874 -0.27328506 -0.19537614 -0.17437787 -0.04573863 -0.10155251 -0.07830952 -0.09155167
-0.1893715 0.23746932 0.18683323 0.104497984 0.3103957 0.40290067 0.18177283 0.29292724
0.5270847 0.22520408 0.2246722 0.33189183 0.12283354 0.1374219 0.275441 0.21531013
0.2069692 -0.08175876 0.31122118 -0.0042065615 -0.02262834 0.12836994 0.032270588 0.05654435
0.051443446 -0.2082347 -0.15194216 -0.13189666 0.39068 0.2824298 0.2859316 0.21074963

model.encoder.blocks.1.layer.bias f4 [16]
00000000: ae5f a0bd ad4c f0bd 7eba bbbc 1e94 30bd
00000010: 6dbb 0d3d 441b 9a3d c79d c3bd 430f a73d
00000020: 7c5c 3f3d 36fd 70bd 3472 47bd 3803 9ebd
00000030: 9a8c 0c3d 6864 3b3d 84ac 3abd ed0e 62bd
-0.078307495 -0.11733375 -0.022916075 -0.043110006 0.03460257 0.07524732 -0.09551578 0.08157208
0.04671906 -0.05883523 -0.048692897 -0.07715458 0.034313776 0.04575005 -0.04557468 -0.055190016

model.encoder.blocks.2.layer.weight f4 [16, 16, 3, 3]
00000000: 168e 51bd 93ba 203d 1678 d83c 3b78 c6bc
00000010: 04ff 863d b60b 04bc abba e13c 7ca0 a73d
00000020: 4c6e 853d 12c8 e5bc b62d 38bd 9a49 913c
00000030: 4b30 ba3c a5d6 a23d 0c56 9a3b 8ccf 5ebd
00000040: 31d3 bc3c 6e7a 4dbd a36a 62bc 1d43 a6bc
00000050: 0ef3 103d f3f5 8c3d e06b 433d b617 a93d
00000060: 3b08 ccbb fff8 61bb f34e 133d 3f9a 053e
00000070: 8ba1 ee3d ad4d 463d 8715 f33d 086d db3d
00000080: 8c35 133e 1eda a73d 2b7e 8d3d 6213 633d
00000090: 6f81 66bd 09fc 4cbd 27bd 2fbd dbb1 0c3c
000000a0: 2733 223d b91b f13c 20d6 0cbc 763b 9c3d
000000b0: ea25 e6bc 07e5 853c 0b4e dd3d 445f 243d
000000c0: 40cc 8e3d 2a45 a03d 0a6a e93d f884 5b3c
000000d0: 65a2 d03d c73a 8e3d e906 ec3d 773d 193e
000000e0: 8d73 6c3d 6d22 8d3d d1c8 5d3d c531 0c3d
000000f0: 0fcf 0f3e 7b84 3e3d d14e b33d 9066 90bd
00000100: f70e a0bc 761f 08bd f535 b53b 6372 763d
00000110: 8334 26bd 9cad 23bd f3c2 00bd 3e84 82bd
00000120: 5f64 87bd f129 f9bd 2bd1 7cbd 46cd f33a
00000130: 9b87 22bc a35b 97bd b69c 9dbd c57b f4bd
00000140: 86ac f63b 1d8c c1bd 9c72 bdbc e2a4 fabb
00000150: d199 de3d e093 683b f801 0a3e 57fd 7dbd
00000160: 0812 80bd 9464 d5bd bdcd ae3d 78aa 02bc
00000170: 6966 b33d 776a 40bb 7da6 37bd 881f 92bb
00000180: 5627 a5bc ea12 713d 7c38 a73d d959 3cbd
00000190: 83f1 a6bd edb3 9ebc 3c84 6f3d 7cd1 afbd
000001a0: 3b4a 0b3d d4ad 43bd 3450 c3bd 5449 eb3c
000001b0: fd97 e23d 7708 4bbc 936f 073e 5142 363d
000001c0: b649 003d dcae d63d 9a87 e83d 32e1 1abc
000001d0: 3b24 90bc 1599 903d 9a04 ba3d 285e 873d
000001e0: 0339 41bd 7e02 f8bc 13c0 f1bc 6ef2 fabb
000001f0: 2c1c 15bd 8fc0 173d 37e6 4bbd e6a1 9b3d
00000200: 8407 45bc 38e3 d8bb eef5 8fbd 1032 5abb
00000210: 1af6 693d e8e0 e6bc da9f 0339 7e20 13bd
00000220: 9339 27bd 3d94 ddbb 157a 88bd b0c3 92bc
00000230: 64c9 973d 7374 a53d a33b 02bd 0bd4 3d3d
00000240: af62 913d 2800 34bd 0028 6139 066f 233d
00000250: 7bec fd3c dfec a63d dcd4 993d 827f 98bd
00000260: f00f f93c 0038 85b9 bda8 6fbd 3f99 8e3d
00000270: 27bb 69bd e806 333a b23d 263d db24 3c3d
00000280: bab7 b4bc 3281 cabd 264b 353d 2036 91bd
00000290: 2aff 4ebd c0db 00bd dc25 17bd 6175 cc3c
000002a0: f128 44bc 7c92 df3c e86d 82bd 3df5 2d3d
000002b0: 752a a9ba 862d 8b3d fa3d 72bd 15d8 973d
000002c0: 5d65 14bc 83b7 4e3c 309c 4c3b 4f11 36bd
000002d0: b829 803d 41dd 3bbc 9cf1 6b3d 5ebe 6d3d
000002e0: 47a4 c83c 018a 853d 60fe 39bc f30a e13b
000002f0: 0ad8 813d b8b5 673c cb0f 993d fdd8 e0bc
00000300: a820 a63d 63d5 da3d 0b3a 933c fc38 1a3d
00000310: c3b8 7cbd 0a88 97bb e63d 0f3d 0a99 5b3d
00000320: fd8a 12bd 63a0 50bd 3d44 cbbc 9835 8e3c
00000330: 0830 59bd 13b5 38bd ce44 7e3d fac3 d2bd
00000340: 83b1 d8bc 7c1b bebc d087 e2bd b2de cc3c
00000350: b44c 383d faca 8cbd de31 5f3c 96ce 823c
00000360: 8575 9bbd 1e02 0bb9 616f 463c 2c0a 3a3d
00000370: 8146 363d 6b68 253c 1c97 b1bb d8a1 f63d
00000380: 4f69 373d 0caf 533d 108c 193e 10bd 143d
00000390: 9403 05be 803e e3bd be63 01bc 33db abbd
000003a0: 986d edbd 8141 3ebe ea88 8b3b be02 09bd
000003b0: a9fa ca3d d02b 9dbc 7daf e53c bf4e dd3d
000003c0: ea42 813d 6c2b 843c 1c55 463c 451e b5bd
000003d0: 4104 88bd 51a3 3cbd cefc d13c dbe6 473d
000003e0: 9d13 2c3d ca64 83bd 5391 0ebd 68ea 9abc
000003f0: 597d a83d b30a 643d cd84 09bd 18a1 b23d
-0.051160894 0.03924043 0.026424449 -0.024227252 0.06591609 -0.008059433 0.02755483 0.08184907
0.06515178 -0.028049503 -0.04496547 0.017735291 0.022728106 0.079510964 0.0047099646 -0.05439715
0.023049923 -0.050165586 -0.0138193695 -0.020295674 0.035388045 0.068828486 0.0477103 0.082564756
-0.006226567 -0.0034480689 0.035963964 0.13047121 0.116519056 0.04841392 0.118693404 0.107141554
0.14375895 0.081958994 0.0690883 0.055438407 -0.05627578 -0.050045047 -0.042905 0.008587326
0.039599564 0.029432165 -0.008595973 0.07628529 -0.02809425 0.01634456 0.10805901 0.040129915
0.06972551 0.07825692 0.113971785 0.013398401 0.10187224 0.06944805 0.115247555 0.14964853
0.057727385 0.06891332 0.05414659 0.03422715 0.1404383 0.046513062 0.087552674 -0.07050812
-0.019538386 -0.03323313 0.005530114 0.06016768 -0.040577423 -0.03996049 -0.031435918 -0.063728794
-0.06610941 -0.12166203 -0.061722916 0.0018600605 -0.009920026 -0.07390525 -0.07695906 -0.1193767
0.0075278906 -0.094505526 -0.02312594 -0.00764905 0.10869182 0.003548853 0.13477314 -0.06200918
-0.06253439 -0.104195744 0.08535335 -0.007975213 0.087597676 -0.0029360333 -0.04483651 -0.004459325
-0.020160358 0.05885593 0.081650704 -0.045984123 -0.081515335 -0.019372905 0.058475718 -0.08584878
0.03400634 -0.047773197 -0.09536782 0.028721489 0.11064146 -0.012392155 0.13226156 0.044496838
0.031320296 0.104825705 0.11353989 -0.009453105 -0.017595401 0.07060448 0.09082909 0.06609756
-0.04717351 -0.030274626 -0.029510533 -0.0076582944 -0.03640382 0.037048873 -0.049780097 0.07599239
-0.012025718 -0.0066188835 -0.07029329 -0.0033294 0.057119466 -0.028183416 0.00012552683 -0.03591966
-0.04082639 -0.006762056 -0.0666391 -0.017915577 0.07411459 0.080788516 -0.031795155 0.046344798
0.070989005 -0.04394546 0.00021472573 0.039900802 0.030996552 0.08150648 0.07511303 -0.07446195
0.030403107 -0.0002540946 -0.05851053 0.06962823 -0.057063248 0.0006829337 0.04058618 0.045933586
-0.022060264 -0.09887923 0.04426112 -0.07090402 -0.050536312 -0.03145957 -0.03690134 0.024958314
-0.011972652 0.027291529 -0.06368619 0.042470206 -0.001290633 0.06795792 -0.059141137 0.07414261
-0.00905737 0.012616995 0.0031221025 -0.0444501 0.06257957 -0.011466325 0.057603464 0.058042876
0.024492396 0.06520463 -0.011352152 0.0068677603 0.06340034 0.014142446 0.074737154 -0.027447218
0.081116974 0.106852315 0.017972013 0.037652 -0.06169964 -0.0046243714 0.03497114 0.053612746
-0.03577708 -0.050934207 -0.024812812 0.01735954 -0.05302432 -0.04509456 0.062077336 -0.10291286
-0.026451832 -0.023206465 -0.110610604 0.025008533 0.044995025 -0.06874652 0.013622729 0.015967648
-0.075907744 -0.00013256862 0.012111516 0.045419857 0.04450083 0.010095696 -0.005419625 0.12042588
0.044778164 0.05168061 0.14994836 0.036313117 -0.12989646 -0.11095905 -0.007897316 -0.08391418
-0.11593169 -0.18579675 0.004258265 -0.03344988 0.09911091 -0.01918593 0.02803778 0.10806035
0.06311591 0.016133986 0.012105253 -0.08843664 -0.06641436 -0.04605419 0.025633242 0.048804145
0.042010892 -0.06415708 -0.03480656 -0.018910602 0.08227033 0.055674266 -0.033573914 0.087221324

model.encoder.blocks.2.layer.bias f4 [16]
00000000: fd38 893c 9357 99bd 2fdb 65bc 72d9 703d
00000010: 78dc c63c 203b c2bd 6518 c9bc ca91 e7bd
00000020: d7a1 593b 30a3 fc3c 7610 35bd 2f71 cabd
00000030: efdd 473d 6514 76bd 09f3 51bc 6cfe b6bd
0.016750807 -0.074874066 -0.014029308 0.058801122 0.02427505 -0.094839334 -0.024547765 -0.11307104
0.0033208036 0.030839533 -0.04420515 -0.09884869 0.048795637 -0.060078043 -0.012814292 -0.08935246

model.decoder.blocks.0.layer.weight f4 [16, 16, 3, 3]
00000000: 6349 c13c ea2d d83d 8506 e63d 8e30 943d
00000010: 826f d9bb abf5 d73d 44e2 7b3d 39c2 11bc
00000020: 1ec4 6c3c fa7e 523d 1bd2 4b3d 7bbf 91bd
00000030: dc8e 923a c6c1 07bc dce7 a0bd 09fe 71bb
00000040: 7064 bb3c 9484 84bd 6b26 43bd aea2 a53d
00000050: a028 a73d edb7 81bd 8510 943d 89ea ac3c
00000060: 379f ce3d dcb9 dc3c 849f 583d a885 3e3c
00000070: 1249 8b3d 66ed a83c c4d9 3c3b 2839 dabc
00000080: dc93 86bd 0d7b 033d 9d9f 513d bdd6 a83c
00000090: a040 4fbe 544e 86be c079 31bc 26cd c9bd
000000a0: ee6d 10be 4e17 ed3d 5924 6f3d 0274 283e
000000b0: 1bdf 5f3e f8dd cfbc 8121 993d 466d a3bd
000000c0: 0544 7a3b 17f3 963d b977 8cbd 9945 ddbd
000000d0: 96c6 75bc 4f67 0cbd fccc 37bd 63ab 103d
000000e0: a217 2e3d 4fb9 37bd de99 9a3d 9e25 513d
000000f0: 6d62 0ebc edf1 363c 9621 1f3d ae4b d1bc
00000100: 437b 80bd 586d 44bc 4e2a f4bc a7a9 f33b
00000110: 8873 95bd b1ff ea3b e485 433c 5ca5 5cbd
00000120: d72c f43c ae02 a6bc d3d2 943d 5b5f 7a3d
00000130: 03ab 5a3d c117 c43d c06c b1ba 1e42 783d
00000140: a02b af3d ad83 b73d d1ff d5bd cc17 52be
00000150: 1949 ef3d ec41 383d 2411 29bd 3e9e 0b3e
00000160: 2771 43bd f832 0c3d 2413 3f3d 446b 35bd
00000170: 4dc3 273d 549c 0fbd a088 473d 24fc 673d
00000180: ec92 4fbc 228c f4bb 7438 3abc 2ccb 353d
00000190: a90c 4bbd 2b04 b73d bd15 1dbc 18cf bb3c
000001a0: fac6 8dba 036c 073d 1262 96bc a46c cb3d
000001b0: 09ce 523d d40c 4fbc ddd1 c43d 9af6 83bd
000001c0: f5b0 2abc 9a32 bebc 01f0 8bbd e864 ea3c
000001d0: ffc0 7f3d 6090 ea3b 3fc8 9f3d 4288 953c
000001e0: 44b1 4cbd 8865 9a3d a3a7 6a3d e2ef d4bc
000001f0: 2c3a 153d efc3 9bbb a605 0a3d 3cd1 8c3d
00000200: 43f1 303e 42b1 0ebd a962 c6bc 186e f03d
00000210: 59e5 abbc 9ae9 68bc 4463 43bb f33d 313c
00000220: e9ce f2bc 636e a7bd 8b3c 3a3d 386a c83b
00000230: dfbd c5bc b18d bd3d 38a0 86bd e904 333b
00000240: eea3 a4bd 91b0 f2bb 963a 30bd 4ac0 633b
00000250: 953d 7f3d 230d 5a3d beb8 a43b 09b2 60bb
00000260: 8bc3 babb 9027 5ebd c307 473d e0aa fdbc
00000270: 362e ba3c a64d 84bd 719d b53c 37d1 593c
00000280: b6c5 d43c acfa 57bb 9b7c 6a3c 45cc 6abc
00000290: 1230 b73c 8d25 483d db5e 6dbd f88c 0e3d
000002a0: 3378 6abd ab40 43bc db0d 89bd 060d febc
000002b0: 534c 433c 3a54 d5bc d13f e83d 18bb 9b3d
000002c0: 172a 233b 23e1 0b3d 2149 f33c dc99 73bd
000002d0: f0ae 323e 68cf 5abe 5688 57be 3ad6 023f
000002e0: 916c e3bd 24a0 05be 8b6c 0a3f 2a71 a43e
000002f0: 825b 09be 127e d1bd 11a5 383d 127a 97bd
00000300: 7ce1 17be 3219 79bd da45 843d 1461 d6bd
00000310: 71b6 913c 25bc d2bc 621b 86bd f3c5 58bd
00000320: 4f3c 663d 5a34 363b 3850 bfbc 69ce 73bd
00000330: c6da 903d 299d 373d f92c 1a3d 51ac 653d
00000340: 5e29 223c a50d 043d e872 843d 6db7 92bd
00000350: 7b24 d73c 2a25 063c fb04 593d 7057 27bd
00000360: 3244 b9b9 5228 303c d89f 14bd 1bec 6dbd
00000370: bf94 873d 5f6f 81ba 5dfe 713c ab98 9a3d
00000380: 1d73 cd3c e999 bd3d 37a7 a5bc 58b5 ccbd
00000390: 1f5a a33e 561b a83d e306 45be d719 c23d
000003a0: 00aa 703e 837b 313d 7bfa 79bd 387f aebb
000003b0: 94bf fa3c f486 63bd f49f 73bd 81b2 b83d
000003c0: 55dc 283c 7e62 54bd 4209 d73b 64ef 533c
000003d0: ee1c 85bd 76e4 7fbc 6d6b 2b3d ea6c b5bd
000003e0: bd1e 093d 01ff 37bd de51 c93d b595 be3d
000003f0: 4787 8fbd 8729 48bd e374 85bc d49f bcbd
0.023594564 0.105556324 0.11231712 0.072358236 -0.006635607 0.10544904 0.06149508 -0.008896404
0.014451055 0.051390626 0.04976092 -0.071166 0.0011181491 -0.008285945 -0.07856724 -0.0036925098
0.02287504 -0.064706 -0.04764406 0.08087669 0.081620455 -0.06333909 0.07229713 0.021107929
0.100889616 0.026944093 0.0528865 0.011628546 0.068010464 0.020621013 0.0028816322 -0.026638582
-0.06571171 0.032099772 0.05117761 0.020610208 -0.20239496 -0.26231635 -0.01083225 -0.09853582
-0.14104435 0.11576711 0.058384273 0.16450503 0.21862452 -0.025374398 0.074770935 -0.07979827
0.0038187515 0.073705845 -0.06858773 -0.1080429 -0.01500096 -0.03427821 -0.044873223 0.035319697
0.042503007 -0.04485446 0.07548879 0.051061265 -0.008690459 0.011166078 0.03885039 -0.025548782
-0.0627351 -0.01198896 -0.029805329 0.0074359956 -0.072974265 0.007171594 0.0119337775 -0.053868636
0.029806538 -0.02026495 0.07266774 0.061126094 0.053385746 0.09574843 -0.0013536438 0.06060993
0.08553243 0.08960662 -0.10449184 -0.2051689 0.11683864 0.044984743 -0.041276112 0.13634583
-0.047715332 0.034228295 0.046649113 -0.04429175 0.040957738 -0.035061195 0.04871428 0.056636944
-0.012669306 -0.007462994 -0.011365999 0.044383213 -0.04957262 0.08936342 -0.009587702 0.022925898
-0.0010816746 0.033061992 -0.01835731 0.09932831 0.05146602 -0.012637336 0.09610341 -0.0644352
-0.010418166 -0.023217488 -0.068328865 0.028612569 0.062439915 0.007158324 0.07801866 0.01825345
-0.04997374 0.07538897 0.057288777 -0.025993291 0.03643243 -0.0047535817 0.033696793 0.06875846
0.17279534 -0.034837015 -0.024216967 0.11739749 -0.020983385 -0.014215851 -0.0029813806 0.0108179925
-0.029639678 -0.081753515 0.045467895 0.006116178 -0.02413839 0.09255541 -0.06573528 0.002731616
-0.080390796 -0.0074063023 -0.043024622 0.0034752064 0.06231459 0.053235184 0.005026906 -0.0034285805
-0.00569958 -0.05423695 0.048591387 -0.030965269 0.022727113 -0.06460123 0.0221698 0.01329451
0.025973182 -0.0032955809 0.014311935 -0.014330928 0.022361789 0.048863936 -0.05795179 0.034802407
-0.057243537 -0.0119172735 -0.06692096 -0.03101207 0.011920053 -0.026041139 0.11340297 0.07604045
0.0024896914 0.034150254 0.029697957 -0.059472904 0.17449546 -0.21368182 -0.21048102 0.51108134
-0.11104692 -0.1304937 0.54071873 0.32117587 -0.13413814 -0.10229124 0.045079295 -0.0739633
-0.14832109 -0.060815044 0.06458636 -0.10467735 0.01778719 -0.02572448 -0.065481916 -0.052923154
0.05620986 0.00278022 -0.023353681 -0.05952302 0.07072978 0.044827614 0.037640546 0.056072537
0.009897558 0.032239575 0.06467229 -0.07163892 0.026262512 0.008187572 0.052983265 -0.04085487
-0.0003533676 0.010751801 -0.03628525 -0.058086496 0.06620168 -0.000987511 0.014770118 0.0754865
0.025079304 0.09257872 -0.020221336 -0.09995526 0.31904694 0.08208339 -0.19240908 0.09477585
0.2350235 0.04333068 -0.061029892 -0.0053252243 0.03060893 -0.055548623 -0.059478715 0.09018422
0.0103064375 -0.051851742 0.006562383 0.012935493 -0.064996585 -0.015618434 0.041850496 -0.08858664
0.03347658 -0.044920925 0.09830068 0.09305898 -0.07008224 -0.04886773 -0.016291087 -0.09210172

model.decoder.blocks.0.layer.bias f4 [16]
00000000: c344 d33b 07e7 d2bc e7b7 77bd 6069 593d
00000010: a546 89bd f1b8 adbd dd35 88bd 95f6 cbbd
00000020: c692 8dbd e391 7d3c 8250 83bc 2c53 013c
00000030: 9fc1 f3bc 3a84 8c3c 3961 94bd da98 f7bd
0.006447406 -0.025744928 -0.060478117 0.05307901 -0.067029275 -0.084825404 -0.066508986 -0.09959141
-0.069127604 0.015476677 -0.0160296 0.007893365 -0.029755412 0.017152894 -0.07245106 -0.12089701

model.decoder.blocks.0.upsample.weight f4 [16, 16, 2, 2]
00000000: fd68 6abd 6fda 8f3d 960f 97bd 0f3e 593c
00000010: 3689 103c 6240 f43d 5192 75bd e3bb 81bd
00000020: fadb 2cbd 4bff f1ba cdd3 5ebc aa88 febc
00000030: 5684 203d fff9 823d 1239 8abd 3a07 89bd
00000040: 0a84 c3bd fbdc c63d 3ac4 643d 8603 ca3c
00000050: c718 95bd f472 b0bb 1dbe 89bd 27f0 f3bd
00000060: 65f7 11bd 547a b4bd 0d10 5f3d 080a 90bd
00000070: 1eaa b23b 0fe6 9f3d b2df c0bc f411 103e
00000080: b766 c0bd abf1 e2bd 34c7 853d f11e 9dbd
00000090: eff9 4f3c 8cdb 7dbd d284 cd3d f88a b1bc
000000a0: 2840 d43c 2160 bd3d d188 db3d 4824 a53d
000000b0: 6472 153e 305f ad3d 9239 36bd 39d5 f53d
000000c0: b98c 643c 189e 63bd 9c28 e1bd 83f4 edbd
000000d0: 4fb8 2fbe a152 26be 3799 16be 77cf efbd
000000e0: 946d cf3d 5fd1 43bc 7507 2abd 4fce e8bd
000000f0: 479e f53d 03cd 9ebb a7d3 c3bd aa25 983d
00000100: e128 c73d e068 303e 853a a7bc 07be c0bc
00000110: a1d5 79bc 3d53 c23d 47c7 a53d 87f9 39bd
00000120: 8147 123e 47a5 1bbd a933 64bd d067 463d
00000130: f46d a6bd 6eff d0bd 8436 eb3d bfd6 943b
00000140: fdad c3bc 72fb 7ebd d97f d53d 082b 79bd
00000150: 7d45 1f3e 16a5 06bd 9a67 013d 541a 003d
00000160: 7a45 b33d 22fe c03d cac4 68bd f31a 9f3c
00000170: c2d6 60bd ecfc 97bd c1e6 c03b e2cd 333d
00000180: 6fa5 293e 6c95 5abd 22ea 0f3e 4f96 c23d
00000190: 6439 c43d 933e 37bd 56db fe3d 1997 013e
000001a0: 62f4 e53c 30cb 8bbc 02de 5fbd b800 48bc
000001b0: 2b1a 1c3d 35fb 14bd 65f5 32bd 339d 8fbd
000001c0: b223 f9bd 5a54 18bc 460f 0cbe 0e0c 0c3e
000001d0: 0ada c43d 39c6 783d f434 d9bd dabb 78bd
000001e0: 3f5d 703d 56df 1bbe 2217 3cbd 0163 10be
000001f0: aa0b 3dbc d9bd 273d 6324 bdbd b8ef 35bd
00000200: 3000 7cbd 60ee 78bc 6a5e fc3d f286 733c
00000210: 7aa5 9ebd e55d 363d 700f a03b b486 2dbc
00000220: 9fa8 68bd e672 4b3d 254d 363d 03f0 ce3d
00000230: 5e94 c4bd b9b7 523d b854 e6bb c1f5 6cbd
00000240: 988f 193d 2e27 973b 207d d2bd 8e57 a3bd
00000250: cc99 7abd 6d22 35bd b5be fd3d 50b4 b4bd
00000260: ac21 febd 8635 ad3d 3a65 b53d da2b 213d
00000270: 16e3 2c3c 3412 a5bd 9fa8 96bc 5d05 3fbd
00000280: 539d 293c fed1 c3bd a93e 143e 209a 223d
00000290: 79cc 8cbc 1dbb f13d 2436 fb3d 9e77 903d
000002a0: 64b4 8c3b 8523 893d 9d6a 3a3d 0361 57bd
000002b0: ab8f 27bc 55b0 2a3d 2ef2 80bd 5713 14bd
000002c0: a1b3 863d 5489 d43d 3eeb 5cbc 5577 b7bd
000002d0: ccb5 17bc ee97 f5bd f3ee 96bc abb2 efbd
000002e0: 1fd5 e13b 43a8 bb3d b517 d73d d00b 27bd
000002f0: 57a0 8fbd d8e9 75bd 8848 8f3d aff1 7fbd
00000300: 08d0 40bb 4715 fa3d 46e4 fdbc 5cfd 083e
00000310: ccea d03d ae73 e03d 8fc1 203c 1a2e b33d
00000320: 8249 e8bc cc91 4ebc 03c7 11be f168 9a3c
00000330: f3d2 6c3d 503b 763d 3e45 a1bd af69 a03d
00000340: 04b0 dcbd 0e21 b6bd 418d 343c 6830 50bd
00000350: 2f66 b4bd 4022 a63d 097e 99bc b16a 103b
00000360: aaa0 a43c 0520 ad3d 6b7f 80bb 495a 3dbd
00000370: 6a3b b6bd 5240 c03d dafc 9f3d 9be3 aabd
00000380: 9c81 573d dc3b 05be f93f e8bc e3b3 abbd
00000390: bea4 a13b 8657 193e bc79 0a3e dcd2 053e
000003a0: 45b5 0f3e d498 013e cf1c 0b3e 3ab7 143e
000003b0: 402f 76bd fe5b 97ba da21 ddba ddfc 143d
000003c0: c433 763d 46a5 c33d 432c 94bd 9b29 00be
000003d0: 301f 243d 0e22 473d 2924 033d ebf3 6ebd
000003e0: 284a 72bd 9582 2e3d 51f9 f23b a62b 013e
000003f0: ec1e 8bbd 18fe ea3d 115b 8b3c 05bf fd3d
-0.05722903 0.07024085 -0.0737602 0.013259425 0.008821776 0.119263425 -0.05995399 -0.06334665
-0.042201973 -0.0018462924 -0.013600302 -0.031071026 0.039188705 0.06395339 -0.067491665 -0.066908315
-0.09546669 0.097101174 0.0558512 0.024659883 -0.072801165 -0.005384797 -0.06725714 -0.1191104
-0.035636324 -0.08812395 0.054458667 -0.07033163 0.0054524085 0.07807552 -0.023544166 0.14069349
-0.09394591 -0.11081251 0.065321356 -0.07671917 0.012693866 -0.061976954 0.10035099 -0.02167271
0.025909498 0.09246851 0.10719455 0.08063561 0.14594418 0.08465421 -0.044488497 0.120035596
0.0139495665 -0.05557069 -0.10994074 -0.116189025 -0.17160152 -0.16242458 -0.14706884 -0.11709493
0.10128322 -0.011951773 -0.041511018 -0.11367475 0.1199308 -0.0048462166 -0.09561854 0.07429059
0.09724594 0.17227507 -0.020413646 -0.023528112 -0.015248687 0.09488533 0.0809465 -0.045403983
0.14285089 -0.037999418 -0.05571333 0.048438847 -0.08126441 -0.10204969 0.114850074 0.0045422013
-0.023886675 -0.062251516 0.10424776 -0.060832053 0.15553851 -0.032872282 0.031592943 0.03127511
0.08753486 0.09423472 -0.056828298 0.01942203 -0.05489231 -0.07421288 0.005886883 0.043897517
0.16567014 -0.053365156 0.14054158 0.09501325 0.09581259 -0.04473741 0.12444179 0.12655295
0.028070632 -0.01706466 -0.054655083 -0.012207203 0.038110893 -0.036372382 -0.043691058 -0.07012405
-0.121650115 -0.009297455 -0.13677701 0.13676473 0.096119 0.060735915 -0.10605803 -0.060726024
0.058682676 -0.15221915 -0.0459205 -0.14100267 -0.011538425 0.040952537 -0.09235456 -0.044418067
-0.061523616 -0.015193552 0.123226956 0.014863716 -0.07746406 0.04452314 0.004884653 -0.010591198
-0.056801435 0.049670123 0.044507165 0.10104372 -0.09598611 0.051444743 -0.007029142 -0.057851557
0.037490457 0.004612825 -0.10277772 -0.07975684 -0.06118183 -0.044222284 0.1238989 -0.088234544
-0.12408766 0.084574744 0.08857198 0.03934846 0.010552188 -0.080601126 -0.018390952 -0.046635974
0.01035245 -0.09561537 0.14477028 0.039697766 -0.017187344 0.11803267 0.12266186 0.07054065
0.004293965 0.06696228 0.04551183 -0.052582752 -0.010227124 0.04167207 -0.06296192 -0.036151256
0.0657723 0.10377756 -0.0134838205 -0.08958308 -0.009259652 -0.11991869 -0.018424487 -0.11704
0.006891861 0.09162953 0.10502569 -0.04078275 -0.07013004 -0.060037464 0.06996256 -0.062486347
-0.0029420871 0.122110896 -0.030992638 0.13377899 0.10201034 0.10959564 0.009811773 0.087490276
-0.028355364 -0.012608003 -0.14236073 0.018848868 0.057818364 0.06011516 -0.07874535 0.078326575
-0.1077576 -0.088930234 0.011020006 -0.050827414 -0.088085525 0.081120014 -0.018736856 0.002203625
0.020096142 0.08453373 -0.0039214394 -0.04622868 -0.08898051 0.09387268 0.078118995 -0.083441935
0.05261384 -0.13011116 -0.028350817 -0.0838392 0.004932969 0.14974794 0.13523 0.13068718
0.14033993 0.12655956 0.13585208 0.1452302 -0.060103655 -0.0011547802 -0.001687105 0.03637396
0.06010796 0.09553008 -0.07235005 -0.12515871 0.040068805 0.04861646 0.032016907 -0.058338087
-0.059152752 0.042605 0.0074149747 0.12614307 -0.06793007 0.11474246 0.017011197 0.1238995

model.decoder.blocks.0.upsample.bias f4 [16]
00000000: c682 95bd a4d4 cc3d 5f0a c83d 457c d9bd
00000010: 6e09 7b3c a468 4a3d ea2e 9e3d e11e 8abd
00000020: b7bd 973d 5ed1 363d 0802 963d 1265 d1bd
00000030: a1d7 b63d 9551 963d f361 16bd da87 333d
-0.07300334 0.100014955 0.09767603 -0.10619406 0.015322072 0.0494162 0.07723792 -0.06744171
0.07409232 0.04463326 0.07324606 -0.10224356 0.08927847 0.07339779 -0.036714505 0.04383073

model.decoder.blocks.1.layer.weight f4 [16, 16, 3, 3]
00000000: 060e d2bc d195 983d 578e 113d ce9a abbd
00000010: 1322 30bd 0386 263d 58a2 d2bc 4880 0fbe
00000020: 6611 2c3d 4f9b 07be 43a8 4a3a 9e4c c5bd
00000030: 422b 803d 2333 b43d e0bc 01bd ea6c f7bd
00000040: 2260 23bd e760 75bd b43a d7bd 8960 81be
00000050: 7e82 c0bc 9186 b2bd 71fb 823d 8287 163e
00000060: 3dd7 dc3d a531 e33d 8520 6b3e c222 293e
00000070: 8ec8 9b3d b8ba 903d 1b68 d4bc 007c 17bd
00000080: 0ad8 34bd d294 a93d 47e0 9a3d d845 c93d
00000090: 1948 783d 7616 8c3d 1907 eebb f506 9fbd
000000a0: 99c8 80bd 8115 b7bd 2e53 1e3d bb0c 183e
000000b0: 3d69 aa3d d77a 59be 38ff 31bd d70c 8abd
000000c0: 1f80 babb a7c7 b53d dbca fc3d 8734 a0bd
000000d0: ddcc 0abd 749f 0b3e cc30 12be eae8 1abe
000000e0: 8721 f1bd 651e d13d 4f0a c53d 5b33 963d
000000f0: c77f 89bd 9031 57bd ea9b 09be f22f db3d
00000100: d2df e33d 749c 313b ae53 a7bd 892f c9bd
00000110: 25e0 95bd 3774 9e3d da28 8c3d bf5a 14bd
00000120: 1427 adbd 4194 5abd 9faa 2c3d a39d c03d
00000130: 9edd 293e 7921 c13d 6183 d03d 030f 3bbd
00000140: f62f d63d 76ed 66be eb25 cebd b8b2 e6bd
00000150: 893a 7dbd ea9b b23d 4cdd a53d 9518 84bd
00000160: e8b5 bb3d 8756 cc3d 4db3 74bd b400 15bd
00000170: 0399 9dbb 1948 afbd c7a0 893d 700a 92bd
00000180: 04be 2abd d151 133d 1a93 5e3c 03d1 5b3d
00000190: 458a a73d aeaf 193e 2ba9 973d 054e f5bd
000001a0: d938 1e3d f1c9 49bd 545a 25bd b243 763d
000001b0: 2b21 1ebd f365 713b 4e05 14bd 1d48 e13d
000001c0: d9a0 ef3d e870 073e fd1d 23be 7e18 99bd
000001d0: e415 28bd ea35 37bd 0fdd 183b c637 1cbe
000001e0: d0d9 003e b5e6 e03d 3e94 653d b8a3 f43d
000001f0: c7e5 99bd 9954 f0bd 7731 ab3d f1ea 3e3e
00000200: 4deb 3b3c 8d5e 1f3d 173b 0b3d 427f bebd
00000210: 4f0a 06be 123b 3cbc 39b5 6bbe 5c2e 31be
00000220: e8eb bf3c 7d60 1bbd fb12 a63d 38d9 ed3c
00000230: 36d5 b13d 8c1d 1fbe 14a0 a2bd ecaa a4bc
00000240: 0c21 023e e9f0 003e 2fb7 123e 792a c93b
00000250: 2ac7 4abc cbf8 9fbc 3337 c2bc 7050 a63d
00000260: fab4 37bd 66b8 0d3d d467 f13b 1dba 44bc
00000270: be10 8dbd 4277 5d3d 8827 95bc 3cb3 e73c
00000280: 0c17 a6bd 2346 923c fa42 abbc 2d79 83bd
00000290: cd03 853c e3af 843d 9726 33bd 6d13 84bd
000002a0: 6a98 81bc 2382 94bd 468b 523c 0860 933d
000002b0: d387 13bd 37b4 933c f29c ebbc 1d98 433d
000002c0: 658f 5b3b 04c7 0dbd bea1 563d a291 0a3d
000002d0: c238 0cbc a149 813d 581d 043d 8c15 bfbc
000002e0: d4ea acbd c97f 793d 2039 483c bf21 69bd
000002f0: 350d f7bc ad5c a53d 26d2 fa3c 6666 afbc
00000300: a47c 203d e42f af3a 0b04 60bd 18de 463d
00000310: afc9 1bbc edb4 56bd da7a 85bd d739 bd3d
00000320: b584 80bc dee8 81b9 b757 5fbc 91d2 2a3d
00000330: 72d3 9ebd 82f0 923c 8965 c5bd 9599 08be
00000340: fa39 e1bc bbc8 943d bb08 fd3c 762c 423d
00000350: 2fe5 89bc b6d4 c43c 0dd5 84bd bd98 fa3d
00000360: 9fbf a33d 7cd8 56bc 70da d4bd 5549 593d
00000370: 6aea cebb a377 e9bd 334d 403c 50ce 9dbd
00000380: f1f8 a9bb 63a2 87bd 5df1 2dbc 5e32 ee3c
00000390: 8f22 353d 334d 353d 3f45 79bd fbd3 3b3c
000003a0: a2a7 6b3d 8c2a c83c f6f6 c63d fdff a73b
000003b0: 6cdb 453c a659 d4bb 5810 f5bc 8537 b23d
000003c0: dfe6 84bc a21a 0d3d f98d 033d 31f8 ec3c
000003d0: d665 a13d 6c61 4e3d acc5 b3bc 3ab9 f83b
000003e0: fef3 29bd 69d5 2e3d bb83 2abb adad d23d
000003f0: f140 723d c265 6bbc 7077 4ebc 5861 d7bd
-0.025641453 0.0745045 0.035536136 -0.08379136 -0.043001246 0.040655147 -0.025712177 -0.14013779
0.04200878 -0.1324284 0.00077307614 -0.09633754 0.06258251 0.08798816 -0.031674266 -0.120813206
-0.0398866 -0.059906866 -0.105092436 -0.25268963 -0.023499724 -0.08717073 0.06395615 0.1470013
0.10783241 0.11093453 0.22961624 0.16517165 0.07606612 0.07066864 -0.025928548 -0.03698349
-0.044151343 0.08280338 0.07562309 0.09827775 0.060615633 0.068402216 -0.0072640297 -0.07764999
-0.06288261 -0.089396484 0.038653545 0.14848606 0.08320854 -0.21238266 -0.043456286 -0.0674073
-0.0056915428 0.08875971 0.12343379 -0.07822519 -0.03388678 0.13635045 -0.14276427 -0.15127912
-0.11773973 0.102108754 0.09621107 0.07334014 -0.06713825 -0.0525375 -0.13438383 0.10702504
0.11126675 0.002710131 -0.081702575 -0.0982352 -0.07318143 0.0773701 0.06843729 -0.036219355
-0.08454719 -0.053364042 0.042154904 0.09405067 0.16588446 0.094302125 0.101813085 -0.045668613
0.104583666 -0.22551522 -0.10065826 -0.11264557 -0.0618234 0.087211445 0.0809885 -0.06450001
0.09165555 0.09977441 -0.059741307 -0.036377624 -0.0048095 -0.085586734 0.06720119 -0.07130897
-0.04168512 0.035966698 0.013584876 0.053666126 0.0818067 0.15008423 0.07405313 -0.11977772
0.038628433 -0.049264852 -0.040369347 0.060123153 -0.03860585 0.0036834448 -0.03613787 0.11000083
0.11700601 0.13226664 -0.15929408 -0.07475375 -0.0410365 -0.04472915 0.002332512 -0.15255651
0.12583089 0.10981504 0.056049578 0.119452894 -0.0751453 -0.11734886 0.08359044 0.1864431
0.011469674 0.03890853 0.0339919 -0.09301616 -0.1308987 -0.011488693 -0.2301835 -0.17302841
0.023427919 -0.037933815 0.08109089 0.029034242 0.08683245 -0.15538615 -0.07940689 -0.020101033
0.12707919 0.125919 0.14327691 0.0061390963 -0.012376586 -0.019527813 -0.023707962 0.08120811
-0.044850327 0.034599684 0.0073671136 -0.0120072635 -0.06887959 0.05406881 -0.018207327 0.028283708
-0.081098646 0.01785571 -0.02090596 -0.06419597 0.016237164 0.0647886 -0.043737974 -0.06449018
-0.015819747 -0.07251384 0.012850588 0.07196051 -0.036018204 0.01803027 -0.02876136 0.04775249
0.0033502218 -0.034613624 0.052400343 0.033830293 -0.008558454 0.06312872 0.032254547 -0.023325704
-0.084432274 0.06091288 0.012220651 -0.05691695 -0.030157665 0.08074317 0.030617785 -0.021411132
0.039181367 0.0013365713 -0.054691356 0.04855165 -0.009508534 -0.052418638 -0.06517573 0.09239548
-0.01568828 -0.00024778297 -0.013631753 0.041704718 -0.07755174 0.017936949 -0.09638507 -0.13339837
-0.027493466 0.07264849 0.030887952 0.047405683 -0.016832916 0.02402721 -0.06485949 0.12236164
0.07995533 -0.013113137 -0.10393226 0.05304845 -0.0063145654 -0.11399772 0.011737156 -0.077053666
-0.005187147 -0.0662277 -0.0106166275 0.029076751 0.04422241 0.044263076 -0.060857054 0.011464114
0.057532914 0.02443435 0.09715073 0.0051269517 0.01207624 -0.0064804135 -0.02991502 0.08701996
-0.01622337 0.034449227 0.032117818 0.02892694 0.07880752 0.050385877 -0.021944843 0.00759044
-0.041492455 0.042683993 -0.002601846 0.10287032 0.059143964 -0.014367523 -0.012601718 -0.10516614

model.decoder.blocks.1.layer.bias f4 [16]
00000000: df59 a13d 6837 7e3d 6cb5 c2bd eaf0 813d
00000010: f0f9 413d 68ee b53d 9881 653d 22bd e8bb
00000020: c55a 85bc 174f 32bc 4702 b1be fdc8 2cbd
00000030: 78f0 95bd 7966 ce3c ec69 bf3c bae9 943d
0.0787847 0.06206456 -0.0950726 0.06344779 0.0473575 0.08883363 0.056031793 -0.0071026245
-0.016278634 -0.010883114 -0.3457205 -0.042183865 -0.073212564 0.025195347 0.023365937 0.07271142

model.decoder.blocks.1.upsample.weight f4 [16, 16, 2, 2]
00000000: e201 5abe 9ccd 94bd e488 0a3e bf77 cd3d
00000010: 3460 02be 4151 75bd 0d15 563d 6f24 233d
00000020: 8618 d8bd d2f6 84bc 3945 81bd 0394 c5bc
00000030: a699 fb3d 2a19 ffba 10e7 843c a96b f03d
00000040: fcd5 b5be d325 90be 242b 29be c314 d6bd
00000050: 5ca8 08bd 5dbd c53d 2a2b 903d 00dd a0bc
00000060: 05b1 c43d 97d9 c238 cd43 9f3d 3b78 0bbe
00000070: c35f cebd 3b45 ecbd abdc 30be d28b e1bd
00000080: 6ba9 8bbd bce3 93bd 1d82 e2bc 664a 89bd
00000090: e1a0 353e 444e 1c3d af9b 1e3d fdbd ddbd
000000a0: 9908 39bd 7bef 73bd f52c 96bd 91a3 06be
000000b0: c391 233f a976 1b3f 64f2 ef3c 2049 043d
000000c0: 54e0 80be c25d 02be 9efa a8bd a524 44bc
000000d0: ca1c 2abe 070c 103b 29d7 913b 01b2 2e3b
000000e0: aed3 05bc b3ef 2f3c 9c7e 3d3e 226a 063d
000000f0: 2588 cabc 907e 4bbd ad04 bd3b fc21 c5bc
00000100: 22cf 3e3d fa4c a33d 421a 93bd 5d42 fbbc
00000110: a6e5 05be cfbb 5e3d 0e4f cebc a8fa bbbd
00000120: bb26 1d3d e9a8 1fbd bb41 ce3c b366 cebd
00000130: a40a 033e f90d 6bbd 6595 093e 2f98 103e
00000140: e4e3 69bd 7974 9b3d 3a83 ad3d d0be ad3d
00000150: 445e be39 bce5 793d aafa c1bd 955f 75bd
00000160: 4645 cbbd edfc d03c cd99 9ebd 35b9 f63d
00000170: fde3 81bd c952 44bd ec61 70bd 712a 023b
00000180: ca9a 9f3d 9a70 04bd c0c1 b23c c7fa 083d
00000190: 04c1 453d 7248 543d ca97 fdbd 49d2 8fbd
000001a0: 8d93 8dbc f659 a5bc 8ff1 64bd e52a 31bd
000001b0: dd29 38be eb89 0f3d a7db a0bd c607 79bd
000001c0: 428d 53bd 5651 f13b 4b19 6bbd 20ec de39
000001d0: 6576 f7bd 4cb8 113c 6cfe f0ba 4893 003d
000001e0: cc2c 2bbd 8e6e a8bd 9b96 91bd b63a d13c
000001f0: b3ee 95bd 2e5b 9fbd 5de6 cfbc 6c6b 903d
00000200: 88c4 25bd 1161 2d3d 5a51 343e 2c12 c93e
00000210: 3dcc 52be 96b9 4c3e 2864 903d d64f 723e
00000220: 7fad d4bc f625 5e3d 6909 833e a781 5b3e
00000230: 12de eebd c9a2 f6bd dbb0 96be 4803 37be
00000240: bd96 dfbe 753a 1f3e ef6c 46bf 8084 0e3e
00000250: 1734 d7bd 839c dcbd 4d76 8fbe 3cd5 3639
00000260: 24c8 04bd ef2a 77be e6a8 4ebe 96c3 97be
00000270: 2d27 8d3d 7faf 553e 8146 883d ea8f 613e
00000280: 2aab a2be 7ee1 3c3e 80d6 0bbe b630 2c3e
00000290: 6097 d03d 1a44 6dbe 0168 88be 76c9 c8be
000002a0: 7206 d2bd 1a52 863e d8ff 163e c375 7d3e
000002b0: e7dc a23f 5c9c 1c3f 7f3e f63e 6bb1 c4bd
000002c0: 81f9 583d 3ff6 f63d a498 d63c 2939 5d3e
000002d0: c1e4 0cbd bfc8 2f3e 9f6b ce3c e8da d83d
000002e0: 1a63 2e3e 4d06 f8bd 0760 c43c 7c39 81be
000002f0: 345e 583e 2332 a63e eb89 6a3e 1da2 043e
00000300: 8dbe a93c 07b2 acbd 335a 5abe 68c5 afbe
00000310: 5588 afbd 8313 60be 5158 a8be 0462 29be
00000320: 46eb 933d 4423 d3bd 9a77 24be 56db 22be
00000330: 8d90 013e 11ed 78bd e716 6e3e 8906 87bd
00000340: 7720 98be 1907 e33e b603 41be 33a3 a73e
00000350: b0fa 8b3d 4ba3 dd3d 646a 6d3e 0c3a 083d
00000360: a826 943e ff29 6d3d 21d7 a93e 311d d83d
00000370: 85f4 74be f48f df3d f272 c6bd 9b4c 0c3d
00000380: 2c71 bfbe 4fad 10be 7edc a0be 45f1 8bbe
00000390: 9852 cc3e 08bc 843e c77a 1d3f 8f3f b33e
000003a0: 02c4 f2bd b2a7 7dbe b9a7 dabe 0770 87be
000003b0: f5ba 8cbe ddd8 0abe 9914 853e 9c6a eb3d
000003c0: 808f 1cbe edcd e9bd 9bd0 b2be 5376 95be
000003d0: cca5 01be cd7e 97be 78e3 0abe 874a edbe
000003e0: 81bc 983e 9639 a63d c970 883e b531 193d
000003f0: 3a58 20be d921 dfbc 7b4a 1dbe 4a16 51bd
-0.2128978 -0.072657794 0.13528782 0.100326054 -0.12732011 -0.059891943 0.05226617 0.039829668
-0.105515525 -0.016230974 -0.06312031 -0.024118429 0.122851655 -0.0019462456 0.01622346 0.117392845
-0.3551482 -0.28153858 -0.16520363 -0.10453179 -0.033363685 0.09655259 0.07039483 -0.019636631
0.09604076 9.29117e-05 0.07776604 -0.13620083 -0.10076859 -0.11536642 -0.17271678 -0.11012997
-0.06819423 -0.07221171 -0.027649933 -0.067036435 0.17737152 0.038160577 0.03872269 -0.10827253
-0.045174215 -0.05955456 -0.073327936 -0.13148333 0.6389429 0.60727936 0.029290386 0.0322963
-0.2517115 -0.12731078 -0.082509264 -0.011971627 -0.16612545 0.0021979825 0.004450698 0.0026656392
-0.008168144 0.010738301 0.18505329 0.03281606 -0.024723122 -0.049681246 0.0057683797 -0.024064057
0.046584256 0.079736665 -0.07182743 -0.030671293 -0.13075885 0.054378327 -0.02518418 -0.09178668
0.038367014 -0.038979445 0.025177827 -0.10078182 0.12797028 -0.057386372 0.13435896 0.14120553
-0.0571021 0.07590575 0.08472295 0.0848366 0.00036309857 0.061010107 -0.094716385 -0.059905607
-0.09925322 0.02551123 -0.07744179 0.12047044 -0.063423134 -0.047930513 -0.058687136 0.0019861723
0.077931955 -0.032333948 0.021820903 0.033442285 0.048279777 0.0518269 -0.12382467 -0.070225306
-0.017282272 -0.020184498 -0.05589443 -0.043253798 -0.1798472 0.03504364 -0.07854395 -0.06079843
-0.051648386 0.0073644323 -0.057397168 0.00042519066 -0.12083129 0.008894037 -0.001838637 0.03139046
-0.04179077 -0.08224212 -0.07108804 0.02554069 -0.07320919 -0.07781063 -0.0253784 0.07051739
-0.04047063 0.042328898 0.17609158 0.39271677 -0.20585723 0.1999267 0.07050353 0.23663267
-0.025961636 0.05423542 0.25593117 0.21436177 -0.1166345 -0.120427676 -0.29431805 -0.17872345
-0.43669692 0.15549643 -0.7750997 0.13917732 -0.10507982 -0.1077204 -0.28019944 0.00017436309
-0.03241743 -0.24137472 -0.20181617 -0.29641408 0.06892238 0.20867728 0.066540726 0.22027555
-0.31771213 0.18445393 -0.13656044 0.16815457 0.101851225 -0.2317051 -0.2664185 -0.39216202
-0.102551356 0.26234514 0.14746034 0.24751954 1.2723664 0.61176085 0.48094556 -0.09604152
0.05297232 0.120586865 0.026195832 0.21603836 -0.034397844 0.17166422 0.025197802 0.10588628
0.17029992 -0.12110577 0.02397157 -0.2523917 0.21129686 0.32460126 0.22904174 0.12952466
0.020720745 -0.084323935 -0.21323471 -0.34330297 -0.08570925 -0.21882443 -0.3287988 -0.16541296
0.07222609 -0.10309461 -0.1606125 -0.15903983 0.12652798 -0.06077296 0.23250924 -0.06593043
-0.2971227 0.44341353 -0.18849072 0.327417 0.06834924 0.10822161 0.23185116 0.033258483
0.28935742 0.05790138 0.33171943 0.10552443 -0.23921402 0.10916129 -0.09689893 0.034252744
-0.3739103 -0.14128612 -0.31418222 -0.27332512 0.39906764 0.25924706 0.6151547 0.3500943
-0.11853792 -0.24771002 -0.42706087 -0.26452658 -0.27486387 -0.1355929 0.25992277 0.114949435
-0.15289116 -0.1141623 -0.34924778 -0.29191837 -0.12660903 -0.2958893 -0.13563335 -0.46345922
0.29831317 0.081164524 0.26648548 0.03740092 -0.15658656 -0.02723782 -0.15360443 -0.051046647

model.decoder.blocks.1.upsample.bias f4 [16]
00000000: 8f22 2cbe e9ce aebd 4ffa 54bd 9461 6c3d
00000010: 6909 0d3b 75bd 0d3d ed61 243e 01c8 0dbe
00000020: 61e1 21be 86a0 a03d f0e1 b2bd 910a ad3b
00000030: 7346 10be 0bc9 f1bd 827d a73d 1912 e4bc
-0.16810058 -0.08535559 -0.051996525 0.057710245 0.0021520501 0.03460451 0.1605298 -0.13845827
-0.15808631 0.078431174 -0.087345004 0.0052808006 -0.14089374 -0.11805924 0.081782356 -0.02784066

model.decoder.blocks.2.layer.weight f4 [1, 16, 3, 3]
00000000: 519f 60bc b757 7c3c e381 dbbd b883 aabd
00000010: 3de6 0ebe 31fa 08be 281c 4abd c2b1 e4bb
00000020: 3828 4a3c 726e 723c 9457 3ebd 3b85 96bd
00000030: f27f e8bd cb65 0cbe 710d 84bd 734c 403c
00000040: 288a 043c c1f1 57bd c468 e63b aecb 193d
00000050: a697 0dbd b1d7 c9bd d40b 82bd cc94 283c
00000060: 1285 cabd 851e a0bb 1016 44ba 34f6 883d
00000070: 4335 b03d 4001 09bd f8d7 af3d 35c1 553d
00000080: 1a77 83bc ba90 b83d dabb 1f3b b1b8 6a3d
00000090: 87ec 233d 06ca d23c d8cc 933d 03d1 a4bc
000000a0: ef58 b7bd c5c5 593d 3ab7 8b3d 8997 f4bd
000000b0: 7532 76bd f53f b03d 2424 b13d 7850 8cbd
000000c0: 5302 88bc fe51 263c cdcc 863d 64e9 6e3d
000000d0: 6b16 adbb bcc0 fe3c 2549 843d 1acc fb3d
000000e0: 2012 263d f053 563d 34fd d23d eb1e a13d
000000f0: 22bc 8e3c 386a 213b e101 213c 5e87 e0bd
00000100: cbe7 86bd 45ac 033d c936 7b3c 71ec 01be
00000110: 10a9 78bd cedc f3bd 9b6f ffbd 9269 d53c
00000120: 98fa 553d d934 bcbd 69f0 8ebd d2cd 9ebd
00000130: 789a 68bc bc01 b7bd 7df8 ea3c 98e7 fcbd
00000140: 1329 b2bd 7898 0e3d 2d99 bd3d 2ced d93d
00000150: 7699 4bbb a4bd 8a3d 1a97 863d 3ec0 46bd
00000160: 9c7a ab3d 14f4 8bbd a56e e8bc 7709 a8bd
00000170: f37a b4bd 5b0f 9b3c acf7 c2bd b985 afbd
00000180: d8f1 dabd f14f 8a3c 9195 343d cc05 34be
00000190: 1502 67bd ed66 74bd ab50 8abd aa5e 9d3d
000001a0: 0f25 213e fbc2 18be ff08 933d 259c 013e
000001b0: 463f 0bbd 4d97 31bd 59cc 313c ba82 00be
000001c0: 5eef 03bd 0ce9 91bd 5d95 a73c 5431 a8bd
000001d0: 688f 01bd 0a1e a3bd e1c6 a3bb a77a 93bd
000001e0: d137 31bc bf33 f4bc b62b dbbd 43ba 1ebc
000001f0: 7223 dcbc a152 49bd 6ac5 21bb 89a3 423d
00000200: c90e 953c 8cc4 00bd f604 ed3d 4fae 713d
00000210: 45e3 cd3d 4597 523d cfe6 653d e4bb 7cbd
00000220: fdcc 86bd e2e8 20bd bb65 b0bd a57e 82bd
00000230: 6fc5 a33c 4ada f03c c614 88bc d871 34bb
-0.013709859 0.015401772 -0.10718133 -0.083259046 -0.13955016 -0.1337669 -0.04934326 -0.006979198
0.01233869 0.01479684 -0.04647024 -0.073496304 -0.11352529 -0.13710706 -0.06447876 0.011736977
0.00808958 -0.05272079 0.007031532 0.03754776 -0.03456845 -0.09855593 -0.06349912 0.010289382
-0.098886624 -0.0048864507 -0.0007480094 0.066875845 0.08603909 -0.033448458 0.08586115 0.05218621
-0.016048003 0.090119794 0.0024373443 0.05730504 0.040020492 0.025731098 0.07216805 -0.020119196
-0.089525096 0.053167123 0.06822057 -0.119429655 -0.060106713 0.08605949 0.086494714 -0.06851286
-0.01660267 0.010151384 0.065820314 0.058328047 -0.0052822134 0.031097762 0.06459264 0.12294789
0.04054463 0.052326143 0.10302201 0.07867225 0.017423693 0.0024629962 0.009827108 -0.10963319
-0.0658718 0.03214671 0.015332886 -0.12687851 -0.060708106 -0.119073495 -0.12472459 0.026051316
0.052240938 -0.091897674 -0.06979448 -0.07754101 -0.0141969845 -0.08935878 0.028682942 -0.123488605
-0.086992405 0.034813374 0.092577316 0.1064094 -0.0031066812 0.06774452 0.06571789 -0.04852318
0.08372995 -0.068336636 -0.028373072 -0.0820493 -0.08812513 0.01892822 -0.09519896 -0.085704274
-0.10690659 0.016883822 0.04408795 -0.17580336 -0.05639847 -0.05966847 -0.067536674 0.07684071
0.15736793 -0.14918129 0.0717945 0.1265722 -0.03399589 -0.043357182 0.010851943 -0.12549868
-0.0322107 -0.07124528 0.020456964 -0.082125336 -0.031630903 -0.07964714 -0.0049980734 -0.072011285
-0.01081653 -0.02980983 -0.107016966 -0.009687963 -0.02687237 -0.049151067 -0.0024684318 0.04751924
0.018195527 -0.03143744 0.11573212 0.059004124 0.10053114 0.051413793 0.05612832 -0.061702624
-0.06582067 -0.039284594 -0.086131535 -0.06371812 0.019991605 0.029400963 -0.016611468 -0.0027533676
