03_Workshops/03_Encoder-Decoders for Latent Space Manipulation/Denoising/lightning_logs/version_6/checkpoints/epoch=99-step=3200.ckpt (torch, 166227 bytes, 60 tensors)

model.encoder.blocks.0.layer.weight f4 [16, 1, 3, 3]
-0.044818096 0.10182576 0.25144616 0.04702508 0.049702648 0.020391958 0.19781943 0.2198222
0.02637094 0.41852477 0.40392423 0.13880631 -0.3434154 -0.16841665 -0.11769048 0.30886617
-0.33316466 -0.16881852 0.2963168 0.22348347 -0.016695688 0.11743428 0.2895383 -0.013982486
-0.23534459 0.33467612 -0.1731935 0.019712701 -0.14737926 -0.018850695 -0.17500776 0.20379306
-0.26861867 0.18748371 -0.16790089 0.5074764 -0.13795495 0.07539335 -0.11554252 0.10129975
-0.43244123 0.09208168 0.1380891 -0.12900983 0.11367405 0.17327732 -0.045890525 -0.27195835
0.26020816 -0.22531746 -0.12961268 -0.16967918 -0.13444781 0.0035117953 0.1319947 0.023083659
0.08104638 0.026849922 0.1805786 -0.056535657 -0.17889245 0.075876065 0.06877547 0.24130024
-0.09126833 -0.045432843 -0.14921592 -0.30534774 0.33393022 -0.3077164 -0.19917369 -0.01170544
-0.040329862 0.21354455 -0.3160514 -0.19857395 -0.124284424 -0.14256774 -0.25308788 -0.32866526
0.05152677 0.13793318 0.16414061 0.22324839 -0.03665318 0.38113883 -0.2967206 -0.105942845
-0.37173837 0.15436432 -0.03577933 0.15974697 -0.28374273 0.23578326 -0.0041072187 -0.23714776
-0.07259334 0.24938267 0.22868192 0.21234405 0.05698945 0.18102397 -0.14835843 0.19667001
-0.0031087482 0.13780145 -0.21407892 -0.089712754 0.17024346 -0.08741567 0.11905038 0.15439427
0.2603435 0.26383203 -0.11286616 0.15036452 -0.20613831 0.29400945 0.17556562 0.011890367
0.19764753 -0.15751536 0.35450074 0.3210245 0.27033824 0.037146024 -0.020762919 0.006320854
0.11933837 0.29304495 0.21506536 -0.06448276 0.061806783 0.25150245 0.17346358 -0.110189326
-0.2998299 -0.35102603 -0.22714587 -0.13547342 0.16700868 0.0033149102 0.32634175 -0.38773125
00000000: 2e93 37bd 068a d03d 8dbd 803e 5f9d 403d
00000010: 0195 4b3d 090d a73c 2d91 4a3e 1219 613e
00000020: df07 d83c e148 d63e 28cf ce3e 3e23 0e3e
00000030: 25d4 afbe 6a75 2cbe b507 f1bd b523 9e3e
00000040: 8f94 aabe c3de 2cbe d6b6 973e dad8 643e
00000050: 65c5 88bc 6281 f03d 5d3e 943e cc16 65bc
00000060: 2cfe 70be ab5a ab3e a359 31be 887c a13c
00000070: 97ea 16be c66c 9abc 3c35 33be 21af 503e
00000080: 6388 89be bbfb 3f3e 36ee 2bbe f9e9 013f
00000090: 1044 0dbe d467 9a3d 8fa1 ecbd 3e76 cf3d
000000a0: f068 ddbe 5295 bc3d 3b67 0d3e 271b 04be
000000b0: f1cd e83d 9c6f 313e b4f7 3bbd 203e 8bbe
000000c0: 013a 853e 9fb9 66be 30b9 04be 61c0 2dbe
000000d0: b0ac 09be 2626 663b 9e29 073e f119 bd3c
000000e0: a5fb a53d 5ef4 db3c 99e9 383e ef91 67bd
000000f0: 952f 37be e964 9b3d 27da 8c3d 6917 773e
00000100: e4ea babd ca17 3abd 0fcc 18be 8a56 9cbe
00000110: e7f8 aa3e 018d 9dbe 30f4 4bbe 2cc8 3fbc
00000120: ed30 25bd 6cab 5a3e 7dd1 a1be f856 4bbe
00000130: d588 febd 47fd 11be bc94 81be d046 a8be
00000140: bc0d 533d 5b3e 0d3e 7a14 283e 3a9b 643e
00000150: a521 16bd a124 c33e c3eb 97be 90f8 d8bd
00000160: 7e54 bebe ae11 1e3e 598d 12bd b694 233e
00000170: ba46 91be 2b71 713e d995 86bb ddd6 72be
00000180: d1ab 94bd 2c5e 7f3e 982b 6a3e b870 593e
00000190: c56d 693d 595e 393e 46eb 17be dd63 493e
000001a0: 24bc 4bbb d31b 0d3e 8137 5bbe 52bb b7bd
000001b0: 4d54 2e3e fd06 b3bd b0d0 f33d 8819 1e3e
000001c0: be4b 853e fe14 873e 6026 e7bd 28f9 193e
000001d0: ec15 53be 6888 963e 79c7 333e d0cf 423c
000001e0: 1d64 4a3e b54b 21be 1f81 b53e 535d a43e
000001f0: c669 8a3e 6e26 183d ff16 aabc 2b1f cf3b
00000200: ad67 f43d fd09 963e 183a 5c3e 8a0f 84bd
00000210: 1c29 7d3d eec4 803e 70a0 313e f1aa e1bd
00000220: 4e83 99be afb9 b3be ed98 68be 8bb9 0abe
00000230: 5304 2b3e f73e 593b 4416 a73e b684 c6be

model.encoder.blocks.0.layer.bias f4 [16]
0.1741633 -0.19792412 -0.030831736 -0.14671156 0.035491314 -0.33110106 0.13396735 0.120422944
0.37362015 -0.21652323 0.098709494 -0.0077883657 0.040624727 -0.2646161 0.043206986 0.30357686
00000000: dd57 323e 9fac 4abe d692 fcbc 8e3b 16be
00000010: 575f 113d 1486 a9be bd2e 093e 4ea0 f63d
00000020: 244b bf3e 44b8 5dbe 3428 ca3d 8c35 ffbb
00000030: 1d66 263d c37b 87be cff9 303d 6d6e 9b3e

model.encoder.blocks.1.layer.weight f4 [16, 16, 3, 3]
0.035248656 0.0026676937 -0.0077189603 -0.066176124 0.0033812337 0.007858774 0.0847794 -0.02230862
-0.046986666 0.05926661 0.060865603 0.031688105 -0.039531857 0.054654147 -0.07453508 0.031348668
0.023947917 -0.08136193 -0.01515062 0.07612649 0.002293738 0.015443145 0.032257948 0.03872748
0.01993999 0.03917138 -0.048277937 -0.04190458 -0.0814704 -0.06372605 0.05573849 -0.07231223
-0.042427957 -0.07015388 -0.08019894 -0.05448119 -0.05115083 -0.024808105 -0.010491199 -0.0480589
0.050941512 -0.046066433 -0.0027794763 -0.07778888 0.039086394 0.028103402 0.06399878 0.024861317
0.011155834 0.019331764 -0.05578804 -0.03769975 0.010922492 -0.015074879 -0.02075779 0.06847963
-0.034257337 -0.084370665 -0.040946465 -0.07738026 -0.012362746 -0.080372795 -0.03174358 0.019047035
0.040267233 -0.032148194 0.07122786 0.036423486 -0.048669185 -0.009580041 0.03713268 -0.037283186
0.0834891 0.0462183 0.048979025 -0.0060635726 0.04503169 -0.05538943 0.095084034 -0.06828972
-0.0206894 -0.08316152 0.030618167 -0.013860726 0.07132759 0.07652732 0.059800547 -0.066713236
-0.05391587 0.034873288 -0.038220484 -0.02878751 0.041733827 -0.01296427 -0.046417844 -0.051867913
-0.041469228 -0.08491162 -0.01250938 -0.071118385 0.013983111 0.04171172 -0.07718855 0.024411885
-0.07372994 -0.0001712027 0.012542754 -0.04586443 -0.05283997 -0.033929344 -0.025765646 -0.024346953
0.030938001 0.06129802 -0.0010181852 0.0023222354 0.002675614 -0.06360296 -0.06785338 -0.053711966
0.038601097 0.04264412 0.0039156703 0.013149223 -0.09581265 0.021067962 -0.082577094 -0.028592575
-0.07991403 -0.05976495 -0.055662464 -0.05307309 0.00010960234 0.027199278 -0.007399595 0.035104644
0.05472082 -0.015161593 0.00927394 0.0034935595 0.0008459915 -0.03725429 0.0321188 0.026592309
0.06442537 -0.078413635 0.020760253 0.0010521162 0.046895023 0.0025923478 0.020421974 -0.07174318
0.06448138 0.040662095 0.027827183 -0.05528268 -0.008357657 -0.01966331 -0.055082392 -0.03664381
0.0086239185 0.019565932 0.06354883 -0.064394474 -0.06951959 0.06360577 0.061244395 -0.065607786
-0.011598191 0.028074887 -0.083693616 0.053657003 0.049289357 -0.073186934 -0.059830874 0.07663986
-0.06790436 0.06898212 0.006901443 0.0667678 0.002127058 0.04435776 -0.0820778 -0.011342526
-0.05107323 0.079862475 -0.07628031 -0.08105273 0.052907724 -0.022185784 -0.06755303 -0.056482803
0.033127557 0.01303502 -0.065386586 -0.052834135 0.062707454 0.0055893064 -0.042333018 0.053963803
-0.08055564 -0.058255915 -0.093114875 -0.03293711 -0.07738124 0.003608576 0.065679595 -0.02876067
-0.083803 -0.037659664 0.022504266 0.04721004 -0.079158135 -0.07576069 -0.09506692 -0.059675537
-0.08268058 -0.09046567 -0.02929893 -0.08946002 -0.059743237 0.02158056 -0.08948136 -0.07074127
-0.024169523 0.06377321 -0.06322779 0.032048937 0.009923396 0.05653178 0.077908434 -0.03262423
0.03712891 -0.059120998 0.042382065 -0.08800419 -0.05715925 -0.020978605 -0.03515571 0.007584521
-0.002302318 0.054112073 -0.029388133 -0.045320477 -0.0006673185 0.043887768 0.06635805 0.010011449
0.0026656515 0.04508809 0.0039722966 -0.09522532 0.001329872 -0.033534244 0.034424964 -0.06451549
00000000: e560 103d 79d4 2e3b 55ef fcbb 5987 87bd
00000010: b097 5d3b 16c2 003c d2a0 ad3d 91c0 b6bc
00000020: 1775 40bd 8bc1 723d 364e 793d 63cb 013d
00000030: 28ec 21bd 07dd 5f3d d9a5 98bd 7667 003d
00000040: 6c2e c43c 15a1 a6bd 4e3a 78bc 35e8 9b3d
00000050: 8a52 163b 3f05 7d3c e920 043d b5a0 1e3d
00000060: 3159 a33c 2b72 203d 16bf 45bd 23a4 2bbd
00000070: f4d9 a6bd ce82 82bd 0b4e 643d 6f18 94bd
00000080: f0c8 2dbd d6ac 8fbd 583f a4bd ab27 5fbd
00000090: 8883 51bd 5e3a cbbc 47e3 2bbc 69d9 44bd
000000a0: 0ca8 503d 28b0 3cbd e027 36bb c74f 9fbd
000000b0: 0e19 203d 1b39 e63c cb11 833d f6a9 cb3c
000000c0: f6c6 363c a65d 9e3c 0082 64bd 0e6b 1abd
000000d0: 40f4 323c a0fc 76bc 3e0c aabc 0c3f 8c3d
000000e0: 6c51 0cbd 87ca acbd 7bb7 27bd 8b79 9ebd
000000f0: 1d8d 4abc 7e9a a4bd 8e05 02bd 8708 9c3c
00000100: 41ef 243d d3ad 03bd eadf 913d cb30 153d
00000110: 5759 47bd 9bf5 1cbc 7018 183d 41b6 18bd
00000120: 55fc aa3d 664f 3d3d 3b9e 483d efb0 c6bb
00000130: 2673 383d 07e0 62bd 6bbb c23d 7bdb 8bbd
00000140: d17c a9bc 9650 aabd f3d2 fa3c 1918 63bc
00000150: 3314 923d 5bba 9c3d 6bf1 743d f3a0 88bd
00000160: e3d6 5cbd 4bd7 0e3d 158d 1cbd c9d3 ebbc
00000170: 17f1 2a3d 1768 54bc a320 3ebd 7373 54bd
00000180: a3db 29bd 25e6 adbd 24f4 4cbc 84a6 91bd
00000190: 6b19 653c e9d9 2a3d 0815 9ebd 6ffb c73c
000001a0: b9ff 96bd e084 33b9 2080 4d3c 57dc 3bbd
000001b0: b96e 58bd 7ff9 0abd 7a12 d3bc 4373 c7bc
000001c0: b171 fd3c a213 7b3d a074 85ba a530 183b
000001d0: 5b59 2f3b 4542 82bd b7f6 8abd 1401 5cbd
000001e0: 2f1c 1e3d 9aab 2e3d 064f 803b d76f 573c
000001f0: 6c39 c4bd b896 ac3c 2e1e a9bd fa3a eabc
00000200: f8a9 a3bd 18cc 74bd 53fe 63bd 2b63 59bd
00000210: 4fda e538 05d1 de3c 4d78 f2bb e3c9 0f3d
00000220: f022 603d 5568 78bc b9f1 173c 34f4 643b
00000230: 87c5 5d3a f497 18bd 018f 033d 1dd8 d93c
00000240: 73f1 833d 5497 a0bd 6811 aa3c 29e7 893a
00000250: ff14 403d 61e4 293b fc4b a73c 17ee 92bd
00000260: d00e 843d 4c8d 263d d5f5 e33c 1770 62bd
00000270: 8eee 08bc f314 a1bc 139e 61bd d217 16bd
00000280: 564b 0d3c bc48 a03c e425 823d 40e1 83bd
00000290: 4960 8ebd be43 823d 67db 7a3d 605d 86bd
000002a0: 5706 3ebc 4efd e53c 8f67 abbd 72c7 5b3d
000002b0: a3e3 493d 08e3 95bd 3811 75bd 5cf5 9c3d
000002c0: 7111 8bbd 7f46 8d3d 8025 e23b 8ebd 883d
000002d0: 1d66 0b3b 7cb0 353d 6818 a8bd 01d6 39bc
000002e0: 2a32 51bd f08e a33d da38 9cbd f9fe a5bd
000002f0: c5b5 583d f6be b5bc 3e59 8abd 835a 67bd
00000300: c3b0 073d d690 553c 67e9 85bd 9b68 58bd
00000310: c46c 803d 8026 b73b 6365 2dbd 2609 5d3d
00000320: 5bfa a4bd c19d 6ebd 03b3 bebd 10e9 06bd
00000330: 0e7a 9ebd dc7d 6c3b 0683 863d 7f9b ebbc
00000340: e8a0 abbd 0541 1abd de5a b83c 515f 413d
00000350: a91d a2bd 6c28 9bbd 72b2 c2bd 566e 74bd
00000360: 7054 a9bd 1146 b9bd 4f04 f0bc d136 b7bd
00000370: 53b5 74bd b7c9 b03c 0142 b7bd cde0 90bd
00000380: 2aff c5bc 879b 823d 927d 81bd bf45 033d
00000390: bd95 223c de8d 673d 758e 9f3d fca0 05bd
000003a0: 7c14 183d dc28 72bd d198 2d3d 8a3b b4bd
000003b0: d11f 6abd 53db abbc 6fff 0fbd 9387 f83b
000003c0: 7de2 16bb 9fa4 5d3d 62bf f0bc f7a1 39bd
000003d0: fdee 2eba a9c3 333d bbe6 873d 1007 243c
000003e0: 36b2 2e3b 4aae 383d 0a2a 823b 7e05 c3bd
000003f0: 194f ae3a 345b 09bd 3101 0d3d b220 84bd

model.encoder.blocks.1.layer.bias f4 [16]
-0.01759814 0.008754144 0.027092095 0.10897306 -0.048579168 0.057843603 -0.085431114 -0.019809658
-0.00352389 0.05425088 -6.836194e-05 0.0918562 0.06689932 0.056318987 0.00024306672 -0.009275202
00000000: f929 90bc 8b6d 0f3c 3ef0 dd3c 452d df3d
00000010: f3fa 46bd 6aed 6c3d 82f6 aebd dd47 a2bc
00000020: 10f1 66bb 2c36 5e3d 895d 8fb8 1a1f bc3d
00000030: 8302 893d bdae 663d badf 7e39 04f7 17bc

model.encoder.blocks.2.layer.weight f4 [16, 16, 3, 3]
0.04872155 -0.037390493 0.06851642 0.059445444 0.08275741 -0.04506395 0.07976893 0.045861024
-0.024884794 -0.016689677 -0.04099322 0.019186914 -0.04045344 -0.008094688 -0.043973923 0.07368506
0.002322331 0.057893373 0.049845643 0.06764125 -0.056506503 -0.0038942057 0.041964047 0.031387128
-0.0014801534 -0.08427228 -0.0664289 -0.043241475 0.036749434 0.1168508 0.13684253 0.12072408
0.067328125 0.014338259 0.055494867 0.10532271 -0.048576854 -0.043659806 0.0585401 0.005979437
0.05217196 -0.0053448617 0.0041527203 -0.010149569 0.102577575 -0.062145524 -0.048952788 -0.003543377
-0.06843015 0.06375364 0.06995501 0.059706096 0.027847024 -0.011932691 -0.033248354 0.07803919
0.01084287 0.058434464 0.065698795 0.047572955 -0.033427667 -0.07255797 0.0062532215 0.011508813
0.05743555 -0.08022247 0.071371354 0.07590889 -0.086911865 0.043330185 -0.042425185 0.036553975
0.10089132 0.11658486 -0.03996543 0.19712754 0.15853183 0.16069941 0.09855268 0.06907129
0.02680022 -0.09988017 -0.0888489 0.0053343396 -0.075026944 -0.013140176 -0.105024934 0.08296491
0.009673949 0.026023692 0.0015587645 0.023191592 -0.10396916 0.040517386 0.07118094 -0.008167462
0.012440099 0.034018546 0.0060576703 0.023376366 -0.012105457 0.019892469 0.035635207 -0.04933094
-0.04670154 -0.056736335 0.06576808 0.0025758538 -0.0011877386 -0.029283205 -0.011049617 -0.04216044
0.08228416 0.07215787 -0.003411478 0.016033817 0.030998347 -0.020861575 -0.021932945 -0.008800114
0.12281431 0.004812507 0.044393204 0.07578836 -0.02395398 0.10309178 -0.028329704 0.013028462
0.0521557 -0.055723835 0.044136707 0.09507649 0.03220346 0.06302238 -0.0043507186 -0.06664872
0.036062498 -0.018738002 0.098102786 0.021422451 -0.04794435 -0.0071262685 0.08168569 -0.055037625
-0.033078685 0.06801504 0.072232485 0.06770801 0.011217951 -0.03292064 0.07829505 -0.06665549
0.05269022 0.04311087 0.08520687 -0.05864424 -0.065101214 -0.012450305 -0.047828883 -0.030455837
-0.02789021 0.068319894 -0.08331271 0.03843223 -0.0111668175 -0.032197632 0.02474984 0.054966412
0.04509713 -0.056613766 -0.009309266 -0.11965457 0.069253184 0.15489332 -0.0023639959 0.16590397
0.066322185 0.02003678 0.04750801 0.05928201 0.07034807 -0.049066152 0.051164873 0.061683092
-0.059567526 -0.05235478 -0.05432089 -0.052010857 -0.026851289 0.0726169 -0.01816377 0.005422753
0.08673025 0.034795437 -0.051532455 0.00710439 0.07355707 0.018040322 -0.0016481283 0.084206626
-0.03202459 0.041142393 0.023344418 0.00011535361 0.07886226 0.057577748 0.07390397 -0.15259068
-0.051810272 0.00064602756 -0.01936333 -0.058709275 0.06480658 0.050723102 -0.04545263 -0.03712477
-0.026560895 0.03883489 0.06718311 0.203968 0.096854225 0.0064159553 0.006693302 0.021294272
0.018460866 -0.12916006 -0.06974301 0.13788974 -0.0088057155 -0.04421856 0.063397706 -0.046479266
-0.03935301 0.060936067 -0.11795735 -0.009251252 0.002580618 -0.023619965 -0.058950838 0.019272588
0.008755188 0.0396692 0.10969013 -0.10493118 -0.07533045 0.03808578 0.0003119895 -0.06465855
0.0039833346 -0.05608936 -0.0007390385 0.0247584 0.015799701 0.022359138 0.0062920223 -0.042734057
00000000: 3f90 473d c626 19bd 5652 8c3d 117d 733d
00000010: b87c a93d fa94 38bd e55d a33d c5d8 3b3d
00000020: 32db cbbc cab8 88bc 82e8 27bd e02d 9d3c
00000030: 82b2 25bd 959f 04bc 001e 34bd 31e8 963d
00000040: 4032 183b 9a21 6d3d f22a 4c3d 7f87 8a3d
00000050: 5d73 67bd ee35 7fbb 7ee2 2b3d ca8f 003d
00000060: b501 c2ba f296 acbd e00b 88bd f91d 31bd
00000070: 9386 163d 794f ef3d 7320 0c3e 303e f73d
00000080: 54e3 893d 04eb 6a3c 964e 633d 6fb3 d73d
00000090: 86f8 46bd a0d4 32bd bec7 6f3d 27ef c33b
000000a0: 44b2 553d f323 afbb 8b13 883b 614a 26bc
000000b0: 3114 d23d 4e8c 7ebd b882 48bd 0038 68bb
000000c0: 1b25 8cbd 4591 823d 9344 8f3d 618e 743d
000000d0: 711f e43c 5581 43bc 6d2f 08bd 03d3 9f3d
000000e0: 4ba6 313c fa58 6f3d 178d 863d dcdb 423d
000000f0: 73eb 08bd 4699 94bd d3e7 cc3b 768f 3c3c
00000100: 8a41 6b3d ae4b a4bd 252b 923d 1f76 9b3d
00000110: d9fe b1bd fe7a 313d 08c6 2dbd 9fb9 153d
00000120: 1ca0 ce3d 0bc4 ee3d cab2 23bd cddb 493e
00000130: 2b56 223e 638e 243e fdd5 c93d 4075 8d3d
00000140: 238c db3c f98d ccbd 69f6 b5bd afcb ae3b
00000150: baa7 99bd e549 57bc 5017 d7bd 82e9 a93d
00000160: 7c7f 1e3c a32f d53c 754f cc3a 4bfc bd3c
00000170: c8ed d4bd 8ff5 253d 50c7 913d d2d0 05bc
00000180: 8fd1 4b3c 0857 0b3d 6c7f c63b cb7f bf3c
00000190: f755 46bc 88f5 a23c 39f6 113d 3d0f 4abd
000001a0: 1d4a 3fbd 5c64 68bd 6ab1 863d a8cf 283b
000001b0: e5ad 9bba 55e3 efbc 7409 35bc 6db0 2cbd
000001c0: 9984 a83d 81c7 933d 1a93 5fbb 5a59 833c
000001d0: 3ff0 fd3c e5e5 aabc b8ac b3bc 5a2e 10bc
000001e0: 1286 fb3d 3cb2 9d3b a6d5 353d ed36 9b3d
000001f0: 233b c4bc c821 d33d b213 e8bc 5575 553c
00000200: 37a1 553d ad3e 64bd b1c8 343d 76b7 c23d
00000210: c6e7 033d e111 813d 7990 8ebb 207f 88bd
00000220: 45b6 133d 7080 99bc 1dea c83d 237e af3c
00000230: 4b61 44bd 7983 e9bb d44a a73d 226f 61bd
00000240: 847d 07bd 784b 8b3d a0ee 933d 7faa 8a3d
00000250: 7fcb 373c cbd7 06bd 2859 a03d ac82 88bd
00000260: b3d1 573d 0695 303d f180 ae3d f134 70bd
00000270: c953 85bd 5dfc 4bbc 38e8 43bd 857e f9bc
00000280: 027a e4bc 4deb 8b3d db9f aabd 1d6b 1d3d
00000290: 07f5 36bc aae1 03bd 2dc0 ca3c 7624 613d
000002a0: c5b7 383d d6e3 67bd e485 18bc 750d f5bd
000002b0: 9dd4 8d3d 5b9c 1e3e 45ed 1abb bbe2 293e
000002c0: edd3 873d 2c24 a43c c297 423d b1d1 723d
000002d0: a612 903d 97f9 48bd 4292 513d 69a7 7c3d
000002e0: 14fd 73bd f771 56bd 957f 5ebd 5609 55bd
000002f0: 3cf7 dbbc 2bb8 943d 30cc 94bc 59b1 b13b
00000300: a19f b13d a985 0e3d b213 53bd f1cb e83b
00000310: 17a5 963d 4cc9 933c 0206 d8ba 8674 ac3d
00000320: 372c 03bd ed84 283d cb3c bf3c ffe9 f138
00000330: 8982 a13d a5d6 6b3d f75a 973d bb40 1cbe
00000340: 0237 54bd 2d5a 293a d99f 9ebc 2379 70bd
00000350: 50b9 843d 07c3 4f3d 892c 3abd 2510 18bd
00000360: 3c96 d9bc 5511 1f3d 4c97 893d fddc 503e
00000370: 825b c63d ef3c d23b 7d53 db3b 5371 ae3c
00000380: 3e3b 973c 8942 04be 6cd5 8ebd f832 0d3e
00000390: d945 10bc 851e 35bd a8d6 813d 0b61 3ebd
000003a0: 9f30 21bd 1998 793d a093 f1bd 9092 17bc
000003b0: 961f 293b a87e c1bc 6f76 71bd 8ce1 9d3c
000003c0: ec71 0f3c 2c7c 223d 38a5 e03d 29e6 d6bd
000003d0: da46 9abd d6ff 1b3d 8692 a339 b46b 84bd
000003e0: a286 823b f5bd 65bd 09bc 41ba 21d2 ca3c
000003f0: 606e 813c 832a b73c 4f2d ce3b e809 2fbd

model.encoder.blocks.2.layer.bias f4 [16]
-0.026501516 0.039056472 0.0026629977 0.064857125 -0.06785517 -0.0233077 -0.09254064 0.059705783
-0.07083711 0.042538606 -0.002701875 0.044863157 0.04126651 0.085333645 -0.1087233 0.13759384
00000000: b519 d9bc aef9 1f3d b085 2e3b d0d3 843d
00000010: a7f7 8abd caef bebc f285 bdbd 0d8e 743d
00000020: 0c13 91bd f63c 2e3d f111 31bb 6ec2 373d
00000030: 1207 293d 68c3 ae3d 52aa debd 66e5 0c3e

model.decoder.blocks.0.layer.weight f4 [16, 16, 3, 3]
0.016252482 0.035923466 0.065461926 0.022446387 0.09888912 0.017570771 -0.053838875 -0.008111893
-0.032785226 0.06963962 -0.003908961 -0.01693965 -0.0078044063 -0.040584426 0.08513667 0.040723577
0.054514978 -0.01500818 -0.030270917 -0.03981698 -0.051811494 -0.0073158625 0.14378971 -0.04762552
0.0017590959 0.117654935 -0.0025389758 -0.13406298 0.024540171 0.06194617 -0.21938187 -0.163381
0.14752565 -0.48378778 -0.088811755 0.23267308 0.08714632 -0.06502019 0.06565195 -0.004585993
-0.079684705 0.027576366 0.024273027 0.006259165 -0.017864728 0.042701773 -0.120130636 -0.043650456
0.08578832 0.08470384 -0.060537465 0.15314919 0.08504166 0.015877843 -0.0061386963 0.10924724
-0.029400041 0.1142756 0.07961292 -0.010043665 0.09015142 0.06284386 -0.0317748 0.07490747
0.04676811 0.05272438 -0.044609863 -0.010852989 -0.026722614 0.067385666 0.097303465 0.028862141
0.027457505 0.014935225 -0.05025941 -0.059628874 -0.03398344 0.072947815 0.033883046 -0.00919193
-0.028495431 -0.19870704 -0.1528652 -0.013937504 -0.30168173 -0.3323774 -0.11557486 -0.252131
-0.24363944 -0.1400161 0.032758262 -0.032305658 -0.07532906 0.027340837 0.03216339 -0.033546794
-0.01903176 0.008832247 -0.024229905 0.08806302 0.07184281 -0.047723427 0.0010930452 0.115548804
0.016226696 0.042135365 0.003417671 0.085703656 0.02544755 -0.048547592 -0.07297621 0.049923465
-0.0075630024 0.04151344 0.05796451 0.07234233 -0.045704797 -0.024417652 0.085190915 -0.123457044
-0.049865503 0.1402579 -0.01958737 -0.045441326 0.026347157 -0.07362921 0.0055347937 0.059812967
-0.013288399 0.113157414 0.049097892 -0.015381265 0.093740374 -0.034096524 -0.015413626 -0.00985234
0.00572534 -0.07314526 -0.12095547 0.041291077 0.0027761145 -0.09344775 0.13918602 0.03590017
0.025236335 0.036893584 -0.042874504 0.0064185793 -0.062404253 0.041632183 -0.062671855 0.030989017
0.044037502 0.025700511 0.010639104 -0.0064619286 0.064665556 0.05691842 0.021804407 0.04285279
-0.042679377 -0.026625222 0.038245868 -0.022402357 -0.030505162 -0.035509758 -0.0075417957 -0.031591095
-0.032565534 -0.07186887 -0.026820835 0.03581974 -0.04066846 -0.016655061 0.035344876 0.033451978
-0.06958224 -0.045688644 -0.07964629 -0.015144398 -0.042347856 -0.00022753638 -0.008831634 -0.07537868
-0.016762903 -0.053997885 0.06462117 -0.0049267323 0.028476447 0.023209384 -0.07552213 -0.050034963
-0.002250159 0.026796788 0.050105475 -0.062129125 -0.03894628 -0.011099338 0.0005219109 0.011736206
0.05393457 0.053882807 -0.06187441 -0.015969578 0.0057518873 0.026176177 -0.0411825 -0.009596936
-0.06674797 -0.08617593 -0.0079653915 -0.09170251 -0.008042098 -0.026306141 0.0024296902 -0.08475905
-0.045955412 -0.04856526 -0.06399262 -0.040160757 -0.057571232 0.025736492 -0.00020324191 0.04900136
-0.031239768 0.026287686 0.05185837 -0.022631586 0.03555128 0.016696831 0.019061267 -0.03566104
0.037010588 -0.07807304 0.030205682 -0.006592967 -0.0845686 0.038219564 0.02559799 -0.039476674
0.008298355 -0.04914147 0.05312745 0.026804816 -0.032355115 0.067679785 -0.06339848 -0.0066681537
-0.08015247 -0.073988385 -0.07213893 -0.03521445 0.039426308 -0.031236479 -0.017709425 -0.013040511
00000000: ed23 853c 7c24 133d e710 863d 7ce1 b73c
00000010: 6186 ca3d 94f0 8f3c 2786 5cbd bfe7 04bc
00000020: cd49 06bd 389f 8e3d be16 80bb 05c5 8abc
00000030: 1bbc ffbb db3b 26bd 225c ae3d c4cd 263d
00000040: 194b 5f3d dfe4 75bc b7fa f7bc 2117 23bd
00000050: 4a38 54bd e7b9 efbb 9c3d 133e fa12 43bd
00000060: 7791 e63a 12f5 f03d f264 26bb ce47 09be
00000070: 7808 c93c 44bb 7d3d a4a5 60be 594d 27be
00000080: f710 173e 08b3 f7be f0e2 b5bd da41 6e3e
00000090: c579 b23d 4e29 85bd 8874 863d 1946 96bb
000000a0: bc31 a3bd d5e7 e13c 3ad8 c63c ae19 cd3b
000000b0: 0d59 92bc 0ee8 2e3d 0d07 f6bd d2ca 32bd
000000c0: c9b1 af3d 3579 ad3d 22f6 77bd 24d3 1c3e
000000d0: 522a ae3d 4012 823c 1e27 c9bb 04bd df3d
000000e0: 5bd8 f0bc 5309 ea3d 190c a33d 2f8e 24bc
000000f0: 4fa1 b83d 48b4 803d 4b26 02bd 1669 993d
00000100: eb8f 3f3d 85f5 573d d5b8 36bd bcd0 31bc
00000110: 62e9 dabc 7f01 8a3d 0a47 c73d 4c70 ec3c
00000120: 90ee e03c e0b2 743c d0dc 4dbd 683d 74bd
00000130: 3832 0bbd aa65 953d f3c8 0a3d c099 16bc
00000140: 406f e9bc dc79 4bbe b288 1cbe 215a 64bc
00000150: 0776 9abe 5f2d aabe 83b2 ecbd 5017 81be
00000160: 9e7c 79be 6160 0fbe 872d 063d f052 04bd
00000170: 1f46 9abd e4f9 df3c c2bd 033d 5d68 09bd
00000180: 7ee8 9bbc 21b5 103c cb7d c6bc 625a b43d
00000190: 5322 933d a479 43bd 8344 8f3a daa4 ec3d
000001a0: d9ed 843c 2296 2c3d 01fb 5f3b 6685 af3d
000001b0: 6177 d03c d7d9 46bd 8d74 95bd 8c7c 4c3d
000001c0: 10d3 f7bb ff09 2a3d 326c 6d3d 3728 943d
000001d0: f434 3bbd 8707 c8bc 9378 ae3d 0cd7 fcbd
000001e0: c53f 4cbd c49f 0f3e b175 a0bc af20 3abd
000001f0: fed5 d73c e9ca 96bd 375d b53b 71fe 743d
00000200: 96b7 59bc 13bf e73d df1a 493d b401 7cbc
00000210: f4fa bf3d cca8 0bbd 6f89 7cbc b66b 21bc
00000220: a29b bb3b 2fcd 95bd 80b7 f7bd d520 293d
00000230: 79ef 353b 8961 bfbd c886 0e3e 0f0c 133d
00000240: 6ebc ce3c ba1d 173d 2d9d 2fbd f252 d23b
00000250: 9a9b 7fbd 8286 2a3d 1a5a 80bd aedc fd3c
00000260: ab60 343d e189 d23c a34f 2e3c 96be d3bb
00000270: 606f 843d 4a23 693d 289f b23c 6886 2f3d
00000280: 92d0 2ebd 231d dabc b3a7 1c3d 2685 b7bc
00000290: f6e5 f9bc ae72 11bd 2b21 f7bb aa65 01bd
000002a0: 7063 05bd fc2f 93bd 5eb7 dbbc b8b7 123d
000002b0: f993 26bd 3270 88bc cac5 103d f104 093d
000002c0: 2281 8ebd 0424 3bbd 981d a3bd 3620 78bc
000002d0: f274 2dbd d596 6eb9 8fb2 10bc 2360 9abd
000002e0: 5b52 89bc e32c 5dbd 1b58 843d 6d70 a1bb
000002f0: 7047 e93c 9b21 be3c 59ab 9abd 76f1 4cbd
00000300: 6777 13bb f084 db3c 663b 4d3d 1c7b 7ebd
00000310: 2286 1fbd ffd9 35bc d9d0 083a 3749 403c
00000320: 7fea 5c3d 38b4 5c3d 0570 7dbd a2d2 82bc
00000330: 547a bc3b 6c6f d63c fbae 28bd 783c 1dbc
00000340: 29b3 88bd 027d b0bd 4681 02bc 87ce bbbd
00000350: 01c3 03bc fa7f d7bc 703b 1f3b 2796 adbd
00000360: be3b 3cbd 5eec 46bd 900e 83bd 9b7f 24bd
00000370: d0cf 6bbd 56d5 d23c 561d 55b9 a6b5 483d
00000380: 8bea ffbc 4659 d73c 7169 543d e065 b9bc
00000390: 389e 113d cbc7 883c 6026 9c3c 5011 12bd
000003a0: 6a98 173d c2e4 9fbd e871 f73c d109 d8bb
000003b0: 4d32 adbd 1e8c 1c3d e0b2 d13c 4bb2 21bd
000003c0: d3f5 073c 9148 49bd 2b9c 593d c695 db3c
000003d0: cc86 04bd b39b 8a3d 10d7 81bd 8780 dabb
000003e0: fa26 a4bd 3987 97bd 93bd 93bd 073d 10bd
000003f0: 7b7d 213d a5e3 ffbc 5b13 91bc dea7 55bc

model.decoder.blocks.0.layer.bias f4 [16]
0.06863094 -0.051968552 0.06070493 0.03840612 0.036234908 -0.048234947 -0.046517942 -0.009736776
0.016130881 0.0058595496 -0.044829395 -0.017517319 -0.06937063 0.015670516 -0.07191926 0.009633059
00000000: 618e 8c3d fadc 54bd bca5 783d bc4f 1d3d
00000010: 0e6b 143d 0292 45bd 9989 3ebd 0087 1fbc
00000020: e924 843c 7701 c03b 079f 37bd 7b80 8fbc
00000030: 3012 8ebd 745f 803c 684a 93bd fad3 1d3c

model.decoder.blocks.0.upsample.weight f4 [16, 16, 2, 2]
-0.0015269687 -0.0062678996 -0.13856508 0.02488255 0.1181706 0.14370675 -0.017238557 0.11425881
-0.07831879 0.008019411 -0.101204656 -0.14473361 0.12703714 0.03109173 -0.03602754 -0.06515616
-0.06028756 -0.1303326 0.024457097 -0.026917316 -0.021292342 0.066576 0.06665423 -0.05701045
-0.07628981 0.020630509 -0.0098617645 -0.014468455 -0.07058971 0.098661 0.11150854 -0.0761396
0.15131125 0.038779028 0.002374982 0.07216954 -0.087331615 0.09092733 0.065657705 0.018268552
0.087187715 -0.102320984 -0.012705097 -0.11615963 0.04462226 -0.14688648 0.042676482 -0.054255452
0.10229722 -0.119378574 0.04265457 -0.070137635 -0.0005245296 -0.12121185 -0.08262475 -0.13045682
-0.101016864 0.03168559 -0.027497433 -0.07607543 0.04381884 -0.07574589 0.0902949 0.026327593
0.10218364 0.047544785 0.018268332 0.09913275 0.033363238 0.062047306 0.08513149 0.010287786
0.06737558 0.113281935 -0.0545692 0.08779336 -0.036554992 0.11583006 0.05157033 -0.07995214
-0.012923077 -0.087214634 0.08369269 0.10958268 0.06290559 -0.043957528 0.020068653 0.046382867
-0.0023261856 0.10325804 -0.053205017 0.11729439 0.121139646 -0.044867106 -0.03937464 -0.007060572
0.10323247 0.044363767 0.052462526 0.100256585 -0.09838748 -0.023266576 0.10145607 0.1045959
-0.10009997 0.06480291 0.09962881 0.06980579 0.07943101 -0.11752638 0.11407139 -0.043550666
0.119639695 -0.039303217 -0.10488266 -0.08486106 -0.013066321 0.05102306 0.043043666 0.009218112
-0.00097343 0.09895368 0.116226986 -0.08199933 0.05271938 0.06286275 -0.094009586 -0.101292975
0.066779815 0.020570999 -0.13714218 0.004172692 0.12351758 0.09361984 0.038615588 -0.0032646053
0.006242373 -0.052174926 0.034087032 -0.11077284 0.024187308 0.07280843 0.02588867 0.056319274
-0.06387895 -0.117202125 -0.06837726 0.072697215 0.022780767 -0.007820586 0.0879372 -0.053824686
-0.020968888 0.12632683 -0.13638791 -0.032806672 0.020765334 0.103582196 -0.09752637 0.04059809
0.12292256 0.07145623 -0.109928615 -0.076853186 -0.13523321 -0.11823727 -0.08700183 -0.06649293
-0.037544917 -0.06138304 -0.043248493 0.03716014 0.0641202 -0.0009706545 -0.011620078 -0.08675851
0.061670262 0.07544752 -0.047759555 0.12023018 -0.0038730565 0.06474251 0.00461978 -0.028387021
-0.042304687 -0.09439906 -0.013459185 -0.118881516 -0.03221302 0.027590835 0.027299894 0.099348955
0.16268107 0.090734735 -0.37461877 -0.11548289 0.21602266 0.15045324 0.03154544 -0.12167826
-0.052104983 -0.05557234 0.024525588 -0.16973923 -0.09956305 -0.07585854 0.19420286 0.08411844
-0.13027152 -0.04285626 -0.0028520024 -0.071528375 -0.17194578 -0.13352104 -0.07525348 -0.03131225
0.14304271 0.20456126 0.124783136 0.17627728 -0.17543992 -0.280045 -0.05798569 -0.22082177
-0.17282897 -0.14019689 -0.09976657 -0.2650637 -0.23718154 -0.12426857 0.047187716 0.08821452
0.21788618 0.056087185 0.26307276 0.17827037 0.12050633 0.113135956 0.31298304 0.2270212
-0.11640403 -0.071988165 -0.06659782 -0.20103514 -0.13808066 -0.063881464 -0.063323475 -0.15461056
-0.12118222 -0.25802928 -0.17991208 -0.061211683 0.03761424 -0.16758628 0.0133564025 -0.033460274
00000000: 9124 c8ba f462 cdbb 01e4 0dbe 7dd6 cb3c
00000010: 6d03 f23d dd27 133e e037 8dbc 8600 ea3d
00000020: 9a65 a0bd d963 033c 6344 cfbd 0c35 14be
00000030: 0616 023e 15b4 fe3c 9d91 13bd 9870 85bd
00000040: 17f0 76bd e975 05be 405a c83c b481 dcbc
00000050: 476d aebc ff58 883d 0382 883d ca83 69bd
00000060: d53d 9cbd 5001 a93c 3d93 21bc 190d 6dbc
00000070: 5691 90bd c70e ca3d 975e e43d 14ef 9bbd
00000080: 56f1 1a3e c2d6 1e3d 96a5 1b3b a0cd 933d
00000090: ebda b2bd 1c38 ba3d 8c77 863d eea7 953c
000000a0: 798f b23d aa8d d1bd 0a29 50bc 1ae5 edbd
000000b0: d5c5 363d 6969 16be 89cd 2e3d f73a 5ebd
000000c0: 3481 d13d c17c f4bd 8fb6 2e3d 52a4 8fbd
000000d0: 9680 09ba eb3d f8bd 2a37 a9bd 7996 05be
000000e0: eee1 cebd c0c8 013d 4c42 e1bc 6fcd 9bbd
000000f0: 627b 333d a920 9bbd 88ec b83d f7ac d73c
00000100: a845 d13d 52be 423d 78a7 953c 1c06 cb3d
00000110: e4a7 083d 5125 7e3d 6b59 ae3d 1a8e 283c
00000120: 35fc 893d 5c00 e83d f483 5fbd 01cd b33d
00000130: b0ba 15bd 4f38 ed3d 693b 533d f3bd a3bd
00000140: 50bb 53bc 969d b2bd 1367 ab3d e26c e03d
00000150: a5d4 803d cf0c 34bd 0467 a43c f6fb 3d3d
00000160: eb72 18bb f478 d33d 81ed 59bd 0b38 f03d
00000170: 1018 f83d 92c6 37bd 4d47 21bd 5f5c e7bb
00000180: 8c6b d33d c8b6 353d f2e2 563d 5353 cd3d
00000190: 607f c9bd 8c99 bebc 33c8 cf3d 6036 d63d
000001a0: 3701 cdbd 63b7 843d 310a cc3d 57f6 8e3d
000001b0: baac a23d acb1 f0bd 439e e93d 2f62 32bd
000001c0: a805 f53d 69fc 20bd b8cc d6bd a3cb adbd
000001d0: 1f14 56bc 8efd 503d 8e4e 303d 9007 173c
000001e0: c82d 7fba 3aa8 ca3d 6a08 ee3d 44ef a7bd
000001f0: 47f0 573d 2fbe 803d 1988 c0bd b172 cfbd
00000200: dbc3 883d 8384 a83c 006f 0cbe 14bb 883b
00000210: c9f6 fc3d c2bb bf3d 612b 1e3d fdf2 55bb
00000220: d28c cc3b 60b5 55bd d89e 0b3d dfdc e2bd
00000230: 7624 c63c 961c 953d 7a14 d43c 0aaf 663d
00000240: f8d2 82bd ab07 f0bd 6009 8cbd 47e2 943d
00000250: bb9e ba3c ea21 00bc 6b18 b43d 4677 5cbd
00000260: f2c6 abbc d25b 013e 46a9 0bbe 4a60 06bd
00000270: 101c aa3c e722 d43d e8bb c7bd 2f4a 263d
00000280: d3be fb3d a557 923d 4122 e1bd 3465 9dbd
00000290: 937a 0abe 6226 f2bd 042e b2bd 722d 88bd
000002a0: b3c8 19bd c86c 7bbd 5525 31bd 3b35 183d
000002b0: 7451 833d 8573 7eba 2462 3ebc 72ae b1bd
000002c0: f599 7c3d 3b84 9a3d 869f 43bd 3e3b f63d
000002d0: 1bd3 7dbb b997 843d 8661 973b e68b e8bc
000002e0: ae47 2dbd 4b54 c1bd ea83 5cbc 2778 f3bd
000002f0: cdf1 03bd 2d06 e23c 07a4 df3c 7777 cb3d
00000300: de95 263e 22d3 b93d 08ce bfbe 4b82 ecbd
00000310: 0b35 5d3e 6a10 1a3e cb35 013d 7432 f9bd
00000320: 096c 55bd d29f 63bd e3e9 c83c 1fd0 2dbe
00000330: b6e7 cbbd b95b 9bbd 1ddd 463e 4a46 ac3d
00000340: e665 05be 0c8a 2fbd a9e8 3abb 787d 92bd
00000350: 8e12 30be bdb9 08be 7f1e 9abd 4641 00bd
00000360: ca79 123e 8278 513e 4d8e ff3d 0882 343e
00000370: 86a6 33be 0f62 8fbe 6782 6dbd 1a1f 62be
00000380: 14fa 30be c68f 0fbe 6a52 ccbd 6eb6 87be
00000390: b8df 72be 8580 febd e847 413d d0a9 b43d
000003a0: 8e1d 5f3e adbb 653d 79b1 863e 828c 363e
000003b0: 06cc f63d d3b3 e73d 503f a03e 3f78 683e
000003c0: 3c65 eebd 886e 93bd 7064 88bd 28dc 4dbe
000003d0: 0465 0dbe 49d4 82bd bdaf 81bd 3b52 1ebe
000003e0: 622e f8bd 6a1c 84be df3a 38be 1ab9 7abd
000003f0: 6411 1a3d bd9b 2bbe d0d4 5a3c a40d 09bd

model.decoder.blocks.0.upsample.bias f4 [16]
0.010962177 0.070720494 -0.011122285 -0.052203044 -0.039226543 -0.06222453 0.03971876 -0.088959776
-0.01634353 -0.04938837 0.091506906 0.027064659 -0.006003537 -0.108500436 -0.028158486 0.07847172
00000000: b49a 333c e8d5 903d 3f3a 36bc dcd2 55bd
00000010: 03ac 20bd 26df 7ebd 23b0 223d 8b30 b6bd
00000020: dee2 85bc 764b 4abd f967 bb3d b4b6 dd3c
00000030: 52b9 c4bb 7a35 debd a0ac e6bc c8b5 a03d

model.decoder.blocks.1.layer.weight f4 [16, 16, 3, 3]
-0.057396375 0.03507779 -0.011013689 0.13798644 0.16275252 0.044481706 0.055946063 0.1558135
0.08128689 0.019391472 -0.012494009 0.039475523 0.041343488 -0.16206889 -0.025222411 -0.063124016
-0.121211 -0.076049924 -0.09162888 -0.047492716 -0.06548776 0.15050347 0.17562465 0.007191733
0.00015399765 0.075058706 0.005582946 -0.029197475 -0.090474725 -0.15179971 -0.10080753 -0.13845773
-0.09250822 -0.07398287 -0.05431945 -0.04276714 0.109357454 0.17140436 0.14819573 0.18486764
0.20812722 -0.047737606 0.09523165 0.16517839 0.09405937 -0.07514072 0.05318048 -0.0853263
-0.107923895 0.02091372 0.04153826 -0.17524435 -0.057125498 0.025050592 -0.20979728 -0.3820983
-0.2778202 0.082504205 -0.13144408 -0.25298244 -0.055431508 -0.1310736 -0.3370272 -0.011055814
-0.072815455 -0.08935951 0.12101196 0.09458265 -0.044452477 0.122336924 0.03812023 -0.010765879
0.21786238 0.34954756 0.37457648 0.24190591 0.24078645 0.1739565 0.16978663 0.17736542
0.10021961 0.010836365 0.10757183 0.048160907 0.0695235 0.09913729 0.05460067 -0.018606424
0.09695719 -0.054597523 -0.049882125 0.025424693 0.059779312 0.083629385 0.021361915 -0.03368124
0.0803013 0.09827946 0.08926103 -0.25849006 -0.31386924 -0.23587513 -0.1755844 -0.2273526
-0.15961625 -0.2817906 -0.20935012 -0.1626354 -0.015245747 0.0008637698 0.016104624 -0.15889922
-0.06924109 -0.0051172734 -0.1811654 -0.2198683 -0.1804104 0.059930682 0.12328951 0.06272241
0.042725284 0.029782105 0.012434015 0.043345183 0.02644113 0.118667915 -0.058319066 -0.08486184
-0.02302196 0.14084552 0.22698666 0.16483909 0.12809505 0.24326822 0.1970562 0.16123845
0.09708181 0.18877158 -0.06078628 -0.08165051 0.052909788 -0.046845824 0.05606576 0.12216169
0.047218807 0.15276137 -0.0470962 -0.07165038 -0.083767705 -0.019783674 0.10271257 -0.021872262
0.02134616 -0.036032412 0.08152969 0.029670602 -0.007869864 0.030124793 -0.032796644 0.068984464
0.020409811 0.0015424717 0.076053865 0.017962156 0.068002276 -0.039448 -0.08803686 -0.021999398
0.020045947 0.052859247 0.00818163 -0.025984287 -0.033527434 0.064253606 0.045986254 0.061722483
0.04377445 -0.1288593 -0.03330963 -0.116245344 0.008703652 0.019830301 0.0772514 0.012157478
-0.042358957 -0.052135903 -0.0015902709 0.028773472 0.035800703 0.034309316 0.029755002 0.060681082
0.011669197 -0.03628839 -0.023509806 0.03933042 -0.059979547 -0.08328428 -0.07765148 0.072082505
0.08003762 -0.02039948 0.065684855 0.042690706 -0.02034483 -0.064290896 0.011571021 0.052566923
0.084068105 0.009043451 0.09340522 -0.015303496 -0.03556115 0.10793027 -0.0273049 0.10323967
0.028033867 0.08044239 0.044592317 -0.051697932 -0.046290684 -0.048744615 -0.029930854 -0.009403601
-0.096310705 -0.040877987 -0.031209558 0.018250283 0.0061916756 0.046394344 -0.029426679 -0.010483286
0.024936322 0.06503476 -0.04493543 -0.06762739 -0.09886772 -0.008839782 0.04179947 -0.055593245
-0.0143135255 -0.083430834 0.005844769 -0.068643875 0.10244844 0.027662527 -0.030689653 0.10999902
0.023707317 0.05692322 0.016239777 0.007964728 0.0068103923 -0.03465661 0.018304022 0.072278194
00000000: 7618 6bbd bbad 0f3d c372 34bc 514c 0d3e
00000010: 99a8 263e 7332 363d b327 653d 938d 1f3e
00000020: be79 a63d ddda 9e3c acb3 4cbc 16b1 213d
00000030: ca57 293d 63f5 25be 3b9f cebc 2a47 81bd
00000040: 793d f8bd 10c0 9bbd eca7 bbbd b987 42bd
00000050: 721e 86bd 951d 1a3e f3d6 333e a1a8 eb3b
00000060: 6e7a 2139 61b8 993d 25f1 b63b 8b2f efbc
00000070: d04a b9bd 6271 1bbe 2e74 cebd ddc7 0dbe
00000080: f374 bdbd 5584 97bd 127e 5ebd 992c 2fbd
00000090: cdf6 df3d a084 2f3e 9fc0 173e f14d 3d3e
000000a0: 4d1f 553e 8288 43bd d008 c33d 8624 293e
000000b0: 33a2 c03d 61e3 99bd c6d3 593d 8ebf aebd
000000c0: 3407 ddbd 4053 ab3c 0624 2a3d 4173 33be
000000d0: 6dfc 69bd e636 cd3c 19d5 56be 63a2 c3be
000000e0: 733e 8ebe f7f7 a83d 4799 06be ea86 81be
000000f0: 260c 63bd 2838 06be d48e acbe 7223 35bc
00000100: 4520 95bd 1e02 b7bd 1ed5 f73d 8cb4 c13d
00000110: cd13 36bd c88b fa3d f523 1c3d 5f63 30bc
00000120: 5117 5f3e e6f7 b23e 7dc8 bf3e 2fb6 773e
00000130: b990 763e a721 323e 8cdc 2d3e 489f 353e
00000140: f03f cd3d 028b 313c 9f4e dc3d 5f44 453d
00000150: 5662 8e3d 7e08 cb3d f4a4 5f3d 806c 98bc
00000160: 7e91 c63d a7a1 5fbd 3351 4cbd 7247 d03c
00000170: 27db 743d e245 ab3d 2fff ae3c 57f5 09bd
00000180: 0275 a43d be46 c93d 7dce b63d cf58 84be
00000190: 78b3 a0be 4089 71be 66cc 33be 1fcf 68be
000001a0: 7172 23be dc46 90be e15f 56be e589 26be
000001b0: 4cc9 79bc 9c6e 623a d8ed 833c 7ab6 22be
000001c0: 46ce 8dbd cdae a7bb 6c83 39be 2825 61be
000001d0: 81bd 38be e079 753d 367f fc3d 9b74 803d
000001e0: b500 2f3d 9af9 f33c 0ab8 4b3c b88a 313d
000001f0: 129b d83c 2a08 f33d f9df 6ebd 0bcc adbd
00000200: 8d98 bcbc cf39 103e 316f 683e 94cb 283e
00000210: 592b 033e 4e1b 793e 1ac9 493e b11b 253e
00000220: d4d2 c63d 564d 413e 09fb 78bd 6238 a7bd
00000230: efb7 583d 68e1 3fbd 36a5 653d e82f fa3d
00000240: 8268 413d 7a6d 1c3e f2e7 40bd 6fbd 92bd
00000250: 678e abbd 5f11 a2bc f85a d23d 752d b3bc
00000260: 24de ae3c b996 13bd 0af9 a63d c30f f33c
00000270: 9af0 00bc 45c8 f63c c655 06bd ba47 8d3d
00000280: 7a32 a73c c32c ca3a 21c2 9b3d 5f25 933c
00000290: c744 8b3d 3a94 21bd ab4c b4bd 1538 b4bc
000002a0: 6637 a43c f082 583d 3e0c 063c 00dd d4bc
000002b0: 1054 09bd 6597 833d 155c 3c3d b7d0 7c3d
000002c0: d64c 333d b1f3 03be ae6f 08bd 0a12 eebd
000002d0: c399 0e3c 2873 a23c fb35 9e3d 2930 473c
000002e0: 9680 2dbd 758c 55bd a370 d0ba 58b6 eb3c
000002f0: c2a3 123d ed87 0c3d c3c0 f33c ba8c 783d
00000300: 2930 3f3c 23a3 14bd a397 c0bc ef18 213d
00000310: 1dad 75bd f390 aabd bd07 9fbd fe9f 933d
00000320: c4ea a33d cf1c a7bc c885 863d 73dc 2e3d
00000330: 33aa a6bc f2aa 83bd 6194 3d3c 6a50 573d
00000340: e62b ac3d fc2a 143c 3c4b bf3d 84bb 7abc
00000350: 92a8 11bd 8c0a dd3d 87ae dfbc 526f d33d
00000360: 48a7 e53c fbbe a43d 6fa6 363d 36c1 53bd
00000370: 4d9b 3dbd 6fa8 47bd 8d31 f5bc 9011 1abc
00000380: 8c3e c5bd ad6f 27bd 30ab ffbc 9e81 953c
00000390: 8ae3 ca3b ff07 3e3d 3810 f1bc 17c2 2bbc
000003a0: 4247 cc3c f230 853d 370e 38bd 3b80 8abd
000003b0: 297b cabd bcd4 10bc ec35 2b3d beb5 63bd
000003c0: 4783 6abc c9dd aabd 7a85 bf3b 2995 8cbd
000003d0: 7dd0 d13d 869c e23c de68 fbbc 2b47 e13d
000003e0: d935 c23c 5328 693d 4809 853c 7e7e 023c
000003f0: b629 df3b 17f4 0dbd 51f2 953c 9706 943d

model.decoder.blocks.1.layer.bias f4 [16]
0.029265905 -0.02457957 0.017694283 -0.04563762 0.00017042314 0.038463525 -0.05645806 0.056767114
0.02243643 0.07525831 -0.04814404 0.11503093 0.04757466 0.10822296 -0.050708573 0.04763824
00000000: 0dbf ef3c 185b c9bc 9af3 903c 83ee 3abd
00000010: 9db3 3239 ee8b 1d3d 9140 67bd a284 683d
00000020: 9bcc b73c 0721 9a3d af32 45bd 5695 eb3d
00000030: a6dd 423d 00a4 dd3d cbb3 4fbd 5120 433d

model.decoder.blocks.1.upsample.weight f4 [16, 16, 2, 2]
0.04174854 -0.18834214 0.30440462 0.07688337 0.102079615 0.13783418 -0.1637568 -0.065465674
-0.19523539 0.10426729 -0.20616315 -0.27298018 0.065486416 0.037907857 -0.029196346 -0.01776442
-0.02495733 0.23498915 -0.20135921 -0.0633235 0.10757762 0.107916646 -0.06786238 -0.054629043
0.07152971 -0.110764615 0.28432468 0.15820038 -0.075872526 -0.106738694 -0.010073163 -0.105241634
-0.06350356 0.112287164 -0.29989094 -0.26393905 -0.09618855 -0.07867965 0.19047262 0.10354474
-0.026899027 -0.15934408 0.016960895 0.007911121 -0.0055269063 -0.18593833 0.25943542 0.124730565
0.036802173 -0.024158765 -0.18945734 -0.22029004 -0.06995331 -0.1825295 0.010080247 -0.16389222
-0.07927159 0.111886546 -0.09598526 0.05543913 0.38024908 0.29157224 0.12354107 0.31565407
0.1073794 -0.030517982 -0.100634016 -0.061077017 0.0070962845 -0.043116335 0.08779132 0.07735012
0.12220639 0.08778962 -0.010944391 -0.08403154 0.04171579 0.1054686 0.031239105 -0.028166078
0.10907689 0.08589172 -0.05217175 0.09681893 0.10229527 0.21947214 -0.26507783 0.016078416
0.12204541 -0.05344121 0.10080351 -0.14091215 0.003409168 -0.03876914 0.17631455 -0.11345264
-0.004770665 0.0733162 -0.054682218 -0.008160941 -0.081218466 0.06309352 0.03178327 -0.09118645
0.0028700829 -0.020731123 0.10558072 0.04385873 -0.01563881 0.05164474 -0.033753343 -0.08982981
-0.02091187 0.10868935 -0.021755612 -0.11419365 -0.019545345 -0.107482396 0.10600276 -0.11341108
-0.06597352 0.049822815 -0.05985177 -0.0051903334 0.0063155266 0.038190212 -0.004769374 -0.044641037
-0.18425761 -0.13457982 -0.18040358 -0.13229266 0.08266251 0.15618232 0.20816591 0.3518954
-0.039625634 0.18136874 0.2914792 0.46171585 0.6277907 0.4159858 -0.043744326 -0.05792408
0.017360592 0.09508483 -0.053156037 0.25168303 -0.38895592 -0.4351169 0.4556804 0.4952807
-0.29129648 -0.27056545 0.07935222 -0.06986386 0.47857234 0.581611 0.21443385 -0.047228597
0.09297128 -0.009997593 0.3228689 0.2575096 0.10086563 0.08088212 -0.20709632 -0.1476323
0.0727963 0.0056242286 -0.1849594 -0.008233164 0.10863911 -0.14856265 -0.30166593 -0.27360886
0.110582456 0.18942486 0.13987197 0.1511078 -0.14930408 0.023160743 -0.17268477 -0.049506586
0.12311434 0.18006836 0.21262063 0.2806112 -0.11387725 -0.032478023 -0.20586815 0.08640487
-0.04749524 0.050495654 0.075604744 -0.038734436 -0.05142511 -0.054808684 0.07951905 -0.045948002
-0.08283911 0.11275686 -0.074416876 0.08080428 0.06374887 0.0011862034 0.057762455 0.07390145
-0.022145731 -0.0833399 0.101189904 -0.013009987 -0.0192591 -0.17616789 0.10677575 -0.095942765
-0.09313515 -0.07271945 -0.07781182 0.04336456 -0.029536877 0.12532939 -0.013305705 -0.094730586
-0.05894871 0.03199927 0.09243081 0.0434436 0.007925335 -0.061762013 0.042687494 -0.062403247
0.07296347 -0.10362202 0.046769682 -0.07535002 -0.11232725 -0.06719906 -0.073690906 -0.07271755
-0.021966284 0.057808228 0.08766673 0.07244459 0.008569949 0.050162736 -0.06648069 -0.047794268
0.086456 0.12690283 -0.10968352 0.018550891 0.020458229 0.102366805 -0.013839412 -0.02675985
00000000: 8400 2b3d c3dc 40be ecda 9b3e 0775 9d3d
00000010: 1e0f d13d 6724 0d3e ddaf 27be de12 86bd
00000020: c9eb 47be 178a d53d 6f1c 53be 0fc4 8bbe
00000030: be1d 863d 4545 1b3d 2d2d efbc b086 91bc
00000040: 5173 ccbc ffa0 703e 1c31 4ebe c0af 81bd
00000050: a851 dc3d 6703 dd3d 6efb 8abd b4c2 5fbd
00000060: 2b7e 923d 8fd8 e2bd 0193 913e 48ff 213e
00000070: 0e63 9bbd d199 dabd e809 25bc ed88 d7bd
00000080: 280e 82bd d0f6 e53d 4e8b 99be 0523 87be
00000090: 81fe c4bd cc22 a1bd 410b 433e 440f d43d
000000a0: 595b dcbc 182b 23be 93f1 8a3c a59d 013c
000000b0: 0d1b b5bb 9e66 3ebe b8d4 843e bd72 ff3d
000000c0: e0bd 163d 9ae8 c5bc 1b01 42be b693 61be
000000d0: ae43 8fbd 03e9 3abe 9f27 253c 5dd3 27be
000000e0: 2559 a2bd c624 e53d ec93 c4bd 2414 633d
000000f0: 02b0 c23e f548 953e 1a03 fd3d 699d a13e
00000100: bbe9 db3d d900 fabc 3519 cebd e52b 7abd
00000110: f387 e83b c19a 30bd f0cb b33d bd69 9e3d
00000120: 5847 fa3d 0bcb b33d 1a50 33bc ba18 acbd
00000130: 2dde 2a3d ecff d73d 27e9 ff3c 8cbc e6bc
00000140: b463 df3d 00e8 af3d 0cb2 55bd 0149 c63d
00000150: 2f80 d13d 4ebd 603e 48b8 87be e2b6 833c
00000160: f2f2 f93d 2ce5 5abd 1272 ce3d 464b 10be
00000170: 596c 5f3b 64cc 1ebd cd8b 343e dc59 e8bd
00000180: 3d53 9cbb ce26 963d 76fa 5fbd 78b5 05bc
00000190: de55 a6bd 2d37 813d 2d2f 023d f6bf babd
000001a0: 0018 3c3b 51d4 a9bc b43a d83d 36a5 333d
000001b0: f61c 80bc 6f89 533d f240 0abd b1f8 b7bd
000001c0: 5f4f abbc 8698 de3d d338 b2bc 5cde e9bd
000001d0: 8f1d a0bc bb1f dcbd fa17 d93d 1144 e8bd
000001e0: 201d 87bd 0213 4c3d 2127 75bd ac13 aabb
000001f0: 7af2 ce3b 576d 1c3d 6948 9cbb 85d9 36bd
00000200: 07ae 3cbe 4bcf 09be b7bb 38be ba77 07be
00000210: f64a a93d 42ee 1f3e 7229 553e a22b b43e
00000220: 7d4e 22bd bab8 393e c33c 953e 0566 ec3e
00000230: e4b6 203f 17fc d43e 402d 33bd cd41 6dbd
00000240: cd37 8e3c d6bb c23d 25ba 59bd 99dc 803e
00000250: 3b25 c7be a4c7 debe f14e e93e 6f95 fd3e
00000260: d024 95be 8e87 8abe 6b83 a23d c914 8fbd
00000270: 6f07 f53e 75e4 143f 8c94 5b3e c672 41bd
00000280: ba67 be3d f2cc 23bc 134f a53e 4cd8 833e
00000290: a492 ce3d 86a5 a53d 0f11 54be ec2c 17be
000002a0: 3a16 953d 734b b83b ff65 3dbe 65e4 06bc
000002b0: 2f7e de3d cf20 18be f573 9abe 7616 8cbe
000002c0: 0e79 e23d 97f8 413e 993a 0f3e 01bc 1a3e
000002d0: 2be3 18be 99bb bd3c 47d4 30be 6bc7 4abd
000002e0: 5f23 fc3d d763 383e 39b9 593e 45ac 8f3e
000002f0: 7a38 e9bd ad07 05bd 1acf 52be 09f5 b03d
00000300: 5e8a 42bd 88d4 4e3d a9d6 9a3d 00a8 1ebd
00000310: 23a3 52bd 127f 60bd e2da a23d f933 3cbd
00000320: 8da7 a9bd 12ed e63d e067 98bd b77c a53d
00000330: c48e 823d 627a 9b3a 5398 6c3d a559 973d
00000340: f76a b5bc 1cae aabd a73c cf3d d727 55bc
00000350: 43c5 9dbc 5b65 34be 3fad da3d a47d c4bd
00000360: a4bd bebd efed 94bd ce5b 9fbd 099f 313d
00000370: 52f7 f1bc 5956 003e 2c00 5abc 1c02 c2bd
00000380: 3474 71bd ab11 033d 5d4c bd3d ebf1 313d
00000390: 44d9 013c 2afa 7cbd 15d9 2e3d 8c9a 7fbd
000003a0: df6d 953d c837 d4bd 9191 3f3d 1c51 9abd
000003b0: d40b e6bd a99f 89bd 42eb 96bd f0ec 94bd
000003c0: a3f2 b3bc 52c8 6c3d 9d8a b33d d45d 943d
000003d0: f968 0c3c 7177 4d3d 0727 88bd ecc3 43bd
000003e0: d80f b13d d1f2 013e c1a1 e0bd 0af8 973c
000003f0: 0498 a73c b0a5 d13d b3be 62bc 7937 dbbc

model.decoder.blocks.1.upsample.bias f4 [16]
-0.1522536 0.09289071 0.097435094 -0.050685383 0.124137305 -0.022529427 -0.06846372 0.05943695
0.10760412 -0.11987451 -0.04586731 -0.12609477 0.15902673 -0.034473985 0.17654829 0.02198342
00000000: 5ee8 1bbe 7c3d be3d 0d8c c73d 7a9b 4fbd
00000010: b33b fe3d a28f b8bc b536 8cbd 2974 733d
00000020: 8d5f dc3d c480 f5bd 5cdf 3bbd fd1e 01be
00000030: e7d7 223e 9834 0dbd 13c9 343e 9316 b43c

model.decoder.blocks.2.layer.weight f4 [1, 16, 3, 3]
-0.027598282 -0.07427153 -0.105368696 -0.06879715 0.008410053 -0.13397597 -0.11922432 0.023135358
-0.10592313 -0.049683265 0.11451822 -0.021006305 0.09795414 0.12841019 -0.0145814195 0.07545384
-0.02314363 0.025787069 -0.024223272 -0.042444795 0.06903701 0.046199005 0.120784 0.10314703
0.029333126 -0.034157425 -0.031338144 0.111376174 0.04334398 0.042591237 0.02754186 0.018025625
-0.121042155 0.056295373 -0.061450034 -0.100756116 -0.006167561 0.016827716 0.061732724 0.085393995
0.029346736 0.00046908486 0.09126008 0.112928025 0.0053539155 -0.0010195083 0.024547087 -0.09371905
0.02465639 0.0811113 0.02999913 -0.05956464 0.060707614 -0.06863574 -0.078542724 -0.10706328
-0.011980884 -0.020280043 0.0003382888 -0.0002573484 -0.051219087 -0.08285496 -0.0079455 0.110084675
0.005695597 -0.0055055344 0.056072164 -0.04672784 -0.067365475 0.0037522083 -0.07825741 0.019551637
0.0041649933 0.04373381 0.060693305 0.07932109 0.14247681 0.01648834 -0.012014865 0.11827001
-0.0375176 0.04270205 -0.044307414 0.057709135 -0.100068845 -0.11124339 -0.09164579 -0.00671017
-0.055660557 -0.09950369 -0.09257267 0.040156975 0.023149714 0.026849015 -0.078606695 -0.107916705
-0.070932664 -0.09269418 -0.07796595 -0.04972929 0.004865646 -0.049309257 -0.1165729 -0.13962898
0.0009784565 0.031217724 -0.09540123 -0.11729524 0.04407429 0.1031905 0.0526199 0.055009793
0.024571035 0.06703126 0.024305668 0.10236964 -0.008148168 0.06981646 -0.09215297 0.05204789
-0.022310223 -0.11143497 0.036026116 -0.09811121 -0.0069611105 -0.0091809165 0.071613 0.03877947
0.038333565 0.12572263 0.018582746 0.10177808 -0.01657451 0.124197565 0.09943552 -0.06476758
-0.009684575 -0.004494734 0.10548684 -0.027720729 -0.065415025 0.04673261 0.09933814 0.02222917
00000000: cb15 e2bc ac1b 98bd 8bcb d7bd 85e5 8cbd
00000010: 52ca 093c ff30 09be e12b f4bd 5d86 bd3c
00000020: 3aee d8bd ae80 4bbd 8788 ea3d 6a15 acbc
00000030: 2e9c c83d f67d 033e e8e6 6ebc 8b87 9a3d
00000040: b697 bdbc 673f d33c e26f c6bc 98da 2dbd
00000050: 4763 8d3d 2b3b 3d3d 9a5d f73d c03e d33d
00000060: 064c f03c a8e8 0bbd 6d5c 00bd 3119 e43d
00000070: 7589 313d 2674 2e3d 779f e13c 7aaa 933c
00000080: f3e4 f7bd fa95 663d 08b3 7bbd 3959 cebd
00000090: 4019 cabb 47da 893c 74db 7c3d 0ce3 ae3d
000000a0: 9168 f03c 81ef f539 91e6 ba3d cf46 e73d
000000b0: e66f af3b 06a1 85ba f916 c93c c6ef bfbd
000000c0: 33fc c93c ae1d a63d bcc0 f53c 0dfa 73bd
000000d0: 8ca8 783d e590 8cbd 02db a0bd fe43 dbbd
000000e0: 784b 44bc 5522 a6bc 5b5c b139 b8ec 86b9
000000f0: 1bcb 51bd dcaf a9bd d82d 02bc 1374 e13d
00000100: 21a2 ba3b c567 b4bb edab 653d b165 3fbd
00000110: e9f6 89bd 9ce7 753b 6c45 a0bd c12a a03c
00000120: 7f7a 883b 3922 333d 8b99 783d 1873 a23d
00000130: 71e5 113e 8e12 873c ffd9 44bc 8c37 f23d
00000140: 0eac 19bd 58e8 2e3d b17b 35bd 6a60 6c3d
00000150: e5f0 ccbd 93d3 e3bd cab0 bbbd fce0 dbbb
00000160: 53fc 63bd 97c8 cbbd bd96 bdbd a47b 243d
00000170: 78a4 bd3c 77f2 db3c 8cfc a0bd 6f03 ddbd
00000180: 2545 91bd 72d6 bdbd 9dac 9fbd f1b0 4bbd
00000190: ff6f 9f3b 81f8 49bd c6bd eebd e6fa 0ebe
000001a0: 8d3f 803a 50bc ff3c b861 c3bd 7d38 f0bd
000001b0: 3e87 343d 8a55 d33d f787 573d f351 613d
000001c0: 3249 c93c af47 893d ae1c c73c 2ca7 d13d
000001d0: e57f 05bc effb 8e3d b2ba bcbd 2b30 553d
000001e0: eec3 b6bc 0438 e4bd 1f90 133d 88ee c8bd
000001f0: 071a e4bb 8e6b 16bc d6a9 923d 39d7 1e3d
00000200: a803 1d3d 6fbd 003e d83a 983c 0771 d03d
00000210: 44c7 87bc 4b5b fe3d daa4 cb3d dda4 84bd
00000220: 0dac 1ebc 9048 93bb 7c09 d83d 9516 e3bc
00000230: 50f8 85bd b16a 3f3d cb71 cb3d f319 b63c
