03_Workshops/03_Encoder-Decoders for Latent Space Manipulation/Denoising/lightning_logs/version_8/checkpoints/epoch=99-step=3200.ckpt (torch, 166227 bytes, 60 tensors)

model.encoder.blocks.0.layer.weight f4 [16, 1, 3, 3]
000000 df 55 86 3e 3d 23 39 3e 3f 8c 39 3e 49 7c 9c 3e
       0.2623739 0.18079849 0.18119906 0.30563572
000010 74 e4 40 3e f3 3f 1c be 84 ad 7e 3e d5 be 96 3b
       0.18837148 -0.1525877 0.24870878 0.0046003857
000020 29 57 63 be a5 ee 9d 3d 3b 5f ee bd e3 1f 5b be
       -0.22201218 0.077115335 -0.116392575 -0.21398883
000030 13 00 75 3e 45 3b 62 3e 73 9d a7 3c e6 9d 08 3d
       0.2392581 0.22092922 0.02046082 0.03335371
000040 ac 62 8b 3e 04 fc 7a 3e b6 1b 98 3e 71 68 39 be
       0.27223718 0.24510199 0.29708642 -0.18106247
000050 15 ca 75 3e 42 11 0e be ec 29 81 be 84 22 23 3e
       0.2400287 -0.13873771 -0.25227296 0.15931135
000060 6c 70 c4 3d b9 59 98 be 10 c9 94 3e 99 8f c0 3d
       0.09591755 -0.29755953 0.2905965 0.09402389
000070 dc 1e 55 be 53 24 97 bd d9 a3 ad be 06 c1 03 bd
       -0.20812553 -0.07379975 -0.33914068 -0.032166503
000080 46 69 35 3e c6 a2 57 3d 6a f4 4e be ba 9e 70 bd
       0.1771594 0.052645467 -0.20210424 -0.058745123
000090 c9 84 6c 3e 4d 4c 4c 3e 8b 53 5a be 81 e3 94 3e
       0.23097529 0.19950981 -0.21320932 0.29079822
0000a0 75 5c 9c 3e 75 df 8d be be fc 37 be f0 19 64 bb
       0.3053929 -0.27709547 -0.17967507 -0.00348055
0000b0 7b b6 48 be cf c7 7b be 5b 35 31 3e ad 5e 5c 3d
       -0.19600861 -0.2458794 0.1730551 0.053801227
0000c0 83 8e 65 3e fd 74 a1 3e 74 51 88 bd 84 4a 48 be
       0.22417645 0.31534567 -0.06656161 -0.19559675
0000d0 5b a5 58 bd 34 72 b3 3e d3 1c 2a bd 04 f0 ca 3d
       -0.05289207 0.35048068 -0.041531395 0.099090606
0000e0 6e bb c1 3e f6 65 6b 3e 3e 34 be 3d d4 48 c7 3e
       0.3783831 0.22988114 0.09287308 0.3892275
0000f0 22 63 99 3e 56 ff 57 bd 25 71 b3 3e de 23 c6 bb
       0.29958445 -0.05273374 0.3504726 -0.006046756
000100 df f7 37 be 8a fc 26 3d ce f7 55 bd 07 69 7b be
       -0.17965649 0.040768184 -0.052238278 -0.24551784
000110 b5 d7 04 be 9b 80 40 3d a6 28 9d 3e ed 93 4c 3e
       -0.1297291 0.046997648 0.30695075 0.19978304
000120 34 da 86 be c6 f4 f9 3d ba 20 1a be fc 14 af be
       -0.2633835 0.1220489 -0.15051547 -0.34195697
000130 49 83 3b 3d 36 08 82 3e 94 df 0f 3e 67 1a 8b be
       0.0457795 0.2539689 0.14050132 -0.2716858
000140 96 52 2d bd ed 61 0e be c9 3b 10 bc 63 a7 5f bc
       -0.04231509 -0.13904543 -0.008803316 -0.013650748
000150 52 6b a3 3e 97 78 7b be f1 0d 0b 3d c7 1b f6 3e
       0.31917816 -0.2455772 0.033948842 0.48068067
000160 bb f6 46 bd fd 66 3f be 5f f0 8a be 6c de b6 bd
       -0.048575144 -0.1869163 -0.27136514 -0.08929142
000170 96 2b 16 be 3b 07 49 3e 40 6a d9 3d 38 0b 68 3e
       -0.14665064 0.19631664 0.10615969 0.2266053
000180 86 f5 10 bd 5b de bb bd d2 b0 2e bc 6b 8b 0f bd
       -0.0353904 -0.0917327 -0.010662274 -0.03504507
000190 c3 70 ee bd b8 7c b2 3e 37 62 5d 3e 50 f4 0c bd
       -0.11642601 0.34860778 0.21619497 -0.034412682
0001a0 f5 cf 0b 3e 77 8f 69 3d 82 22 a1 3e 43 bb 0f be
       0.13653548 0.057021584 0.3147164 -0.14036278
0001b0 f2 e6 a2 3c b8 66 1b bd a8 d9 07 3e ee cf 27 3e
       0.019885514 -0.037939757 0.13266623 0.16387913
0001c0 61 9b 98 3d 8e e5 5c 3e a7 6e 32 be f0 81 95 be
       0.07451511 0.21571943 -0.17425023 -0.29200697
0001d0 e7 5e 72 3d 1d 99 b7 bd 9a ae 04 be 00 23 22 be
       0.059172537 -0.08964751 -0.1295723 -0.15833664
0001e0 a8 7b 67 3c f0 0f 7b be 72 d9 3d 3e 3f b0 c4 3d
       0.014128603 -0.24517798 0.1853998 0.09603929
0001f0 55 dc 0b be 2a e7 35 3e 33 2f 84 bc 5d 86 90 3d
       -0.13658269 0.17763963 -0.016135788 0.07056878
000200 5b 80 e2 3d 62 f7 ac bd 27 76 08 3d f9 79 64 3d
       0.11059638 -0.08445622 0.033315804 0.055780385
000210 28 46 53 bd f3 af 98 3b cd fb 31 3d 68 5a 1d bd
       -0.051580578 0.0046596467 0.043453027 -0.038416296
000220 3c 74 a7 be 0f 87 90 be 8e 05 17 be 8e 86 21 3e
       -0.32705867 -0.28228042 -0.14748213 0.15773985
000230 ab 50 9f 3e 8a 94 10 bd 91 c0 c7 3e 8a 64 ce bd
       0.31116232 -0.035297908 0.39014104 -0.1007777

model.encoder.blocks.0.layer.bias f4 [16]
000000 da 1f 59 be c1 c6 1e 3e 4f 01 8a 3e 97 52 86 3e
       -0.21203557 0.15505506 0.26954123 0.26234886
000010 9b a0 4e be 74 dd fe bc a9 99 82 be 7b a1 a2 3e
       -0.20178454 -0.031111456 -0.25507858 0.31763825
000020 bc a7 97 3d a9 86 5a bd ab 51 ff 3d d2 49 76 bd
       0.0740504 -0.05335108 0.12466749 -0.060128994
000030 79 43 9f 3e 1c 47 a5 3e 71 71 b1 3e 46 d9 1a 3c
       0.31106165 0.32280815 0.3465686 0.009451216

model.encoder.blocks.1.layer.weight f4 [16, 16, 3, 3]
000000 b7 ef 88 3d fb 97 d1 bc bd c0 27 3c 3c ed 02 bb
       0.06686347 -0.025585165 0.0102388235 -0.0019977828
000010 3a 8f 41 bd f8 47 0b bc ef 6c 7c bd 10 a6 2a bd
       -0.047255732 -0.008501045 -0.061627325 -0.041662276
000020 c8 7d bc 3b 4c 85 15 3c af e6 8b 3d ed f6 ad bc
       0.005752299 0.009126019 0.06831109 -0.021235907
000030 55 3c dc bc 02 72 7d 3b 50 ef a1 bb f7 9d 2a 3d
       -0.026884237 0.003867269 -0.0049418584 0.041654553
000040 b7 e0 28 3d ad 48 a5 b9 70 05 1e bd 5e c6 1b bd
       0.04122993 -0.000315254 -0.038579404 -0.038030975
000050 b4 f6 9e 3d 04 bb 17 bd df bb 0d bc bc b1 3d bd
       0.07761899 -0.037043586 -0.008650749 -0.04631208
000060 ff b5 c7 3d 12 3a 45 bd 3c bd 4d 3d 2d 70 ad 3d
       0.0975151 -0.048151083 0.050229296 0.084686615
000070 82 3a 50 bc 9d a4 2d 3b 38 85 4a bd 6c 9e cf 3d
       -0.012709262 0.0026495822 -0.049443454 0.101376384
000080 21 17 99 3d 90 4b a3 3d 39 73 44 3d 3d a1 4b bd
       0.074751146 0.07973397 0.047961447 -0.049714316
000090 4f de 19 3d f1 df c2 3c 42 8d 92 bd ff 33 8a 3c
       0.037565526 0.023788424 -0.07155849 0.016870497
0000a0 48 b0 cf bc 81 24 c9 bd 80 f6 3c bc b1 9d 5f bd
       -0.025352612 -0.09821416 -0.01153338 -0.054593746
0000b0 93 55 8f bd ed ba ac 3c 09 db e1 3c e7 51 64 3d
       -0.06998744 0.021085227 0.027570264 0.05574217
0000c0 46 70 5c bd db af bc 3d d1 bf a3 3d be 58 83 3d
       -0.05381801 0.09213229 0.079955705 0.064134106
0000d0 64 65 03 bd ec f5 90 bd 8a 2d 01 3d c6 df 4a bb
       -0.032079116 -0.07078156 0.03153757 -0.0030956133
0000e0 4a 9f a1 bd c1 02 e8 bc 04 4f 06 3d 25 7e 76 3d
       -0.0789171 -0.028321626 0.0327902 0.060178895
0000f0 95 e8 93 3d 64 77 ad 3d 08 7e c2 ba bd d8 aa 3c
       0.07222096 0.084700376 -0.0014838586 0.020855302
000100 7b de 59 3d 1b 1a f2 3c 09 89 8e 3d 0b 1c 52 bd
       0.05319069 0.029553464 0.06959731 -0.051296275
000110 f8 55 d1 3d d8 41 4f bd 76 45 3d 3c 7c 59 6b bd
       0.10221475 -0.050599903 0.011552205 -0.057458386
000120 b3 c5 ac 3d b0 6a b8 3d 0b fc 4a 3d 6e 26 7f 3a
       0.08436146 0.09004724 0.049556773 0.00097332045
000130 83 fb a8 bb 86 27 1f bd f3 44 8e bc 32 04 b5 3d
       -0.0051569357 -0.03885605 -0.017366862 0.08838691
000140 68 4c 73 bd e3 9c 1f bd f3 d9 be 3c 39 78 00 bd
       -0.05939904 -0.03896798 0.023297286 -0.031364653
000150 30 47 15 3d c4 2f a2 3d 2f 19 80 bd 25 78 13 3c
       0.036444843 0.07919267 -0.062548034 0.009000813
000160 bf 6c 4c bd 1e 02 a4 3b c3 e6 aa bc 58 da 86 3d
       -0.049908396 0.005005135 -0.020861989 0.065846145
000170 bb 7e ad 3d 9d b6 5b 3d 59 cd 4e 3c ec 95 2a 3d
       0.084714375 0.05364095 0.012622201 0.041646883
000180 e4 7e fc 3c 4f a9 38 3c de b3 0d 3d b7 ee 03 bd
       0.030822225 0.011270835 0.034595363 -0.032210078
000190 64 ec 3f 3d 1a e4 00 bd 34 f5 ae 3d 36 dc fc 3c
       0.0468563 -0.031467535 0.085428625 0.030866724
0001a0 a9 0d 81 3d 04 9d 50 bc e3 b8 3f 3d db 6b 7e bd
       0.063014336 -0.012732748 0.04680718 -0.062114578
0001b0 00 cc b9 3d df 00 a8 3d 03 98 31 bd c8 d3 36 bd
       0.09072113 0.08203291 -0.04335786 -0.044635564
0001c0 85 75 ac 3d 55 a5 37 bd 42 d8 29 bd f9 36 b7 3c
       0.084208526 -0.044835407 -0.041466005 0.02236508
0001d0 87 57 18 3d c2 05 47 3d db 66 bd 3d 94 cb b9 3d
       0.037192848 0.048589475 0.09248134 0.090720326
0001e0 51 23 e1 bc 57 5e 81 3c 9a fe ac 3d 49 93 d1 3d
       -0.02748266 0.015792055 0.08446999 0.102331705
0001f0 a4 8c 31 3d d8 cd 87 3d 7b db 0e 3e aa 0c 18 3c
       0.043347016 0.066310585 0.13950913 0.009280363
000200 7d ff 20 3e d9 36 68 3e 8c 77 b9 3d 79 8b 27 3e
       0.15722461 0.22677173 0.09056005 0.16361798
000210 13 49 65 3e f4 e3 ef 3d 25 a3 ff 3d 2e 6b 82 3d
       0.22391157 0.117134005 0.12482289 0.06368099
000220 b4 ae 43 bc 80 a5 7e bd 31 4c 49 bd 08 39 f8 bd
       -0.011943508 -0.06216955 -0.049144927 -0.12120253
000230 38 de e6 bd 90 23 48 bd 76 17 c1 bd 01 d8 12 3d
       -0.112728536 -0.04886204 -0.09428303 0.03585053
000240 23 c7 26 bd 5e 0a 8a 3d e0 a0 8a 3d 38 81 79 bb
       -0.040717255 0.06740259 0.06768966 -0.0038071405
000250 fc 5a 26 bd d7 6b 2d bd 13 a8 a4 bd 78 1c 5b bd
       -0.040614113 -0.042339172 -0.0803987 -0.053493947
000260 d4 be 9f 3c 30 c0 d1 3c ef 72 e8 bc b9 1b f8 bb
       0.019500174 0.025604337 -0.028375117 -0.007571664
000270 22 a3 d6 3b 4c 4f 15 3c a9 3f 5c 3c f5 3d 62 3d
       0.0065502087 0.009113144 0.013442912 0.055234868
000280 ce b9 46 bd b5 31 dc 3c 2d 5c 5e 3c 0a 30 53 3d
       -0.04851704 0.02687917 0.013571781 0.051559485
000290 00 33 6a 3d 61 72 b8 bd b1 f3 7a bd 84 6c 31 bc
       0.057177544 -0.09006191 -0.06126756 -0.010829095
0002a0 23 77 ea bc 7a 18 3c 3d c6 4f a9 bd 90 81 70 bd
       -0.028621262 0.04592178 -0.08267169 -0.05871731
0002b0 5b 24 c6 bc 0e a1 43 bd 27 66 08 bd 2d 05 9f bd
       -0.024187258 -0.047761016 -0.033300545 -0.07764659
0002c0 61 50 d3 3a 78 32 af bd c3 0c 8f bd fb 1c 55 3d
       0.0016121977 -0.08554548 -0.06984856 0.05202959
0002d0 c2 15 dd bc 9f 2c b6 3c 8d 28 78 3d 89 b4 52 3d
       -0.026987914 0.022238074 0.060585547 0.051441703
0002e0 91 27 a2 3c ab 65 87 3d 7e f4 91 3d 4a be a8 bd
       0.019794257 0.066111885 0.07126711 -0.0823942
0002f0 c3 b2 61 bd 7f ab a2 bd ea a6 a3 3c 4f 77 69 bd
       -0.05510212 -0.079428665 0.019977052 -0.056998547
000300 38 59 21 3c 17 8a 9d bc 61 3e 22 bd 5c 47 54 3a
       0.009847932 -0.019230885 -0.03961027 0.00080977916
000310 f3 a8 6d 3d 29 46 a9 bc ab 6a bb bd e1 f6 4d bd
       0.05802245 -0.020663338 -0.09151205 -0.05028427
000320 64 3b 96 3c cb 75 0d bd 3e 70 45 3d e7 16 b4 bc
       0.018338867 -0.034536164 0.048202746 -0.021983577
000330 86 e8 19 bd b0 b0 24 bd 8c 72 35 bd f2 44 1f bd
       -0.037575267 -0.040207565 -0.044298694 -0.03888411
000340 c1 9c 71 3d a6 2a 75 3b fc 0d 6a 3c 6c 67 37 3d
       0.058987383 0.0037409454 0.014285561 0.044776365
000350 52 75 89 3d df 61 c8 3c 1e 31 12 bd 24 ec 95 bd
       0.0671183 0.024460731 -0.035691373 -0.07320431
000360 3e 1d 29 bd f5 d7 7d bc 7d 1c ee 3c 1c 80 56 3d
       -0.041287653 -0.015493383 0.029066319 0.05236827
000370 32 16 16 bc b3 2e 96 bc e3 dc 86 3b e7 39 64 bc
       -0.009160565 -0.018332815 0.004115687 -0.013929821
000380 78 6f 3d bd 4d 09 e4 3c 65 3e 8d 3d 82 37 81 bd
       -0.046248883 0.027836466 0.068966664 -0.063094154
000390 ee be a4 bd 5c 56 a9 bd 0c ab bc bc fc 2c 82 bd
       -0.080442294 -0.08268425 -0.02303078 -0.06356236
0003a0 ff ed db 3c d4 dc 9d 3d bb 87 a4 bd 76 45 af bc
       0.026846884 0.07708135 -0.08033701 -0.021395426
0003b0 c0 25 15 bc d0 15 b6 bd 6e 46 bf bd 2d de 29 bd
       -0.009103239 -0.08890879 -0.09339605 -0.04147165
0003c0 a0 d5 d2 3c 7d 5f 72 bd cc ab 07 3b 53 44 f7 3c
       0.02573663 -0.059173096 0.0020701764 0.030183947
0003d0 f6 90 b1 bd 4c 04 93 bd 69 f2 1d 3c 36 30 3d bd
       -0.08670227 -0.07178554 0.009640315 -0.046188556
0003e0 25 64 95 bc 14 bd 95 bd 92 cd b2 bb 24 33 d7 3c
       -0.01823623 -0.073114544 -0.005456635 0.026269503
0003f0 9b af 82 3d 63 78 00 bc ac 43 2f 3d 43 b8 79 3d
       0.0638115 -0.007841202 0.042789146 0.06096674

model.encoder.blocks.1.layer.bias f4 [16]
000000 98 14 d4 3c dd 27 9d bd 19 a2 09 bd 54 31 8a 3e
       0.025888726 -0.07673619 -0.033601854 0.2699076
000010 18 55 cb 3d 0f 23 72 3e e3 f2 95 3c dd 99 d8 3a
       0.0992834 0.23646186 0.018304294 0.0016525347
000020 2f 87 c2 3d 76 a7 80 bd 4f 10 f0 bc 78 82 39 3d
       0.094984405 -0.06281941 -0.029304652 0.04529044
000030 c0 60 9a 3d d1 47 c7 bc d6 37 1b 3d 4d 9b 26 bd
       0.07537985 -0.024326237 0.037895046 -0.04067545

model.encoder.blocks.2.layer.weight f4 [16, 16, 3, 3]
000000 b6 15 98 3d 8c a2 b8 3d fe 32 c3 3c fc 19 90 3c
       0.07426016 0.09015378 0.023828026 0.017590515
000010 c2 da dd 3c 3a 1e 2d bd 4d b7 5f 3d 0f 77 ac bb
       0.02708185 -0.042265154 0.05461817 -0.0052632163
000020 4b e2 bf 3d 56 d0 3f 3d d1 06 8c bb d8 94 5f bd
       0.09369334 0.046829544 -0.0042732735 -0.054585308
000030 82 96 68 bd 12 f2 09 bd fe 7c 10 3d 7c 65 70 bc
       -0.05678416 -0.033678122 0.03527545 -0.014672633
000040 07 a1 29 3b d7 f7 16 bc c0 e6 db 3c 87 00 63 bd
       0.0025883333 -0.009214363 0.026843429 -0.055420425
000050 dd 9d 46 bd ac d5 85 bd e3 f7 56 3d fb 10 99 3b
       -0.048490394 -0.06534895 0.052482497 0.0046712137
000060 8a 7b 74 bd 85 8e fd bb fd 84 c5 3d 1d 90 e6 be
       -0.05968813 -0.007737937 0.09644506 -0.45031825
000070 31 78 c5 bf 79 3f f9 be 17 f7 04 bf 93 9a 98 bf
       -1.5427305 -0.48681238 -0.5193953 -1.1922172
000080 6c dd 7b be 21 c5 39 bd 60 cd a2 bd 33 07 de 3e
       -0.24596184 -0.045354012 -0.079493284 0.43364868
000090 e5 87 1f bd 37 0e 85 3d 79 35 46 3c 38 a2 e5 3b
       -0.03894796 0.06496852 0.01209771 0.0070078634
0000a0 79 0d 02 3c 2d bf 5f 3d 0f 82 f1 3c e9 17 70 bd
       0.007937782 0.05462568 0.029480962 -0.058616553
0000b0 d5 be 01 3d 2b 30 0c 3e 97 e9 d6 3c e2 85 13 bd
       0.031676132 0.1369025 0.026234431 -0.036016352
0000c0 70 a9 09 3e 0c 5e 83 bd f3 11 4c 3e 0d 55 e2 3d
       0.13443542 -0.064144224 0.19928722 0.110513784
0000d0 cc 5d 75 bd ac ea 8d 3e 79 3f 99 3d 88 28 8c 3d
       -0.059903905 0.27718103 0.074828096 0.06843668
0000e0 0f da 30 3d 9e 4d 49 3d d1 84 7e 3d 4e 1e 04 3c
       0.043176707 0.049146287 0.062138382 0.008063866
0000f0 3b 27 70 bd 26 8e f8 bc 31 2f 29 bd 39 6e 2e bd
       -0.058631163 -0.03034122 -0.04130477 -0.042585585
000100 aa ef 93 bd 1d 57 68 bd 6b a1 93 bd 2c 28 26 bd
       -0.07223447 -0.056723703 -0.072085224 -0.040565655
000110 62 84 97 bc ef d2 61 3d 63 e1 64 bd c7 fa c2 bc
       -0.018495742 0.055132803 -0.055879008 -0.02380122
000120 bb 26 b5 3d 46 7a 73 3d 34 24 fd 3c 08 3d 52 3d
       0.08845278 0.05944278 0.030901052 0.051327735
000130 38 65 b5 3d 9b a2 b1 bc 6f 61 7f 3d 21 ef 05 bd
       0.088571966 -0.021683982 0.06234878 -0.032698754
000140 11 fc a5 3d 0b b6 5f bc 53 19 01 3d 20 fc 05 bc
       0.081047185 -0.013654242 0.03151829 -0.008177787
000150 e8 8f 7e 3d b8 e0 64 3d 90 16 0c bd 56 d5 4b bd
       0.06214896 0.05587837 -0.034201205 -0.049764
000160 40 c4 5c bc 56 85 28 bc 21 90 75 3d d8 8f 96 3d
       -0.013474524 -0.010285696 0.059951905 0.07351655
000170 8b 88 09 bd 1e 49 99 bd a4 04 6c 3d 1e 7d 43 bd
       -0.033577483 -0.07484649 0.057621613 -0.047726743
000180 f3 d9 8f bd 59 b5 10 bc 1d 5f 1c bd f1 4d bd 3d
       -0.070239924 -0.008832299 -0.038176645 0.09243382
000190 a3 30 1e 3d 8e 45 0a bc 41 61 5c 3c 33 2f 24 bd
       0.038620602 -0.008439435 0.0134509215 -0.040084075
0001a0 03 3a a0 3c b9 09 87 3d 12 6d 80 bd 8c a3 b0 3c
       0.019558912 0.06593651 -0.062708035 0.02156236
0001b0 40 72 7f be 2f ba 05 bd 89 c7 2f bd 10 d3 ad be
       -0.24945927 -0.03264826 -0.0429149 -0.3395009
0001c0 c3 6c 2a bd 1b 0e ac 3c 8e bd 99 be 98 8f 53 3d
       -0.04160763 0.02100282 -0.3002743 0.051650614
0001d0 80 46 84 bd 16 26 b0 3d 58 e6 18 3c ba 78 fa 3c
       -0.06458759 0.08601014 0.009332262 0.030575145
0001e0 72 c3 34 3d c7 93 04 bd 16 9d 89 3d be 77 92 bc
       0.044131704 -0.032367494 0.06719415 -0.017879363
0001f0 d3 1f 69 3d f7 a3 ec 3c 4f fa 91 3d dd 19 66 bd
       0.056915116 0.028886778 0.07127821 -0.05617701
000200 96 47 8a bd 98 3b 57 bd d0 a7 69 bd 84 24 9d 3d
       -0.06751935 -0.052547067 -0.057044804 0.076729804
000210 ae 81 bf 3c f9 6e 48 3d df f5 8b bd 00 86 28 bb
       0.023377266 0.048933957 -0.068340056 -0.0025714636
000220 60 23 82 bd bb 3e 9e 3c 65 7f b9 bc 76 74 52 bd
       -0.063544035 0.019317022 -0.022643754 -0.051380597
000230 c6 19 b9 3d 5b cb 32 bd 78 1d 8f bc 53 1f ef 3b
       0.09038119 -0.043650966 -0.017470106 0.0072974353
000240 cb a7 6c bd f3 71 90 3d fa 8c fd bc eb 65 84 3d
       -0.057777207 0.07052984 -0.030951012 0.06464752
000250 53 75 36 bd 76 45 be 3d 3d 26 f7 3c 13 a4 0e bd
       -0.044545483 0.09290592 0.0301696 -0.034824442
000260 e3 f5 8c bc 03 c8 35 3d 5c 28 5b bd 89 19 89 3d
       -0.017207092 0.0443802 -0.053505287 0.066943236
000270 de 72 1e 3d a2 3c d4 bc 8f 28 8c bd 93 a5 2e bd
       0.038683765 -0.025907818 -0.068436734 -0.042638373
000280 ef 23 94 3b 1b d6 69 3d 48 aa 41 bc ea 14 51 bd
       0.004520885 0.057088953 -0.011820383 -0.051045336
000290 24 e8 96 3d 80 55 6f 3c 3c b6 ad bc 47 08 61 bd
       0.07368496 0.014607787 -0.02120506 -0.054939535
0002a0 81 9e 3e 3d 6e fa 98 bc ad ae e0 bc e7 e0 2f be
       0.04653788 -0.018674102 -0.027427042 -0.17175637
0002b0 3e 50 10 be 2e 14 89 bf 0f 69 b2 bd 72 0b 3a bd
       -0.1409311 -1.0709283 -0.087114446 -0.04542107
0002c0 3e c1 7c bf 36 f6 68 be ff 38 f7 bd 73 18 20 be
       -0.98732364 -0.22750172 -0.12071418 -0.15634327
0002d0 ff 1e 08 bd d8 d5 12 bd 73 7f 6f 3c c0 5c 38 3d
       -0.033232685 -0.03584847 0.014617789 0.04501033
0002e0 10 0b 43 bc e4 59 0d bc 9a 32 92 3d 1c 8c b0 3d
       -0.011904493 -0.008627389 0.07138558 0.08620474
0002f0 4b 74 2a 3d cf 88 b6 3d ab 56 43 bd 46 3d 03 3e
       0.041614812 0.08912813 -0.047690075 0.12816343
000300 03 08 65 3d 18 8c b4 3d f0 92 f6 3d c3 a3 81 bd
       0.055915844 0.08815783 0.12039745 -0.06330063
000310 4e a5 a9 3d 39 b1 31 3d 9d 63 37 3c c4 58 c5 3b
       0.082834825 0.043381903 0.011193183 0.0060225446
000320 91 5e 4e bd a6 13 95 3d 99 d6 11 3d 76 d7 89 bd
       -0.050383154 0.07279138 0.035605047 -0.06730549
000330 0a 4c f1 bc 22 bd b6 3d a9 de 09 3d 13 ae 16 bc
       -0.029455204 0.08922793 0.03365961 -0.009196776
000340 03 70 8a 3d 02 24 91 bc 93 9d 28 bd 0b 61 32 3d
       0.06759646 -0.017717365 -0.0411659 0.04354958
000350 25 26 69 bd 42 51 1e 3d 53 09 d2 bc 48 9d 91 bd
       -0.056921143 0.038651712 -0.025639212 -0.07110077
000360 5c 8e 5f 3d 52 94 20 3d 60 c6 a3 3c 3f 60 59 bd
       0.054579124 0.03920395 0.019992054 -0.053070303
000370 4d 24 9b 3d 66 ae 6b bd 17 5c 7b bd a1 da 92 bb
       0.07575283 -0.057539366 -0.06136712 -0.004481629
000380 32 ca 99 3d 94 0a 90 bd 2c 66 8f bd 44 7e 99 bd
       0.07509269 -0.070332676 -0.070019096 -0.074947864
000390 96 b8 a5 bb f6 6d a8 3d 33 a1 9a 3d a3 a0 4a bd
       -0.0050574047 0.082240984 0.075502776 -0.0494696
0003a0 cb 7c 48 bd 26 d4 58 3d 1b 10 a9 3d 8d c7 65 3d
       -0.048947137 0.052936696 0.08255025 0.05609851
0003b0 87 2d c1 3c d1 5b d5 bc 5b 48 81 3d 5d 2d 14 bd
       0.02358128 -0.026044758 0.06312629 -0.036176074
0003c0 23 d7 67 3d ac 29 21 bd a1 67 a5 bc 6c fb 72 3d
       0.056601655 -0.039346382 -0.020191016 0.059321806
0003d0 1b 6f 4a bd 10 8f ea 39 99 41 12 bc be 6c c0 3c
       -0.049422365 0.00044738548 -0.0089267725 0.023489352
0003e0 68 eb d7 3c 8c 2c 31 bd d1 bb 42 3d ee ec c3 3c
       0.026357368 -0.043255374 0.047542397 0.023916688
0003f0 04 05 fe 3d f1 9e 80 bd 86 53 2d b9 e5 ea 98 be
       0.124033004 -0.06280316 -0.0001652968 -0.2986671

model.encoder.blocks.2.layer.bias f4 [16]
000000 4f 48 4d 3d 0a 91 d1 3d fd 51 45 bd c4 68 9c bc
       0.050117787 0.10232742 -0.048173893 -0.019092925
000010 c0 3c 04 3e af 6f ec 3c 0b c1 07 3d 93 8a b8 bb
       0.129138 0.028861849 0.033143084 -0.0056317537
000020 33 0d 83 3d ca ab ca bc c5 e0 ad 3c 9c b2 d0 3c
       0.06399002 -0.024740119 0.021225343 0.025475793
000030 bf 77 51 bb 3d 29 dc bc 3f 08 70 bd f2 21 7d bd
       -0.0031962243 -0.026875133 -0.058601614 -0.06179995

model.decoder.blocks.0.layer.weight f4 [16, 16, 3, 3]
000000 26 66 ab bc 5f f4 be 3d 51 ad 99 3a eb c3 70 3b
       -0.020922732 0.09323954 0.0011724626 0.003673787
000010 32 fa 22 3d eb 3c d0 3b 02 d6 92 3c c0 41 b6 3d
       0.039789386 0.0063549182 0.017924313 0.088992596
000020 f8 f7 93 3d d9 0e 94 3d 2c b4 66 bd cd 67 15 3d
       0.07225031 0.072293945 -0.05632417 0.036475945
000030 34 6d a1 3d 9a 01 b9 3d 2a 5f 83 bd 9d 28 86 bd
       0.07882157 0.090335086 -0.064146355 -0.06550715
000040 f3 e6 c1 bb 39 a7 18 bd 0c 84 ba 3d e8 84 c8 3d
       -0.005917424 -0.03726885 0.09107217 0.09790975
000050 c3 59 5b 3b 7f b5 1c 3e cb 90 b6 3d 32 99 23 be
       0.003347025 0.1530361 0.08914336 -0.15976408
000060 c2 eb 01 3d a5 99 87 ba 0c f6 97 3d 7f b7 ab bd
       0.031718977 -0.0010345472 0.074199766 -0.083846085
000070 2c b2 c0 bd 40 86 11 bb 24 a7 98 3d 06 d0 a1 3a
       -0.094089836 -0.0022205263 0.074537545 0.0012345321
000080 38 1e 23 bd b4 58 a8 3d b2 37 36 3c 01 3b b2 3d
       -0.03982374 0.08220044 0.011121677 0.0870266
000090 26 d6 af bc 1b ee 83 3d 8e 13 a9 3e 44 52 c3 3c
       -0.021464419 0.064418994 0.33022732 0.023842938
0000a0 2e 90 01 3e 6e 89 80 bc bc 95 50 be cd 5f 80 3c
       0.12652656 -0.015690532 -0.20369619 0.015670681
0000b0 b6 31 90 3d c6 e5 f0 3b 45 96 83 3d 7e 8c 05 bd
       0.070407316 0.00735161 0.06425146 -0.032604687
0000c0 6f 03 97 bd 16 26 54 bd d1 5d 8d bd a5 31 13 3c
       -0.07373702 -0.051794134 -0.0690266 0.008984004
0000d0 7b 0a 21 3c 11 fa 39 bd 6a 77 cb 3c 2b 0b 9e 3d
       0.009829159 -0.045404498 0.024837214 0.07716974
0000e0 19 d7 61 bd 76 63 04 3d 77 82 0a bd d8 eb 95 3d
       -0.055136774 0.032321416 -0.033815827 0.07320374
0000f0 9e 46 b6 bd 79 f2 96 bd 08 23 ab bc 83 42 19 3d
       -0.08900188 -0.07370467 -0.020890728 0.037416946
000100 19 6d 14 bd 76 15 62 bc bc 2f a4 bd 9e 3d ce 3c
       -0.036236856 -0.013799062 -0.08016917 0.025175866
000110 2a 17 0e 3d 60 77 a9 3d 8d 77 c8 3c 2d 4c 26 3d
       0.03469006 0.08274722 0.024471069 0.04059999
000120 c6 03 60 3c 40 17 f3 bc c4 72 dc bd 0b b7 42 bd
       0.013672775 -0.029674172 -0.10764077 -0.047537845
000130 ae d5 0b 3d 92 3b a8 bd 01 25 80 3d 43 21 0f bd
       0.034139328 -0.08214487 0.06257058 -0.03494383
000140 61 75 a6 bc ee f5 10 bd b0 0f f8 bc c1 af 32 bb
       -0.020319642 -0.035390787 -0.030280918 -0.0027265402
000150 65 42 d3 bc ba fd a3 3b 14 a9 53 bd cd f6 db 3b
       -0.025788495 0.005004612 -0.051674917 0.0067127706
000160 c4 82 00 3c 0d 99 04 3d d6 7f 46 3d 53 a9 28 3d
       0.007843677 0.032372523 0.048461758 0.041177105
000170 b6 7d 4e 3d 23 13 ac bc 5f dd 92 bc e0 32 5e bc
       0.050412856 -0.021005219 -0.017927824 -0.013561934
000180 b3 8b 91 3c 51 96 59 3b 89 06 a0 bc 76 60 11 3d
       0.01776681 0.0033201168 -0.019534366 0.035492383
000190 16 93 3c 3d 1e 7c 76 3d 5b cb 66 3d 8b 36 95 bc
       0.04603871 0.06017696 0.05634628 -0.018214485
0001a0 a6 a8 dd bc ca 95 a6 bd ab a8 c4 3a 40 d5 bb 3b
       -0.027057957 -0.08134039 0.001500388 0.0057322085
0001b0 13 af 9b bd eb 40 38 bd f8 0d 6b 3d 58 0b 7f bd
       -0.07601752 -0.044983786 0.05738637 -0.062266678
0001c0 40 f6 69 bd 4b 1e 89 bd d0 03 9b bc 10 7d 19 3d
       -0.057119608 -0.06695231 -0.018922716 0.037472785
0001d0 d6 ad b4 bb 01 d8 ac 3d bc 29 00 3d d1 8c cc bd
       -0.005513887 0.08439637 0.0312898 -0.09987796
0001e0 a7 9e cc 3d 77 74 42 bd a5 f6 5a 3d ce 6a 8c bc
       0.09991198 -0.04747435 0.053457875 -0.017140772
0001f0 3f d8 41 bd fd 3c 79 bd db d6 77 bd 66 ed 30 bd
       -0.04732537 -0.06084918 -0.060507637 -0.04319515
000200 d5 48 8c bd 16 43 9d bb 88 f7 5e bd b2 ed 8f 3d
       -0.06849829 -0.004799257 -0.054435283 0.07027759
000210 c0 f6 d4 3c 90 68 fe bc 96 1c e2 bb a3 0a 57 bd
       0.025996566 -0.031055719 -0.0069003804 -0.05250038
000220 8c a4 8a 3d 5d 51 5c bd 86 6a 9c 3d 12 ea 1e 3d
       0.06769666 -0.05378853 0.07637505 0.038797446
000230 0a 3c 45 bd e3 97 70 3d 2c fa 60 bc 1f 4f 12 3d
       -0.04815296 0.0587386 -0.013731521 0.035719987
000240 28 c4 42 3d 66 5a 79 bd 38 fe 16 bd 3b 29 4f bc
       0.04755035 -0.060877226 -0.036863536 -0.012644107
000250 dc eb d9 3c 15 00 ee 3a 98 13 83 3d 64 a0 39 bd
       0.026601724 0.0018157983 0.064002216 -0.045318976
000260 4c e3 7e 3d fb c6 8a 3c 38 3b 46 bd a6 18 fb bc
       0.062228486 0.016940584 -0.04839632 -0.030651402
000270 eb 7b b3 bd cb d7 6e bc 18 a1 95 3a 56 6e 94 3d
       -0.0876387 -0.014577816 0.0011415808 0.072476074
000280 c2 bf 7a bd f9 67 e9 3c b0 a6 9e 3d 40 d7 7c 3c
       -0.06121803 0.02849196 0.07746637 0.015432179
000290 fb d3 53 3d 92 99 a9 3c f7 34 d8 bc a9 fe 9f bd
       0.051715832 0.02070311 -0.026392443 -0.078122444
0002a0 52 24 fa 3c 86 c9 5a 3d 8e db 39 bd cb 03 c8 3c
       0.030534897 0.053414844 -0.0453754 0.024415871
0002b0 fe bd 00 3d d6 09 d4 bb 5a 47 21 bd c5 94 12 bd
       0.03143119 -0.006470899 -0.039374687 -0.03578641
0002c0 b3 8d 1f bc 36 ba 48 bd 2b 88 14 3d b3 67 99 bc
       -0.009738374 -0.04900571 0.036262672 -0.018726205
0002d0 0c e5 a6 3d 0b 4e d9 bc 7b 00 64 bd ac db 9c bd
       0.08149156 -0.026526472 -0.05566452 -0.076590866
0002e0 d0 96 8c 3c 93 62 7f bd b3 04 06 3d b3 ff 76 bd
       0.017161757 -0.062349867 0.032719325 -0.060302448
0002f0 b6 2e 40 bd 67 e1 a9 3d a0 28 3c 3c 0b 93 1b 3d
       -0.046919547 0.08294945 0.011484295 0.037982028
000300 94 3f 81 3d 16 46 44 bc a6 13 4f bd ab be d5 3b
       0.06310955 -0.0119796 -0.050555848 0.0065229735
000310 96 ea 01 3d 04 33 9e 3d 00 f8 22 3a 4a 75 94 bd
       0.03171786 0.07724574 0.00062167645 -0.072489336
000320 40 86 cd 3c 38 ca 31 3c f0 c2 d5 3c cb bd 2d 3d
       0.02508843 0.010851435 0.02609393 0.04241733
000330 43 e2 95 3c 7b 1d 83 bd d1 51 66 3c 20 03 85 3c
       0.018296367 -0.06402107 0.0140575925 0.016236842
000340 0e 2f 7e bd d2 3d 84 bd f2 0d 5a bd fb ea 83 bd
       -0.062056594 -0.06457104 -0.053235956 -0.06441303
000350 48 e7 5a 3d ea db e0 3b 4c 01 a6 3c de af 39 3d
       0.053443223 0.0068621533 0.02026429 0.045333736
000360 06 21 a9 3c 56 db b5 3c 76 6d 24 bd 2d c6 6c 3d
       0.02064563 0.022199314 -0.040143453 0.057806183
000370 da 9d 68 bd f9 6a c9 bb 9d a7 2d 3d 16 e9 66 bd
       -0.056791164 -0.0061467853 0.042396177 -0.05637463
000380 00 b3 af bd 78 70 7a 3d ee 41 40 bd 18 77 40 3d
       -0.085790634 0.061142415 -0.046937875 0.046988577
000390 34 5a a3 3d 6b e6 3d bc 08 2d 76 3d be e8 9e 3d
       0.07976189 -0.01159058 0.06010154 0.07759236
0003a0 df ce 87 bd cb 40 59 3d 43 67 6d bd 4b 88 96 bd
       -0.066312544 0.053040307 -0.057959806 -0.073502146
0003b0 6e 36 2a bd d0 bc a4 bd c2 71 80 3d a6 e9 82 bc
       -0.041555814 -0.080438256 0.062716976 -0.015980553
0003c0 ae 09 11 bc 6d f8 71 bd 96 af 38 3b 0b 2a 31 bc
       -0.0088524055 -0.059074808 0.002818083 -0.0108132465
0003d0 ff 9b 8c 3d 8e 28 44 bd 10 e1 68 bd 0a 1d 92 bd
       0.068656914 -0.04789024 -0.05685526 -0.07134445
0003e0 c8 aa 0c bd ab 42 42 b9 fb ac 3c 3d 90 df 19 bd
       -0.034342557 -0.00018526117 0.046063405 -0.03756672
0003f0 96 32 4f 3c 30 7d 38 3d ab ca c3 b8 ff f2 8a 3d
       0.012646338 0.045041263 -9.3360744e-05 0.06784629

model.decoder.blocks.0.layer.bias f4 [16]
000000 41 d6 8f 3c 3d 44 8f bd e4 d5 a0 bd bc 1c 19 bd
       0.017558219 -0.06995437 -0.078532964 -0.03738092
000010 19 65 eb ba ae 09 81 3d 41 cd 76 bd 71 24 9e 3d
       -0.0017959207 0.063006744 -0.06025434 0.077217944
000020 40 2b 27 3d 2e 65 d4 3d 66 58 2c bd 3b ef 10 3d
       0.04081273 0.10370861 -0.04207649 0.035384398
000030 99 44 c8 bb 96 fc fd 3d 28 32 dd 3d 66 85 94 3d
       -0.006111693 0.124016926 0.10800582 0.07252006

model.decoder.blocks.0.upsample.weight f4 [16, 16, 2, 2]
000000 dd ad a9 bd 04 ab 04 3e b8 57 33 bd 52 3d 11 be
       -0.08285115 0.12955862 -0.043784827 -0.14183548
000010 54 74 81 bd 68 fa c8 3c df 35 bc 3d 15 88 06 3e
       -0.06321016 0.024533466 0.091899626 0.13137849
000020 68 f6 e1 3c a1 05 02 3e ec 0e 25 bd 21 4c 8d bd
       0.027583316 0.1269746 -0.040297434 -0.06899286
000030 52 20 01 bd 5c 5e d6 bd 55 1d 7c bd a3 d4 97 bd
       -0.031524964 -0.10467216 -0.06155141 -0.07413604
000040 24 e7 d1 3d 2c 36 22 3d f4 65 48 3e 32 35 7d bc
       0.10249165 0.039602444 0.19570142 -0.015454577
000050 23 89 b1 bd ff 11 05 be 5c 56 b5 bd 71 1f 0f 3d
       -0.08668735 -0.12995146 -0.08854362 0.034942094
000060 5c d3 07 bd d9 ad f7 bd e9 c2 29 bc 71 bc a6 bd
       -0.033160552 -0.12093706 -0.010361412 -0.08141411
000070 f6 c9 17 bd af cc 51 bd 90 cd 9d 3d ad 77 ca 3b
       -0.03705784 -0.051220592 0.077052236 0.0061788172
000080 71 8b 22 be bf dc 01 be b3 18 e9 bb 38 2b 01 bd
       -0.15873505 -0.12681864 -0.00711354 -0.031535357
000090 17 bb 8b 3d 26 ce 8a bc 1d 0e 92 bd 1c a4 d4 bd
       0.06822794 -0.016944002 -0.07131598 -0.10382864
0000a0 f5 5b f6 3d 8b 5e 37 bd e2 93 2e 3c da 27 ac bd
       0.12029258 -0.044767898 0.010655375 -0.084060386
0000b0 11 4b 1f bd c7 c0 f9 3d 7a 09 e9 bc a3 ca 09 bd
       -0.03888995 0.121949725 -0.028446902 -0.033640515
0000c0 73 5e d9 3d 00 b3 de 3c b1 a5 2e ba 03 42 ba 3d
       0.10613718 0.027184963 -0.0006662263 0.09094622
0000d0 84 b3 a1 3d 14 6b cb bd 47 fa c9 bd ac 76 95 3c
       0.07895568 -0.09932533 -0.0986219 0.018245064
0000e0 9a f6 93 3d 22 48 b4 bd bb ab 88 3d 9c bf a2 bd
       0.0722477 -0.08802821 0.0667338 -0.07946703
0000f0 6e 99 36 3e 8c b2 e2 3d 60 81 e6 bd cd 21 c0 bc
       0.17831966 0.11069211 -0.11255145 -0.023453617
000100 2a 44 59 3c c4 88 82 bd fb 27 91 bd 30 00 d9 bd
       0.0132608805 -0.06373742 -0.07087704 -0.10595739
000110 a9 65 90 3d d6 1b d5 3c fe 9b ff bc 9f 7f 09 bd
       0.0705064 0.02601425 -0.031202313 -0.033568975
000120 ea 06 d5 bc 8a a1 82 bd 5d 3b 90 3d d6 56 f4 bd
       -0.026004273 -0.063784674 0.07042573 -0.11930625
000130 c5 14 38 bd ea 2e 96 3b dd c1 e8 3d 4a 8e 7d bc
       -0.044941682 0.0045832293 0.113651015 -0.015475819
000140 61 93 ea 3d 37 1b bf bd b3 c7 0e 3c 17 a7 c8 bc
       0.114538915 -0.09331363 0.008714604 -0.024493737
000150 c5 03 92 bd 8c cf 34 3d a8 fd 9c bd 32 e0 94 bd
       -0.07129625 0.044143245 -0.076655686 -0.07269324
000160 74 71 0b 3c ab 1f 3b 3c 83 6d a7 bd f3 07 50 3d
       0.008510936 0.011421124 -0.081751846 0.05078883
000170 62 f4 62 bd 7e e2 6a bc d3 e7 bc bd 89 00 1f bd
       -0.055408843 -0.0143362265 -0.092239045 -0.03881887
000180 3f e4 fa bd 63 31 75 3d 6b 17 0c bd 4b 8f ed 3d
       -0.12250566 0.059861552 -0.03420202 0.115995966
000190 76 0e 9a bd ce c4 04 be c6 71 c2 3d ac 6f eb bd
       -0.075222895 -0.129657 0.09494357 -0.11495909
0001a0 79 44 83 3d c3 05 9a 3d 96 cf ae bd ab 53 04 bd
       0.064095445 0.0752063 -0.085356876 -0.032306354
0001b0 09 d2 d8 3d 36 5d d6 3d c6 db 68 3c 6e cd 28 bd
       0.10586936 0.10466997 0.014212554 -0.041211538
0001c0 d9 30 a2 bc 74 63 a8 bd 1c 14 08 3a b3 80 ee bc
       -0.019798683 -0.08222094 0.0005190985 -0.029114103
0001d0 42 a9 79 b9 5a b9 df 3d b5 0c b0 bd 47 6d 91 bc
       -0.00023809544 0.10924025 -0.08596174 -0.017752303
0001e0 90 29 af bd 79 6a e4 3d 75 70 e5 3d 23 aa bb 3d
       -0.08552849 0.111531205 0.1120309 0.091633104
0001f0 a1 4d 9b 3d 22 56 8b bc 09 94 e2 3d ae 33 aa bd
       0.07583166 -0.017008845 0.11063392 -0.08310638
000200 33 1f 26 bd 20 d7 db bc cd a0 7c bc ce 7f d0 bd
       -0.040557098 -0.026835978 -0.015419197 -0.10180627
000210 b2 31 92 3d f1 5c 83 3d 3a 58 c5 bd 65 1b e0 bc
       0.07138385 0.064142115 -0.096359685 -0.027356813
000220 62 e5 2b bd f8 57 47 3d f5 2a a9 3d fb 6f f5 3d
       -0.041966803 0.048667878 0.082601465 0.11984249
000230 28 45 56 bd 06 20 2f 3c 7b c1 89 bd 5a e7 37 bd
       -0.052312046 0.010688787 -0.067263566 -0.04489837
000240 64 25 82 bd ab fa 59 3d ee aa e2 bc 2e db 37 bd
       -0.06354788 0.05321757 -0.027669396 -0.04488676
000250 18 a6 b7 3a a6 37 c0 bd 88 fc 3d bd 15 35 aa 3d
       0.0014011292 -0.09385614 -0.04638341 0.08310906
000260 77 2b 46 3d b2 38 33 3d ee 80 c8 bd 11 39 c8 3d
       0.048381295 0.04375524 -0.097902164 0.097765096
000270 8c 2f b2 bc 1d d2 de bd 27 ea e1 bd f3 ba ff 3d
       -0.021751188 -0.1087992 -0.11030989 0.124868296
000280 44 3e 6a bd 61 64 c8 bd c4 85 c1 bb 17 fd d5 3d
       -0.057188287 -0.09784771 -0.0059058387 0.10448664
000290 8a 86 3b 3d 7c df 9c bb f3 08 dd bc fe 38 d2 3d
       0.045782603 -0.0047873836 -0.026981806 0.10264777
0002a0 de 66 95 bd c1 3f 42 bd 00 f1 61 3d a5 35 06 bd
       -0.07295011 -0.04742408 0.055161476 -0.032766003
0002b0 d8 ca 3a 3d 63 f0 9a 3d 16 12 de bd fc cc d7 bd
       0.045603603 0.075653814 -0.10843293 -0.105371445
0002c0 04 74 af bc 10 5f af bc 5c ca b2 bd 4f 3e 8d 3d
       -0.021417625 -0.021407634 -0.08730003 0.0689665
0002d0 e9 29 bf 3d 01 89 35 3c 62 49 04 bd 7b e2 37 bd
       0.093341656 0.011080028 -0.032296546 -0.044893723
0002e0 e8 0e 9d 3d 3d 21 de bd c5 9c 8a bd d9 cc f1 3d
       0.07668859 -0.108461834 -0.06768183 0.1180665
0002f0 10 10 cf 3d 8e db f7 3d 0d 05 9a 3d bc df cc bd
       0.101104856 0.121024236 0.075204946 -0.100036114
000300 d8 e4 06 3d af 01 4c bd 9e 0f 19 3c a6 d8 c8 3d
       0.032933086 -0.049806293 0.009342102 0.098069474
000310 83 b7 a9 bd 3e 29 cd 3d 4b 50 ce bd 8b e6 d4 3d
       -0.08286955 0.10017632 -0.100739084 0.10395535
000320 c8 c1 ce 3d 6e c4 f6 3d c0 9c 21 bd 1b df b6 3c
       0.100955546 0.12049185 -0.03945613 0.022323182
000330 fd d5 2d 3d ab bd a2 bc c7 55 e7 3d 5e 70 e8 3d
       0.042440403 -0.019865831 0.112956576 0.11349557
000340 6b 0d f1 3d be b9 91 3d 6c 74 ef 3d 15 8d fa 3c
       0.117701374 0.07115506 0.116921276 0.030584851
000350 d3 c0 b8 bd f4 fa 07 3c 4c f9 07 be 1a 2e 7a bd
       -0.09021153 0.008299578 -0.13278693 -0.061079122
000360 5e 0d 70 3d b1 9b 93 bd ea f3 e7 3d c0 29 20 3d
       0.058606498 -0.0720743 0.1132582 0.039102316
000370 95 13 69 bd 37 89 01 3c 5d c8 9e 3c 19 10 1c 3e
       -0.05690344 0.00790625 0.01938265 0.15240516
000380 8e 1e 97 bb e0 61 91 3d c4 6b 99 3c 12 9e 1a be
       -0.0046117967 0.07098746 0.018728144 -0.15099362
000390 54 39 e3 3d 29 40 98 bd 30 24 5a bd 85 cc b7 bd
       0.11094919 -0.074341126 -0.053257167 -0.08974556
0003a0 03 fd c0 bd 07 8b 8f 3c 87 a0 19 3d e7 45 68 bd
       -0.09423258 0.017522348 0.037506606 -0.05670729
0003b0 bf ca 99 bd 79 8e 7e 3d 59 fd 99 bd ee ef a8 bd
       -0.07509374 0.06214759 -0.07519025 -0.08248888
0003c0 76 a5 1c bd 2e 83 6d ba 90 9f 21 3d 98 8d 01 bd
       -0.038243733 -0.000906038 0.03945881 -0.031629175
0003d0 f5 cc 87 bd ec d0 4a 3d e7 38 d1 3d 99 25 a9 bc
       -0.06630889 0.04951565 0.102159314 -0.02064781
0003e0 19 1f eb bd d3 78 b3 bd 58 45 68 bd 18 5c 24 3d
       -0.11480541 -0.0876328 -0.056706756 0.04012689
0003f0 f0 5a 82 bd e2 46 fe 3b e9 68 33 3d ae 0b 8e 3d
       -0.06365001 0.0077599147 0.043801222 0.069358215

model.decoder.blocks.0.upsample.bias f4 [16]
000000 10 e4 f7 bd 23 c2 74 3d 03 24 ce 3d e4 ce 8f 3d
       -0.12104046 0.059755456 0.100654624 0.07021883
000010 4a 87 a6 bd 28 0b b3 bd 5c b7 99 bd c9 17 ac 3d
       -0.08131273 -0.08742362 -0.07505676 0.08402974
000020 28 5e f6 bc ae f9 af bd a6 17 01 3e ca 5d ad 3d
       -0.030074194 -0.085925445 0.12606677 0.084651545
000030 de 92 7a 3d 2e e0 20 3e 7e a7 fa bd 18 7b 0e 3e
       0.06117522 0.15710518 -0.12238978 0.13914144

model.decoder.blocks.1.layer.weight f4 [16, 16, 3, 3]
000000 09 53 fc 3c 6e 6a 33 bd 32 ef b9 ba db 30 6e 3d
       0.030801313 -0.04380267 -0.0014185666 0.05815206
000010 83 b8 86 3d 62 3c 48 bd 58 c5 69 bd 25 67 a2 3b
       0.065781616 -0.04888571 -0.057072967 0.0049561434
000020 a5 5c b0 bd 20 d8 b0 bd 11 71 9e bd 34 40 70 3d
       -0.086114205 -0.086349726 -0.077364095 0.05865498
000030 7c 15 30 3d 87 d8 bb 3c d2 94 a3 3c bb 0a 4d 3d
       0.04298924 0.022930397 0.019968424 0.05005906
000040 b1 87 45 bd c2 84 93 bc f6 d0 9f bd d7 8a 23 3d
       -0.04822511 -0.01800764 -0.07803528 0.03992733
000050 09 1c 41 3c ba d3 49 bc f6 16 84 bd b6 f8 29 bd
       0.011786469 -0.012318546 -0.06449692 -0.041496955
000060 9c da 07 bd 5a 5b 17 bd ac 8c 17 bc 1f a1 42 3d
       -0.033167467 -0.036952354 -0.009249847 0.04751694
000070 cb 25 6c 3d 68 02 73 bd 71 bd 12 bd 20 a9 3b 3d
       0.05765323 -0.059328467 -0.035825197 0.045815587
000080 fc 3a 82 bd 77 5f 68 bc 9a f6 6c bd 23 39 9d bd
       -0.063589066 -0.014182917 -0.057852365 -0.076769136
000090 75 49 19 bd ab 52 8b bd 0e 43 3b bd 54 d6 e8 bc
       -0.03742357 -0.06802877 -0.045718245 -0.028422512
0000a0 8b 30 47 3d 98 1f 40 3d 7c 0e 1b 3d 15 94 a8 bc
       0.04863028 0.04690513 0.03785561 -0.020578424
0000b0 1a 1c 33 3c 02 ac 63 bd 5d aa 35 3d e9 4f 2e 3d
       0.010931993 -0.05558396 0.044351924 0.042556677
0000c0 09 ca 8d bd 62 91 56 bd 22 6d c3 3c 4f 77 a6 3c
       -0.06923301 -0.05238474 0.02385575 0.020320563
0000d0 39 92 6f bc 54 f3 83 3d f7 c0 56 3d 94 9f 92 bb
       -0.014622265 0.064428955 0.05243012 -0.0044745896
0000e0 b1 e6 b8 bc 61 a0 61 3d b5 7c 66 3d 49 6c 83 bd
       -0.02257094 0.05508459 0.056271274 -0.06417138
0000f0 db e2 83 bd 19 57 4e 3d d8 ca 8b 3c c0 92 8b bd
       -0.064397536 0.05037603 0.017064497 -0.068151
000100 9e 02 2c 3d ab 06 8e bd 01 c5 b8 3c 9b f6 c0 3b
       0.041994683 -0.069348656 0.022554876 0.0058887727
000110 2f 1e 23 bd ec c0 bd 3c 4b 15 9f bd 8a 5e 78 bd
       -0.039823707 0.023163281 -0.07767733 -0.060637034
000120 50 fb aa bc bc 78 15 bd 3b ef 15 3d 49 70 40 3d
       -0.020871788 -0.036492094 0.0366051 0.046982083
000130 f6 ea 36 bc a3 f6 6e bb 87 66 63 bd fe f9 8d bd
       -0.0111644175 -0.0036462925 -0.0555177 -0.06932448
000140 02 6b 52 3d 65 11 2d 3d 92 d6 8c bd 01 eb f0 3c
       0.05137158 0.042252917 -0.068768635 0.029408934
000150 f9 e4 d2 bc 8a 7d 3a 3d e5 48 9d 3d a4 82 23 3d
       -0.025743948 0.04552988 0.07679919 0.03991951
000160 4e 89 3a bd 35 31 af 3c d0 d8 fb bc e6 84 9d bd
       -0.0455411 0.021385768 -0.030743033 -0.07691364
000170 f8 05 87 3c 02 ce 57 3b f3 3c 7f 3d a5 20 29 3d
       0.016482338 0.0032929187 0.062313985 0.041290898
000180 68 2d 08 3d 90 b8 fe bc c4 e2 17 bd 67 f0 3f 3d
       0.033246428 -0.031093866 -0.037081495 0.046860125
000190 fd 63 3d 3d 12 a4 91 3c 38 a2 27 3d 7e dc 43 3c
       0.046237934 0.01777843 0.04092619 0.011954425
0001a0 a1 48 87 3d ce ce cc 3c a0 1a 03 bd 4c da d7 3c
       0.0660565 0.025000956 -0.032007813 0.02634921
0001b0 d2 42 9b 3d f8 fc 53 3d f1 3f 0d bd b0 52 8c 3c
       0.07581104 0.05175492 -0.034484807 0.017129272
0001c0 c2 8b 29 3d c8 ac fc 3c 01 57 29 bd 9f c4 88 3d
       0.04139305 0.030844107 -0.04134274 0.066781275
0001d0 69 6e ce 3c ee 16 ae 3d 38 10 fc bc df a0 89 bd
       0.025199132 0.08500467 -0.030769452 -0.06720137
0001e0 f3 86 29 bd 2a 30 0e 3d 54 1e 77 bd 1e 5d 72 bd
       -0.041388463 0.0347139 -0.060331658 -0.059170835
0001f0 70 f4 15 3c d5 37 5a bd 71 d8 ec 3c ea ce 96 3d
       0.009152517 -0.0532759 0.028911801 0.073636845
000200 dd 73 66 bd 2e 8f ab 3d b9 4f 40 3d 91 12 d7 3c
       -0.05626284 0.08376919 0.04695103 0.02625397
000210 7f 14 11 bd 46 ab 38 3d 9c ef 3a 3d 24 e3 87 3d
       -0.035419937 0.045085214 0.045638666 0.066351205
000220 14 cf 52 bd 1f c9 44 3d f0 e5 99 bd 31 66 68 bc
       -0.051467016 0.048043367 -0.0751456 -0.014184521
000230 89 ab 0e 3b 43 95 66 bd 3e d1 91 bc cf 6c b4 bd
       0.0021769723 -0.05629469 -0.01779997 -0.08809816
000240 1f a8 c8 bc 3e 84 a4 3d 74 9b bb bd 23 c1 c6 3d
       -0.024494229 0.08033036 -0.0916051 0.09704807
000250 db dc 9b 39 12 a4 cd bc d8 21 ea 3d 62 46 ce bd
       0.00029728454 -0.025102649 0.114322364 -0.10072018
000260 67 f2 a8 bd d6 b1 3e bd f3 ea 87 bd b7 3f 02 be
       -0.082493596 -0.046556316 -0.0663661 -0.12719618
000270 3f 11 8c bd c1 99 cc bc 0d 66 37 3d 7a 13 e0 bc
       -0.06839227 -0.02497566 0.044775058 -0.027353037
000280 06 31 96 3d 3a 41 b0 bc ca 39 a4 bd 85 a8 a8 bc
       0.07333569 -0.021515477 -0.08018835 -0.020588169
000290 43 c9 c3 bd 2b 44 88 3d 29 84 94 bd 0b 27 ae bc
       -0.09559872 0.06653627 -0.0725177 -0.021258852
0002a0 ff 04 4e 3d 5f 4a d6 3d f3 91 d2 bd 27 5a 93 bd
       0.050297733 0.10463404 -0.10281744 -0.071949296
0002b0 11 4c 13 bd 7a 1f fb bb 03 09 02 3d 10 ef c2 3c
       -0.035961214 -0.0076636644 0.031746875 0.023795635
0002c0 aa 43 07 bd 58 ee 42 bd 85 93 f6 3d a2 fd 1f bd
       -0.033023514 -0.047590584 0.12039856 -0.039060242
0002d0 e2 1d 93 bb ca 24 78 3c 9c 3f a7 bd ac a8 19 be
       -0.0044896463 0.01514549 -0.081664294 -0.1500575
0002e0 fb 38 04 be a2 23 b4 3d a0 19 d3 bc 48 1b 2c be
       -0.12912361 0.08795859 -0.025769055 -0.16807282
0002f0 f3 d6 89 bd 07 de 55 bc 31 90 01 bd e5 11 26 3c
       -0.067304514 -0.013053424 -0.031631652 0.010136102
000300 f6 ff c2 bc c9 59 d5 3d a6 03 78 bd 2a 4d 35 3d
       -0.023803692 0.10417516 -0.060550354 0.044263043
000310 d3 ce fb 3c ff 94 bb bd 8e 2a d7 bd 01 5d 01 bc
       0.03073827 -0.09159278 -0.105061635 -0.007895709
000320 a2 da 21 3d 58 44 2b 3e aa 5c de 3d 57 e8 7c 3d
       0.039515145 0.1672529 0.10857518 0.061745014
000330 ca 75 de bd 2c 44 1e 3c f1 d5 13 3d 93 b1 82 bc
       -0.1086231 0.009659808 0.036092702 -0.015953815
000340 5f ed ca bd 51 c5 c3 bc 3c e0 b2 bc 2c 5a a3 bd
       -0.09908556 -0.023897799 -0.021835439 -0.07976183
000350 a2 5a a1 3c fa 5c 47 be 59 ae c6 bd 9e 64 38 bd
       0.019696537 -0.19469061 -0.09701223 -0.04501783
000360 93 a2 c5 3d d8 6c 97 3d b3 6d e5 b9 08 c8 49 3d
       0.09650149 0.07393807 -0.00043760016 0.04926303
000370 b8 8f 8a bc c5 26 cb 3c 02 64 40 3c 2b be 85 bd
       -0.016914234 0.02479876 0.011742594 -0.06530412
000380 9f 56 af bd a4 99 05 3d 9b b1 39 3d 95 1a 39 bc
       -0.085614435 0.032617226 0.045335393 -0.011297842
000390 2e 03 0e 3d 2d 8f 0a 3d 0b b5 a4 bd 8d 05 bf 3c
       0.034671 0.03382795 -0.08042344 0.023318077
0003a0 e8 65 4a 3b 41 56 26 bd 3d 10 c9 bd 6b ba 55 3d
       0.0030883495 -0.040609602 -0.0981755 0.052179735
0003b0 cf 46 73 bc 0c 57 44 3d 47 35 06 bc d7 0a 6e bd
       -0.014848425 0.047934577 -0.008191413 -0.058115806
0003c0 4d 00 15 3c e7 91 b4 bd e2 92 ab 3d 1d 1e b1 3d
       0.00909431 -0.08816891 0.08377625 0.08648322
0003d0 c5 73 93 bd 80 8d 2a bd c6 f5 ca 3c dd 00 1e 3d
       -0.07199816 -0.04163885 0.024775397 0.038575042
0003e0 6b 97 f7 bd 7a 3e 3d bd 2a b9 e0 bc 66 08 ba 3d
       -0.120894276 -0.04620216 -0.027432043 0.09083633
0003f0 a8 b7 f9 bd 05 61 62 bd 02 b5 49 3d 61 aa cf bd
       -0.12193233 -0.055268306 0.049244888 -0.10139919

model.decoder.blocks.1.layer.bias f4 [16]
000000 f5 c7 97 bd a6 ef 4a bd 1b 99 b6 3b 41 73 82 3d
       -0.07411186 -0.049544953 0.005572451 0.06369639
000010 35 55 e4 3d 4f d5 d6 3d 5c f5 da 3d 88 74 fb 3d
       0.111490645 0.10489904 0.1069133 0.12278086
000020 35 98 ba 3d 8f 29 72 3d 2d 4f 90 ba 06 f1 34 bd
       0.091110624 0.059121665 -0.0011009924 -0.04417517
000030 93 c6 c3 bc 9b 4b 38 bd e1 b5 14 bb c0 ed 78 3d
       -0.023898399 -0.044993978 -0.0022691416 0.06077361

model.decoder.blocks.1.upsample.weight f4 [16, 16, 2, 2]
000000 61 1b df 3d b8 3d 44 3c ea e4 02 bd 94 90 5a 3d
       0.10893894 0.0119776055 -0.03195659 0.053360537
000010 00 70 bb 3d d2 9e 91 bd 47 20 01 bc e7 92 20 bd
       0.09152222 -0.07110371 -0.007881231 -0.039202597
000020 35 bf 05 3e fe d2 21 bd e2 e6 e0 bd 13 5e b6 3d
       0.13061221 -0.03950786 -0.109815374 0.08904662
000030 e9 23 b4 3d de 74 e4 3d 88 e6 c4 3d 57 26 bd bc
       0.08795912 0.11155103 0.09614283 -0.02308957
000040 04 f4 86 3d 32 51 b2 bd 63 de b3 bd 94 53 95 bb
       0.06589511 -0.08706893 -0.08782651 -0.0045570824
000050 de eb c6 3d 60 54 dd bd b6 d4 90 bd d1 bb a0 3d
       0.09712957 -0.10807109 -0.070718214 0.07848323
000060 87 06 e1 3d 30 06 8c bd 08 8e fa 3d f4 fc e3 bd
       0.10987573 -0.06837118 0.122341216 -0.11132231
000070 61 61 05 3c f4 77 81 3d 1e 5c 86 bd 0a 71 c9 bd
       0.008140893 0.06321707 -0.06560539 -0.098360136
000080 ea b0 e5 3d 14 42 0f bd fb ce 42 bd 3e e1 37 3d
       0.11215384 -0.034975126 -0.047560673 0.044892542
000090 71 45 cd 3b 3e e6 00 be d4 1a 67 3d a7 8e 59 3d
       0.0062643816 -0.1258783 0.05642207 0.05311456
0000a0 3b 30 db bd 36 7e 0a bd 2e 8b aa 3c 57 b9 5c ba
       -0.107025586 -0.03381177 0.02081832 -0.0008419952
0000b0 55 ca 42 3d e1 1f 4c 3c fd d6 b4 3d 18 5f fa 3d
       0.04755624 0.012458772 0.08830068 0.12225169
0000c0 92 c7 90 3d 2c a5 ce bc c5 a2 8e bd 9d 8c 92 bd
       0.07069315 -0.025225244 -0.069646396 -0.07155726
0000d0 92 97 cc 3d c3 ab 95 bd 74 bd c8 3d 38 0c 17 3d
       0.09989847 -0.073081516 0.0980176 0.036876887
0000e0 7f 62 11 3d 5c 25 08 3e e3 72 b7 3d e7 80 72 bd
       0.035494324 0.13295501 0.0895746 -0.059204962
0000f0 34 8c 87 3d 8c 0f d6 3d 59 f0 b1 bc da cf a4 bd
       0.066185385 0.10452184 -0.021721052 -0.08047457
000100 42 2a 06 3e 7b ec 15 3e 3c 07 5e 3e 71 f5 20 be
       0.13102058 0.14640991 0.21682447 -0.15718628
000110 6b b6 48 bc f9 2c 6a bd d3 15 83 3d c6 bf 16 3e
       -0.012250523 -0.057171796 0.06400647 0.14721593
000120 8c 15 1a be ca c5 3f 3d 17 5e 00 be df 35 85 3d
       -0.15047282 0.046819486 -0.12535892 0.06504416
000130 4f a5 82 3c c5 4e 04 b9 f4 d1 2b 3d 21 74 de bd
       0.015947966 -0.00012617845 0.041948274 -0.108619936
000140 4d 7e 1a 3e c2 1f 26 3d 35 39 4a 3d 1e 19 63 bd
       0.15087242 0.04055763 0.049370963 -0.055443875
000150 db 45 07 be d7 35 52 be d5 a6 ff 3b 22 ce 00 bd
       -0.13210241 -0.20528351 0.0078018703 -0.031446584
000160 73 04 cb 3c 17 c9 d6 bd f9 3d 38 be 74 c2 cd 3d
       0.024782395 -0.104875736 -0.1799239 0.100468546
000170 1d 0b 88 bd cd 87 7d be a5 4a ca bd 1b d2 2b be
       -0.06642745 -0.24758835 -0.098775186 -0.16779368
000180 27 6e 32 be 44 f4 c1 bc 21 9f 02 be 2e b9 17 3e
       -0.17424832 -0.023676045 -0.12756015 0.14816734
000190 e0 c2 35 be e0 53 07 be ba e9 f8 bb fb be 43 3e
       -0.1775012 -0.1321559 -0.0075962218 0.19115822
0001a0 65 9b 5f bd 4b c9 e4 3c e8 66 77 3d 90 43 04 be
       -0.054591555 0.027928015 0.060400873 -0.12916398
0001b0 e6 f3 04 be db b0 4e 3e a1 a9 9f bd a5 7a 7b bc
       -0.12983665 0.20184653 -0.07796026 -0.015349065
0001c0 58 cb 98 3c a9 9b a2 3c a5 18 55 3d 32 04 cb 3d
       0.01865165 0.019849615 0.052025456 0.099129096
0001d0 7a 4e 36 3e 6f f8 c8 3d f6 12 25 3e 41 b9 f6 3d
       0.17803374 0.0981301 0.16120514 0.12047053
0001e0 50 89 24 be 08 d7 71 bd 13 9d 05 bd 67 98 86 3d
       -0.16068006 -0.05904296 -0.0326205 0.06572037
0001f0 1c bd 84 bc 2a 1e bd 3c b4 49 da bc 74 d0 4e be
       -0.016203456 0.023085672 -0.026646473 -0.20196706
000200 7f 1b 12 bd 79 6c 20 be 70 a3 17 3e 30 d0 d5 bd
       -0.035670754 -0.15666379 0.1480844 -0.10440099
000210 5f be 79 3c d7 3e 4b bd b8 fb 52 bd 7a e2 d2 bd
       0.015243142 -0.049620476 -0.05150959 -0.10297103
000220 ef 90 98 3c 02 e6 41 bd e5 5a 41 3d b4 ac 05 3e
       0.018623797 -0.047338493 0.047205824 0.13054162
000230 72 54 dd 3c 65 af 71 bd 3c f8 53 3b d6 6c 87 bd
       0.027017806 -0.05900516 0.0032344004 -0.06612556
000240 f3 16 db bc 62 23 a7 bc d4 c0 ba 3d f7 bf b6 ba
       -0.026744341 -0.020402614 0.0911881 -0.0013942708
000250 67 1a c3 bd 32 f8 ab bc 03 b1 9b bc 33 69 e3 bc
       -0.0952652 -0.020992372 -0.019005304 -0.027760124
000260 cd 88 ea 3d 2a a4 3b 3b de 12 d2 3d 31 f1 f7 bd
       0.11451874 0.0028631785 0.10257505 -0.121065505
000270 cb 67 1f be 8c e6 d8 3d 5d 80 cb 3d 14 e6 27 bd
       -0.15566938 0.10590848 0.09936593 -0.040990904
000280 b1 5b 67 bd 58 e2 09 3e 8f c5 6c 3d 9b bb 0c be
       -0.056483928 0.1346525 0.057805594 -0.13743441
000290 ce 07 80 bc 3a e1 30 bd f3 88 fa 3c 8c d9 8c bb
       -0.015628722 -0.043183543 0.03058288 -0.0042983945
0002a0 ce c7 95 3c 12 8d 0d be 0a d4 90 bd ab 0f 68 bd
       0.01828375 -0.13823345 -0.07071693 -0.056655567
0002b0 a3 3c cc bc 40 10 eb bc 84 f3 05 3e 59 8f 86 bd
       -0.024931258 -0.028694272 0.13081175 -0.0657031
0002c0 5a 08 5b bd df 41 82 bd dd 1e 53 3d 1a 2e e2 3d
       -0.05347476 -0.0636022 0.051543105 0.110439494
0002d0 56 fa 0d be 83 c3 f8 bd 15 b4 ae bd ca fc 16 3d
       -0.13865027 -0.12146666 -0.08530442 0.036862172
0002e0 92 54 79 3d 5d 9b 88 3d 2a fa 9b bd 2f 04 97 bd
       0.06087167 0.06670258 -0.076160744 -0.07373845
0002f0 84 7d 06 be 7a 76 c0 bd c9 36 b4 bd 1d 2c be 3d
       -0.13133818 -0.093975976 -0.08799512 0.09285758
000300 53 ae 9c bd c2 8e 22 3d 18 a3 95 bd 58 69 67 3d
       -0.07650437 0.039686926 -0.07306498 0.056496948
000310 80 77 d2 3d 2b 47 f8 bb 52 ce b9 bd d1 9b 5a 3c
       0.10276699 -0.0075768433 -0.090725556 0.013342814
000320 44 1b b7 bd 9b 6f b9 3d 7d f3 92 bd 9b f0 0e 3e
       -0.089407474 0.0905449 -0.07175348 0.13958971
000330 28 5b 8a 3d 60 22 79 3d 71 86 1b 3d 1f e7 fb bd
       0.06755668 0.0608238 0.03797001 -0.12299942
000340 b4 f6 82 bd e6 23 d9 3d 7e aa e4 bc 51 25 09 be
       -0.06394711 0.1060255 -0.027913328 -0.13393141
000350 d4 1c b7 3d e7 72 9a 3d 59 da 1f bd e7 1c 84 3d
       0.089410454 0.07541447 -0.039026592 0.06450825
000360 3f d7 72 3c 03 56 f8 bb 88 3e 0b bd 83 53 6e 3d
       0.0148218265 -0.007578613 -0.03399518 0.05818511
000370 96 24 99 bc 27 b1 80 3c 14 25 42 3d 2f be 06 be
       -0.018694203 0.015709473 0.04739864 -0.13158487
000380 3d 8c b6 3d a5 a8 d0 3d a4 da 00 be 77 fa 96 3d
       0.08913467 0.101884164 -0.12583405 0.07371991
000390 59 41 17 bd 97 86 f4 bd 9d 74 1c 3d fd 9d 54 bd
       -0.036927555 -0.119397335 0.03819715 -0.051908482
0003a0 5e 60 a1 3d 14 20 77 bd 44 40 95 3c 4c d6 c3 bd
       0.07879709 -0.060333326 0.01821912 -0.09562358
0003b0 7e 14 05 bd a8 1b 85 3d 94 46 94 3d 50 ca 66 bd
       -0.032490246 0.06499416 0.07240024 -0.056345284
0003c0 d9 19 b9 3c c0 87 a8 3d 8d 43 11 bd ee de df 3d
       0.022595333 0.08229017 -0.035464812 0.10931192
0003d0 5c cc fa 3d b0 14 f7 b8 93 83 14 bd e6 5a 93 bd
       0.1224601 -0.00011781731 -0.03625829 -0.07195072
0003e0 0b c7 88 3a c5 2a 65 3d c3 d5 bf 3d c5 ae 7a 3c
       0.0010435296 0.05594899 0.09366944 0.015300457
0003f0 61 32 69 bd 7d 5d a3 3d 33 a9 d1 3d 60 25 a4 3d
       -0.05693281 0.07976816 0.1023735 0.08014941

model.decoder.blocks.1.upsample.bias f4 [16]
000000 04 f3 52 bd c6 63 87 bd 4c 42 1f 3d f2 bf e2 bd
       -0.05150129 -0.06610827 0.038881585 -0.11071767
000010 9c ac 48 bd c3 d8 b7 bd c8 9f d9 3d 5c 19 bd bd
       -0.048992738 -0.08976891 0.10626179 -0.092333525
000020 6e 68 7e 3d 53 cb 8c 3d 74 81 19 be bb de 0b 3e
       0.06211131 0.068747185 -0.14990789 0.13659184
000030 9d ae 44 3d da 86 66 bd 24 7c b9 3d c4 25 48 bd
       0.048018087 -0.05628095 0.09056881 -0.04886414
