03_Workshops/03_Encoder-Decoders for Latent Space Manipulation/Denoising/lightning_logs/version_1/checkpoints/epoch=99-step=3200.ckpt (torch, 166227 bytes, 60 tensors)

model.encoder.blocks.0.layer.weight f4 [16, 1, 3, 3]
00000000: bcc9 73be 4e8c b83e dbbc 7cbe 9a76 573e
00000010: 220f 51be e197 f4bd 0ef2 353e 293a a0be
00000020: f518 9f3d 19f3 123e a097 4d3e dd59 52be
00000030: 2544 6a3e f615 a53e 1f0e 883d b9b4 173e
00000040: 210b 943e 8290 5f3e fb3a 91be a9a2 1ebe
00000050: 81f6 823d 316a d4be 989f 1e3e 2332 e3bd
00000060: cc96 8fbe 38d6 153e ba31 c13d 331d 033c
00000070: 7980 22bd a475 4b3e 3cca e33d df48 323d
00000080: 2646 4d3e b3fd 0bbd c336 0f3e 046d 70bd
00000090: b988 763e e9e9 303e fec7 10be bfb4 7bbe
000000a0: 5b96 52be 3052 7e3e 1072 613e 00a3 e53d
000000b0: 36b2 533e 8cde 21bd a024 713e dd23 4c3d
000000c0: b6e1 93be adb7 823e 5cda 333e e96b 90be
000000d0: 9b31 21be 41aa b9be ba48 8a3d b8c6 9bbe
000000e0: 806d 203e 7a41 9cbe 9b70 81be 78e3 4a3e
000000f0: 88c1 02be 104d bdbe e989 0f3d d611 c23d
00000100: 0b83 4fbe f410 23bb fda0 1a3e 6864 55bd
00000110: 16ab 3a3e 8ddf 833e 6c40 713d ff3e c73d
00000120: 41c8 54bc fa78 46be cf86 7d3c 373b 8ebd
00000130: b526 6b3e 1ed6 dbbd 605c 61be e831 dbbe
00000140: 1466 34be 9441 98be 5c80 803c 03a0 b7be
00000150: 3f18 d53d 2f58 023e a3bb 6fbe 3c9f 6f3d
00000160: 243a 033d 7b4a cdbe 3ea4 12bc 378f bb3c
00000170: 7dd9 a4be 1ab7 83bd 98f4 99be 6a1d d1be
00000180: 8c17 c8bd 6f73 813e 93b8 3d3e e19b cdbd
00000190: abdd 71be 28b9 17be f35f 2a3e bde2 513e
000001a0: 87c5 7abe 6852 56bd b595 613e 02b7 f6bd
000001b0: a801 943d 8795 1f3e 5e3d 013e bb92 45bd
000001c0: f607 64bc 1406 f53d bcbf 6abe 34e6 68be
000001d0: 7fe8 c6bd f359 1abe 0a06 f23d b29c 6c3d
000001e0: 6008 28be fc2a 19bd 0496 b5bd 7382 12be
000001f0: a951 b6bd 4b12 72be 07e0 963b 4ab9 143d
00000200: 8b0c b0be 0406 a03c fc3b 36be ab06 923e
00000210: 4fc4 86be 451f 8cbd 510c d9bc 3e10 80be
00000220: f07f 55bd b0cf 13be 4455 a93e 4beb 73be
00000230: 30f2 063d 7b47 ad3e 0a5e 62be ef9b dbbd
-0.23807424 0.36044544 -0.24681418 0.21041337 -0.20415929 -0.11943031 0.17768118 -0.31294373
0.07768432 0.14350547 0.20077372 -0.20542093 0.22877558 0.32243317 0.066433184 0.14815034
0.2891474 0.21832469 -0.2836531 -0.15491737 0.06394673 -0.41487268 0.15490568 -0.11093547
-0.28044736 0.14632499 0.09433313 0.008002567 -0.039673302 0.19869095 0.111225575 0.043526527
0.20046291 -0.034177493 0.13985734 -0.058697715 0.24075593 0.1727673 -0.14138791 -0.24580668
-0.20565169 0.2483604 0.22016168 0.112127304 0.20673451 -0.039518878 0.23549128 0.04983889
-0.2888314 0.25530759 0.17563766 -0.2820733 -0.15741579 -0.36262706 0.06752153 -0.30425048
0.15666771 -0.30518705 -0.25281224 0.19813335 -0.12769139 -0.36972857 0.03504363 0.09476058
-0.20264833 -0.002488193 0.15100475 -0.052097708 0.18229327 0.25756493 0.058899328 0.097288124
-0.012987197 -0.19382086 0.015474035 -0.06944888 0.22963984 -0.10734199 -0.22007895 -0.42811513
-0.17617065 -0.29737532 0.015686207 -0.35864267 0.10405015 0.12728952 -0.23411421 0.058501467
0.03203787 -0.40095887 -0.008950291 0.022895439 -0.3219718 -0.06431408 -0.30069423 -0.40842754
-0.09770116 0.2528338 0.1852744 -0.10039497 -0.23619716 -0.14816725 0.16638164 0.2049665
-0.24489413 -0.052324682 0.22029765 -0.12046625 0.072268784 0.15584384 0.12621066 -0.048235636
-0.013917914 0.1196405 -0.22924703 -0.22744066 -0.09712314 -0.15073375 0.11817558 0.057766624
-0.16409445 -0.03739451 -0.08866504 -0.14307575 -0.08902294 -0.2363979 0.004604343 0.036309518
-0.3438457 0.019534118 -0.1779632 0.28520712 -0.26321647 -0.06841902 -0.02649513 -0.25012392
-0.052123964 -0.14434695 0.33072865 -0.23820226 0.03294581 0.33843598 -0.22106186 -0.10723101

model.encoder.blocks.0.layer.bias f4 [16]
00000000: 9653 12bc 5a85 4fbe 1c9a 643e 4b73 ebbd
00000010: 05c7 c43d 12a0 3e3d 3b6c 663e c38b edbc
00000020: dee6 893e 57be 733e a150 2e3e 1e55 ae3c
00000030: 11a6 71bc 199c 10be 4af9 be3d 83b7 0dbc
-0.008931061 -0.20265713 0.22324413 -0.114966 0.096082725 0.046539374 0.22502224 -0.028997308
0.2693395 0.23803078 0.17022945 0.021280821 -0.014749066 -0.14122047 0.09324892 -0.00864971

model.encoder.blocks.1.layer.weight f4 [16, 16, 3, 3]
00000000: b1fd 3bbe 3c86 66be 6dd7 53be c0f0 1cbe
00000010: 49d5 d3bd c924 24be fbdb 56be 3dd5 e9bd
00000020: 36ef cebd 122c d93d 1d8b c03d 7399 ddbc
00000030: d89d e53d 1f21 26bd 93cc ec3d 5c76 183c
00000040: 6771 d53d e8d8 bf3d abdd c5bd bf54 cebd
00000050: e2b7 5bbd 040a ef3c f246 e0bc 3d82 bcbc
00000060: 904b 09bd 3c47 493c 3e93 a6bd 2ed4 e5bc
00000070: e38c 7b3c 63af acbd b52e 92bc 4aa3 a33d
00000080: 61ae 193a 57a3 ae3c 457e 1b3d 3884 f7bc
00000090: 9dca 543d e970 2b3d fce9 59bd 1f3e 8d3d
000000a0: 8465 93bd b67d 073d 8f92 f03c ff33 183d
000000b0: 5e46 3c3d bf93 ddbc 9d88 f4bc 6cd8 cebd
000000c0: b306 dabd a6da d5bc e30a 28bc 2636 83bd
000000d0: 0251 06bd 8085 17bd ffc9 62bd dff9 69be
000000e0: 741b 80be a07b a8bd a4c4 82bd c158 15be
000000f0: db7a 37bd f6c1 56bd c0ce 1abe c112 8d3d
00000100: 3e5c 363d 0b46 df3c 848d 1cbc 1ee2 143d
00000110: 6053 203d 7e90 8c3d c4c9 70bd e778 92bd
00000120: 705a 4dbd 3412 e9bd efbe 9ebd b8aa a83c
00000130: 105e 20bd 9007 b9bc a41f f43c feec 13bc
00000140: 1214 103d 7194 57bc 9593 3ebc 2926 b5bd
00000150: 4ede ecbd c7cc 99bc 3d46 2f3c ca08 9d3c
00000160: 1be5 01be eacc 76bc 9074 2abb 3964 cdbd
00000170: b6ce 05be 483d 1dbd f4c5 e5bd 2c5f 30bd
00000180: cf01 14bd ea69 39bd 27fd eebd 4de4 62bd
00000190: c530 32be 607d 09be 4395 68bc 7cc1 f5bc
000001a0: 9746 b93b a133 5dbe 535d 1ebd d1ae 80bd
000001b0: 9968 51bd 7c30 9cbd 6dd8 01bc 16e6 86bd
000001c0: 8b47 67bd 733e 533d e884 88ba 976f f2bc
000001d0: b414 5c3a 5455 8b3d 26c7 c73c 7ba6 a5bc
000001e0: 93cb a33d 0b70 893c 5608 9e3c 08b5 40bd
000001f0: f272 a53d 56a8 85bc 4ca4 dbbd e088 59be
00000200: 512a 69be f7bd 38be 162f 05be 1148 56be
00000210: bcb7 02be c70b 07be 7e54 33be 3531 9bbe
00000220: bb86 99be a779 70be 7465 d2bc 2fd4 d1bd
00000230: e60e 1dbe d873 97be 4bee 85be b199 b9be
00000240: 7a6e adbd 4408 80bd cd5a 13be 0940 64be
00000250: b065 20be dc2b 02be 3232 1abe f49f 65be
00000260: c999 76be 0a3b 293d 9d0f 153d 00e9 343d
00000270: 8d05 bb3d ea23 ffba ee1f 97bb 58c9 7f3d
00000280: b922 923d 13af 72bb 309c 933d b0df 553d
00000290: 790f 92bd e03c 15bd 838d 33bd 4afa 4e3d
000002a0: 2239 72bd 0662 7fbb 2477 d4bd 8ac4 5c3d
000002b0: acc2 983d 9cc7 e03b 6463 b63d 1a4b 8b3d
000002c0: f1b6 b13d 631e 7bbd f42b e03c 4ae4 7d3d
000002d0: 7462 41bd 8cea a03d 770b ae3d 7e8c b4bc
000002e0: 9eb0 8cbd 1dd8 323d 6c13 1b3d 082a 99bd
000002f0: 88c9 9c3c e64e b6bb 5ebd b1bd 9372 503c
00000300: 2b19 a53d 64d5 1d3c 3012 a9bc bb53 34bd
00000310: 5307 40bd 0ed5 d7bd e279 5fbe 88d7 f3bd
00000320: 61ee c0bd 0866 a5bd 9e15 e8bc 1488 b5bd
00000330: 1a2b debd 4ee1 15be aeff 08be 7d06 9c3d
00000340: 14ff 4dbc abea 533d f4fe 263d 4d92 0cbd
00000350: 91fe 83bd 2dec 77bc 28f1 08bd fcd9 82bd
00000360: 3d1e 46bd 7f33 1abc 9326 18bd 5a8a 763d
00000370: 879c 4cbd 0410 7c3d 325d 0bbe fc46 bebd
00000380: 8001 a1bd 9485 01be a794 24bd a7d8 8fbd
00000390: 1a89 08be 02e3 193d 8fd9 443d 8fa2 acbd
000003a0: 7ec7 12be 085b ba3c 51ee bfbd c384 e6bb
000003b0: 41f6 68bc a090 37bd 23f8 efbd b4b6 1fbb
000003c0: c7fc 05bd 7723 68bd 9a75 663c c9c5 aabd
000003d0: a43f f43b 72a3 083d 61cb 3abe 8ee3 05be
000003e0: 0d02 46bd 88c6 26be 3ba4 60be 77b6 45bd
000003f0: cb30 88bd def9 b33b 5b8d c2bd 469e 953d
-0.18358494 -0.22512144 -0.20687647 -0.15326214 -0.10343415 -0.16029657 -0.20982353 -0.11417625
-0.101042196 0.10604109 0.09401534 -0.02705071 0.11211747 -0.04055893 0.11562457 0.009305563
0.104220204 0.093675435 -0.096614204 -0.10074758 -0.05364216 0.02917958 -0.02737758 -0.023011321
-0.033519328 0.01228505 -0.08133553 -0.028055277 0.015353414 -0.0843189 -0.017844537 0.07990129
0.00058624713 0.02131812 0.037962217 -0.030214414 0.05195104 0.041855726 -0.05320166 0.06896614
-0.07197097 0.03307887 0.02936676 0.037158962 0.045965545 -0.02704799 -0.029850299 -0.10099873
-0.10645809 -0.026105236 -0.010256502 -0.06406812 -0.0327921 -0.03699255 -0.05536842 -0.22849225
-0.25020945 -0.082267046 -0.063851625 -0.14584638 -0.0447949 -0.05243107 -0.15117931 0.06888343
0.044521563 0.027255079 -0.009555224 0.036348455 0.039142013 0.06863497 -0.05878617 -0.071519665
-0.050135076 -0.11380425 -0.077512614 0.020589218 -0.039152205 -0.022586614 0.029800244 -0.009028671
0.03517539 -0.01315795 -0.011631866 -0.08845169 -0.11565839 -0.018774403 0.010697898 0.01916923
-0.12685053 -0.015063504 -0.0026009418 -0.100288816 -0.13067135 -0.03838852 -0.11219397 -0.043059513
-0.036134537 -0.045267023 -0.11669379 -0.055393506 -0.17401417 -0.13426733 -0.014195743 -0.029999487
0.005654167 -0.21601726 -0.03866322 -0.062833436 -0.051125143 -0.07626435 -0.007925135 -0.06586854
-0.056464713 0.051573228 -0.0010415586 -0.029594226 0.0008395419 0.068033844 0.024386954 -0.020220986
0.07997813 0.016777059 0.019291084 -0.047047645 0.08078565 -0.01631562 -0.107246965 -0.2124362
-0.22770049 -0.18041216 -0.13006243 -0.20925929 -0.12765402 -0.13188086 -0.175127 -0.3031098
-0.29985604 -0.23483907 -0.025683142 -0.10245549 -0.15337715 -0.2958057 -0.26158366 -0.3625007
-0.08468337 -0.062515765 -0.14390106 -0.22290052 -0.1566379 -0.12712044 -0.1505821 -0.22424299
-0.24082102 0.04131607 0.036391843 0.04416752 0.09131918 -0.0019465659 -0.0046119606 0.062447876
0.07135529 -0.0037030622 0.07207525 0.05221528 -0.071318574 -0.036435008 -0.043836128 0.050531663
-0.059136517 -0.0038968339 -0.10374287 0.05389837 0.07459006 0.006859733 0.08905676 0.06801434
0.086774714 -0.061308276 0.027364708 0.06198529 -0.047213033 0.07857236 0.084982805 -0.022039648
-0.068696246 0.043663133 0.03786032 -0.0747872 0.019139066 -0.0055636046 -0.08678697 0.012722629
0.08061441 0.009633396 -0.020638555 -0.044025164 -0.046881985 -0.10538684 -0.21823838 -0.11906344
-0.09420467 -0.080761015 -0.02833062 -0.088638455 -0.10848065 -0.14636728 -0.13378784 0.07618425
-0.012573022 0.05173747 0.040770486 -0.03431921 -0.06445039 -0.015131992 -0.03343311 -0.063892335
-0.04836868 -0.009411692 -0.037146162 0.060190536 -0.049953964 0.06153871 -0.1360977 -0.09290883
-0.07861614 -0.12648612 -0.04018083 -0.07023745 -0.1333355 0.037570007 0.048059043 -0.08429443
-0.14333913 0.022748485 -0.09371627 -0.0070348694 -0.014218868 -0.04481566 -0.1171725 -0.0024370374
-0.03271177 -0.056674447 0.014066124 -0.08338506 0.0074538756 0.033359 -0.18241645 -0.13075086
-0.0483418 -0.16286671 -0.21937649 -0.048269715 -0.066499315 0.005492433 -0.09499618 0.07305579

model.encoder.blocks.1.layer.bias f4 [16]
00000000: 35a1 b1bb be02 0fbd 7f6c f93b 74c3 c1bc
00000010: 0d9a dc3d af69 a5bd 8739 e9bc 4a63 713d
00000020: f182 34bd 11fb 0fbd a0cd 97bd 67b2 67bd
00000030: d6cb e93c 0333 193d 8b8f cabd 5824 28bb
-0.0054208287 -0.034914725 0.0076118107 -0.02365277 0.1077157 -0.08076798 -0.028469814 0.05893258
-0.044070188 -0.035151545 -0.07412267 -0.056566622 0.02853958 0.037402164 -0.0989066 -0.0025656428

model.encoder.blocks.2.layer.weight f4 [16, 16, 3, 3]
00000000: 627f c8bc 5969 cf3b 4895 bebc fd9c 373d
00000010: f427 843d f860 c93c d1a8 da3c fcda bdbc
00000020: 97eb ccbd 347d af3c 19bf a23d 329f 61bd
00000030: b648 163b 90ef 84bd b3c8 2fbd 069a 28bc
00000040: 03b6 623d 525c 8bbd 33ef 7a3d 0449 de3c
00000050: 95e5 99bd 249b f0bc 9890 65bd 4543 cebc
00000060: 4e0c 0dbd 41cb 46bd e0ca eebc 7381 0e3d
00000070: f786 9cbd 3320 f2bd 8acf b83d 1458 f03c
00000080: 63bc eebd d207 e13d 8f48 463e fc8d 63be
00000090: a4cc b73c d882 f13d 190d c4bc 19d8 16bd
000000a0: a0ca b13d fe1d b8bd 1267 58bd 436c 903d
000000b0: aaec 073c a3e0 8abc 8e97 913d 02a0 c0bc
000000c0: e96f 823d ab48 183d 2a5c f2bd 2c13 02be
000000d0: df3f 3c3d c87e 76bd 93f0 993d fbef ae3d
000000e0: 8697 913d ac88 973d 23db 8f3d 7ccc 8d3c
000000f0: 22a1 393d 56f6 3e3d 5284 1cbd a8f1 ca3d
00000100: 3171 793d 5127 a6bd b43d 5a3d ee34 143e
00000110: d028 e0bd b088 c8bd de8e f03d e060 0dbb
00000120: 4234 1c3d fb60 063c 1978 f0bd 1cfc da3d
00000130: 9ea6 cc3d 6a98 d6bd e11d 3fbc 5a5e ed3c
00000140: 7fcb eebd a5eb de3c f3c0 07bd 9ed7 53be
00000150: f4c9 813e 7957 1e3e e228 8abe 27f1 7d3e
00000160: 1482 bc3d 97e0 a7be 2041 a2bd 5b60 1c3d
00000170: 9b64 5fbd 16ea 9a3d 23d6 7c3d 965e 963b
00000180: b3e0 153d d864 253d 80fd 31bd 7cc3 f1bc
00000190: af5f ac3d 3e04 9cbd 3b59 b63c 2682 c63d
000001a0: 875e 61bc 916b b4bd f7c9 423d f6e3 71bd
000001b0: 1b11 a7bc 3edb af3c 9370 a43c e6c6 8abd
000001c0: f995 2c3d 964e 6dbc cd3d 1e3d 6794 103d
000001d0: a634 1bbd 2ba3 33bd d02e 93bd ade2 9abd
000001e0: a740 39bd abbd 66bd 668e d73c 2d32 90bd
000001f0: f299 6c3d c4ce 1bbe cb49 5bbd f6b5 1bbd
00000200: dcad 423d 1f85 7e3d 16f6 49bd a75f 6e3c
00000210: 508f 4bbd 5948 20bd 3b17 5eba 629c 25bb
00000220: 684e 913c a34b 0ebd 5a3b 5e3d e7fd b03d
00000230: 326b 2abd 57d4 ed3b 07e7 30bd 958a 173d
00000240: 91c2 613d b624 6e3c 644e 6dbd 1e03 ff3c
00000250: f8b4 33bd b528 563d 9e39 f0bc 4bde 7d3d
00000260: ba47 05bb 5f1a 85bd 1ccc 883d b9d1 54bd
00000270: ad82 e03c 4f46 913a bb42 f2bc 0d76 aa3d
00000280: 6e81 6f3d cff7 2c3d 569a 2bbd 3da3 1e3d
00000290: 70f5 bd3b 1294 76bd ffdb 1abd 16c7 aa3b
000002a0: 41f6 84bd fbf9 1ebd a93c 84bc f184 debc
000002b0: 3f7f 00bc 2512 afbc 3be9 683d 0f05 a43c
000002c0: 5c8c 60bd be93 8bbc 766e 2e3d ab99 793d
000002d0: 69a3 41bd da00 c3bd 6fb7 a23d 7f93 6abd
000002e0: de69 963c 812a 9c3c ec15 803d c25e 593b
000002f0: 3ce4 84bd b27f 42bd 64b0 1dbd e0ab 87bd
00000300: a674 44bd fb93 27bd 9b26 343d e323 283d
00000310: cb4f d8bc f261 223d 10e2 eebc 08a2 b2bd
00000320: 5d9b d43d 6c74 603d f492 09bd e0fb cb3d
00000330: a2a8 eb3d d78d 563c 4b87 583d 9470 a6bd
00000340: cd91 5a3b 2ccb 053d c9a5 493d b471 efba
00000350: 0eb4 46bd 948d b8bd 56db 5abd daf2 5f3d
00000360: bc95 2d3d 989b 59bd cde6 c8bc a1aa c8bd
00000370: f31e 2f3d 4fd2 82bd 02cd db3b 5557 76bd
00000380: af28 903c 4fe9 12bd 9afb 5c3c fea0 72bd
00000390: f3c8 c2bd 85ec babd 84f4 043d da66 033a
000003a0: 73be 373d 099f 81bd 00ae 20bd 2629 7bbd
000003b0: c6bb 253d 7bdd 86bd cbe0 88bc 86b9 2d3d
000003c0: c0b7 95bb bc9a 95bd 8633 f43c 8544 f33c
000003d0: 0e77 8ebd 97f8 4cbd 5cce 6dbd 12cc 19bd
000003e0: b6f6 00bd 416b afbb a45c 0c3a 2c5a 2bbd
000003f0: 8e4e 373b 8b1f 323d 926d 1abd 5db8 6bbd
-0.024474803 0.006329697 -0.023264542 0.04482745 0.06452933 0.024582371 0.026691826 -0.023175709
-0.10005873 0.021422006 0.07946605 -0.05508346 0.0022931523 -0.064910054 -0.04291601 -0.010290628
0.05534936 -0.06804718 0.061263274 0.027134426 -0.075144924 -0.029370852 -0.0560461 -0.025178561
-0.034435563 -0.04853368 -0.029149473 0.03479142 -0.0764293 -0.11822548 0.0902396 0.029338874
-0.11657026 0.1098782 0.19363616 -0.22222131 0.022436447 0.117925346 -0.023932027 -0.03682718
0.08681226 -0.089900956 -0.05283267 0.07051899 0.008296171 -0.016952818 0.07108985 -0.023513798
0.063690014 0.037178677 -0.11833985 -0.12702626 0.04595935 -0.0601795 0.07516589 0.085418664
0.07108979 0.07399115 0.07024219 0.01730942 0.045319684 0.046621643 -0.038212128 0.099093735
0.060898963 -0.08112968 0.0532815 0.14473316 -0.10945284 -0.09791696 0.11746 -0.0021572635
0.038135774 0.008201833 -0.11741657 0.10692617 0.09992717 -0.104782894 -0.0116648385 0.028975654
-0.116599075 0.027211973 -0.033142995 -0.2068772 0.2534939 0.15463056 -0.26984316 0.24799024
0.09204498 -0.32788536 -0.07922578 0.03817783 -0.054539304 0.075641796 0.061727654 0.0045889122
0.036591243 0.040379375 -0.043454647 -0.02951216 0.08416688 -0.07617997 0.022259345 0.096927926
-0.013755447 -0.08809579 0.04755589 -0.05905529 -0.020393899 0.021466848 0.02007321 -0.06776218
0.042135213 -0.014484068 0.038633157 0.035297778 -0.037892006 -0.04385678 -0.07186663 -0.07562766
-0.045227673 -0.056333225 0.026313018 -0.0704082 0.057764 -0.15215594 -0.05353717 -0.03801533
0.047529086 0.062138673 -0.04930695 0.0145491725 -0.04969722 -0.039131496 -0.00084720895 -0.0025270213
0.017737582 -0.0347401 0.05425582 0.08642178 -0.041606136 0.007257979 -0.043189075 0.036997396
0.055117194 0.01453512 -0.057936087 0.031129416 -0.043873757 0.052284915 -0.029324349 0.061979573
-0.0020336942 -0.064991705 0.06679556 -0.05195782 0.027406061 0.0011083576 -0.029572835 0.08323298
0.058473043 0.042228516 -0.041895233 0.038729895 0.0057970807 -0.060199805 -0.03780746 0.005211721
-0.06492282 -0.03881262 -0.016142206 -0.027163 -0.007842838 -0.021370957 0.05686305 0.020021943
-0.054821357 -0.017038222 0.042585813 0.060937565 -0.04727498 -0.09521647 0.079451434 -0.05726957
0.018361028 0.019063236 0.06254181 0.0033168052 -0.06488845 -0.04748506 -0.038498297 -0.066245794
-0.047962807 -0.04091261 0.04398213 0.04104985 -0.026405236 0.03964419 -0.02916053 -0.08722311
0.10381196 0.05479853 -0.03358741 0.09960151 0.115067735 0.013095341 0.0528634 -0.08126941
0.0033351064 0.032664463 0.04923037 -0.0018268139 -0.048511557 -0.09011379 -0.05343183 0.05467496
0.042379126 -0.0531269 -0.024524117 -0.0979817 0.042754125 -0.063877694 0.0067077884 -0.06014188
0.017597524 -0.03586703 0.013487721 -0.059235565 -0.09510984 -0.09127144 0.03245975 0.00050125795
0.04485936 -0.06329162 -0.03922844 -0.06131854 0.040462278 -0.06585213 -0.016708752 0.042413257
-0.004569024 -0.07304904 0.029809725 0.029695759 -0.06956302 -0.05004176 -0.058058128 -0.037548132
-0.031485282 -0.005353362 0.00053543807 -0.04183404 0.0027970406 0.043487113 -0.03770215 -0.05754887

model.encoder.blocks.2.layer.bias f4 [16]
00000000: cdd1 19bc 76a2 b6bd d153 70bc d416 6a3d
00000010: 93a8 3b3b c513 683d c04f 54bc 0870 26bd
00000020: f11e fbbd c2f7 11bd 6a82 c0bd a131 97bd
00000030: 6a4e b7bd fac6 b53c cf73 0b3a 461b dc3d
-0.009388399 -0.08917706 -0.014668421 0.057150677 0.0028634414 0.05665948 -0.012958467 -0.040634185
-0.12261761 -0.03563667 -0.093998745 -0.07382513 -0.08950503 0.022189606 0.0005319686 0.107473895

model.decoder.blocks.0.layer.weight f4 [16, 16, 3, 3]
00000000: dec3 ffbd 393d f53d 0003 c8bc 03df c7bd
00000010: e395 a9bd c728 34bd a6b5 0dbe 4ccf bdbd
00000020: 7bf4 463d 0425 313d c423 183c 10a2 75bd
00000030: 4be4 a0bd 6e2c 8a3d 946b 2ebd 4658 75bc
00000040: 8c4e a6bd 7fca ccbc 52ba 8ebd 2b77 e4bd
00000050: 4d33 afbc 17e5 f43c a7eb 993d 3a12 1fbc
00000060: 217b bdbd 915f ea3c 9eaa a5bd 533e 1b3e
00000070: 379d 0c3e 02c9 6d3d 4554 3d3d 4caf e13c
00000080: dc80 dbbd 1626 b9bd e7c2 2bbe 7a66 14be
00000090: 3a08 c5bd 56c2 353b 11d9 60bd 0ae1 b9bd
000000a0: d700 4e3d 501f 84bc 88e8 98bd c88c 9a3d
000000b0: 7254 d1bc 5135 103d a522 883d 249f 923d
000000c0: 9ae7 b73b 7ea2 fa3c c0af 17bb 2b20 77bd
000000d0: 585b 6ebc 4fe4 c93c ac62 7a3e 62f8 0b3e
000000e0: 76a3 bf3d 20d1 5b3e e4b7 b83c d606 223d
000000f0: 9308 db3c cdb5 63bd 8f1d 94bd 38c7 81bd
00000100: 3d47 dabd 4db1 1c3d eb91 dbbb 7a09 a4bd
00000110: 18b9 20bd fc04 0b3d fd63 9abd 0982 babc
00000120: dffa c8bd f3e6 ca3d 0c1e e1bc 1729 00be
00000130: 6629 703e b3f2 953d db6e 2c3e 46a9 823d
00000140: 15d6 0a3d 98c6 4a3b d684 363d f39f 10bd
00000150: 9b4d 7cbd a3c8 15bd 7149 803d 9338 823a
00000160: e2ee 9a3d 0f7e debb 077d 92bc 34af 7abd
00000170: 461d 2d3d f9ca 473d dc2b f43d 614b b3bd
00000180: ad29 21bd 68f5 5ebb bcfc 08be 2f40 09bd
00000190: ccd5 2e3d c36a c5bd 519f 01bd 591f 2f3c
000001a0: 1b45 eebc e376 9cbd ed0c 9cbd 1e30 26be
000001b0: e1d3 5c3d c237 eb3c 0e46 563d 3ca3 11bd
000001c0: 5737 61bd 4889 7cbd e5af 8dbd e8e6 00bd
000001d0: b88d 62bd c91f b03d 42d8 583c 784a b2bd
000001e0: 6555 c6bc 2092 3cbc fa29 95bd 9419 a9bd
000001f0: 90d6 0cbd 168f 07be 1b51 d83d c521 8e3d
00000200: 96e2 cdbd 2ee4 dbbb a9f3 a93d 1011 843d
00000210: feb3 2cbd abaa 543c 4734 a43c 9542 8e3d
00000220: 2657 6c3b c660 1b3d 6e54 f13d 4ce0 123e
00000230: 5257 0f3e 60b1 8cbc 1c98 443b 8045 41bd
00000240: b671 37be 493e 87bd 70d1 063e 83b5 1bbe
00000250: 7b36 09be d0d9 983d 3427 72bd 9142 cbbd
00000260: 11d8 063e 1cd9 e4bc 11e2 8abd e6e4 19bd
00000270: 5330 6bbc 9f08 483d 8a2f 783d 325e cbbd
00000280: a122 a2bc 349a eb3c 55fc cabc 4a3f 693c
00000290: 3a88 94bc 6c84 66bd 7f58 3a3c e2d9 4c3d
000002a0: b8b1 873d 6868 ac3d 8d72 a73d 8580 d4bd
000002b0: 9134 a4bd f70a c53d 3a6d fcbd d8b8 62be
000002c0: 5580 e4bb f5b3 b03d 560a 10bd e746 063e
000002d0: 56f7 be3d c515 ce3c d027 2bbe a94a 143e
000002e0: a7c5 a93d 1a4a 11bd dd3e 253e 829f a43c
000002f0: 6de6 dfbd 2504 d13d e0e0 71bc be09 b53d
00000300: 6c50 3dbd 0050 59be 8155 a7bd 1a30 fe3c
00000310: 64c5 24be 11e2 aabc 26c9 ef3d 4bbf d6bc
00000320: 625a b53d 527e 9bbc 9289 38be 5227 ec3d
00000330: bf50 e03c a76e 2b3d a28f ed3d 2388 d63c
00000340: 2c4a b9bd fd88 8cbd 7569 cfbd dc6a 28bd
00000350: 0838 06bd 55e1 fcbc 6817 17bc b21f ac3c
00000360: e2ca d93d 25cd 4e3e 4e77 04be fe9b 583e
00000370: e176 d43e 0b98 81bc a27a 883e 8db6 763e
00000380: 7fb1 8c3d 0907 013e 2b0d 393d 0747 db3d
00000390: d2a4 00bc 99af 13ba c84a d33d e5df e33c
000003a0: bb0b 4e3c d957 963c 3089 963e b7ee 1a3e
000003b0: 16a7 1f3e aa5a 963e ba45 733e 9a11 423e
000003c0: fb4d 973d d458 603d 8630 3a3d fc18 be3d
000003d0: 410f e03c 64b2 3a3d 5056 623d 212c d43d
000003e0: 0139 333e 7c85 34bc 30f0 813d a018 bb3d
000003f0: 933d 57bd d04e e3bc e671 0f3d a5fb 93bd
-0.124885306 0.11974568 -0.024415493 -0.09759333 -0.08280542 -0.0439842 -0.13838825 -0.09268054
0.048573 0.04324819 0.009285871 -0.059969008 -0.078560434 0.067467555 -0.042583063 -0.014974659
-0.081204504 -0.024998901 -0.069691315 -0.11155542 -0.021386767 0.029894395 0.0751565 -0.009708935
-0.092520006 0.028610023 -0.08089183 0.15160494 0.13731848 0.058053024 0.046222944 0.027549408
-0.10717937 -0.090404674 -0.16773568 -0.14492217 -0.0962071 0.0027734241 -0.05489451 -0.09076126
0.05029377 -0.016128212 -0.07466227 0.07546383 -0.025552962 0.035207096 0.06647233 0.0715926
0.005612326 0.03059506 -0.0023145527 -0.060333412 -0.014548145 0.024644999 0.24451703 0.1366897
0.093573496 0.21466494 0.022548623 0.0395573 0.026737487 -0.0555933 -0.072322 -0.06336826
-0.10658119 0.038255025 -0.0067007444 -0.0800962 -0.03923902 0.0339403 -0.075386025 -0.022767084
-0.09813475 0.09907331 -0.027480148 -0.12515675 0.23453292 0.07321682 0.16839163 0.063799426
0.03389557 0.0030941125 0.044560276 -0.03530879 -0.061597448 -0.036568295 0.06264008 0.0009935073
0.075650945 -0.0067899297 -0.017881883 -0.061202243 0.042264245 0.048777554 0.11922428 -0.08754612
-0.039346386 -0.0034020785 -0.1337766 -0.033508476 0.04268436 -0.09639504 -0.031646077 0.010688626
-0.029085686 -0.07639863 -0.07619653 -0.16229293 0.053913 0.02871311 0.052312903 -0.035556063
-0.054984417 -0.06165436 -0.06918315 -0.03147021 -0.055310935 0.085998125 0.013235154 -0.0870561
-0.024210641 -0.011509448 -0.07283397 -0.08256832 -0.03438431 -0.13238177 0.10562345 0.06940035
-0.100529835 -0.0067105507 0.082984276 0.06448567 -0.04216384 0.012980144 0.020044459 0.06946293
0.0036062687 0.037934087 0.11783682 0.14343375 0.13998154 -0.017174423 0.002999789 -0.04718542
-0.17914471 -0.06603677 0.13165832 -0.1520596 -0.13399689 0.074634194 -0.05911942 -0.09924806
0.1316836 -0.027935557 -0.067814 -0.03757181 -0.014354783 0.048836347 0.06059221 -0.09930076
-0.019791903 0.028760053 -0.024778524 0.014236281 -0.018131364 -0.05627863 0.011373638 0.050012477
0.06625694 0.084183514 0.08176146 -0.10376076 -0.08017839 0.09621232 -0.12325521 -0.22140825
-0.006973306 0.08628074 -0.035166107 0.13112985 0.09324519 0.025156865 -0.16714406 0.14481606
0.08289652 -0.03547106 0.16137262 0.02009559 -0.10932622 0.10205869 -0.014763087 0.08839749
-0.046219274 -0.21221924 -0.081706055 0.031028796 -0.16090924 -0.02085975 0.11708288 -0.026214262
0.0885513 -0.018981133 -0.18021229 0.11530937 0.027382253 0.041853573 0.115996614 0.026187962
-0.0904735 -0.06862066 -0.10127536 -0.041117534 -0.03276828 -0.030869165 -0.009221889 0.021011207
0.106344 0.20195444 -0.12936136 0.21153256 0.41496947 -0.01581957 0.2665606 0.24093075
0.06869792 0.1260034 0.045178574 0.10706907 -0.007851796 -0.0005633771 0.10316998 0.027816722
0.012576039 0.018352436 0.2940154 0.15130125 0.15591082 0.29366046 0.23757067 0.18952027
0.073879205 0.054772213 0.04545643 0.09282109 0.027351024 0.045580283 0.055258095 0.103599794
0.17502214 -0.011018153 0.0634464 0.09135556 -0.052548956 -0.027747542 0.03502073 -0.07225732

model.decoder.blocks.0.layer.bias f4 [16]
00000000: e4a9 b3bd 5b3f 8cbc b795 e43c bbd0 95bc
00000010: 2213 1c3d 5b9e 6ebd e6ab 873d 0c2c 983b
00000020: 415d 9b3d 7cc9 c43b a81f d4bc 3822 753d
00000030: 3cdf 24bc 70bb 9abc c3d4 c0bd 97ad 77be
-0.087726384 -0.017120054 0.02790342 -0.018288007 0.038104184 -0.05825649 0.06624584 0.0046439227
0.07586146 0.006005464 -0.025894001 0.059847087 -0.010062989 -0.018888205 -0.09415581 -0.24187313

model.decoder.blocks.0.upsample.weight f4 [16, 16, 2, 2]
00000000: 65fa 30be 4e58 8ebd fa30 3d3d 0e61 1ebd
00000010: c579 f23d 6f57 83bd a2c8 eb3c 949b 0ebe
00000020: 2d31 053e f9a1 483c b21b b13d 267b 453d
00000030: 6c09 0dbd f3ef 833d 61fc e83c 9e54 08bd
00000040: c776 68bc a6d5 9d3d 231b 043e 7697 983c
00000050: 8ccc 9abd bd7b c1bd fc46 5ebe 82b7 2dbe
00000060: fcc9 12bd 8242 e33d eb51 de3d e9b1 b03d
00000070: a487 943d 5d1a 963d d93c d3bd 5a6b 64bd
00000080: 80a1 923d f1ab 363e 2a4c 1e3d b6a6 e33c
00000090: fded 80be 4f71 57be f34a 47be 9155 4dbe
000000a0: 0c7d 17bd 0788 6b3d aeb5 96bd 3e38 003e
000000b0: cdf9 183e 928c 733c 8152 ebbd e1ef e2bd
000000c0: c839 b1bc c588 fa3d 114f d63d 6bfb e43d
000000d0: 5fd9 a9bd a138 98bd b495 82bd 75d5 1abe
000000e0: 1a31 cc3d 3ccc 9fbd e753 103e a368 c33d
000000f0: 5153 1ebe c2ae c1bd 93c2 8a3d e5fd 2dbe
00000100: 04eb 62be 3c6f c6bd 0ee8 92be 6c00 18be
00000110: 97f6 f13d 7f4a 543e a91c 293e 5d13 0d3d
00000120: 7dc1 f83d 2f51 3e3e 868d 913e 18ac 0e3e
00000130: 6bc1 e43d 03e5 a23d 8519 f43d 6a86 333e
00000140: 283f a13e ee60 773e 31fa 6e3e d77b 973d
00000150: c058 95be 2e94 a1be d87b 84be 3127 8fbe
00000160: 2453 683e ed82 b73d 9415 eb3e f747 893e
00000170: af5b 4bbe 4200 66be 9655 06be 761f e9bd
00000180: d313 523e f005 283e 31d4 833e b4b8 623e
00000190: 5c20 37be 2b40 cb3b 8b12 e6bd 469b 90bd
000001a0: 95e5 1c3e fc58 553e aa8b 533e 1e96 683e
000001b0: f72f 553e f935 443d 1f50 463e f9df 2e3d
000001c0: a48f 413e a719 3b3e b893 723e 2aae d3bc
000001d0: dc33 083e 3c2a f93d 001a 593d d639 c83d
000001e0: 4950 d73d 1662 2c3d 0291 383e d2c0 113e
000001f0: 97b3 7dbe 3c50 68be 7aa3 a1be 50f0 8fbe
00000200: 3290 f83d fa75 9d3d f965 dabd 17e4 023e
00000210: 6055 11be 9b7e a3bc 39ed 58bd 83ce c9bd
00000220: cf2e a0bc d373 863d bc87 eebd f118 9fbd
00000230: 4cf2 bc3d 56e9 1bbc e777 a6bd 0b40 b6bd
00000240: 96a4 bf3d 77f0 d63d 35b7 81bd 423e 69bd
00000250: 2c8e 553c 30d9 0ebd aa41 833b 137a febc
00000260: c313 163e 1b8d 223e 5830 563d 61ca 203e
00000270: 50b5 ce3c 033b dbbc 1408 813d f0b1 a6bc
00000280: 4640 cc3d 05a9 153b 0b6d cd3d 24d2 ad3d
00000290: d84c 1abe 93d9 2d3c 4300 c6bc 082b 89bb
000002a0: 9acc 6bbd 7bde a4bd 5dad 3c3d 3ee2 ec3d
000002b0: c142 34bc 81cc b03d 4b0e 8dbc 80e4 a33d
000002c0: bf74 8cbd f588 943d 7770 263d 24d0 9cbd
000002d0: c8af 42bd e964 df3c a510 0fbe 832d ca3c
000002e0: fe4c 6dbd 9666 a2bd 0dab cebd 179a bebd
000002f0: b193 bcbd cc2c 00be 6764 5a3d 269c 63bd
00000300: 45b6 263e 35f5 8bbc 224a 233d f577 e63d
00000310: 2733 b93b acd1 18be 0c6e 3bbd edc4 7abd
00000320: c8a5 0bbe 6113 a63d 03e5 7fbd 393f 93bd
00000330: 2abc a53c 315e 7e3c 50bd af3a 688f 783d
00000340: fb7f 153e 1c8b 993d fcbc 9bbd 8b82 163e
00000350: b3c5 09be ec35 96bd 583a 63ba 8dd6 7a3b
00000360: 5dac 91bb 3895 063e 9ba9 29bc 9658 baba
00000370: 9d6b 9a3d 81b3 c7bd 8e93 793d 6e08 113e
00000380: 91ad dfbd 8238 0f3c 620b c9bd a6a3 eebc
00000390: e1f8 22bd 2e55 c2bd 0562 94bd c081 f63d
000003a0: 9f2d ccbd ff47 cc3d 6ec7 65bc 58c1 71bd
000003b0: a6cd 08be 03a4 0fbd 0ede ba3d f2a9 1bbd
000003c0: 9c6b fd3d 5265 be3d ed4f d6bd cea1 46bd
000003d0: 06ca 1bbe f500 91bd 5cd0 2bbe ec67 973d
000003e0: 8309 bdbd 022f c93c 5ee5 bf3d 0aff 283d
000003f0: dd5a 193d 638a 923d 531f 2b3d beff 753d
-0.17283018 -0.069504365 0.046189286 -0.038666777 0.11839632 -0.06413161 0.028782193 -0.13926536
0.1300704 0.012245649 0.086478606 0.048213147 -0.034432814 0.06442251 0.028440656 -0.033283822
-0.014188475 0.07706766 0.12900977 0.01862691 -0.075585455 -0.09447429 -0.21706766 -0.16964534
-0.03583716 0.1109667 0.10855468 0.08627684 0.07252434 0.07329247 -0.1031434 -0.05576644
0.0715971 0.17839028 0.038646854 0.027789455 -0.2518157 -0.21039318 -0.19462185 -0.20052172
-0.03698449 0.057502773 -0.073588714 0.12521455 0.14939041 0.014865058 -0.11490346 -0.110809095
-0.021633998 0.12233118 0.104642995 0.11180767 -0.08293413 -0.07432676 -0.0637621 -0.1512049
0.09970303 -0.078026265 0.14094506 0.09541442 -0.1546147 -0.094571605 0.06775393 -0.16991384
-0.22159964 -0.09689185 -0.2869267 -0.14843911 0.118146114 0.20731543 0.16514839 0.034442294
0.1214628 0.18585657 0.28428286 0.13932836 0.11169704 0.07953837 0.1191893 0.17531744
0.31493497 0.2415807 0.23337628 0.073966675 -0.29169273 -0.31558365 -0.25875735 -0.27959588
0.22687966 0.08960519 0.459149 0.26812717 -0.19859193 -0.22461036 -0.13118586 -0.11382954
0.20515375 0.16408515 0.25747827 0.22140771 -0.17883438 0.006202718 -0.112340055 -0.07060866
0.15321954 0.20834726 0.20658746 0.22713515 0.20819078 0.047903035 0.19366501 0.042694066
0.18902451 0.18271504 0.23689163 -0.025839884 0.13301033 0.12166259 0.05300331 0.09776656
0.1051336 0.04208573 0.18024066 0.14233711 -0.2477554 -0.22686857 -0.31570035 -0.2811303
0.12136878 0.07688518 -0.10663981 0.12782322 -0.14192724 -0.019957831 -0.05296061 -0.09853842
-0.01955357 0.065650605 -0.11646983 -0.07768429 0.09225902 -0.009516081 -0.08128338 -0.08898934
0.09357564 0.10495084 -0.06333772 -0.05694414 0.013034385 -0.034875095 0.0040056305 -0.031064069
0.14655976 0.1587414 0.052292198 0.15702201 0.02523294 -0.026761537 0.06300369 -0.02034852
0.09973197 0.002283634 0.10030564 0.08487347 -0.15068376 0.010610956 -0.024170047 -0.004186038
-0.05756817 -0.08050247 0.04606377 0.1156659 -0.0110022435 0.08632756 -0.01721873 0.08002567
-0.06858205 0.07252685 0.0406346 -0.07656887 -0.04753092 0.027269797 -0.13971193 0.024679905
-0.057934754 -0.07929723 -0.10091219 -0.09306734 -0.092078574 -0.12517089 0.053318407 -0.055568837
0.16280468 -0.017084697 0.03986562 0.11253349 0.00565185 -0.14923733 -0.045759246 -0.06122296
-0.1363746 0.08109165 -0.062474262 -0.07189793 0.020231325 0.015525387 0.001340786 0.060683638
0.14599602 0.07497236 -0.07604405 0.14698236 -0.13454323 -0.073345035 -0.00086680567 0.0038274855
-0.004445596 0.1314286 -0.0103553785 -0.0014217074 0.07540057 -0.097510345 0.060931735 0.14163372
-0.10921777 0.0087415 -0.09816624 -0.029130768 -0.03978813 -0.09488903 -0.07245258 0.120364666
-0.09969639 0.0997467 -0.0140245985 -0.059022278 -0.13359699 -0.035068523 0.09124385 -0.03800387
0.123740405 0.09296669 -0.104644634 -0.048494153 -0.15213785 -0.07080261 -0.16778702 0.073928684
-0.0923033 0.024558548 0.0936992 0.04125885 0.03744017 0.071553014 0.04177792 0.060058348

model.decoder.blocks.0.upsample.bias f4 [16]
00000000: 2f93 e0bd 430f a9bd 95e7 b6bd 4fe2 4abd
00000010: 2587 33bd 3ffa 053e 2182 fbbd b60c d83c
00000020: e306 63bd 7d39 f13c 3317 b2bc 6e70 88bd
00000030: 331f 9fbd 7a00 ef3d 8094 38bd 6b58 f73b
-0.10965573 -0.08254864 -0.089308895 -0.04953223 -0.043830056 0.13083743 -0.122806795 0.026373249
-0.05542649 0.029446358 -0.021739578 -0.06662069 -0.07769623 0.11670013 -0.045063496 0.007548382

model.decoder.blocks.1.layer.weight f4 [16, 16, 3, 3]
00000000: ff53 803d 90bb 98bd cc63 1a3d 84b7 6fbd
00000010: 0c96 27be 9ba7 843d a5d1 88bd 1edb e8bd
00000020: 073d 8a3d e9d0 b3bd e53e 0cbd 7d20 1e3e
00000030: 1685 3bbd 95e9 5d3c dc15 313e 6be3 9dbd
00000040: a36f c13d 8897 323e a6d6 9dbd 65f1 8b3d
00000050: 76f4 143e 849b 173d 49fa ae3d 9513 473e
00000060: ba52 663d 36aa 32bd d0ac 013e c38e 93bd
00000070: 2377 26bd b78a 3f3d b029 183d 3b2d 30bd
00000080: a4b1 3d3d 5c07 963c 6ea1 773d 71e0 cd3d
00000090: a8d4 d43c 1146 db3d 9400 073d 1065 09bd
000000a0: a871 5cbd 478b fbbb 709c e03a 42d7 62bd
000000b0: 6df8 dd3c 44d5 a83d 883b 2b3d 3203 48be
000000c0: 0f93 283d de0c c9ba 2c7f 90be d982 03bd
000000d0: eef7 703d b412 e8bd 9041 dabd c631 e63d
000000e0: 3081 9d3e 6c24 02bd f9d4 973d 65fe b03e
000000f0: d7c6 9fbc 683b 313b ab2b 633e fe4b 983d
00000100: 5226 65bd ee6c 24bd ab0b ca3d 8196 90bb
00000110: 88b1 1dbd b26c 43bc 0d54 993c ccba 46bc
00000120: b700 50bd 8366 e03c 83aa 483e 8e82 c53c
00000130: 8580 3e3d 3d61 5d3e 15c7 37bc 2a86 0bbd
00000140: 4168 413e d913 943d 6314 7f3d 45d3 cc3d
00000150: 2c7d ae3d 140a c93d d507 a6bd 1b7c b93b
00000160: 88c6 003d fe2e df3d 43f4 dd3a 1663 913d
00000170: 5ccc 743e a788 283b 9eec 833d 9e0e 873e
00000180: d4f4 98ba 7b29 83bd a91e 983d 3788 1bba
00000190: 680a 3f3d e003 fcb6 eb87 863d 8201 bdbc
000001a0: df73 f3bb 35e6 763d eafc e13c ad17 2c3b
000001b0: 1683 633c c4f9 ba3d bfcb 303e efcd c63c
000001c0: 4e59 c5bc 30f8 3e3e 13f5 1c3c 064d d9bb
000001d0: daf5 be3c 9c47 6d3d 149e 293e 7b29 44bd
000001e0: a0f4 d4bb cb78 a23d d7a3 143d c43c 43bd
000001f0: 80c5 183e 64b2 5dbc 221e 1dbd 340b 46bd
00000200: 0b47 303d e85c c0bb 9297 873b 286b 9d3b
00000210: 7bb0 233d 78df 49bc a10c 5e3c 42df fa3d
00000220: a4be 3bbe a7d5 02be 9f05 9abc 9234 67be
00000230: cdf9 44be edb6 863d 5da2 2fbe f817 0cbe
00000240: bd61 a03d 497e 94bd 7f86 9bbd 412f 033d
00000250: 3114 8ebd cbf4 0ebd 19b6 dc3d 80e4 cf3c
00000260: f27a 733c d7a4 b83d 5a4d 6e3c 49c2 17bc
00000270: 11da 84bd b34e 07bd 4803 9a3c 6709 053e
00000280: e3e9 223d 2ae4 623d 5d04 6dbc 447a babd
00000290: 4fe9 96bc 8984 9e3d 9b79 98bd d32e 183d
000002a0: 5b06 ff3b 38e1 1fbd 6d69 273d 5248 5b3d
000002b0: a5ee debc a988 2a3d 0901 c23d eeef 6fbd
000002c0: 549f 6cbd d3af af3d 49e8 3c3d 1a00 973d
000002d0: dcb8 4ebd b5b9 683d 6edc 3abd 8c33 383c
000002e0: 3c7d d4bd 2ea7 6c39 b657 ff3c fe12 d13c
000002f0: 45d3 2b3d 1285 aabd d013 013d 7c6d 8f3c
00000300: 12cb 33bd 7f99 cf3d 5b78 03bd 82de ffbd
00000310: f3e1 64bd f311 003d 488e 56bd 4afb f6bc
00000320: 8cbb 9bbd ff31 a03c 1242 1ebe 01c1 17bd
00000330: 0adc bc3d 5546 1e3d 7804 c23c c75c 533d
00000340: 2463 533b ba19 ae3d ea65 5d3d 9c3c bf3d
00000350: b123 833c 8dd2 d8bd 0243 ef3c a06c a9bb
00000360: 443b 1c3d fe48 0dbd a711 413d 8f47 b13c
00000370: 20a2 19bd 5823 0fbc 5d48 42bc 1436 303d
00000380: 19c8 75bc 72b8 0ebe 2faa 9fbd 6758 423c
00000390: be8a 90bc 44f9 aabc eb54 f23d 6a45 103e
000003a0: a9ca 75bd 6675 183e 28f9 f13b f8a2 d8bd
000003b0: 9f45 25bd 68a3 783b be32 11bd 120d 343d
000003c0: aee9 bf3c 1ffc 2ebd ebeb 4e3d e7ad a93c
000003d0: efa4 4c3c 2d70 223d 9e23 913d 284c d8bd
000003e0: 0050 bcbd 8c69 8c3d 9b80 853d ba48 053d
000003f0: 5e2b 733c daf5 183c e15f eabd 22d0 983c
0.06266021 -0.0745765 0.03769283 -0.058524624 -0.16365832 0.06477281 -0.066806115 -0.11369918
0.06749921 -0.08780081 -0.03423967 0.15442081 -0.045781218 0.01354446 0.17293495 -0.07709392
0.09445121 0.17440617 -0.077069566 0.06833152 0.1454638 0.037013546 0.08543832 0.19441064
0.056231238 -0.043619357 0.12663579 -0.07204964 -0.04064096 0.04676315 0.03714913 -0.043011885
0.04631199 0.018314056 0.060456686 0.100525744 0.025980309 0.107067235 0.032959536 -0.033543646
-0.05381933 -0.0076765153 0.0017136466 -0.055381067 0.027095998 0.08243802 0.04180482 -0.19532469
0.04115587 -0.0015338918 -0.28222024 -0.032107208 0.058830194 -0.11331692 -0.10657036 0.11239962
0.30762625 -0.031773016 0.07413668 0.34569088 -0.019503994 0.0027043466 0.22184627 0.07436369
-0.05594475 -0.040142946 0.09865507 -0.0044124727 -0.038499385 -0.01192777 0.018716836 -0.012129497
-0.05078193 0.027392631 0.19596295 0.024110105 0.046509285 0.21619125 -0.011216898 -0.034063496
0.18887426 0.07230348 0.0622753 0.10001234 0.085199684 0.098163754 -0.081069626 0.0056605465
0.031439334 0.10897635 0.0016933758 0.07098977 0.23906082 0.0025716217 0.064416155 0.2637834
-0.0011669644 -0.06404396 0.07427723 -0.00059330784 0.046640784 -7.5106364e-06 0.06568893 -0.023072008
-0.0074295844 0.060278136 0.02758642 0.002625923 0.013886234 0.0912967 0.17265223 0.024268119
-0.024090435 0.18649364 0.009579915 -0.0066314964 0.02331059 0.05792962 0.16564208 -0.04789112
-0.006498888 0.07933196 0.036289062 -0.047665372 0.1491909 -0.013531301 -0.038358815 -0.048350528
0.0430365 -0.0058704503 0.0041379416 0.004804034 0.039963227 -0.0123213455 0.013552816 0.12249614
-0.18334442 -0.12776814 -0.018801508 -0.22578648 -0.19235916 0.06577859 -0.1715178 -0.13681018
0.07831142 -0.072506495 -0.075940125 0.032027487 -0.06937445 -0.03490142 0.1077692 0.025377512
0.014860855 0.09015816 0.014544809 -0.00926263 -0.06486905 -0.033034038 0.018800393 0.12991868
0.039773833 0.055393375 -0.014466372 -0.091053516 -0.018421797 0.07740123 -0.074450694 0.03715403
0.00778274 -0.039033145 0.040872026 0.053535767 -0.027213404 0.041634236 0.09472854 -0.058578424
-0.057769135 0.08578458 0.046119962 0.07373066 -0.050469264 0.05681773 -0.045620374 0.0112427585
-0.10375449 0.00022568993 0.031169754 0.025521751 0.04194953 -0.083261624 0.031513035 0.01750826
-0.043894835 0.10136699 -0.0320972 -0.12493612 -0.055879544 0.031267118 -0.052381784 -0.03014912
-0.07604131 0.01955509 -0.15454891 -0.037049297 0.092216566 0.038641293 0.023683771 0.05160215
0.0032255137 0.08501001 0.05405227 0.09337732 0.01600823 -0.105870344 0.029206757 -0.00517042
0.038142458 -0.03449344 0.047135975 0.021640567 -0.03750813 -0.008736454 -0.011858073 0.043020323
-0.01500132 -0.13937548 -0.07796132 0.011861897 -0.017644282 -0.020870812 0.11832603 0.1408898
-0.060007725 0.14888534 0.007384438 -0.10577959 -0.0403496 0.0037939195 -0.035448782 0.043957777
0.023426857 -0.04272091 0.050517958 0.020712806 0.012490495 0.03965776 0.070868716 -0.10561401
-0.09194946 0.06856069 0.0651867 0.03254006 0.0148418825 0.009335959 -0.11444069 0.018653933

model.decoder.blocks.1.layer.bias f4 [16]
00000000: 8bb9 503d 4d96 413d 255f e03d 0f83 1b3e
00000010: 7ce8 de3d e5b6 70bc 6894 2f3b 4537 a23d
00000020: 9a2e ed3d 3779 71bc 5360 283d d3b3 913c
00000030: c872 533c d962 ac3d 7cca de3d 0540 a8bd
0.050958198 0.04726248 0.109556474 0.15186714 0.108841866 -0.014692043 0.0026791338 0.07920698
0.11581154 -0.0147383725 0.041107487 0.017785942 0.012905784 0.08417291 0.108784646 -0.08215336

model.decoder.blocks.1.upsample.weight f4 [16, 16, 2, 2]
00000000: 623f 8b3d 7950 2bbd ed1c a9bd 7214 183e
00000010: 3a38 af3d 8b02 f0bd 523b 99bd ce70 acbc
00000020: 52b6 b83e a43e bdbe 5375 093f 628f a2be
00000030: d633 d13d d2a4 abbd b088 ecbc 635f 923d
00000040: 0517 193e bb39 223d e45d bfbc da30 ddbc
00000050: 7ad2 8c3d 9cfb ac3d 0033 333d ec48 513c
00000060: 760e 473d 4237 b8bd 3f83 ac3c dc78 35bd
00000070: 57bc e3bd e23b e33d 38b4 953d 7fc8 09bd
00000080: f9f4 5f3d 5606 9f3d 0821 4a3d eafd 9dbc
00000090: 6290 eebb a2cd 383e e173 e4bb 8072 2e3e
000000a0: f8cc a1bd 5c0a e03d cb78 2e3b b41b 3e3e
000000b0: a23d 45bd d243 ec3d 41a4 803d b686 e33a
000000c0: 91ea 793c 7e85 51bd b21f bb3d 24bf a83d
000000d0: 5c51 133d 9405 093e 7582 7fbc bbe6 103e
000000e0: ace2 5e3c 6183 c3bc c0f1 903c 9d10 003d
000000f0: 56b2 163f 9254 753e 7691 513f 0643 923e
00000100: 45a7 bbbd 762a 393c 2980 9f3d 84c2 9cbd
00000110: a4f5 cf3d 0622 d03d 0c7e 8cbd 1e16 c33c
00000120: d84c cbbe c42d 91be 31ee fabc bb30 573d
00000130: 9799 2fbd 34d0 cb3d fbbf 1b3d 70a5 bd3d
00000140: 438c fab9 1227 eebc ad4e 6cbd 5d46 08be
00000150: c025 f2b7 3c7c 913d 3bf9 dd3c b9c8 d6bd
00000160: ac24 3dbd 77c4 d5bd d6ff f43c ce19 10be
00000170: 472b 09bd 67a7 d1bd 89e4 ba3d e0c3 78bd
00000180: 4b1b 8ebd fed3 9fbd e756 eb3d e622 d6bd
00000190: 113f 9d3d c337 9fbd 50c8 433d 7294 98bd
000001a0: cc81 853d fdc5 933d a24c b03d 33af b5bd
000001b0: 1ecb d0bd c691 c93b 934d 89bd 4046 03bc
000001c0: 0839 b23d 80af 3a3d b4bf 31be b740 1cbd
000001d0: a0d4 48bd 58b5 4f3d f87b f03d ac7d b5bb
000001e0: 0aec 9c3d 1417 c3bd 5c94 cebc 91a5 f03c
000001f0: 2ea5 00be 0512 86bd a4a4 a6bc 1729 36be
00000200: 76b7 9fbc 936e 95bd 303b 24bd a5f2 dcbc
00000210: 6988 393c 481b 903d d3ba 203e cfd1 1c3e
00000220: 5e97 3dbc c405 98bd 6e48 873e 63ff 643e
00000230: 25d6 963d 321f 86bd 0283 1c3c 6f0b 183d
00000240: 0caa 4cbd e05d eb3b c1d7 e13c 1471 d2bd
00000250: 9cf3 493d cd61 c3bd 2c4a 8cbd 18f9 453c
00000260: f8f5 3fbd 3b56 2ebd 9ee7 a4bd 8241 97bd
00000270: cf5e 003e 93ac ce3d fc9c 403d 9519 b3bd
00000280: 4c73 003e 4751 a93d 15b9 dd3b b619 463d
00000290: 1ff8 0d3d 63b3 85bd d425 b6bd af88 913d
000002a0: b085 86bd d37b e5bd 876c ba3c 09ea 123d
000002b0: d576 88bd 1d5d f4bc 4f51 8fbd 3d69 2b3d
000002c0: 2fd4 d83c 1af1 e5bd 6476 0fbe 53c1 8abb
000002d0: 3eeb 6fbd 387e 0bbc 1c4a 57bd ba55 96bd
000002e0: a784 8c3d e45c 7abd ccf0 283c 9f61 0cbe
000002f0: e856 3f3c 5278 5fbe 5d6f b43d 1b2e 2cbe
00000300: d01a 953e ac2c fb3e baf5 b83e 3117 ed3e
00000310: a77d 793e b0b5 c83e dcfd 8e3e 3e22 b73e
00000320: 222b e63e ca33 a23e e499 623f 22c8 383f
00000330: fd3a 823e c326 b83e d9bb 27bd 01aa ae3d
00000340: 58f8 a83e b74d 043f d868 c23e ff83 e03e
00000350: 8cde 993e 7bbc ba3e 7610 ae3d b09c 9c3e
00000360: 2d34 3cbe 294b 7bbe 5764 15be a411 8cbd
00000370: 28b1 d33d df1c 633e 9975 b83c e73e 733e
00000380: c76b 0abe 2f72 18be adcf bfbe 5ec7 dcbe
00000390: e0b2 e53d b61c 913e ae2c 50bc 24c1 0d3e
000003a0: c6f5 043e 7ac3 963e 18c2 943e e6cb bd3e
000003b0: 8095 c73e 5833 893e 5e14 3a3e 938f 223e
000003c0: e50a bfbe 8b40 d9be a36c 06be c87b 0abe
000003d0: ff8e 0dbd fb30 39be 189c d6b9 414a c3bd
000003e0: bc4b 7e3e 5c15 8d3d 0d13 553d c015 c03d
000003f0: 5afe dd3e 0463 bc3d ded9 a33e cfda 56bc
0.06799199 -0.04182479 -0.0825747 0.1485155 0.08555646 -0.11719235 -0.074820176 -0.021049883
0.360766 -0.36961854 0.5369465 -0.31750017 0.10214965 -0.08381046 -0.028873771 0.071471
0.14950188 0.039605837 -0.0233602 -0.027000833 0.06876083 0.08446428 0.04374981 0.012773734
0.048597775 -0.089949146 0.021058677 -0.044304714 -0.11119907 0.11095406 0.073097646 -0.033638474
0.054676984 0.0776488 0.049347907 -0.019286115 -0.0072803954 0.18047193 -0.0069718217 0.17035866
-0.07900423 0.10939476 0.0026622291 0.18565255 -0.04815448 0.11536373 0.06281329 0.0017358873
0.015253679 -0.0511527 0.09136905 0.08239582 0.035966262 0.13381034 -0.015595068 0.14150517
0.0136038475 -0.023866357 0.0176934 0.031265844 0.5886587 0.23958042 0.8186258 0.2856676
-0.091627635 0.011301627 0.077881165 -0.076542884 0.10154274 0.101627395 -0.06859979 0.023814257
-0.39707065 -0.2835523 -0.030631157 0.052536707 -0.042871084 0.09951821 0.038024884 0.0926007
-0.0004778822 -0.029071365 -0.05769222 -0.13308091 -2.8866227e-05 0.07103774 0.027096381 -0.104875036
-0.04617755 -0.10437863 0.029907148 -0.14072344 -0.033488538 -0.102370076 0.09125621 -0.060733676
-0.069387995 -0.07804106 0.11491185 -0.10455875 0.076780446 -0.077743076 0.047798455 -0.07450189
0.065188974 0.07215498 0.086083665 -0.08871307 -0.101949915 0.0061514108 -0.06704249 -0.008012354
0.08702284 0.045577526 -0.17358285 -0.038147654 -0.0490309 0.050710052 0.11742395 -0.005538663
0.076622084 -0.09525886 -0.025217228 0.029375823 -0.12563011 -0.06546406 -0.020342179 -0.17789112
-0.01949666 -0.07296481 -0.040095508 -0.02697117 0.011324027 0.070364535 0.15696268 0.1531441
-0.011571733 -0.07422975 0.26422447 0.22363047 0.073650636 -0.06548919 0.009552719 0.03712028
-0.049966857 0.0071828216 0.0275687 -0.10275474 0.04930459 -0.095401384 -0.06850085 0.012083314
-0.046865433 -0.042562705 -0.0805199 -0.073855415 0.12536167 0.1009151 0.047024712 -0.08745114
0.12543982 0.082674555 0.0067664483 0.048364364 0.034660455 -0.06528356 -0.08893934 0.071061485
-0.065684676 -0.11205258 0.022756828 0.035867725 -0.066632904 -0.029829556 -0.0699793 0.04184841
0.026468365 -0.11227627 -0.14010006 -0.004234472 -0.058573954 -0.00851398 -0.05256091 -0.0734057
0.06861239 -0.061123744 0.010311317 -0.13709114 0.011678435 -0.21823242 0.08810303 -0.16814463
0.2912202 0.4905752 0.36124974 0.46306756 0.24364339 0.39201117 0.27928054 0.35768312
0.44954783 0.31680137 0.8851607 0.7218038 0.2543563 0.35967073 -0.04095063 0.085285194
0.3300197 0.51681083 0.37970614 0.43850705 0.30052602 0.36471924 0.084992334 0.30588293
-0.18379278 -0.2454039 -0.14589058 -0.06839302 0.10336524 0.22178982 0.022517012 0.23754464
-0.13517676 -0.14887308 -0.37463132 -0.43120855 0.11215758 0.28342217 -0.012705965 0.13843209
0.1298438 0.29446012 0.29054332 0.37069625 0.38981247 0.26796985 0.18171832 0.15875082
-0.37313 -0.42432055 -0.13127379 -0.13523781 -0.0345602 -0.18085091 -0.0004093356 -0.09535647
0.24833578 0.068888396 0.05202012 0.093791485 0.43358117 0.09198573 0.32002157 -0.0131136915

model.decoder.blocks.1.upsample.bias f4 [16]
00000000: 4d0b d83d 19bc b33c 76c4 1bbd 6c25 1b3e
00000010: 72bf 963d ab78 c63d 3efe 04be 5096 e13d
00000020: c0c8 eebd 8363 2c3d 6ece da3d 5079 f63d
00000030: ba79 38be e96e 07be c407 0a3c 2d71 1d3d
0.105490305 0.021940278 -0.038029157 0.15150994 0.07360734 0.09690984 -0.1298761 0.11014998
-0.11659384 0.04208709 0.106839046 0.12034857 -0.18015185 -0.13225903 0.008424703 0.03843801

model.decoder.blocks.2.layer.weight f4 [1, 16, 3, 3]
00000000: 17e3 cfbc 33bc b23d 0455 38bc 7e45 843d
00000010: b42f f83c 6e4b d93c 1732 703d b3d3 f53d
00000020: c101 02bc c542 38bd d30c aebb 1484 58bb
00000030: a73a 6b3c 3119 053d 683b 843a 7c10 803d
00000040: 68a1 c73d b5c6 b33d 67f5 0cbd b729 f7bd
00000050: 741b 06be c3aa ac3d 1db6 0abd 8932 9c3c
00000060: 9b4c ee3d 366a 94b9 4f10 0b3e da2b 423d
00000070: 6cb8 863d 6f44 f33d 6f78 b23d 7db8 f03d
00000080: 7940 e43d 4214 913d 54d3 933d 47e8 2e3d
00000090: 9474 dd3d 4b6c 123c f77a aabd b212 a43d
000000a0: b7bb af3b 0ad7 61bc 22c6 ed3d 0fca d83d
000000b0: ce0f eaba a878 963d 2e37 ca3d 752e 09bc
000000c0: a80f fa3d 8c8b 4b3d fc3c 12ba 4262 7f3b
000000d0: 606b 013e 3d15 64bd 45f4 ae3c de68 9dbd
000000e0: 62ae 4ebd feb4 bdbd df30 08be 1ce7 993b
000000f0: 481f 98bd 8831 2e3d 4e51 88bd 58b0 123d
00000100: ae12 9b3d 7386 763d 56d6 9a3d 3e16 f73d
00000110: 1c43 7ebc 48eb 4e3c 24b9 a13d 0cf4 193d
00000120: 602e 52bd e680 1d3d 6b2d 86bc 4e62 0e3d
00000130: 6535 74bd e4af f03b 4506 92bd ce90 35bd
00000140: f675 a4bd 26c1 d63d b90e ff3d 4e7c 5ebd
00000150: fa72 45bd 86c2 e23d f00c 553b 3517 2fbc
00000160: 5806 513c e164 bb3c e0fe 9bbc ea95 ca3d
00000170: 47f2 9d3d 5f9f 543d d8eb 703d 97fc 27bd
00000180: 9218 d13d 9125 c43d d6a3 683c aff2 b33d
00000190: 3be9 833d 7078 5d3c c882 dc3d 232b cd3d
000001a0: c556 5abc c0af 52bc 681f 9dbc e06c cc3d
000001b0: 6ccd 7dbc dc2b e2bd c9b0 003d b0fb e4bd
000001c0: 4aa4 ccbd 782f 0ebe 225d a63b 694b 46bd
000001d0: 8ed3 6abd 6bb4 1b3b f286 3bbd 719a a2bd
000001e0: db42 bbbb ddd9 4bbb c422 c9bd 6aba 3bbd
000001f0: 0c7a f53c c617 13bd 1103 523d 3b26 fc3c
00000200: c111 60bd fadc 41bb 990f df3d 8ed0 5fbd
00000210: 6538 88bc 3415 aebd aa3a 103d 530f 7b3c
00000220: f00c 793d b63c 04bd 1115 0a3e 50e3 23bd
00000230: c18a cabd 0c9a 093e a885 c93a caf2 b0bd
-0.02537684 0.087273024 -0.011250738 0.06458567 0.030296184 0.026525225 0.05864152 0.12003269
-0.0079349885 -0.04498555 -0.0053115874 -0.003303771 0.0143572455 0.032494728 0.0010088505 0.06253144
0.09747583 0.08778135 -0.03441372 -0.12068503 -0.1309641 0.08431008 -0.033865083 0.019067066
0.11635705 -0.00028307893 0.1358044 0.0474051 0.065781444 0.11878287 0.08714377 0.11753938
0.1114511 0.07083942 0.07218042 0.042701986 0.10813251 0.008936952 -0.08324235 0.08011378
0.0053629535 -0.013784179 0.116100565 0.105854146 -0.0017857493 0.07347232 0.09873806 -0.008372893
0.122100174 0.04969363 -0.00055785454 0.0038968478 0.12638617 -0.055684317 0.021356711 -0.076860175
-0.050459273 -0.09263037 -0.13299893 0.00469674 -0.074278414 0.042527705 -0.06656133 0.035812706
0.07571922 0.060186815 0.075604126 0.12064789 -0.01551893 0.012629338 0.07896641 0.037586257
-0.051313758 0.038453005 -0.016379079 0.03476172 -0.059621233 0.0073451865 -0.07130102 -0.04432755
-0.08030312 0.10486059 0.1245398 -0.054317765 -0.048205353 0.11072259 0.0032508932 -0.010686685
0.01275786 0.022875251 -0.019042432 0.09891875 0.07712226 0.0519098 0.058818668 -0.041012373
0.102097645 0.09577478 0.014199218 0.087865226 0.064409696 0.013517484 0.10767132 0.10017993
-0.0133263515 -0.012859285 -0.019180015 0.09981704 -0.015490871 -0.11043522 0.031418595 -0.11180818
-0.09992273 -0.13885295 0.0050770203 -0.04841176 -0.05733066 0.002375866 -0.04578299 -0.079396136
-0.005714757 -0.0031105198 -0.09821084 -0.045832075 0.029965423 -0.035911344 0.051272456 0.030779948
-0.05470443 -0.0029581175 0.10891647 -0.054642253 -0.016628454 -0.08500138 0.035212196 0.015323478
0.060803354 -0.03228446 0.13484599 -0.040011704 -0.098897465 0.1343767 0.0015374916 -0.08640058
