03_Workshops/03_Encoder-Decoders for Latent Space Manipulation/Denoising/lightning_logs/version_3/checkpoints/epoch=99-step=3200.ckpt (torch, 278483 bytes, 60 tensors)

model.encoder.blocks.0.layer.weight f4 [16, 1, 3, 3]
0.11505195 -0.0445008 0.15455407 -0.026699204 -0.26766244 0.26218045 -0.04014848 -0.16045025
0.07010187 -0.015863534 -0.19660468 -0.2819517 0.27842715 0.29857066 0.07860167 -0.26315707
0.31982806 0.047710694 -0.13507307 -0.3290183 -0.06329386 -0.1226755 0.24059594 -0.3178589
-0.33091757 -0.29995403 -0.0463504 0.31428346 -0.1240588 0.23385578 -0.037077513 0.08596188
-0.07189151 -0.22861697 -0.061826274 -0.26494572 0.11353223 0.11517745 -0.22689801 0.30280703
0.14327501 0.014821544 -0.17168446 -0.06437085 -0.2159379 -0.32809442 -0.032885715 -0.2464167
-0.004880279 0.1564164 0.19189852 -0.16731443 0.07617563 -0.20594004 0.10608146 0.3314783
0.04810435 0.04263507 0.30682182 -0.15370359 -0.11260539 0.30898818 0.040446326 0.31013304
-0.17182076 0.2545445 0.32094187 -0.2717613 0.18066657 0.18046662 -0.25459448 -0.24477299
0.1434931 0.027800221 0.029764185 0.024085473 -0.3194829 -0.0341968 0.21354409 -0.1594588
-0.22465979 0.2684433 0.2798789 -0.09074259 0.061775234 0.15420395 -0.3273833 -0.06859407
0.014365057 -0.04487652 -0.13178903 -0.1936624 -0.19874647 0.1601485 -0.13411863 -0.13276088
0.1246093 0.078471094 0.290442 -0.3216977 -0.07804785 -0.044699617 -0.3186193 -0.09499444
0.08838027 0.27335432 -0.041539248 -0.21634184 0.325077 -0.0334169 0.18264554 0.07437892
-0.17622916 0.27407536 -0.2357625 -0.26471275 0.07732521 0.2629782 0.1288328 0.08472803
0.11889911 0.115646526 0.03735074 0.092772804 0.15338577 0.039476696 0.15239686 -0.21549122
0.3156882 0.018292233 -0.30417347 0.1526642 0.19826894 -0.2917967 0.31241313 0.06867717
0.20757076 -0.12002029 0.26460403 -0.206763 0.01261287 0.28407022 0.20371181 0.11174435
00000000: 5ba0 eb3d 7946 36bd 6c43 1e3e 4ab8 dabc
00000010: 0d0b 89be 843c 863e bc72 24bd 124d 24be
00000020: 9291 8f3d 3ef4 81bc bd52 49be f95b 90be
00000030: 018e 8e3e 41de 983e eaf9 a03d 86bc 86be
00000040: 81c0 a33e 4a6c 433d 9850 0abe 1675 a8be
00000050: 36a0 81bd 4b3d fbbd c85e 763e 67be a2be
00000060: 076e a9be 9393 99be ebd9 3dbd c3e9 a03e
00000070: 8a12 febd e477 6f3e 97de 17bd c80c b03d
00000080: db3b 93bd 911a 6abe 8c3d 7dbd f7a6 87be
00000090: 9683 e83d 28e2 eb3d f457 68be 8609 9b3e
000000a0: afb6 123e 10d6 723c 0dce 2fbe ddd4 83bd
000000b0: d31e 5dbe fefb a7be 2cb3 06bd a954 7cbe
000000c0: bfea 9fbb 9f2b 203e 0c81 443e 7954 2bbe
000000d0: f801 9c3d f2e1 52be 3d41 d93d 86b7 a93e
000000e0: 1109 453d 1ca2 2e3d c017 9d3e 7964 1dbe
000000f0: a89d e6bd b333 9e3e 0cab 253d c2c9 9e3e
00000100: c8f1 2fbe a853 823e 7e52 a43e 4c24 8bbe
00000110: a800 393e 3ecc 383e 355a 82be c5a5 7abe
00000120: dbef 123e 4abd e33c 05d4 f33c e64e c53c
00000130: 4393 a3be f211 0cbd 4dab 5a3e 2b49 23be
00000140: 370d 66be 6671 893e 4a4c 8f3e 40d7 b9bd
00000150: 0708 7d3d a4e7 1d3e c99e a7be 0c7b 8cbd
00000160: 6b5b 6b3c 71d0 37bd b4f3 06be 704f 46be
00000170: 3284 4bbe f8fd 233e 6556 09be 78f2 07be
00000180: 2933 ff3d 74b5 a03d d0b4 943e 90b5 a4be
00000190: 8dd7 9fbd f216 37bd 1222 a3be 728c c2bd
000001a0: b700 b53d 19f5 8b3e 0f25 2abd b788 5dbe
000001b0: 7e70 a63e 29e0 08bd 6f07 3b3e fa53 983d
000001c0: 6b75 34be 9b53 8c3e ba6b 71be 6e88 87be
000001d0: ae5c 9e3d 14a5 863e bfec 033e e485 ad3d
000001e0: 6081 f33d 16d8 ec3d 17fd 183d abff bd3d
000001f0: 2911 1d3e 51b2 213d ec0d 1c3e bba9 5cbe
00000200: e2a1 a13e 98d9 953c a0bc 9bbe 0154 1c3e
00000210: 0307 4b3e 6166 95be 9df4 9f3e 9ea6 8c3d
00000220: 6e8d 543e 33cd f5bd 2e7a 873e aeb9 53be
00000230: 36a6 4e3c a771 913e d499 503e 39da e43d

model.encoder.blocks.0.layer.bias f4 [16]
0.23395951 0.3182279 -0.13915384 -0.05642937 0.27911717 0.12891439 0.14488699 0.3149522
0.1092971 -0.1141352 -0.050873403 0.25754455 0.3138047 0.23633924 0.049963307 -0.3020724
00000000: 1593 6f3e c4ee a23e 587e 0ebe 7c22 67bd
00000010: 72e8 8e3e 2202 043e 415d 143e 6a41 a13e
00000020: 28d7 df3d b7bf e9bd a160 50bd e1dc 833e
00000030: 02ab a03e ea02 723e 53a6 4c3d 3ca9 9abe

model.encoder.blocks.1.layer.weight f4 [24, 16, 3, 3]
-0.0049036555 0.00075073086 0.016666118 -0.058680143 0.012887456 0.073089465 0.024094593 0.02595803
0.054443423 0.09287528 0.057740893 0.04652278 -0.053408682 0.034144517 0.05578992 0.06086754
0.0648413 0.053491633 -0.08294858 -0.029590845 -0.051625144 -0.038645178 0.063917965 -0.005817632
0.061346136 -0.04636587 -0.07561731 -0.07787531 -0.012014026 -0.09986921 -0.111212894 0.0064290133
-0.009129795 0.08090892 0.0601119 -0.036287323 -0.0023540135 -0.041265048 -0.007177478 -0.03956341
-0.04621597 0.05133231 0.045687526 0.050553143 0.03918831 0.06604603 0.05598324 0.014635207
-0.034745447 -0.059039168 -0.04588374 -0.025673335 0.045591846 -0.06920591 0.031920847 0.027949408
0.0054215025 -0.02443038 -0.06533247 0.041786555 0.044097077 0.090824485 -0.03472744 0.033740472
-0.027183428 -0.05190371 -0.022726204 -0.037220035 -0.072618045 -0.045738794 0.028062494 0.012720841
-0.052836087 -0.0026730006 -0.039458565 0.009150644 -0.0061768615 0.07799367 0.02462344 -0.068056405
-0.016259376 0.05493809 -0.06825606 0.04860218 0.059786025 -0.027876098 0.04128708 0.0017200324
-0.023259476 0.03167862 0.017524257 0.06786945 -0.030424051 0.033211075 0.006319749 0.039131965
0.070192456 0.04020022 -0.071660906 -0.012005593 0.078122355 0.08194448 0.0065957443 0.012797145
0.0043894206 -0.027893417 0.024411865 -0.05547561 0.0746898 0.066809036 -0.0034334154 0.07912925
-0.02271383 0.08145229 0.066765495 -0.051732793 -0.0030124187 -0.024272883 0.0046997406 -0.03720238
-0.055837825 0.022614498 -0.019353034 -0.021964576 -0.054640464 0.07782008 0.020547295 0.046447504
-0.0490509 -0.058274884 0.049516305 -0.037927967 -0.056662478 -0.009517799 0.07765911 -0.025291014
-0.0518976 -0.17720066 -0.104099534 0.023636395 -0.14787653 -0.019170098 -0.048425425 -0.076901264
-0.0076532974 0.042445276 0.07816073 0.045527637 0.08592388 -0.017331505 -0.047244005 0.07254871
0.06510671 0.038183983 -0.02894694 -0.017907433 0.06415088 -0.06732347 0.07931564 0.09144873
-0.04809247 -0.058516525 0.045490943 -0.07714079 -0.032191895 -0.05989656 0.03936225 0.030222526
0.024848491 0.027829876 0.067508385 -0.046451285 -0.0054857302 -0.120725125 -0.06712266 0.038017903
-0.06424365 -0.023554716 0.025289409 0.0062811384 0.029990138 -0.06837335 -0.061319727 0.0022420632
-0.06736122 0.07313008 0.062343817 -0.03032123 0.05394528 0.042396612 0.010715987 8.27534e-05
-0.06549577 0.048094086 -0.020281915 0.033664584 -0.013955084 -0.071901016 -0.018890653 -0.020889975
0.080502525 -0.022085236 0.023875121 -0.06516772 0.08070376 0.07101213 0.06702854 -0.016985713
0.030596491 -0.04520175 0.023843449 -0.05575915 0.040641304 0.054340042 0.009840365 0.041023035
0.064686045 0.06552397 0.005393876 0.030552572 -0.019101316 0.019344395 0.02060938 0.03585505
0.036307685 0.058712848 -0.080361664 -0.09153319 0.0073001673 0.060780887 -0.022971407 -0.03653982
-0.052853934 -0.06893323 0.012706367 -0.046171386 -0.06946609 -0.055188365 -0.07960788 0.023254206
-0.07050608 -0.059532747 -0.007755783 -0.015203392 0.037762232 -0.023074659 0.0754716 -0.0043914616
-0.009103831 0.028494742 0.0066008517 0.016110493 0.00065796555 0.065340005 0.056203604 0.06607715
00000000: d8ae a0bb b2cc 443a 6287 883c 975a 70bd
00000010: e925 533c eeaf 953d 0662 c53c efa5 d43c
00000020: 1100 5f3d 6535 be3d b781 6c3d ac8e 3e3d
00000030: 10c3 5abd 1fdb 0b3d f983 643d 3e50 793d
00000040: 84cb 843d 0b1a 5b3d f2e0 a9bd 8068 f2bc
00000050: e374 53bd 684a 1ebd 6ce7 823d d6a1 bebb
00000060: 1646 7b3d 23ea 3dbd 40dd 9abd 177d 9fbd
00000070: 7ad6 44bc 3a88 ccbd 96c3 e3bd 79aa d23b
00000080: 2395 15bc 93b3 a53d e537 763d 04a2 14bd
00000090: cb45 1abb 8a05 29bd 0d31 ebbb 3e0d 22bd
000000a0: f54c 3dbd d441 523d d822 3b3d d010 4f3d
000000b0: ec83 203d 2443 873d af4e 653d 82c8 6f3c
000000c0: 3e51 0ebd 0ed3 71bd 97f0 3bbd e350 d2bc
000000d0: 84be 3a3d d4bb 8dbd 6fbf 023d 28f6 e43c
000000e0: dca6 b13b 3822 c8bc 08cd 85bd 6128 2b3d
000000f0: 239f 343d 3002 ba3d 5c3e 0ebd 7333 0a3d
00000100: c8af debc fc98 54bd 4e2c babc 0974 18bd
00000110: c5b8 94bd 9a58 3bbd 51e3 e53c 136b 503c
00000120: a76a 58bd 822d 2fbb 4e9f 21bd 95ec 153c
00000130: 4567 cabb 25bb 9f3d 19b7 c93c 2861 8bbd
00000140: 6232 85bc c306 613d d5c9 8bbd 1413 473d
00000150: 31e2 743d 6a5c e4bc a41c 293d b672 e13a
00000160: a88a bebc 71c1 013d 088f 8f3c 23ff 8a3d
00000170: dc3b f9bc 5608 083d e615 cf3b d748 203d
00000180: 10c1 8f3d fca8 243d f4c2 92bd 1bb3 44bc
00000190: 9dfe 9f3d 82d2 a73d 1d21 d83b 1eab 513c
000001a0: 21d5 8f3b bc80 e4bc 64fb c73c 653a 63bd
000001b0: f7f6 983d 2dd3 883d 2703 61bb 840e a23d
000001c0: 5b12 babc 75d0 a63d 59bc 883d c4e5 53bd
000001d0: 006c 45bb edd7 c6bc 4800 9a3b 8661 18bd
000001e0: 34b6 64bd 0a42 b93c 418a 9ebc 0eef b3bc
000001f0: aece 5fbd 2260 9f3d cd52 a83c bd3f 3e3d
00000200: 99e9 48bd a5b1 6ebd 9cd1 4a3d 5b5a 1bbd
00000210: ea16 68bd 8bf0 1bbc bd0b 9f3d 1a2f cfbc
00000220: 9492 54bd 1774 35be 2332 d5bd 1da1 c13c
00000230: f26c 17be 9c0a 9dbc bd59 46bd 697e 9dbd
00000240: 83c8 fabb 19db 2d3d bc12 a03d 307b 3a3d
00000250: dcf8 af3d cdfa 8dbc ee82 41bd 6b94 943d
00000260: ab56 853d cf66 1c3d 2222 edbc 9cb2 92bc
00000270: 8961 833d e3e0 89bd 3d70 a23d 7949 bb3d
00000280: 9cfc 44bd 06af 6fbd b654 3a3d fefb 9dbd
00000290: a6db 03bd 1856 75bd 503a 213d 3b95 f73c
000002a0: 108f cb3c 7bfb e33c d641 8a3d b443 3ebd
000002b0: a4c1 b3bb bc3e f7bd 9b77 89bd a9b8 1b3d
000002c0: 2d92 83bd d2f5 c0bc bc2b cf3c 02d2 cd3b
000002d0: e1ad f53c 5407 8cbd 652a 7bbd 94ef 123b
000002e0: aef4 89bd 39c5 953d 3b5c 7f3d 3a64 f8bc
000002f0: baf5 5c3d 12a8 2d3d 1b92 2f3c e58b ad38
00000300: a522 86bd 4efe 443d 4226 a6bc e0e3 093d
00000310: dda3 64bc d740 93bd 92c0 9abc 7421 abbc
00000320: 82de a43d 19ec b4bc c295 c33c a776 85bd
00000330: 0348 a53d cf6e 913d 4246 893d 9f25 8bbc
00000340: 7ea5 fa3c 7825 39bd 5653 c33c b563 64bd
00000350: 7f77 263d aa93 5e3d 7b39 213c c507 283d
00000360: 1e7a 843d 6e31 863d 1dbf b03b 6349 fa3c
00000370: 5d7a 9cbc 2378 9e3c 01d5 a83c bfdc 123d
00000380: 5eb7 143d e27c 703d a894 a4bd c175 bbbd
00000390: 3e36 ef3b 61f5 783d 882e bcbc c7aa 15bd
000003a0: 5e7d 58bd de2c 8dbd 5e2e 503c 351e 3dbd
000003b0: 3d44 8ebd 320d 62bd 7509 a3bd 9b7f be3c
000003c0: 7e65 90bd 9cd8 73bd 3924 febb a617 79bc
000003d0: 92ac 1a3d 1107 bdbc db90 9a3d 40e6 8fbb
000003e0: 3c28 15bc ce6d e93c f54b d83b 27fa 833c
000003f0: 527b 2c3a fbd0 853d c035 663d 7553 873d

model.encoder.blocks.1.layer.bias f4 [24]
0.0124055445 -0.010965529 -0.049855027 -0.027987057 0.0016138941 0.036903497 0.08682821 0.012193582
0.11637676 0.065316185 -0.040263314 0.06766196 0.055427458 0.051734045 -0.028345888 -0.049048916
0.061423253 0.011977 0.073887445 0.02135539 -0.0067037316 0.025701841 0.009678766 -0.07880049
00000000: a040 4b3c c3a8 33bc c934 4cbd 1d45 e5bc
00000010: 4d89 d33a 1f28 173d fdd2 b13d 97c7 473c
00000020: f056 ee3d 7ec4 853d 25eb 24bd 5b92 8a3d
00000030: e707 633d 14e7 533d a335 e8bc 84e7 48bd
00000040: f396 7b3d 2e3b 443c 4d52 973d 80f1 ae3c
00000050: faaa dbbb ab8c d23c b093 1e3c 2762 a1bd

model.encoder.blocks.2.layer.weight f4 [24, 24, 3, 3]
0.029610788 -0.0152724795 0.036986846 -0.022148354 0.0039033345 -0.006944236 0.005301526 0.031582672
0.05933104 0.016476573 0.045074437 0.028814645 -0.003277179 0.06285564 -0.04764681 -0.043092534
0.025992269 0.034427825 0.037323825 0.037601143 -0.017431714 0.011790973 -0.06869055 -0.009949439
0.018633388 -0.06975375 0.036241367 -0.012737068 -0.05521944 0.044295583 0.024614677 0.039985787
-0.027527722 0.05055132 0.05940141 0.061312985 -0.0023470914 -0.04064199 0.024308091 -0.032285143
0.022888118 -0.06497031 -0.063885294 -0.01989261 -0.019685384 0.025642904 0.005537696 0.03989153
0.01431047 0.04359648 -0.000936653 0.016839314 0.055200875 -0.022156117 0.013821121 -0.010136732
-0.034098983 0.045617547 -0.057835802 0.031965062 0.016217388 0.060944293 0.06384672 -0.05940824
0.058063336 0.048955612 0.03665391 0.03519707 0.039119866 0.041528646 -0.03170587 -0.008866656
-0.01616095 -0.028151734 0.008169006 -0.010570578 0.059406035 -0.01827203 0.04455035 0.018098187
-0.06417825 -0.0308768 0.029435193 0.04478686 0.024588568 0.047215723 -0.031731706 0.024086507
-0.00094433327 -0.014409558 0.026240008 -0.017519306 0.038137555 0.056804746 0.024446627 0.04657982
0.03929783 0.040578187 -0.03984123 -0.032883313 -0.05041234 -0.040091038 -0.03683886 -0.03409797
-0.0320409 -0.059483744 0.018318174 -0.0391557 0.015305213 0.0041676518 0.003935675 -0.07065758
-0.05486407 0.055854674 -0.026815372 0.020919306 0.00527989 0.031332932 -0.030492306 0.03424804
-0.04459912 0.04668454 -0.023295939 0.017649429 -0.06473231 0.025207872 0.061803285 0.02797755
0.056130804 -0.032571286 0.049161665 -0.053101674 -0.0029025404 -0.047515687 -0.056480143 -0.06818645
0.030846188 -7.472817e-05 -0.015059411 -0.055626538 -0.013007178 -0.027040318 0.02086703 -0.019597646
-0.06513076 -0.056020055 -0.039513282 -0.012672915 -0.073601164 0.021361329 -0.07332816 0.0076980432
-0.018488225 0.044365745 -0.04502948 0.005783431 0.01410855 -0.0487186 -0.03663965 0.019990072
0.0416058 0.05405713 -0.0027783376 0.028919045 -0.06279324 0.036748312 -0.013299797 -0.008107856
0.04974162 0.0038426274 0.010149379 -0.0037783526 0.0158746 -0.06648889 0.020230893 0.013672979
0.053245693 0.019369945 0.024445182 -0.06603233 0.05507399 -0.019282551 -0.04227085 -0.043535754
-0.067521274 -0.051245797 0.008255591 -0.01631721 -0.02652183 0.025339685 0.05430072 0.03267959
-0.024391895 0.053069755 0.059562452 -0.050241012 -0.025632352 0.0129730785 -0.047054626 -0.0031298855
0.050860807 0.055088464 0.042516302 -0.0039752983 0.02856152 -0.0285637 0.014892196 -0.05241958
0.011310274 0.02893092 0.0001232897 0.028138572 0.06799238 -0.035005867 0.022405349 0.050696775
0.011534311 0.05199593 -0.0030318445 -0.023733895 0.051705316 0.0028102798 -0.0022454362 0.052091524
0.033136696 -0.035569254 0.047060058 0.008718356 0.026064577 -0.0018452777 -0.024438486 0.07080486
-0.061062988 0.062454548 -0.045628496 0.003008506 -0.031342838 -0.058804266 -0.02657636 0.0018920561
0.028480653 -0.029957414 0.038949385 -0.0636194 0.023746615 -0.045405693 -0.06149384 0.022048255
-0.04378915 -0.004156453 0.02502734 0.0066685216 0.07279162 0.008976145 0.03694512 0.03724824
00000000: 5392 f23c 6c39 7abc 857f 173d 7770 b5bc
00000010: 16cf 7f3b 798c e3bb 6cb8 ad3b d55c 013d
00000020: 1b05 733d e1f9 863c f99f 383d b10c ec3c
00000030: f1c5 56bb 75ba 803d 4d29 43bd cc81 30bd
00000040: bded d43c 3104 0d3d dee0 183d a803 1a3d
00000050: f4cc 8ebc ed2e 413c a2ad 8cbd f902 23bc
00000060: 0ca5 983c 0edb 8ebd d471 143d 23af 50bc
00000070: c82d 62bd 496f 353d b8a4 c93c 23c8 233d
00000080: d181 e1bc e70e 4f3d e54e 733d 5323 7b3d
00000090: a9d1 19bb 3778 26bd c321 c73c 6d3d 04bd
000000a0: dd7f bb3c 270f 85bd 4bd6 82bd d4f5 a2bc
000000b0: 3e43 a1bc 1111 d23c 9075 b53b 4d65 233d
000000c0: 7676 6a3c 3992 323d b889 75ba 9af2 893c
000000d0: 501a 623d bf80 b5bc fc71 623c 8914 26bc
000000e0: 60ab 0bbd 77d9 3a3d 3ce5 6cbd cced 023d
000000f0: 54da 843c b9a0 793d 12c2 823d 0e56 73bd
00000100: d2d3 6d3d ae85 483d 6922 163d ce2a 103d
00000110: 273c 203d f119 2a3d 04de 01bd 7345 11bc
00000120: f863 84bc 779e e6bc 4bd7 053c 3830 2dbc
00000130: be53 733d 39af 95bc 6e7a 363d a642 943c
00000140: e36f 83bd 58f1 fcbc 1322 f13c 6d72 373d
00000150: f76d c93c 4665 413d 1bf9 01bd 1151 c53c
00000160: 228d 77ba 1116 6cbc 49f5 d63c a684 8fbc
00000170: 2036 1c3d 18ac 683d 4b44 c83c 7bca 3e3d
00000180: c3f6 203d 5035 263d 8f30 23bd a7b0 06bd
00000190: 2b7d 4ebd 8036 24bd 58e4 16bd 50aa 0bbd
000001a0: 523d 03bd 3aa5 73bd ff0f 963c ba61 20bd
000001b0: b7c2 7a3c cc90 883b d6f6 803b ecb4 90bd
000001c0: 26b9 60bd dfc7 643d e9ab dbbc f75e ab3c
000001d0: ed02 ad3b f656 003d 00cb f9bc ac47 0c3d
000001e0: 91ad 36bd 4a38 3f3d 20d7 bebc 8995 903c
000001f0: 6092 84bd bd80 ce3c 7125 7d3d 2d31 e53c
00000200: 6ae9 653d 7869 05bd be5d 493d 2481 59bd
00000210: 8c38 3ebb cf9f 42bd b957 67bd 56a5 8bbd
00000220: 25b1 fc3c 61b7 9cb8 bfbb 76bc a7d8 63bd
00000230: 0f1c 55bc a883 ddbc 55f1 aa3c 3e8b a0bc
00000240: 4763 85bd 4975 65bd aed8 21bd 0fa2 4fbc
00000250: 35bc 96bd f4fd ae3c 132d 96bd de3f fc3b
00000260: 9e74 97bc dbb8 353d d570 38bd f082 bd3b
00000270: 8c27 673c 288d 47bd 7513 16bd 38c2 a33c
00000280: d86a 2a3d 026b 5d3d c514 36bb a2e7 ec3c
00000290: be99 80bd 6685 163d 64e7 59bc d0d6 04bc
000002a0: debd 4b3d 97d4 7b3b 9549 263c 3d9e 77bb
000002b0: 730b 823c 542b 88bd 42bb a53c a104 603c
000002c0: 2818 5a3d b8ad 9e3c 4341 c83c f53b 87bd
000002d0: 4495 613d 71f6 9dbc 3324 2dbd 8c52 32bd
000002e0: 9848 8abd 1de7 51bd 7542 073c abab 85bc
000002f0: 4f44 d9bc 2c95 cf3c 6f6a 5e3d 09db 053d
00000300: 83d1 c7bc ac5f 593d c2f7 733d 85c9 4dbd
00000310: f0fa d1bc 098d 543c 5abc 40bd c41e 4dbb
00000320: 6c53 503d 71a4 613d 9325 2e3d 3843 82bb
00000330: d9f9 e93c 6cfe e9bc 66fe 733c eab5 56bd
00000340: ba4e 393c 8900 ed3c 5447 0139 dd82 e63c
00000350: 973f 8b3d 5062 0fbd 6c8b b73c 6ca7 4f3d
00000360: 68fa 3c3c aff9 543d e9b1 46bb 966d c2bc
00000370: f4c8 533d ac2c 383b 2b28 13bb ec5d 553d
00000380: 58ba 073d 11b1 11bd 0cc2 403d 6fd7 0e3c
00000390: 6185 d53c 3fdd f1ba 3833 c8bc 2302 913d
000003a0: 2f1d 7abd 57d0 7f3d f2e4 3abd 5b2a 453b
000003b0: 5961 00bd bedc 70bd abb6 d9bc defe f73a
000003c0: 4250 e93c 4069 f5bc 6489 1f3d e34a 82bd
000003d0: 4388 c23c 52fb 39bd f7e0 7bbd 8b9e b43c
000003e0: 405c 33bd db32 88bb 2306 cd3c 9d83 da3b
000003f0: c613 953d ae10 133c c453 173d 9c91 183d

model.encoder.blocks.2.layer.bias f4 [24]
-0.04878502 0.01665664 0.070465855 0.08984627 0.046191208 0.02782356 -0.060551282 -0.058476787
0.1943993 0.07707129 -0.005675212 0.1004466 -0.004851901 0.06790338 -0.070149854 0.095465995
-0.0029203233 -0.007996659 0.022366067 0.068959005 0.0087105865 0.0009212827 0.08320043 0.061484624
00000000: cdd2 47bd 8273 883c 6750 903d 5201 b83d
00000010: fe32 3d3d 3cee e33c 9f04 78bd 5b85 6fbd
00000020: 9c10 473e 8dd7 9d3d 21f7 b9bb f2b6 cd3d
00000030: b2fc 9ebb ed10 8b3d baaa 8fbd ad83 c33d
00000040: e562 3fbb 6b04 03bc 0b39 b73c 613a 8d3d
00000050: d9b6 0e3c 3c82 713a fd64 aa3d 4dd7 7b3d

model.decoder.blocks.0.layer.weight f4 [24, 24, 3, 3]
0.044943146 -0.050404817 0.031326234 -0.03366174 -0.050686654 0.032315943 -0.018986177 -0.041522548
0.049044058 0.0013665025 -0.016440235 0.052090105 -0.036877878 0.05238906 -0.006665704 -0.045840524
0.06700602 -0.047277894 -0.015931588 0.033182338 -0.00896312 0.027652651 0.061494853 0.023714805
-0.0019817601 -0.033076968 0.010319301 -0.021383997 -0.051967967 -0.03497449 -0.017884605 0.024217065
0.029428313 -0.00011088322 0.031593416 -0.048663206 0.02484779 0.0036288933 0.0610942 0.029242806
0.029794 0.0070491815 -0.03588478 -0.008975455 0.062584855 0.010920265 -0.019827086 0.066017896
-0.040804084 0.043534167 0.011144937 -0.033635303 -0.0010072932 -0.013262289 0.028740263 -0.056782007
-0.039316818 -0.036345668 0.012877359 -0.045350123 0.05880827 -0.030801259 -0.025692003 0.039635915
0.048492704 0.02248986 0.052642405 0.044354755 -0.0073183146 0.034595836 0.046742193 -0.041926533
-0.24148697 -0.21543485 0.046847083 0.011465441 -0.10699946 0.08681621 -0.097490676 -0.12656027
-0.1453789 0.049420044 -0.0012007669 0.03641504 0.055614118 0.03497866 -0.022691786 0.022847995
0.05917424 -0.03209396 0.0039858404 -0.052253235 0.065117344 -0.028376581 0.022272997 0.05203618
0.06438288 0.043688897 0.07197888 -0.02315664 -0.023817323 -0.025783982 0.02900896 0.15262729
-0.051516462 -0.064081915 0.057129692 -0.05431224 -0.049053792 -0.048983548 0.062925674 0.016104296
0.0549185 0.03323047 -0.036431998 -0.0111582335 -0.014821953 0.06871755 0.0072808447 -0.06025077
-0.046600085 0.07438438 0.052614782 -0.00775505 0.016435562 0.029305033 0.02103559 0.0052338834
0.009922421 -0.02249708 -0.043667506 -0.025505088 -0.037000913 -0.043925177 0.023198863 -0.02957144
0.046339076 -0.021343092 -0.027180528 0.06403776 0.02104984 0.010363879 -0.034864422 -0.055029396
0.07234429 -0.0457558 0.026490908 -0.030627018 -0.053371307 -0.030863388 -0.028648987 0.038433895
0.044181537 0.031697012 0.0021857668 -0.053172655 0.054556735 0.049726143 -0.03522712 -0.050963387
0.050549198 -0.0111555215 0.05009321 -0.050039247 -0.054706085 0.061500452 0.059206054 -0.014826163
0.02430477 0.035947554 0.052302454 0.032516696 0.03171296 0.031448938 0.0021550334 0.0003419296
0.013879465 0.04820475 0.03107811 -0.04203631 0.0076316707 0.0682785 0.028787171 -0.047682878
-0.06481745 0.067000724 -0.03730551 0.06321482 0.010135766 0.05197987 -0.04137913 -0.010094666
0.07141692 0.028447803 0.05922393 -0.017008744 -0.023775782 -0.00023056666 -0.0061677378 0.034680534
-0.056064893 0.047484715 0.0050287945 0.005615443 -0.0067511997 0.028708773 -0.03442216 0.041098375
-0.00038148125 -0.058607917 0.011157284 -0.038903773 -0.01796623 -0.057283647 -0.015139488 -0.025676522
-0.0026909844 0.04608056 -0.03320982 0.043575555 0.034648076 -0.048613995 -0.026116751 0.05736224
-0.03990602 0.04071096 -0.043006778 0.058626853 -0.006644351 2.036553e-05 -0.06553707 0.05661777
0.05286481 0.0490726 -0.040869437 0.030951448 -0.019708095 -0.01741082 -0.005529323 -0.055232666
-0.068357654 0.028453946 0.018138818 0.025072057 -0.026865441 -0.033620257 -0.068692565 0.038749054
-0.04180692 -0.048575107 -0.04336878 0.0063090282 -0.01286563 0.034713786 0.0042920117 -0.05570086
00000000: 4e16 383d 4875 4ebd f04f 003d e5e0 09bd
00000010: cf9c 4fbd b95d 043d e688 9bbc 8c13 2abd
00000020: 6ce2 483d 371c b33a acad 86bc 6f5c 553d
00000030: 420d 17bd e995 563d fa6b dabb 46c3 3bbd
00000040: 743a 893d 77a6 41bd f682 82bc 34ea 073d
00000050: 0dda 12bc d087 e23c 07e2 7b3d 8d45 c23c
00000060: 6be0 01bb b77b 07bd 4912 293c 7e2d afbc
00000070: 5ddc 54bd 6941 0fbd bc82 92bc de62 c63c
00000080: a513 f13c fa89 e8b8 1968 013d 1253 47bd
00000090: 988d cb3c bad2 6d3b e93d 7a3d 9c8e ef3c
000000a0: 8c12 f43c d2fc e63b ebfb 12bd c90d 13bc
000000b0: 7d2c 803d e9ea 323c 6a6c a2bc 6434 873d
000000c0: 2f22 27bd e250 323d 4199 363c 2cc5 09bd
000000d0: 2707 84ba 124a 59bc b370 eb3c 4094 68bd
000000e0: ac0a 21bd 32df 14bd 8ffb 523c 0dc1 39bd
000000f0: f1e0 703d ec52 fcbc 0978 d2bc 4559 223d
00000100: 49a0 463d a83c b83c 909f 573d 55ad 353d
00000110: 79ce efbb 5db4 0d3d be74 3f3d 28bb 2bbd
00000120: 5c48 77be f49a 5cbe bae2 3f3d 8cd9 3b3c
00000130: 8822 dbbd b2cc b13d 31a9 c7bd 0499 01be
00000140: 35de 14be ac6c 4a3d 0d63 9dba f027 153d
00000150: a1cb 633d c945 0f3d 20e4 b9bc b82b bb3c
00000160: b060 723d f574 03bd a79b 823b 7d07 56bd
00000170: 3e5c 853d 0176 e8bc dc75 b63c e423 553d
00000180: 2cdb 833d 21f3 323d aa69 933d feb2 bdbc
00000190: 8c1c c3bc ee38 d3bc 33a4 ed3c 544a 1c3e
000001a0: ed02 53bd 613d 83bd d300 6a3d 8376 5ebd
000001b0: a1ec 48bd f9a2 48bd 2ddf 803d 28ed 833c
000001c0: 39f2 603d ac1c 083d b839 15bd 06d1 36bc
000001d0: c7d7 72bc c9bb 8c3d 2794 ee3b 83c9 76bd
000001e0: bbdf 3ebd d656 983d 9982 573d 131e febb
000001f0: dfa3 863c 1c11 f03c d452 ac3c ff80 ab3b
00000200: a691 223c cc4b b8bc b3dc 32bd 0cf0 d0bc
00000210: 458e 17bd e3ea 33bd 8b0b be3c ce3f f2bc
00000220: 0bce 3d3d b5d7 aebc b3a9 debc 3b26 833d
00000230: b770 ac3c 42cd 293c ffcd 0ebd 8166 61bd
00000240: 3e29 943d 6f6a 3bbd 7603 d93c 83e5 fabc
00000250: df9b 5abd 37d5 fcbc 48b1 eabc dc6c 1d3d
00000260: b3f7 343d bad4 013d 153f 0f3b 92cb 59bd
00000270: e276 5f3d a4ad 4b3d 504a 10bd fcbe 50bd
00000280: ad0c 4f3d a6c5 36bc 8a2e 4d3d f4f5 4cbd
00000290: 7d13 60bd e6e7 7b3d 0c82 723d 6fe9 72bc
000002a0: cc1a c73c be3d 133d 193b 563d 3a30 053d
000002b0: 73e5 013d 9ad0 003d 763b 0d3b 0445 b339
000002c0: b266 633c 5872 453d 8597 fe3c 442e 2cbd
000002d0: 1813 fa3b 99d5 8b3d 13d3 eb3c 1f4f 43bd
000002e0: 03bf 84bd ad37 893d aacd 18bd c676 813d
000002f0: 7c10 263c d8e8 543d 2a7d 29bd 1964 25bc
00000300: 0943 923d 5e0b e93c cb94 723d ec55 8bbc
00000310: 6ec5 c2bc 44c4 71b9 bc1a cabb 2d0d 0e3d
00000320: 4da4 65bd 557f 423d 96c8 a43b c001 b83b
00000330: 2b39 ddbb a92e eb3c 40fe 0cbd c556 283d
00000340: 8c01 c8b9 db0e 70bd 0acd 363c 9059 1fbd
00000350: ea2d 93bc 42a2 6abd 9d0b 78bc 9257 d2bc
00000360: 3a5b 30bb f8be 3c3d 0507 08bd 487c 323d
00000370: 24eb 0d3d 781f 47bd ccf2 d5bc abf4 6a3d
00000380: 7f74 23bd 89c0 263d e027 30bd b622 703d
00000390: dbb8 d9bb a5d6 aa37 4d38 86bd 09e8 673d
000003a0: c588 583d 5a00 493d b666 27bd e48d fd3c
000003b0: df72 a1bc 23a1 8ebc 532f b5bb a63b 62bd
000003c0: 19ff 8bbd 4018 e93c dc97 943c ea63 cd3c
000003d0: ea14 dcbc 65b5 09bd b0ae 8cbd 54b7 1e3d
000003e0: bc3d 2bbd b1f6 46bd 76a3 31bd f7bb ce3b
000003f0: 5dca 52bc 0b30 0e3d 01a4 8c3b 9626 64bd

model.decoder.blocks.0.layer.bias f4 [24]
0.0906469 -0.034368176 -0.0047312425 0.022362864 0.0672935 0.11941446 0.042842593 0.091004856
0.019234141 0.051296305 -0.03734016 0.05041304 -0.047166724 0.083225556 0.058712527 0.046729255
-0.006201116 0.038029082 0.06684321 0.01793622 0.077236 0.11931897 0.04445225 -0.007851188
00000000: 15a5 b93d a5c5 0cbd 8a08 9bbb 5332 b73c
00000010: 2dd1 893d 928f f43d b77b 2f3d c160 ba3d
00000020: eb90 9d3c 131c 523d fff1 18bd e77d 4e3d
00000030: e531 41bd 2972 aa3d 8c7c 703d 2d67 3f3d
00000040: bb32 cbbb 62c4 1b3d 18e5 883d fbee 923c
00000050: e82d 9e3d 815d f43d 9013 363d 45a2 00bc

model.decoder.blocks.0.upsample.weight f4 [24, 24, 2, 2]
0.04948861 0.056822963 0.04404654 0.04473672 0.0025074962 0.09232347 -0.027534228 -0.031875443
-0.028823659 0.055838622 -0.061479095 0.0021338211 -0.0802119 0.08851555 -0.067533866 -0.07743137
-0.099780425 -0.046252366 0.011787392 -0.05916053 -0.010910345 0.06707783 -0.028365957 -0.051163964
-0.07171899 0.10119486 -0.015655879 0.09612826 -0.06090959 0.08604763 -0.05377661 0.07704929
0.006163192 0.010941704 0.047074392 0.02566962 0.038760215 -0.04608892 0.05143537 -0.08198262
0.04362887 -0.019539453 -0.0048567154 0.010376993 0.049942616 0.004674558 0.018713698 -0.07653723
-0.036688983 -0.06395768 0.04299009 -0.038664874 -0.060380507 -0.006021285 -0.035039056 -0.050288685
-0.03766937 -0.024794273 -0.026025487 -0.1023618 -0.0049288147 -0.055124998 -0.07374641 0.08476732
-0.07448437 0.056605026 -0.017299404 -0.096847035 -0.011306381 -0.07138779 0.08652675 -0.0777491
-0.068105996 0.030293183 -0.070126005 -0.033689056 0.006613136 -0.12185268 0.09669681 -0.10379593
0.002936508 0.054975152 0.0442957 -0.057997365 0.12870614 -0.019836089 0.06426893 -0.10615699
0.07678651 -0.10582988 -0.052111775 0.070699036 -0.052153435 0.05304731 -0.010812555 -0.016015807
-0.061885785 0.014151405 0.10253329 -0.044149492 0.07877251 -0.018314147 -0.052414615 -0.009191006
-0.01713466 -0.06512435 -0.030285737 0.058084276 0.04693396 -0.046266604 -0.08012189 -0.020934468
-0.07969685 -0.0019766581 0.07509887 0.029694999 0.094978936 0.036375698 -0.08384718 -0.08490562
-0.05019097 -0.008494501 0.04767473 -0.03306361 -0.10280366 0.0067135235 0.014900921 0.08159607
-0.08730535 -0.07414258 0.10285612 -0.06408983 0.075368635 0.088633925 -0.04981186 0.019737625
-0.027547073 -0.0578006 -0.027045853 0.088348545 -0.037609253 -0.03935388 -0.05890972 0.05253714
-0.083563745 0.010252137 -0.09639389 0.03381316 -0.046643812 -0.08803636 -0.03862703 -0.025336305
-0.097860955 -0.07527839 0.053640146 0.0022884025 -0.040620584 -0.0869071 0.009328608 -0.072517045
-0.05121115 -0.09336424 0.04740135 -0.007998911 -0.10540282 -0.0078033763 0.075121954 -0.058176156
-0.05093122 -0.044382535 -0.092332326 0.09537063 -0.08447282 -0.07488393 -0.02179178 0.054353558
0.024244383 -0.0021448699 -0.013991305 0.018798243 0.07169937 -0.033938196 0.08119533 -0.0779303
-0.030577002 0.08449292 0.0055615474 -0.064215824 0.007857887 -0.051751252 0.06173333 0.081576124
-0.006584319 0.0015329991 0.0022754748 -0.03559674 -0.061728362 0.03505021 0.056441188 -0.07157829
0.046003498 0.010941039 0.03960039 -0.011087004 0.05120423 -0.08140791 0.10049718 0.061461087
-0.03589508 0.074493974 0.025931269 0.08021565 0.076551706 0.008773599 -0.049628116 -0.08703101
0.046978954 0.01717898 0.015873425 0.08901251 0.03611236 -0.09151026 -0.07368952 0.09066934
-0.055324204 0.08940545 -0.022569979 -0.04349684 0.039503105 0.08729686 -0.010252 0.064516164
-0.07609798 -0.109880015 -0.10896515 -0.073653646 0.06305752 0.032242283 0.030147435 0.0022054547
0.020299396 -0.08329793 0.05279769 0.100805566 -0.042953946 0.053470034 -0.020435048 0.0061503286
0.06500275 0.08253084 -0.030677428 -0.039233357 0.032010686 -0.023936355 0.09398869 -0.07688358
00000000: 92b4 4a3d 32bf 683d 256a 343d da3d 373d
00000010: ce54 243b 1614 bd3d 768f e1bc d38f 02bd
00000020: 981f ecbc 0ab7 643d 81d1 7bbd 94d7 0b3b
00000030: 2346 a4bd a447 b53d 324f 8abd 5794 9ebd
00000040: ae59 ccbd 1f73 3dbd e81f 413c 5052 72bd
00000050: 4ec1 32bc 1a60 893d b95f e8bc 4e91 51bd
00000060: 68e1 92bd 403f cf3d c240 80bc e5de c43d
00000070: 567c 79bd bd39 b03d dd44 5cbd 05cc 9d3d
00000080: 9af4 c93b d544 333c 14d1 403d 1849 d23c
00000090: 08c3 1e3d bcc7 3cbd e5ad 523d 81e6 a7bd
000000a0: 30b4 323d 3411 a0bc 1525 9fbb 4304 2a3c
000000b0: a190 4c3d 092d 993b 784d 993c 8dbf 9cbd
000000c0: 3047 16bd 3efc 82bd 6016 303d 0f5f 1ebd
000000d0: 8d51 77bd 334e c5bb 1d85 0fbd 82fb 4dbd
000000e0: 334b 1abd 5c1d cbbc 6733 d5bc 10a3 d1bd
000000f0: e581 a1bb c0ca 61bd 5c08 97bd 7d9a ad3d
00000100: 438b 98bd acda 673d 7bb7 8dbc bd57 c6bd
00000110: 663e 39bc c333 92bd f034 b13d ec3a 9fbd
00000120: 287b 8bbd 6929 f83c 399e 8fbd 89fd 09bd
00000130: 01b3 d83b e68d f9bd fa08 c63d f692 d4bd
00000140: 6e72 403b a02d 613d 686f 353d a58e 6dbd
00000150: 8bcb 033e 4b7f a2bc 6e9f 833d d668 d9bd
00000160: 3f42 9d3d 56bd d8bd 2873 55bd a8ca 903d
00000170: d79e 55bd 2348 593d 2527 31bc 9533 83bc
00000180: f37b 7dbd 4bdb 673c f9fc d13d 19d6 34bd
00000190: 7b53 a13d 8d07 96bc b5b0 56bd e095 16bc
000001a0: fd5d 8cbc ea5f 85bd cb19 f8bc c7e9 6d3d
000001b0: d33d 403d 0d82 3dbd f216 a4bd c37e abbc
000001c0: 1a38 a3bd d28a 01bb 70cd 993d ed42 f33c
000001d0: 5184 c23d affe 143d 12b8 abbd ffe2 adbd
000001e0: 0c95 4dbd 852c 0bbc 9446 433d b56d 07bd
000001f0: ba8a d2bd 1efd db3b fe22 743c d71b a73d
00000200: 26cd b2bd 11d8 97bd 3ba6 d23d 8741 83bd
00000210: df5a 9a3d b485 b53d 8507 4cbd cdb0 a13c
00000220: 66aa e1bc 52c0 6cbd 448f ddbc 15f0 b43d
00000230: 290c 1abd 8931 21bd 524b 71bd 2f31 573d
00000240: 7823 abbd 94f8 273c 296a c5bd ab7f 0a3d
00000250: 950d 3fbd 684c b4bd 6037 1ebd 158e cfbc
00000260: 536b c8bd 8e2b 9abd c5b5 5b3d 06f9 153b
00000270: c561 26bd 5afc b1bd 05d7 183c d183 94bd
00000280: c8c2 51bd c035 bfbd eb27 423d dd0d 03bc
00000290: 6fdd d7bd 77b3 ffbb 8ad9 993d 1f4a 6ebd
000002a0: 419d 50bd 76ca 35bd bb18 bdbd ad51 c33d
000002b0: 1600 adbd bf5c 99bd ad84 b2bc d6a1 5e3d
000002c0: 289c c63c f290 0cbb c93b 65bc c6fe 993c
000002d0: 1fd7 923d c702 0bbd bd49 a63d ec99 9fbd
000002e0: 9f7c fabc a00a ad3d a43d b63b 9683 83bd
000002f0: 5ebe 003c 1ff9 53bd 17dc 7c3d 6211 a73d
00000300: 45c1 d7bb eaee c83a 2220 153b e3cd 11bd
00000310: e1d6 7cbd cf90 0f3d e02e 673d a397 92bd
00000320: 2a6e 3c3d 0b42 333c 0534 223d 44a6 35bc
00000330: 87bb 513d 31b9 a6bd 77d1 cd3d 9fbe 7b3d
00000340: b806 13bd 4c90 983d d06d d43c 1a48 a43d
00000350: 24c7 9c3d 24bf 0f3c da46 4bbd 503d b2bd
00000360: 016d 403d efba 8c3c fc08 823c 314c b63d
00000370: 8eea 133d bb69 bbbd 88ea 96bd d9b0 b93d
00000380: a29b 62bd 341a b73d ade4 b8bc be29 32bd
00000390: 02ce 213d b2c8 b23d 01f8 27bc 0d21 843d
000003a0: 42d9 9bbd c608 e1bd 1f29 dfbd b9d7 96bd
000003b0: 4d24 813d 7c10 043d c1f7 f63c 6489 103b
000003c0: eb4a a63c 1b98 aabd 6442 583d 2673 ce3d
000003d0: 7af0 2fbd 6503 5b3d 6767 a7bc b288 c93b
000003e0: 2920 853d ee05 a93d 3b4f fbbc 28b3 20bd
000003f0: a31d 033d 2d16 c4bc 247d c03d 2375 9dbd

model.decoder.blocks.0.upsample.bias f4 [24]
0.1528571 0.068549976 -0.08811949 -0.15249218 -0.097059645 -0.10675873 0.08128471 -0.049585655
0.078137934 0.07898668 -0.14210339 -0.15927756 0.14992689 -0.14639886 -0.010391695 0.17379291
-0.11970094 -0.1325648 -0.062890105 -0.07400634 0.06203741 -0.005093565 -0.0794696 0.10849006
00000000: 9286 1c3e ee63 8c3d fe77 b4bd e926 1cbe
00000010: 35c7 c6bd 52a4 dabd 9978 a63d 541a 4bbd
00000020: c806 a03d c5c3 a13d 8d83 11be a819 23be
00000030: 6f86 193e 95e9 15be ee41 2abc c5f6 313e
00000040: c425 f5bd 11bf 07be 87cc 80bd a390 97bd
00000050: f01a 7e3d ece7 a6bb f5c0 a2bd 0930 de3d

model.decoder.blocks.1.layer.weight f4 [16, 24, 3, 3]
-0.08700707 -0.04533829 -0.0024190107 -0.06468726 0.0041583674 0.100628495 -0.066042036 0.063248225
0.061052214 -0.031534486 0.031861354 0.08786786 0.09923386 0.098012455 0.014192843 -0.011010445
0.014603643 0.023555297 0.11396185 0.015358825 0.10176696 -0.00691983 -0.098602645 -0.096697785
0.069019504 -0.101289004 -0.053775266 0.08025939 -0.050424296 0.08834185 -0.094615966 -0.10564553
-0.0649472 0.06442992 0.031957198 -0.114465445 0.12483933 0.05875835 0.014931097 0.08251441
-0.10078082 -0.11211637 -0.016258022 -0.121126905 0.030689944 0.09407504 -0.0065407637 0.04485226
-0.032230433 -0.07933137 -0.11868842 -0.0759905 -0.06316281 -0.009301759 -0.09345756 -0.109283224
-0.026369484 -0.075592294 0.022675937 0.0702056 -0.0997458 -0.027999595 0.06363439 0.15313694
-0.024083724 0.05724187 0.06447918 -0.100535214 -0.017207507 -0.0481887 -0.03356345 0.02020225
-0.1835588 -0.062721685 0.006550829 -0.05595092 0.07979424 0.06153269 -0.11029386 0.041123137
-0.022281902 -0.049782425 0.01506651 -0.062497918 -0.013950245 0.09155983 0.07169832 -0.09210813
0.06198253 0.028262574 -0.15290079 -0.11323243 -0.045875773 -0.093957655 -0.07642131 -0.11212855
0.06430152 -0.03299591 -0.032286465 0.12899828 0.1232062 0.041222155 0.007958049 -0.10582958
0.010702082 0.001679887 -0.072272636 0.03026836 -0.11067026 -0.022128807 -0.068348706 -0.11376805
0.06537288 0.10475119 -0.056325063 0.064375125 0.015968066 0.047235597 -0.10813916 -0.040600155
-0.011285243 -0.14249514 -0.12026634 0.049086403 -0.08598557 -0.07650459 0.030901264 -0.00074364024
0.005415095 0.08816375 0.009461948 0.058643978 0.15077923 0.046597328 0.0026439484 0.061666287
0.00056759175 -0.021972246 0.03298102 0.070714526 0.11781896 0.045036193 0.12697868 0.11012622
0.008025273 0.035454035 0.046140384 0.0371845 -0.024276469 -0.031332053 -0.0033633115 -0.07488525
-0.019938357 0.06461253 0.06944613 0.040436216 0.021930156 -0.0059462516 -0.09379222 0.119772375
-0.089140475 -0.009887323 0.1698234 0.022688232 0.04857869 -0.005411176 0.007516364 -0.049042393
0.026954189 -0.0722034 0.037735995 0.12666574 -0.03000663 0.03114185 0.019121991 -0.082110524
-0.11188189 0.20691423 0.07618307 -0.12377459 -0.023785427 -0.044905182 0.040125992 -0.09445112
0.043624856 -0.0079440195 0.035900127 0.065713026 0.078835554 -0.043654438 0.071206905 0.004264783
0.056936912 0.052072387 -0.07447261 0.045899842 -0.07916474 -0.0944605 0.11079708 0.0126468735
0.060860835 0.12130386 0.028171416 -0.111534156 0.11465592 -0.06392649 0.001531262 0.047396183
0.045968372 -0.013131412 -0.10243008 0.120077826 0.1346305 0.0006877099 0.030529419 0.018843818
-0.022925612 -0.06451599 0.05957711 0.056236397 -0.04490232 -0.027387751 -0.06837214 -0.014995979
-0.0175561 0.018406974 0.011756081 -0.022230307 -0.01832182 0.04418542 -0.056148652 -0.050281215
0.020407325 -0.028736817 0.004584283 -0.012883958 -0.0004365551 -0.06405663 0.04147729 0.043819122
0.0047797593 -0.057164855 -0.022564262 0.0262081 0.05331081 0.032250877 0.011284959 -0.04130096
0.021747509 -0.043941863 -0.024117198 0.031058291 0.04428328 -0.04984036 -0.050863292 0.06306677
00000000: c330 b2bd a5b4 39bd 4488 1ebb c17a 84bd
00000010: ea42 883b 5016 ce3d 0c41 87bd 4988 813d
00000020: e311 7a3d 4e2a 01bd 0d81 023d 11f4 b33d
00000030: 1f3b cb3d c1ba c83d 1989 683c 2765 34bc
00000040: 1e44 6f3c 0af7 c03c d564 e93d 95a3 7b3c
00000050: 326b d03d bebf e2bb 2ff0 c9bd 7d09 c6bd
00000060: 195a 8d3d 9c70 cfbd 7443 5cbd 095f a43d
00000070: b589 4ebd 92ec b43d 04c6 c1bd af5c d8bd
00000080: 0a03 85bd d5f3 833d 8de5 023d dc6c eabd
00000090: c3ab ff3d 98ac 703d 8fa1 743c 51fd a83d
000000a0: 2d66 cebd 449d e5bd 8b2f 85bc 6211 f8bd
000000b0: 7a69 fb3c 6aaa c03d e753 d6bb 01b7 373d
000000c0: 0f04 04bd 7c78 a2bd ea12 f3bd e8a0 9bbd
000000d0: 815b 81bd 6866 18bc ad66 bfbd e2cf dfbd
000000e0: d104 d8bc 22d0 9abd e3c2 b93c f4c7 8f3d
000000f0: 8747 ccbd 685f e5bc bf52 823d eecf 1c3e
00000100: 3b4b c5bc 7376 6a3d a90d 843d 68e5 cdbd
00000110: c2f6 8cbc 8461 45bd d479 09bd 307f a53c
00000120: d7f6 3bbe 3a74 80bd 56a8 d63b cb2c 65bd
00000130: 2a6b a33d b409 7c3d bfe1 e1bd bc70 283d
00000140: 8988 b6bc a8e8 4bbd 86d9 763c d1fd 7fbd
00000150: 928f 64bc b883 bb3d 92d6 923d 30a3 bcbd
00000160: 65e1 7d3d ea86 e73c 0692 1cbe 67e6 e7bd
00000170: 3ce8 3bbd df6c c0bd c782 9cbd a7a3 e5bd
00000180: 84b0 833d b826 07bd d03e 04bd 2018 043e
00000190: 8853 fc3d 90d8 283d 7a62 023c 2ebd d8bd
000001a0: c957 2f3c a72f dc3a ad03 94bd 5af5 f73c
000001b0: 17a7 e2bd 7947 b5bc 68fa 8bbd 39ff e8bd
000001c0: 37e2 853d cb87 d63d 1cb5 66bd 1bd7 833d
000001d0: 76cf 823c 1d7a 413d 1078 ddbd 594c 26bd
000001e0: bde5 38bc 3fea 11be 334e f6bd d30e 493d
000001f0: 3419 b0bd 70ae 9cbd a624 fd3c daf0 42ba
00000200: 1c71 b13b 328f b43d 4906 1b3c ab34 703d
00000210: df65 1a3e d7dc 3e3d 1846 2d3b ca95 7c3d
00000220: 70ca 143a 24ff b3bc 1b17 073d c7d2 903d
00000230: 114b f13d df77 383d b306 023e db89 e13d
00000240: 6f7c 033c 4038 113d b3fd 3c3d c64e 183d
00000250: 72df c6bc 0a56 00bd 016b 5cbb 705d 99bd
00000260: c455 a3bc 9353 843d c639 8e3d 72a0 253d
00000270: dfa6 b33c c6d8 c2bb 2316 c0bd 384b f53d
00000280: 488f b6bd 70fe 21bc 2fe6 2d3e acdc b93c
00000290: 73fa 463d 3c50 b1bb d54b f63b ade0 48bd
000002a0: 08cf dc3c 60df 93bd 0f91 1a3d aab4 013e
000002b0: 77d0 f5bc 311d ff3c b9a5 9c3c 9029 a8bd
000002c0: 5522 e5bd 53e1 533e df05 9c3d 887d fdbd
000002d0: a8d9 c2bc 7fee 37bd 275b 243d 976f c1bd
000002e0: faaf 323d a227 02bc 030c 133d 8d94 863d
000002f0: 8974 a13d ffce 32bd edd4 913d 98bf 8b3b
00000300: ae36 693d db49 553d 1985 98bd 7901 3c3d
00000310: 2021 a2bd 8274 c1bd 94e9 e23d d534 4f3c
00000320: 3649 793d 286e f83d bec7 e63c 056c e4bd
00000330: b9d0 ea3d e4eb 82bd a0b4 c83a 8022 423d
00000340: 5549 3c3d 2225 57bc ddc6 d1bd 5deb f53d
00000350: 94dc 093e 6e47 343a d518 fa3c 5a5e 9a3c
00000360: 7ece bbbc f620 84bd 2107 743d 2358 663d
00000370: 7feb 37bd 475c e0bc b106 8cbd b2b1 75bc
00000380: cfd1 8fbc 39ca 963c 949c 403c 551c b6bc
00000390: a417 96bc c5fb 343d 21fc 65bd adf3 4dbd
000003a0: 432d a73c 7969 ebbc c137 963b 3d17 53bc
000003b0: 6fe1 e4b9 1f30 83bd 17e4 293d ae7b 333d
000003c0: 879f 9c3b b225 6abd b0d8 b8bc 5fb2 d63c
000003d0: 705c 5a3d 7f19 043d 8ce4 383c 322b 29bd
000003e0: d527 b23c 62fc 33bd 6e91 c5bc f56d fe3c
000003f0: 6262 353d 6825 4cbd 0756 50bd 2729 813d

model.decoder.blocks.1.layer.bias f4 [16]
0.109551206 -0.05221577 -0.030521745 -0.066760994 0.108250715 0.10730808 0.049589377 0.059261154
0.044371657 -0.0031867928 0.0029376014 0.029791567 0.046687603 0.020064041 -0.05937931 0.060094595
00000000: 625c e03d 34e0 55bd bd08 fabc fdb9 88bd
00000010: 8db2 dd3d 57c4 db3d 3b1e 4b3d d3bb 723d
00000020: 0ebf 353d 83d9 50bb c684 403b 720d f43c
00000030: 803b 3f3d 585d a43c b837 73bd c025 763d

model.decoder.blocks.1.upsample.weight f4 [16, 16, 2, 2]
0.40875465 0.043803487 0.19448651 0.05512105 -0.27488655 -0.18117598 -0.093521215 -0.19102158
0.2369655 0.1865916 0.02562805 0.1519806 -0.20434427 -0.2185245 -0.080997035 -0.058404054
-0.26474613 0.0054466273 -0.2222878 0.0011233299 0.20953208 0.038434807 0.1574904 -0.056466773
0.23628256 0.35746372 0.4474299 0.31684425 -0.18377809 -0.1583218 -0.26095918 -0.15199657
0.08119611 0.016664308 0.14963631 0.08892635 -0.17917193 -0.020657878 -0.12815283 -0.19653022
-0.13343713 -0.13133319 -0.26119012 -0.2139449 0.16759026 0.27057973 0.005573012 0.0737924
-0.2222946 -0.08164586 -0.2640861 -0.02506634 0.18599653 0.25543013 -0.15436444 -0.08285372
-0.1907695 -0.023436807 -0.2636334 -0.034336064 0.15682493 0.14754373 0.23197457 0.24983822
-0.08800096 -0.036474206 0.03334883 -0.0928651 0.052362915 -0.00017697566 0.052247204 0.10364066
-0.06718828 -0.048221853 -0.01588053 0.11532197 0.022029007 -0.08773406 -0.011578 0.116378374
-0.10312323 -0.12167391 -0.060983364 -0.09680869 -0.016935838 0.115058124 -0.0009892042 0.010075795
-0.10219306 0.12448995 -0.010131926 0.028045699 0.0071408087 0.006183325 0.11902291 0.034368593
0.053251207 -0.037725184 -0.04318786 0.060263585 0.0896874 -0.097708784 -0.09352105 -0.10581569
-0.109444946 -0.1011413 0.10231904 -0.029268803 -0.033828452 -0.00498811 0.06655436 -0.022946721
0.11372751 0.039023586 0.061791137 0.051712126 -0.043023642 0.082667574 -0.08592802 0.02551808
-0.11525634 -0.019872436 0.115872055 0.108302705 -0.1017453 0.023840813 0.078983255 -0.030131113
0.08232438 0.13053362 -0.024353663 0.11193302 0.101376325 -0.025451584 -0.0630858 0.11081873
-0.048615012 0.036342695 -0.042477347 -0.0046547367 -0.05623032 -0.02369747 -0.021778965 -0.1089895
-0.06282779 0.13175888 0.064476274 0.093795925 -0.06819938 -0.0006716697 -0.11316676 -0.10724538
-0.019827222 0.022765933 0.0023748656 -0.044713162 0.095103055 0.036575936 -0.02280834 0.106458485
0.098072305 0.020644031 -0.0003372308 -0.027900197 -0.056682725 0.024275305 0.07285641 0.061187845
-0.08139169 0.0032392144 0.008600415 0.11008409 -0.0644805 0.0055832 -0.06440329 -0.0928144
-0.05342923 0.03933982 0.113338776 0.08435834 -0.107248254 -0.03037481 -0.11770477 0.024647454
-0.027101366 0.051521115 0.023489557 -0.11177298 -0.10861577 -0.08817448 0.10366825 -0.049179994
-0.006752279 -0.025272109 -0.028118087 -0.088671006 -0.03459402 -0.063971095 -0.060425043 0.118826896
-0.079089284 -0.03179956 -0.119366586 -0.040040802 0.11327086 -0.11024579 -0.037138388 -0.04647366
0.034157608 0.109277405 0.034548044 -0.010807261 -0.05148331 -0.022065932 -0.017150411 -0.037310697
-0.036571607 0.077374645 -0.0657828 -0.080473945 0.10147158 0.05971956 -0.053072967 0.070578545
0.07235567 0.04050464 0.057713177 0.060340896 -0.026102945 0.033170566 -0.010334725 0.09086675
0.0025201864 0.06601987 -0.064433366 -0.043681536 0.0637816 -0.039193045 0.032651387 0.11418411
-0.0054572537 0.014657999 -0.078160174 -0.12798162 -0.07076492 0.09445299 0.09202364 0.11234532
0.0476349 0.121578656 0.008854963 -0.11952011 -0.07598037 -0.120622724 -0.07320127 -0.03662998
00000000: 4a48 d13e 496b 333d 7927 473e 9cc6 613d
00000010: eebd 8cbe 3286 39be 0d88 bfbd 299b 43be
00000020: 16a7 723e de11 3f3e ebf1 d13c cda0 1b3e
00000030: a03f 51be e3c4 5fbe c6e1 a5bd 1739 6fbd
00000040: ce8c 87be 9f79 b23b 6a9f 63be b23c 933a
00000050: 948f 563e d16d 1d3d 2a45 213e b449 67bd
00000060: 0ef4 713e 7c05 b73e 8815 e53e 6939 a23e
00000070: 5330 3cbe 1c1f 22be 719c 85be fda4 1bbe
00000080: 254a a63d 9683 883c 433a 193e 051f b63d
00000090: d978 37be b63a a9bc 7f3a 03be 383f 49be
000000a0: bea3 08be 357c 06be b6ba 85be 5f14 5bbe
000000b0: c89c 2b3e 6d89 8a3e d09d b63b 7820 973d
000000c0: 32a1 63be f235 a7bd 4b36 87be ed57 cdbc
000000d0: e075 3e3e bdc7 823e b611 1ebe 36af a9bd
000000e0: 1459 43be 8cfe bfbc f5fa 86be f9a3 0cbd
000000f0: b796 203e b415 173e be8a 6d3e 97d5 7f3e
00000100: d939 b4bd fa65 15bd c898 083d 0f30 bebd
00000110: 7f7a 563d 8b92 39b9 2a01 563d 8e41 d43d
00000120: 029a 89bd 4784 45bd e317 82bc ed2d ec3d
00000130: 2d76 b43c eaad b3bd a7b1 3dbc c957 ee3d
00000140: 4632 d3bd 2c30 f9bd b1c9 79bd a243 c6bd
00000150: 07bd 8abc 98a3 eb3d 2fa8 81ba f314 253c
00000160: 984a d1bd 96f4 fe3d 6100 26bc 18c0 e53c
00000170: 72fd e93b 7d9d ca3b 49c2 f33d 15c6 0c3d
00000180: f01d 5a3d b985 1abd c1e5 30bd f3d6 763d
00000190: 07ae b73d 8b1b c8bd f787 bfbd e5b5 d8bd
000001a0: ac24 e0bd 2b23 cfbd a58c d13d 21c5 efbc
000001b0: b48f 0abd 4d73 a3bb a74d 883d c3fa bbbc
000001c0: f8e9 e83d 32d7 1f3d b418 7d3d 18d0 533d
000001d0: 8f39 30bd 9e4d a93d 08fb afbd 4b0b d13c
000001e0: 840b ecbd 85cb a2bc 544e ed3d cfcd dd3d
000001f0: d75f d0bd cf4d c33c f9c1 a13d 86d5 f6bc
00000200: af99 a83d 9baa 053e 5581 c7bc 243d e53d
00000210: 649e cf3d d77f d0bc 2133 81bd eef4 e23d
00000220: 8920 47bd 14dc 143d bafc 2dbd c386 98bb
00000230: c451 66bd 3221 c2bc cd69 b2bc e335 dfbd
00000240: dbab 80bd cdeb 063e 230c 843d 1418 c03d
00000250: 1eac 8bbd fe12 30ba f9c3 e7bd 77a3 dbbd
00000260: b36c a2bc 9f7f ba3c a2a3 1b3b 2625 37bd
00000270: 64c5 c23d a6d0 153d 8ed8 babc e806 da3d
00000280: 22da c83d ac1d a93c 5ace b0b9 f48e e4bc
00000290: 252c 68bd 01dd c63c be35 953d 1ba0 7a3d
000002a0: b0b0 a6bd 0049 543b c1e8 0c3c c473 e13d
000002b0: 5a0e 84bd 47f3 b63b dfe5 83bd 7a15 bebd
000002c0: 9cd8 5abd cb22 213d 291e e83d 11c4 ac3d
000002d0: f9a4 dbbd 98d4 f8bc 330f f1bd 75e9 c93c
000002e0: af03 debc ce07 533d 2c6d c03c 3be9 e4bd
000002f0: f271 debd d294 b4bd 0550 d43d f670 49bd
00000300: 3942 ddbb 7407 cfbc e757 e6bc 2599 b5bd
00000310: 76b2 0dbd 4703 83bd 4080 77bd 845b f33d
00000320: 90f9 a1bd 4140 02bd 7876 f4bd d301 24bd
00000330: 8dfa e73d 8bc8 e1bd 6c1e 18bd 2a5b 3ebd
00000340: d9e8 0b3d d5cc df3d 4082 0d3d f010 31bc
00000350: 2ae0 52bd 9dc3 b4bc 057f 8cbc 1ad3 18bd
00000360: 1ccc 15bd 9976 9e3d 22b9 86bd 86cf a4bd
00000370: 55d0 cf3d 7f9c 743d 0a63 59bd 7c8b 903d
00000380: 362f 943d 32e8 253d a764 6c3d 0428 773d
00000390: d8d5 d5bc dcdd 073d fa52 29bc 5918 ba3d
000003a0: b629 253b 6d35 873d a4f5 83bd 69eb 32bd
000003b0: ed9f 823d e388 20bd 76bd 053d 5cd9 e93d
000003c0: c3d2 b2bb 1b28 703c 7112 a0bd 9d0d 03be
000003d0: 33ed 90bd 9270 c13d e476 bc3d 4e15 e63d
000003e0: d01c 433d 3bfe f83d 6814 113c f6c6 f4bd
000003f0: 999b 9bbd 0c09 f7bd 8cea 95bd 5109 16bd

model.decoder.blocks.1.upsample.bias f4 [16]
0.091797456 -0.1366336 -0.012386707 0.07195987 -0.13182501 0.050101023 0.10253255 -0.07236237
0.13466433 -0.14480509 -0.109548 0.040477216 -0.14148223 0.10348989 -0.042474803 0.07985434
00000000: 4e00 bc3d aee9 0bbe 9df1 4abc b25f 933d
00000010: 23fd 06be bb36 4d3d 96fc d13d b932 94bd
00000020: 72e5 093e c947 14be b45a e0bd 70cb 253d
00000030: b8e0 10be 82f2 d33d 0ffa 2dbd ac8a a33d

model.decoder.blocks.2.layer.weight f4 [1, 16, 3, 3]
-0.006036929 0.059760835 0.03009545 -0.006395667 0.084893525 0.11100647 -0.004417522 0.06613191
-0.030855015 -0.06378344 -0.0873697 0.019188555 -0.054439884 -0.017173667 -0.06902343 -0.011280281
0.034439646 -0.080087356 -0.019125173 -0.061397124 0.045143392 0.045322336 0.014972491 0.07369622
-0.02084657 -0.01665301 0.007365699 -0.0100287 -0.02789471 -0.0021033487 -0.038321804 0.054935765
-0.018857352 -0.017070413 -0.05298047 -0.024984812 -0.012454906 -0.036343414 -0.05529187 0.04689498
-0.13183315 0.012062979 -0.010639504 -0.06857791 -0.035713647 0.07941344 0.025158409 0.022225613
0.100228734 0.052042022 0.058890004 -0.058313258 0.10649787 -0.022769472 -0.018314335 -0.03218509
-0.0067158216 0.0074288943 0.107181564 0.047156487 -0.016122112 -0.0043207984 0.1312904 0.00668541
0.0078514265 -0.0030010035 -0.09889609 -0.008716549 -0.069950186 -0.024799813 -0.10221958 -0.05445048
0.10475208 0.0029735323 0.06771208 0.07493843 0.03819263 -0.0064509585 0.011703555 0.060456034
-0.052601103 -0.09242254 -0.06812454 -0.04736979 -0.062120683 -0.017294878 -0.027616048 -0.067934066
-0.032200817 0.043989465 -0.08129489 -0.009259105 0.011343983 0.042024396 -0.14160192 0.022473045
-0.10017683 -0.008641143 -0.09269518 0.008685945 0.09851194 0.07209774 -0.051783405 -0.056896627
0.107617736 -0.008517698 -0.07577028 0.040850278 -0.05470946 -0.09155435 -0.0073954244 -0.056014564
-0.017027147 0.015484262 -0.09859699 -0.09056792 -0.06780867 0.10243119 0.0025003129 0.01039369
0.057018302 0.07601041 0.08914997 -0.04952914 -0.053841613 -0.038389947 0.08307316 0.0179355
0.061537564 0.051920183 -0.055963144 -0.052120607 -0.02348119 -0.021842608 0.0030142826 -0.03939543
-0.039599515 0.056597456 0.028594585 0.07409336 -0.022855297 0.093272105 0.1164055 0.104821384
00000000: 6ed1 c5bb c7c7 743d bc8a f63c be92 d1bb
00000010: a8dc ad3d 5c57 e33d dcc0 90bb 2b70 873d
00000020: a8c3 fcbc e4a0 82bd e3ee b2bd 5131 9d3c
00000030: 5bfc 5ebd caaf 8cbc 285c 8dbd edd0 38bc
00000040: 9610 0d3d d704 a4bd 65ac 9cbc 8d7b 7bbd
00000050: 47e8 383d eaa3 393d 2e4f 753c 0bee 963d
00000060: 6dc6 aabc e56b 88bc f65b f13b 6b4f 24bc
00000070: 7283 e4bc 56d8 09bb 53f7 1cbd 5304 613d
00000080: bc7a 9abc 40d7 8bbc 0d02 59bd f3ac ccbc
00000090: a90f 4cbc d5dc 14bd ba79 62bd f314 403d
000000a0: 45ff 06be cda3 453c 5051 2ebc 9372 8cbd
000000b0: 7948 12bd 83a3 a23d 0219 ce3c 7d12 b63c
000000c0: b944 cd3d 042a 553d a536 713d e2d9 6ebd
000000d0: 8e1b da3d 0b87 babc f207 96bc 83d4 03bd
000000e0: 6510 dcbb 156e f33b 0282 db3d 2927 413d
000000f0: 8512 84bc 7c95 8dbb fe70 063e 4911 db3b
00000100: 45a3 003c 7cac 44bb 098a cabd dbcf 0ebc
00000110: 0b42 8fbd fa28 cbbc 8058 d1bd 7707 5fbd
00000120: 4288 d63d 98df 423b a2ac 8a3d 5279 993d
00000130: e06f 1c3d 9062 d3bb 44c0 3f3c bfa0 773d
00000140: 4174 57bd 0748 bdbd e184 8bbd d306 42bd
00000150: 4272 7ebd fdad 8dbc 0d3b e2bc 0421 8bbd
00000160: 01e5 03bd 4c2e 343d ef7d a6bd 80b3 17bc
00000170: 1ddc 393c c621 2c3d 1800 11be 6419 b83c
00000180: 8329 cdbd 9593 0dbc f8d6 bdbd 7e4f 0e3c
00000190: a1c0 c93d fba7 933d d61a 54bd 700c 69bd
000001a0: b066 dc3d d18d 0bbc 732d 9bbd 9f52 273d
000001b0: 0717 60bd d980 bbbd 5155 f2bb 876f 65bd
000001c0: 847c 8bbc b4b1 7d3c 38ed c9bd ac7b b9bd
000001d0: 46df 8abd 72c7 d13d 4adc 233b 4c4a 2a3c
000001e0: 068c 693d 59ab 9b3d 4294 b63d 11df 4abd
000001f0: 0689 5cbd c73e 1dbd 4322 aa3d 78ed 923c
00000200: d00e 7c3d 42aa 543d 9c39 65bd 6b7c 55bd
00000210: a05b c0bc 45ef b2bc 458b 453b 1a5d 21bd
00000220: 1a33 22bd bcd2 673d 313f ea3c 42be 973d
00000230: 083b bbbc 7205 bf3d 0266 ee3d 98ac d63d
