03_Workshops/05_Reservoir_and_RNN/lightning_logs/version_0/checkpoints/epoch=99-step=7300.ckpt (torch, 10635 bytes, 15 tensors)

model.blocks.0.layer.weight_ih_l0 f4 [2, 14]
0.062100485 -0.5296294 0.15400974 -0.134039 -0.101370856 0.275775 -0.62215143 0.053549893
0.41052884 -0.19727872 -0.16188179 -0.16974986 0.5168446 -0.003893027 0.29664475 0.2800757
0.3700603 -0.49480823 -0.27294192 -0.54310036 0.4576523 0.2151027 0.26767018 -0.51328063
-0.7382696 0.059606925 0.045759086 0.020898815
00000000: 145d 7e3d cb95 07bf bbb4 1d3e 8541 09be
00000010: 869b cfbd 6132 8d3e 5145 1fbf 2257 5b3d
00000020: d630 d23e 6f03 4abe 57c4 25be e8d2 2dbe
00000030: ed4f 043f 2822 7fbb d2e1 973e 1566 8f3e
00000040: 8b78 bd3e 8157 fdbe 0bbf 8bbe a008 0bbf
00000050: 6751 ea3e e243 5c3e 110c 893e 5c66 03bf
00000060: 3dff 3cbf 6426 743d e16d 3b3d fe33 ab3c

model.blocks.0.layer.weight_hh_l0 f4 [2, 2]
-0.014488064 0.18291444 -0.07456645 -0.19751486
00000000: 585f 6dbc ec4d 3b3e 4cb6 98bd 5641 4abe

model.blocks.0.layer.bias_ih_l0 f4 [2]
0.0027217607 0.5506454
00000000: 915f 323b 19f7 0c3f

model.blocks.0.layer.bias_hh_l0 f4 [2]
0.024516396 0.09230859
00000000: 9cd6 c83c 490c bd3d

model.blocks.1.layer.weight f4 [1, 2]
-1.0932183 1.3364389
00000000: 94ee 8bbf 6e10 ab3f

exp_avg f4 [2, 14]
0.002325565 -0.009996592 -0.01015337 -0.008906189 0.0060638906 -0.0088707125 -0.012564428 -0.003288507
-0.012809282 -0.012791863 0.009937695 -0.003217083 -0.0028310828 0.011580686 -0.0016822437 0.013387491
0.013462663 0.013553712 -0.005787426 0.011655554 0.017426098 0.0035139197 0.017680362 0.0176551
-0.01326549 -0.0045846086 -0.0038552433 -0.011242153
00000000: 8268 183b bfc8 23bc 525a 26bc 44eb 11bc
00000010: 9ab3 c63b 7756 11bc 08db 4dbc fe83 57bb
00000020: 06de 51bc f694 51bc b7d1 223c b2d5 52bb
00000030: b089 39bb ebbc 3d3c bb7e dcba 3557 5b3c
00000040: 8092 5c3c 6310 5e3c 73a4 bdbb f0f6 3e3c
00000050: 2dc1 8e3c ca49 663b 68d6 903c 6ea1 903c
00000060: 7f57 59bc 7c3a 96bb 40a8 7cbb 0231 38bc

exp_avg_sq f4 [2, 14]
0.0033933718 0.0025486588 0.0025689946 0.0023542382 0.0023625824 0.00210359 0.0021569026 0.0017509164
0.0021532772 0.0021560069 0.0026885981 0.0018395773 0.0018387529 0.0028886304 0.002566846 0.0014064971
0.001443747 0.0019468901 0.0015659231 0.0010706784 0.0019580252 0.0007864616 0.0019614685 0.0019623477
0.0016331674 0.0019822067 0.0020604287 0.0026152756
00000000: 5563 5e3b 6607 273b 945c 283b 9049 1a3b
00000010: 8ed5 1a3b 62dc 093b d25a 0d3b 017f e53a
00000020: ff1d 0d3b cb4b 0d3b 3133 303b f91d f13a
00000030: 4f02 f13a 2d4f 3d3b 8838 283b 365a b83a
00000040: 1c3c bd3a cb2e ff3a a93f cd3a 0156 8c3a
00000050: 3652 003b 8b2a 4e3a fb8b 003b bb9a 003b
00000060: 0110 d63a e9e7 013b 4208 073b 0b65 2b3b

exp_avg f4 [2, 2]
0.0015097461 -0.005841496 -0.0066817813 0.007448929
00000000: ace2 c53a 056a bfbb d8f2 dabb 2516 f43b

exp_avg_sq f4 [2, 2]
0.00043841708 0.000965574 0.0006049345 0.0003996927
00000000: 58db e539 931e 7d3a 7894 1e3a d98d d139

exp_avg f4 [2]
0.0019565374 -0.00170586
00000000: 4039 003b 2a97 dfba

exp_avg_sq f4 [2]
0.0032935431 0.0024237204
00000000: 7cd8 573b 48d7 1e3b

exp_avg f4 [2]
0.0019565374 -0.00170586
00000000: 4039 003b 2a97 dfba

exp_avg_sq f4 [2]
0.0032935431 0.0024237204
00000000: 7cd8 573b 48d7 1e3b

exp_avg f4 [1, 2]
-0.0037430592 0.008821102
00000000: 1d4e 75bb 6286 103c

exp_avg_sq f4 [1, 2]
0.001141036 0.0014418318
00000000: d18e 953a d9fb bc3a
