03_Workshops/03_Encoder-Decoders for Latent Space Manipulation/Denoising/lightning_logs/version_5/checkpoints/epoch=99-step=3200.ckpt (torch, 166227 bytes, 60 tensors)

model.encoder.blocks.0.layer.weight f4 [16, 1, 3, 3]
0.044222634 0.1718832 -0.254355 -0.2644518 -0.1818156 0.042850535 0.1211627 -0.19088861
-0.021366915 -0.13216649 -0.059404925 -0.16944316 -0.12672582 -0.25036752 -0.1940452 -0.12688442
-0.06452233 -0.18652762 0.06022331 0.07368704 0.17011063 0.28807947 -0.14171153 0.0110351015
0.14854434 0.12489457 0.14418703 -0.12464957 -0.31392324 -0.27970883 0.12754773 0.28396165
0.08448449 -0.058594834 -0.026525373 -0.25004956 0.25433028 -0.2617813 0.0013724691 0.075579524
0.039889645 -0.07056402 0.36612138 -0.02981109 -0.04727616 -0.14249946 -0.17401509 -0.26960155
-0.0075965347 -0.033524387 0.26311767 -0.16978434 -0.0272722 0.2853129 0.14449854 -0.3324371
0.017778842 -0.038313847 -0.25373834 -0.027986143 0.11724748 -0.1325313 -0.22209063 0.13088866
0.2493315 0.30496395 -0.26139012 0.3460819 0.035389803 0.26101214 0.10740649 -0.27534714
0.14616376 0.20257744 0.25147507 -0.20363228 0.28511724 -0.26744407 0.25090414 0.04091834
0.3783678 -0.29398617 -0.113998204 0.014049112 -0.14522953 0.29127827 0.19944715 -0.092476964
-0.02673156 -0.31026614 0.24592322 -0.045564868 -0.27045313 0.23650001 0.038562708 0.33619744
-0.04008935 0.2075235 0.32882062 0.1014874 0.08070103 0.11235449 0.12570788 0.023285417
0.016186452 0.35191402 0.2526111 0.03105139 0.26257655 -0.19397344 0.022100434 0.33724368
0.02994913 0.34267822 -0.23380816 -0.080340624 0.3796255 0.074742824 0.29891777 -0.160084
0.3004763 -0.24106151 -0.06397408 0.34153453 0.19552019 -0.09589887 -0.08124621 -0.3137479
-0.37276384 -0.012748879 -0.056948133 -0.19638623 0.12592219 -0.111389704 0.026905647 -0.035705566
0.28801364 -0.13794225 0.17340472 0.24215633 0.14883615 0.036651965 -0.28118175 0.30580962
00000000: cb22 353d 2602 303e d23a 82be 3a66 87be
00000010: de2d 3abe 0b84 2f3d 2624 f83d 4e78 43be
00000020: ab09 afbc a756 07be 9452 73bd 8282 2dbe
00000030: 6ac4 01be 2c30 80be c9b3 46be fded 01be
00000040: 4924 84bd 1901 3fbe b8ac 763d 3be9 963d
00000050: 7b31 2e3e 277f 933e d41c 11be 92cc 343c
00000060: 021c 183e b9c8 ff3d c4a5 133e 4648 ffbd
00000070: 8cba a0be ff35 8fbe df9b 023e 6c63 913e
00000080: 3406 ad3d 2301 70bd bd4b d9bc 7f06 80be
00000090: 9437 823e 3308 86be 6ce4 b33a 70c9 9a3d
000000a0: 5363 233d de83 90bd 4374 bb3e 6336 f4bc
000000b0: a6a4 41bd 61eb 11be 0331 32be 3709 8abe
000000c0: 5aec f8bb de50 09bd 5cb7 863e f2db 2dbe
000000d0: f369 dfbc 8814 923e 6df7 133e 3235 aabe
000000e0: efa4 913c fbee 1cbd fee9 81be 3243 e5bc
000000f0: 721f f03d 49b6 07be ba6b 63be ad07 063e
00000100: c250 7f3e 3c24 9c3e edd4 85be a631 b13e
00000110: e6f4 103d 62a3 853e eff7 db3d 4dfa 8cbe
00000120: f4ab 153e 7670 4f3e 57c1 803e fb84 50be
00000130: e3fa 913e 6eee 88be 8276 803e fd99 273d
00000140: 6db9 c13e 5b85 96be e477 e9bd 3f2e 663c
00000150: 0db7 14be 6d22 953e e03b 4c3e 9064 bdbd
00000160: 25fc dabc 34db 9ebe 4cd3 7b3e 3aa2 3abd
00000170: d578 8abe 0f2d 723e eef3 1d3d 1222 ac3e
00000180: bb34 24bd 0a81 543e 2d5b a83e a0d8 cf3d
00000190: 9546 a53d 1c1a e63d 91b9 003e 0fc1 be3c
000001a0: 7399 843c 132e b43e 3e56 813e 7c5f fe3c
000001b0: 6f70 863e f9a0 46be f80b b53c 34ab ac3e
000001c0: e157 f53c 8573 af3e 686b 6fbe a089 a4bd
000001d0: 465e c23e c412 993d c00b 993e 0fed 23be
000001e0: 08d8 993e d4d8 76be d804 83bd 9ddd ae3e
000001f0: 7236 483e a066 c4bd 6a64 a6bd 91a3 a0be
00000200: e7da bebe ade0 50bc 7242 69bd 7919 49be
00000210: bff1 003e 4920 e4bd 3b69 dc3c 0040 12bd
00000220: 8676 933e bc40 0dbe 0291 313e d4f7 773e
00000230: 8168 183e 5f20 163d 0ef7 8fbe 1493 9c3e

model.encoder.blocks.0.layer.bias f4 [16]
-0.27478355 0.46254686 0.09901454 0.1538713 -0.07952082 0.16412242 0.2682544 -0.030995011
0.023258178 0.31575117 0.27556175 0.007835694 -0.14547695 0.28354526 0.3750312 0.24773906
00000000: 6eb0 8cbe f1d2 ec3e 23c8 ca3d 7090 1d3e
00000010: d0db a2bd b50f 283e a458 893e 40e9 fdbc
00000020: ef87 be3c 23aa a13e 6e16 8d3e 4861 003c
00000030: e9f7 14be d82c 913e 1704 c03e 4faf 7d3e

model.encoder.blocks.1.layer.weight f4 [16, 16, 3, 3]
0.024259916 -0.07335268 0.0027939677 -0.03486064 -0.025769293 0.0069511533 0.06640559 -0.07665651
0.01291284 0.055835184 0.063521266 0.08504052 0.05742782 0.15564656 0.03952512 0.11347465
0.028463703 0.0833711 -0.035288572 0.0073305303 -0.015666317 0.04034456 0.083716586 -0.0006385826
0.06180621 -0.03438637 -0.013103454 -0.03478816 -0.058929056 -0.0051286295 -0.033466607 -0.013865464
-0.057219874 -0.03767639 0.005529232 0.06585123 -0.03572722 0.06990651 -0.0629373 -0.044614352
0.016155308 -0.040508077 -0.022037761 0.0021393094 0.019415084 -0.002973998 -0.0141427275 -0.04976798
0.07103618 0.093763895 0.052650258 0.060194083 -0.02316163 0.054516446 -0.04102891 -0.0065911673
-0.059775073 0.07008639 0.03049378 -0.000104668594 0.095986135 -0.026380086 0.05226504 0.061830133
0.08059898 0.017956413 0.08316561 0.07176335 -0.06393583 -0.016608328 0.033429462 0.03268064
0.04979822 -0.030789785 -0.0027531069 0.06465354 0.026212309 -0.03432192 0.08860095 0.027183598
0.0006708718 -0.016199889 0.056546755 0.098432444 -0.05894749 0.016998494 0.005382819 0.00660009
0.016416911 0.048465185 0.09428753 -0.049736336 0.0057579004 0.010166809 0.024908751 0.055728402
0.05544192 -0.009687289 -0.026279273 0.005868652 0.05066581 0.0889596 0.09306451 0.0028025964
0.0027877942 0.0312256 0.081975624 -0.0060515194 -0.02105981 -0.05946539 -0.048952486 -0.045053277
-0.0035061995 0.07113221 -0.082850896 -0.042971082 -0.05622047 -0.02922913 -0.048072882 -0.04336263
0.074512005 0.036868736 -0.00010794439 0.0930076 -0.012203401 0.000114111725 0.11058629 0.069941595
0.021855565 0.008967609 0.08394135 0.059668384 -0.012918153 0.03982832 -0.005838811 0.031743646
-0.0006545014 0.07413974 -0.060270682 0.057248138 0.096632466 -0.025187094 -0.021754151 0.091160804
0.0017927786 -0.0076197386 -0.043594252 0.003178696 0.08224558 0.010341048 -0.03054307 -0.019008886
0.02101779 0.35125336 -0.06093334 0.13424869 -0.114388704 -0.29785883 -0.04601798 -0.115463674
-0.14274189 0.11252995 -0.01089718 0.06738845 0.19231522 0.096971296 0.11463126 0.067320116
0.17059335 0.14078982 0.09864514 0.16633596 -0.06544488 0.020735122 -0.20255028 -0.16977118
-0.14567769 -0.18911986 -0.23613532 -0.14954162 -0.2066898 -0.27776483 -0.103828296 -0.15804537
-0.16558686 -0.124859415 -0.17985943 -0.16387646 -0.19484557 0.20269305 0.16924985 0.10932445
0.1738988 -0.012958885 -0.023562336 0.029383425 -0.110665 -0.031985994 0.09716012 0.004601781
0.08413509 -0.01434943 -0.11458729 0.053614058 0.09160932 0.103679955 0.19874993 0.0092432685
0.10877818 0.06765533 0.016192947 0.13650112 0.013882849 0.074450076 0.111980714 0.0030086946
-0.045767926 0.10790855 0.030010214 0.035471816 0.093084544 -0.007859338 0.04319735 0.061783712
0.06753367 0.11596302 0.09701786 0.0688568 0.0754426 0.04761684 0.10738303 0.18717505
0.09584054 0.14017935 0.06762238 0.09526231 0.13078311 0.12932959 0.2098934 0.10265555
0.07682394 0.07920454 0.09887336 0.040449694 0.20897277 0.117955975 0.042195123 0.1608284
0.123597674 0.09567628 0.18965298 -0.006917828 -0.18787418 -0.3029281 -0.29364628 -0.047698446
00000000: bbbc c63c ee39 96bd 001b 373b 08ca 0ebd
00000010: 201a d3bc 80c6 e33b a7ff 873d 17fe 9cbd
00000020: 6090 533c 6fb3 643d 7017 823d b929 ae3d
00000030: 6f39 6b3d d061 1f3e 18e5 213d 6665 e83d
00000040: b62c e93c 78be aa3d c08a 10bd f234 f03b
00000050: a656 80bc 5640 253d 9a73 ab3d 8e66 27ba
00000060: 8228 7d3d b9d8 0cbd dfaf 56bc 087e 0ebd
00000070: 985f 71bd 100e a8bb 4814 09bd f92b 63bc
00000080: 635f 6abd 8f52 1abd 8f2e b53b 02dd 863d
00000090: b556 12bd 252b 8f3d 45e5 80bd 8abd 36bd
000000a0: 2358 843c cceb 25bd 8988 b4bc a833 0c3b
000000b0: 620c 9f3c 68e7 42bb e6b6 67bc 82d9 4bbd
000000c0: 6b7b 913d 4907 c03d cca7 573d 128e 763d
000000d0: 75bd bdbc a34c 5f3d ee0d 28bd b8fa d7bb
000000e0: b5d6 74bd 7489 8f3d 17ce f93c 8681 dbb8
000000f0: 6194 c43d 0d1b d8bc de13 563d 9841 7d3d
00000100: 1411 a53d 5419 933c bb52 aa3d aaf8 923d
00000110: caf0 82bd 300e 88bc 55ed 083d 23dc 053d
00000120: 38f9 4b3d dc3a fcbc 786d 34bb 1369 843d
00000130: 32bb d63c 2495 0cbd 6a74 b53d 23b0 de3c
00000140: 72dd 2f3a a1b5 84bc 929d 673d f396 c93d
00000150: ec72 71bd 6d40 8b3c 5c62 b03b 9145 d83b
00000160: c27c 863c 6e83 463d d219 c13d 54b8 4bbd
00000170: c5ac bc3b b092 263c 700d cc3c 7743 643d
00000180: 1117 633d 6fb7 1ebc a147 d7bc d24d c03b
00000190: f486 4f3d 7330 b63d 9b98 be3d c4ab 373b
000001a0: 6db3 363b d4cc ff3c d6e2 a73d d34b c6bb
000001b0: 9f85 acbc fb91 73bd 6782 48bd c989 38bd
000001c0: 44c8 65bb c4ad 913d bbad a9bd 7202 30bd
000001d0: 7047 66bd ee71 efbc 12e8 44bd 039d 31bd
000001e0: c099 983d ac03 173d 3460 e2b8 c57a be3d
000001f0: c6f0 47bc 444f ef38 117b e23d 8a3d 8f3d
00000200: 710a b33c e1ec 123c 71e9 ab3d d666 743d
00000210: a9a6 53bc 0523 233d 7f53 bfbb a005 023d
00000220: d892 2bba 93d6 973d 64de 76bd 067d 6a3d
00000230: 3ee7 c53d 2a55 cebc c335 b2bc 84b2 ba3d
00000240: abfb ea3a 00af f9bb e38f 32bd ab51 503b
00000250: 5f70 a83d 806d 293c 7635 fabc 86b8 9bbc
00000260: 802d ac3c 7bd7 b33e 3d95 79bd 7d78 093e
00000270: a044 eabd f480 98be 597d 3cbd 3878 ecbd
00000280: ee2a 12be 1a76 e63d 168a 32bc f502 8a3d
00000290: 48ee 443e e398 c63d cbc3 ea3d 21df 893d
000002a0: 06b0 2e3e 352b 103e 7706 ca3d f953 2a3e
000002b0: f707 86bd b4dc a93c 5769 4fbe 7fd8 2dbe
000002c0: 882c 15be a3a8 41be 75cd 71be 7021 19be
000002d0: 7ea6 53be 3137 8ebe eea3 d4bd a5d6 21be
000002e0: 9a8f 29be 4bb6 ffbd 122d 38be 3bcf 27be
000002f0: 9985 47be c48e 4f3e d54f 2d3e 7fe5 df3d
00000300: 8712 323e 8151 54bc cd05 c1bc 82b5 f03c
00000310: 55a4 e2bd bf03 03bd e3fb c63d 89ca 963b
00000320: 054f ac3d df19 6bbc beac eabd 6a9a 5b3d
00000330: ab9d bb3d 2856 d43d 1a85 4b3e 1471 173c
00000340: 18c7 de3d e18e 8a3d 12a7 843c f3c6 0b3e
00000350: e474 633c 4879 983d 2556 e53d 852d 453b
00000360: 2677 3bbd 28ff dc3d fbd7 f53c e54a 113d
00000370: 1ca3 be3d 74c4 00bc b4ef 303d eb10 7d3d
00000380: 184f 8a3d 057e ed3d 4db1 c63d cb04 8d3d
00000390: a681 9a3d e009 433d a2eb db3d d1aa 3f3e
000003a0: 0c48 c43d 2d8b 0f3e 9a7d 8a3d e318 c33d
000003b0: 02ec 053e fa6e 043e 4cee 563e 133d d23d
000003c0: df55 9d3d fd35 a23d 1e7e ca3d 94ae 253d
000003d0: f5fc 553e e792 f13d cbd4 2c3d 33b0 243e
000003e0: c720 fd3d edf1 c33d 6434 423e f3ae e2bb
000003f0: 1762 40be 6419 9bbe ce58 96be 725f 43bd

model.encoder.blocks.1.layer.bias f4 [16]
0.005744285 0.21021877 0.044621922 -0.0053087594 -0.02451578 0.068338 -0.033337247 -0.076445825
-0.014800823 -0.05999474 0.04750971 -0.07595744 0.004632176 0.070557564 0.04492089 0.06620691
00000000: 8e3a bc3b 9743 573e 7ac5 363d 1af5 adbb
00000010: 51d5 c8bc cbf4 8b3d a38c 08bd a18f 9cbd
00000020: 277f 72bc 0bbd 75bd 8b99 423d 938f 9bbd
00000030: 82c9 973b 7c80 903d f8fe 373d 7d97 873d

model.encoder.blocks.2.layer.weight f4 [16, 16, 3, 3]
-0.03166124 0.011739637 -0.090592906 -0.10729896 0.028048974 0.04213327 -0.021200454 -0.09277017
0.02897668 -0.027380005 -0.02303563 -0.067275256 -0.07234242 -0.071048215 0.07889243 0.004815635
-0.021104608 0.048982564 -0.026780013 -0.06454334 -0.06026132 -0.0012421139 -0.060342316 -0.0799267
-0.09154551 -0.053305138 -0.025920693 0.02448989 0.033460032 0.0698091 -0.082499415 -0.07943701
-0.032720976 -0.022092542 -0.014332841 0.05288434 -0.03873899 -0.02281925 -0.05229982 0.04798669
-0.03221434 -0.07232839 -0.057740204 -0.05903652 -0.07258832 0.053655293 0.073400825 -0.012124589
-0.063058294 -0.07896441 -0.055744868 -0.03754122 0.057840057 -0.053835046 -0.020213421 0.03822806
-0.011476347 -0.058104932 -0.00040549983 0.0017764881 -0.011326198 -0.06734154 0.065885134 0.016522741
-0.017981673 0.010602385 -0.042624496 -0.027869675 -0.054893624 0.044139814 -0.067864195 0.011768198
-0.0032877729 0.0724462 0.030976769 0.04279387 -0.075130895 -0.005477179 -0.08022768 0.023759205
0.046519462 0.06311182 -0.03716261 0.034146693 0.030234592 0.031720746 0.004065879 -0.009702556
0.09071137 -0.029768063 0.014063157 -0.064667 0.0176578 -0.10550125 -0.03338481 0.04916493
0.053971775 0.04225448 0.053754967 0.018573418 -0.026812274 -0.0073551354 0.03980276 -0.019394305
-0.057819627 -0.06627621 -0.0026738148 -0.007690642 0.045015138 -0.03925859 -0.043033 0.046426024
0.023566095 0.009743819 -0.019744247 -0.04629615 0.021905197 -0.021722386 0.03265667 -0.08388931
0.03001554 -0.014027082 -0.07072973 0.030218273 -0.10057717 0.03439396 -0.073476836 0.047393907
-0.009800327 -0.03927521 -0.110604316 -0.027883891 0.026883706 -0.05885997 -0.082308374 -0.06270969
0.06507262 0.012572992 0.055357233 -0.07267025 -0.057778202 0.047122464 0.024292627 0.0030996385
0.022818947 0.029057054 0.0044357926 0.05127405 -0.061687265 0.050097905 0.059753433 0.037518326
-0.017656697 0.05920289 0.034419317 0.056506075 0.028335106 0.0951825 0.07920116 -0.1847904
0.08014853 0.052992735 -0.05004842 -0.05100659 0.0763297 -0.026039334 0.044264887 0.07918566
-0.05882164 -0.06762192 0.045138955 0.025569549 0.07684259 -0.07934662 -0.028130844 0.028059592
-0.06604563 -0.031353366 0.001619256 0.050265394 -0.04872059 -0.07021292 -0.025995752 -0.07361869
-0.047211803 -0.054758288 -0.06870971 -0.00478399 0.011894289 -0.01887947 -0.058571782 0.0020139774
0.025054997 -0.036609195 0.06831891 -0.08342447 0.043567862 -0.08909574 0.0047488706 0.03892043
0.059573572 0.055519037 -0.007715009 0.08883077 -0.014907554 0.018156886 0.089164846 0.08222674
0.023324821 -0.06762664 0.05130422 0.038427923 -0.0075164014 -0.027762424 -0.033284944 -0.055249047
0.031484433 -0.066629454 0.06545399 -0.012987981 0.07963414 -0.013969027 0.022344328 -0.06027766
0.051262658 -0.027127692 -0.015325405 0.06619281 0.008627308 0.07635049 -0.048845083 0.0068619368
0.0119852675 0.06439471 0.000771663 -0.09956383 -0.085488506 -0.05338449 0.018768521 0.029189272
0.08898843 0.009069392 0.06995761 -0.081472136 0.047641993 0.06634574 0.047210794 -0.050970644
0.06205837 0.04857812 -0.007381189 0.051005125 -0.08329347 -0.10164667 -0.12019531 0.08344045
00000000: 37af 01bd 9b57 403c c688 b9bd 8fbf dbbd
00000010: f6c6 e53c f093 2c3d 93ac adbc 49fe bdbd
00000020: 8160 ed3c 084c e0bc 38b5 bcbc 9cc7 89bd
00000030: 4328 94bd ba81 91bd 5b92 a13d 79cc 9d3b
00000040: 92e3 acbc f1a1 483d c261 dbbc 4c2f 84bd
00000050: 93d4 76bd 6dce a2ba 8129 77bd 9cb0 a3bd
00000060: 367c bbbd 7d56 5abd a257 d4bc 069f c83c
00000070: 630d 093d 13f8 8e3d 74f5 a8bd dfaf a2bd
00000080: 6e06 06bd 6bfb b4bc 4bd4 6abc 409d 583d
00000090: c6ac 1ebd 70ef babc 5638 56bd b18d 443d
000000a0: 2ff3 03bd e820 94bd fe80 6cbd 47d0 71bd
000000b0: 2fa9 94bd a7c5 5b3d 2c53 963d 36a6 46bc
000000c0: b524 81bd 18b8 a1bd bb54 64bd d3c4 19bd
000000d0: b2e9 6c3d 2382 5cbd 9e96 a5bc 0795 1c3d
000000e0: 4a07 3cbc 70ff 6dbd 4499 d4b9 0dd9 e83a
000000f0: 8491 39bc 5cea 89bd c9ee 863d b35a 873c
00000100: 4d4e 93bc a0b5 2d3c 0697 2ebd f24e e4bc
00000110: 23d8 60bd f3cb 343d 62fc 8abd 66cf 403c
00000120: ad77 57bb ac5e 943d fec2 fd3c a048 2f3d
00000130: 3ade 99bd e879 b3bb 694e a4bd aaa2 c23c
00000140: 318b 3e3d c540 813d d237 18bd 67dd 0b3d
00000150: 89ae f73c 9ded 013d 113b 853b 78f7 1ebc
00000160: e2c6 b93d 27dc f3bc 2869 663c 2270 84bd
00000170: 17a7 903c 0a11 d8bd 83be 08bd 2a61 493d
00000180: 8211 5d3d 0913 2d3d 2b2e 5c3d 4827 983c
00000190: 6aa5 dbbc 5903 f1bb 3808 233d cee0 9ebc
000001a0: 46d4 6cbd d2bb 87bd 2b3b 2fbb c801 fcbb
000001b0: cb61 383d 9ecd 20bd 5f43 30bd 3729 3e3d
000001c0: af0d c13c 8aa4 1f3c b0be a1bc 08a1 3dbd
000001d0: 8772 b33c 25f3 b1bc 00c3 053d 29ce abbd
000001e0: 26e3 f53c d9d1 65bc c0da 90bd 508c f73c
000001f0: 67fb cdbd aee0 0c3d 067b 96bd 1d20 423d
00000200: 8d91 20bc 0bdf 20bd 8484 e2bd c26c e4bc
00000210: 383b dc3c 2717 71bd 4b91 a8bd f06d 80bd
00000220: cb44 853d f3fe 4d3c 44be 623d 24d4 94bd
00000230: d6a8 6cbd 7c03 413d 5501 c73c 4e23 4b3b
00000240: cdee ba3c 0f09 ee3c 205a 913b bd04 523d
00000250: c9ab 7cbd 7633 4d3d 04c0 743d d1ac 193d
00000260: c7a4 90bc bb7e 723d 45fb 0c3d ea72 673d
00000270: 061f e83c 0bef c23d 3834 a23d b239 3dbe
00000280: ea24 a43d e90e 593d 92ff 4cbd 49ec 50bd
00000290: bf52 9c3d 7150 d5bc 194f 353d 172c a23d
000002a0: f6ee 70bd 5c7d 8abd a0e3 383d 3b77 d13c
000002b0: a65f 9d3d 7b80 a2bd a872 e6bc 3bdd e53c
000002c0: ee42 87bd 636c 00bd 373d d43a 16e3 4d3d
000002d0: 3e8f 47bd cbcb 8fbd 0bf5 d4bc 65c5 96bd
000002e0: 2a61 41bd 3a4a 60bd adb7 8cbd 04c3 9cbb
000002f0: 44e0 423c 1ea9 9abc f7e8 6fbd effc 033b
00000300: 2340 cd3c 86f3 15bd c9ea 8b3d 73da aabd
00000310: 3774 323d d477 b6bd 6a9c 9b3b 076b 1f3d
00000320: 6b03 743d ee67 633d 30ce fcbb e8ec b53d
00000330: d03e 74bc c0bd 943c 0f9c b63d 7e66 a83d
00000340: b213 bf3c d67f 8abd 6024 523d 9966 1d3d
00000350: 254c f6bb 066e e3bc cb55 08bd d34c 62bd
00000360: d2f5 003d 0675 88bd be0c 863d 8acb 54bc
00000370: 3917 a33d 59de 64bc 740b b73c b5e5 76bd
00000380: cbf8 513d e53a debc 6817 7bbc 1990 873d
00000390: 8d59 0d3c a55d 9c3d c811 48bd 19da e03b
000003a0: db5d 443c 60e1 833d 6d49 4a3a 1fe8 cbbd
000003b0: 9914 afbd b2a9 5abd 71c0 993c 571e ef3c
000003c0: 913f b63d ca97 143c ef45 8f3d ddda a6bd
000003d0: 4024 433d 46e0 873d 1b60 413d 98c6 50bd
000003e0: eb30 7e3d daf9 463d e7dd f1bb c0ea 503d
000003f0: c495 aabd 212c d0bd f528 f6bd d4e2 aa3d

model.encoder.blocks.2.layer.bias f4 [16]
0.061243888 0.076351024 0.06330153 -0.01361372 0.010187724 0.04915272 0.027817274 0.07189659
0.10107871 0.08164247 0.059043013 0.034397587 0.049761612 0.088125885 0.11989094 0.040899932
00000000: dfda 7a3d ed5d 9c3d 3ca4 813d 150c 5fbc
00000010: 69ea 263c 5d54 493d 0de1 e33c 853e 933d
00000020: 5b02 cf3d 2b34 a73d 16d7 713d 7ce4 0c3d
00000030: d5d2 4b3d 587b b43d 6289 f53d b086 273d

model.decoder.blocks.0.layer.weight f4 [16, 16, 3, 3]
-0.0075337756 -0.017571587 0.037068155 -0.028632138 0.041675564 0.0672934 0.08388377 0.08641871
-0.026870314 0.057101704 -0.056935046 0.06642922 -0.04609822 -0.03459285 -0.01589391 -0.03605309
0.0031060183 0.0017487891 0.09583727 -0.044174504 -0.037707347 0.004152206 0.05207496 -0.03072678
-0.011759238 0.025901655 0.012861926 0.01146118 -0.03203979 -0.058257394 0.0767416 -0.0046399906
-0.019103818 -0.061871547 -0.019783702 0.0577513 -0.054668166 0.024687085 0.056675408 0.030998282
0.08247606 0.06555816 -0.033714827 -0.02364829 -0.029353503 0.014987507 0.018633071 -0.03297888
0.08098669 -0.028602485 0.06277685 -0.049689464 0.08133268 0.009029886 -0.068299234 -0.04553072
-0.06758951 0.072906636 -0.057265867 -0.06540127 -0.05207542 -0.025752949 0.06292412 0.004758727
0.0060979277 0.035664402 0.09577894 0.08176643 -0.040079962 0.02508862 0.08046983 0.08002831
0.05891496 0.08418659 0.057499982 -0.015279177 -0.036174275 0.09084956 0.0480245 0.03448928
0.045505162 -0.051247396 -0.045223612 0.001298922 -0.0029798064 0.004844308 -0.00039066674 -0.012896329
-0.0072786575 0.033359665 0.088969626 0.08525992 0.08797947 -0.003949851 0.045808855 0.05819224
0.070919305 0.07332802 0.04172831 0.088024385 0.09472114 -0.18661892 -0.012409661 0.15404849
0.060719717 -0.11038589 0.2801736 0.23433708 0.020470452 0.01865629 -0.022286428 0.22000147
0.13834012 -0.03249059 -0.2606666 -0.012951707 -0.15527841 0.08468725 0.03766083 0.07140634
0.048770882 0.09688382 0.098609716 0.006607914 0.08557589 -0.05914658 -0.06360612 -0.17276601
-0.036777124 0.07990181 -0.111715846 -0.16455184 0.11107339 -0.07153773 -0.052442975 0.039428595
-0.010364368 -0.02104156 -0.05200967 0.005726802 -0.0016326912 0.08758983 -0.014486095 0.0425337
0.042372584 -0.010217577 0.03894807 -0.04784456 -0.0010150969 0.023378124 0.02687641 -0.01821664
0.023846596 -0.10997986 0.12592915 0.098674476 -0.012487735 0.11956876 0.13827269 -0.3743248
-0.44817382 -0.22952561 0.057997543 0.16869672 0.11405928 0.05049139 0.0766826 0.019955372
-0.29662186 -0.2033875 -0.2953428 0.07403376 0.16316037 -0.0055052126 -0.034793086 -0.055363897
-0.014098485 -0.2647933 -0.37747738 -0.24178474 -0.009999089 0.005714483 0.046339776 -0.044280518
-0.06972252 0.025960365 -0.11753851 -0.2649864 -0.25478163 -0.22145057 0.061787054 -0.11871654
-0.08445691 0.3130171 0.020583361 -0.07233621 -0.08465811 0.04295361 -0.020561019 -0.044916622
-0.02870564 -0.07181295 0.041871585 -0.030795299 -0.0188257 -0.043256722 0.05162505 -0.092046335
0.2124822 0.011714273 -0.11708681 0.13337654 0.022547763 -0.042039 -0.2996752 -0.17517963
0.0075320415 0.08453068 0.016165514 0.09355016 0.12156836 -0.05611353 -0.14030823 -0.26344612
-0.25535193 0.048184346 0.25484344 0.084822886 0.126159 0.14042962 0.031306323 -0.1616826
-0.33561376 -0.2075333 -0.012715878 0.041085433 0.04193657 0.045495093 0.027110057 -0.01270265
-0.12418953 -0.0901807 -0.12905766 -0.06408614 0.05517376 0.07166306 -0.23165558 0.27231714
0.072314195 0.030471984 -0.19124147 0.01455381 -0.14599282 0.51420665 -0.07026114 -0.04440949
00000000: e4dd f6bb 4af2 8fbc c7d4 173d f28d eabc
00000010: ffb3 2a3d 1fd1 893d 41cb ab3d 4bfc b03d
00000020: 221f dcbc 7ae3 693d b934 69bd 0b0c 883d
00000030: 7dd1 3cbd 3bb1 0dbd f233 82bc 68ac 13bd
00000040: 578e 4b3b a037 e53a 5546 c43d 53f0 34bd
00000050: 0573 1abd 3a0f 883b 8e4c 553d bab6 fbbc
00000060: d2a9 40bc b52f d43c d4ba 523c acc7 3b3c
00000070: 283c 03bd 4e9f 6ebd b32a 9d3d 100b 98bb
00000080: 9c7f 9cbc 056d 7dbd 6e11 a2bc a18c 6c3d
00000090: baeb 5fbd 923c ca3c 7924 683d 1cf0 fd3c
000000a0: 35e9 a83d 5b43 863d 8f18 0abd 0fba c1bc
000000b0: c276 f0bc 298e 753c 62a4 983c dd14 07bd
000000c0: 5adc a53d c24f eabc 2691 803d 2e87 4bbd
000000d0: c091 a63d 16f2 133c 78e0 8bbd 6c7e 3abd
000000e0: 5e6c 8abd 1350 953d 9d8f 6abd 1af1 85bd
000000f0: 094d 55bd d9f7 d2bc 5cde 803d 18ef 9b3b
00000100: 20d1 c73b d614 123d c027 c43d 2875 a73d
00000110: e32a 24bd a686 cd3c 5ecd a43d e2e5 a33d
00000120: d050 713d 056a ac3d 1a85 6b3d 8355 7abc
00000130: 7a2b 14bd 560f ba3d 57b5 443d a244 0d3d
00000140: 9f63 3a3d cae8 51bd 653c 39bd 9740 aa3a
00000150: db48 43bb 00bd 9e3b 67d2 ccb9 204b 53bc
00000160: ce81 eebb 25a4 083d b535 b63d c19c ae3d
00000170: 952e b43d c06d 81bb 11a2 3b3d fc5a 6e3d
00000180: 243e 913d 002d 963d 4eeb 2a3d 2146 b43d
00000190: 28fd c13d 0819 3fbe e451 4bbc e3be 1d3e
000001a0: 3db5 783d ff11 e2bd ea72 8f3e 0ff6 6f3e
000001b0: a6b1 a73c 13d5 983c 0792 b6bc 1148 613e
000001c0: 08a9 0d3e da14 05bd 1876 85be 6533 54bc
000001d0: 4e01 1fbe 8270 ad3d 3e42 1a3d 7d3d 923d
000001e0: fac3 473d 066b c63d e4f3 c93d 3387 d83b
000001f0: 6a42 af3d af43 72bd ed43 82bd 93e9 30be
00000200: 9ca3 16bd 8fa3 a33d 47cb e4bd 4780 28be
00000210: 727a e33d 6082 92bd 72ce 56bd e17f 213d
00000220: 4fcf 29bc 5a5f acbc 1708 55bd e6a7 bb3b
00000230: 0700 d6ba 4c62 b33d 1657 6dbc d137 2e3d
00000240: e08e 2d3d a067 27bc 0388 1f3d a8f8 43bd
00000250: 000d 85ba 7b83 bf3c eb2b dc3c 103b 95bc
00000260: f059 c33c 1f3d e1bd 92f3 003e d815 ca3d
00000270: 5b99 4cbc 77e0 f43d 5b97 0d3e 80a7 bfbe
00000280: 0a77 e5be c308 6bbe d58e 6d3d d5be 2c3e
00000290: e997 e93d 0fd0 4e3d c40b 9d3d 7379 a33c
000002a0: d2de 97be d044 50be 2c37 97be 039f 973d
000002b0: 8313 273e 1265 b4bb 3283 0ebd 41c5 62bd
000002c0: 55fd 66bc fd92 87be b744 c1be 6b96 77be
000002d0: 38d3 23bc 8f40 bb3b c7ce 3d3d 7d5f 35bd
000002e0: aeca 8ebd d5aa d43c 08b8 f0bd 4cac 87be
000002f0: bd72 82be f0c3 62be 6c14 7d3d a821 f3bd
00000300: bff7 acbd c743 a03e 709e a83c 0225 94bd
00000310: 3b61 adbd 20f0 2f3d 956f a8bc 7efa 37bd
00000320: 1728 ebbc ab12 93bd 8a81 2b3d 6c46 fcbc
00000330: 5b38 9abc f62d 31bd ca74 533d ca82 bcbd
00000340: ef94 593e 39ed 3f3c 36cb efbd dc93 083e
00000350: 16b6 b83c 1631 2cbd 076f 99be 4a62 33be
00000360: 58cf f63b 6c1e ad3d 8a6d 843c 3a97 bf3d
00000370: d5f8 f83d 4dd7 65bd f6ac 0fbe 69e2 86be
00000380: 7dbd 82be f35c 453d d77a 823e 9fb7 ad3d
00000390: d32f 013e c8cc 0f3e 0f3b 003d 2090 25be
000003a0: 91d5 abbe 9c83 54be 4256 50bc 3349 283d
000003b0: aec5 2b3d 1059 3a3d e915 de3c c71e 50bc
000003c0: 1557 febd a9b0 b8bd b127 04be 983f 83bd
000003d0: e1fd 613d 15c4 923d 1f37 6dbe 276d 8b3e
000003e0: 7719 943d 62a0 f93c ced4 43be 1a73 6e3c
000003f0: 247f 15be 0ca3 033f 13e5 8fbd bae6 35bd

model.decoder.blocks.0.layer.bias f4 [16]
0.0700291 0.21551582 0.047754463 -0.025671473 0.029682575 0.008101361 0.060700357 -0.018218521
-0.044762332 -0.091573514 0.11238699 0.096928164 -0.036589082 0.024562173 0.010829229 0.0747495
00000000: 6b6b 8f3d 2eb0 5c3e 2f9a 433d fb4c d2bc
00000010: df28 f33c 92bb 043c f0a0 783d 023f 95bc
00000020: b558 37bd e58a bbbd 262b e63d 4682 c63d
00000030: 6fde 15bd 9c36 c93c 146d 313c 4416 993d

model.decoder.blocks.0.upsample.weight f4 [16, 16, 2, 2]
0.03773477 -0.03675516 -0.056306254 -0.08342029 -0.06524984 0.061482113 -0.021823741 0.051951062
0.09256651 0.011791126 -0.09367172 0.013761812 0.11764984 0.13582917 0.041208833 -0.057259686
0.10371477 -0.100758694 0.012530895 0.092625424 0.018114649 -0.05470282 0.119166225 -0.025000717
0.09724315 0.07271568 0.112298205 0.015516068 0.060926773 0.09596199 -0.12959751 0.06519035
-0.11732375 0.05183623 -0.09632787 -0.06528368 -0.105688795 -0.07900644 0.02886313 0.09345014
0.089188606 -0.036394123 0.093363054 -0.13940905 0.05798991 0.0037767838 -0.0424785 0.05413298
-0.12460472 0.08845412 -0.13472186 0.021008173 -0.0023963037 -0.03559069 -0.12583727 0.11717104
0.01448046 0.06799009 0.058642022 0.10631128 -0.03642751 0.08072879 -0.11675389 -0.101703815
0.021756917 -0.037396483 0.061353147 0.0162335 -0.09792361 -0.017557425 -0.19752151 -0.07823443
0.05008348 0.041064557 -0.089078434 -0.18009439 0.1404524 0.13680084 -0.037104174 0.041187625
0.036191974 -0.105924435 -0.091076344 -0.009040733 0.026717339 -0.030185968 -0.04739532 -0.13828425
-0.35935497 -0.20281914 0.2488308 0.06528432 0.085026495 0.32694623 -0.19870293 -0.20713
-0.086343855 0.055871136 0.07875296 0.118645556 0.031896714 -0.14102122 -0.0736129 -0.007307538
-0.21140549 -0.25176424 0.017654072 0.06011412 -0.12988031 0.01801448 -0.060453653 -0.124429815
-0.14981423 0.12783268 0.009953409 0.21698228 0.27754244 0.107361615 -0.020783346 0.11917594
-0.057375625 -0.022162879 0.06494191 0.1338147 0.00063134095 -0.04281046 0.06970634 -0.037632465
0.0172463 0.12315724 0.1256502 0.07868367 -0.038241975 -0.110056266 -0.18172581 -0.115610495
0.05317954 -0.07053885 -0.023758573 0.11893785 -0.030898646 0.03972297 -0.16235828 0.085947916
-0.011422333 0.040313557 -0.05745194 0.33041236 0.009909711 0.04994055 0.020643199 -0.03585417
0.16945474 -0.16745248 0.20116314 0.20900218 0.0957017 -0.06479196 0.08798412 0.059952557
0.0044011483 -0.15706801 -0.117933795 -0.06602018 0.037405524 -0.09957417 0.16705869 0.14662234
-0.07111224 -0.11125245 -0.08027301 -0.17620364 0.09751976 0.11703823 -0.10732484 0.08693267
-0.018130708 0.03715507 -0.06483847 -0.030767374 0.17534679 -0.013928963 0.0271549 0.12921655
-0.105803326 0.005095694 0.10469503 0.14090705 -0.0440105 -0.0107267 0.02545984 0.031389467
0.12821814 0.07748478 -0.002036302 0.04659453 -0.11215991 -0.04311917 0.014483026 0.0075828633
-0.038292363 -0.08885856 -0.09825165 0.069316775 0.11041716 -0.03977917 0.10410082 0.14876099
0.14029647 0.1084899 0.01580778 0.19575414 0.105183385 0.10363914 -0.02208176 0.012451759
-0.05326879 -0.07358418 0.086743295 -0.001737558 0.12295598 0.12447586 0.053442497 -0.004797981
-0.0069673616 -0.1294092 -0.090041995 0.13111636 0.01804541 0.03238312 0.078735664 -0.025236033
-0.08210061 -0.024098344 0.024514135 -0.09614344 -0.07064463 -0.0708304 0.01792943 -0.025059907
-0.08718412 -0.06682792 -0.11072176 -0.05087254 -0.043491725 0.09013886 0.079397835 -0.0040518013
-0.024224656 0.013290911 0.12406375 0.055667568 0.0030068909 0.12090085 -0.08189025 0.113975115
00000000: c68f 1a3d 948c 16bd 63a1 66bd 42d8 aabd
00000010: b5a1 85bd abd4 7b3d b4c7 b2bc a3ca 543d
00000020: 8393 bd3d 912f 413c f5d6 bfbd 3979 613c
00000030: 66f2 f03d cd16 0b3e 98ca 283d 2289 6abd
00000040: 6968 d43d 935a cebd 624e 4d3c 66b2 bd3d
00000050: 2c65 943c 1010 60bd 6c0d f43d 4ece ccbc
00000060: 6b27 c73d f5eb 943d 9afc e53d 1b37 7e3c
00000070: 5a8e 793d b887 c43d 36b5 04be 8582 853d
00000080: 6f47 f0bd 3a52 543d 8c47 c5bd 73b3 85bd
00000090: 5e73 d8bd 21ce a1bd 5f72 ec3c c962 bf3d
000000a0: 84a8 b63d 0112 15bd 2135 bf3d 3fc1 0ebe
000000b0: d486 6d3d eb83 773b f0fd 2dbd 8bba 5d3d
000000c0: c230 ffbd 6f27 b53d 87f4 09be 5519 ac3c
000000d0: 4e0b 1dbb 8bc7 11bd 7cdb 00be 5ff7 ef3d
000000e0: 743f 6d3c 633e 8b3d 9e32 703d bab9 d93d
000000f0: 0335 15bd 2355 a53d aa1c efbd 174a d0bd
00000100: 903b b23c 0e2d 19bd 704d 7b3d 1efc 843c
00000110: 2c8c c8bd 97d4 8fbc 1443 4abe 5f39 a0bd
00000120: 5624 4d3d 4f33 283d c16e b6bd aa6a 38be
00000130: c1d2 0f3e 8515 0c3e 8cfa 17bd 5bb4 283d
00000140: 093e 143d e9ee d8bd 3c86 babd 951f 14bc
00000150: 52de da3c 9048 f7bc 9821 42bd 639a 0dbe
00000160: 60fd b7be d2af 4fbe 80cd 7e3e c9b3 853d
00000170: 5f22 ae3d 7f65 a73e c878 4bbe e319 54be
00000180: 0cd5 b0bd 22d9 643d 3b49 a13d 71fc f23d
00000190: 21a6 023d de67 10be 5cc2 96bd 1274 efbb
000001a0: ae7a 58be 3ee7 80be 469f 903c 393a 763d
000001b0: 58ff 04be 1a93 933c 409e 77bd 0fd5 febd
000001c0: e768 19be 92e6 023e a013 233c 9a30 5e3e
000001d0: 0b1a 8e3e 68e0 db3d d641 aabc 8412 f43d
000001e0: b402 6bbd ed8e b5bc 4400 853d b906 093e
000001f0: 9380 253a 055a 2fbd 33c2 8e3d 8024 1abd
00000200: 1d48 8d3c dd39 fc3d 72aa 003e e724 a13d
00000210: 9ea3 1cbd 2e65 e1bd 5516 3abe 32c5 ecbd
00000220: cad2 593d ac76 90bd 57a1 c2bc b095 f33d
00000230: 281f fdbc 8eb4 223d 4041 26be 7605 b03d
00000240: bd24 3bbc d41f 253d ba52 6bbd cf2b a93e
00000250: 575c 223c 768e 4c3d ed1b a93c d2db 12bd
00000260: 8b85 2d3e aa78 2bbe b6fd 4d3e ab04 563e
00000270: 41ff c33d a6b1 84bd 0531 b43d d090 753d
00000280: 8237 903b 70d6 20be 4687 f1bd 9735 87bd
00000290: 8936 193d 8bed cbbd 6f11 2b3e 2b24 163e
000002a0: 4ba3 91bd 53d8 e3bd 2d66 a4bd ba6e 34be
000002b0: 71b8 c73d bdb1 ef3d 20cd dbbd c109 b23d
000002c0: da86 94bc ea2f 183d 08ca 84bd dc0b fcbc
000002d0: 1c8e 333e 4e36 64bc f473 de3c 5851 043e
000002e0: 6aaf d8bd c8f9 a63b 596a d63d f049 103e
000002f0: 5b44 34bd 0abf 2fbc 2891 d03c 3e92 003d
00000300: 9e4b 033e 57b0 9e3d 7a73 05bb e8d9 3e3d
00000310: 18b4 e5bd ba9d 30bd 374a 6d3c ab79 f83b
00000320: 74d8 1cbd 7afb b5bd 2938 c9bd f4f5 8d3d
00000330: 6422 e23d 7cef 22bd d032 d53d cd54 183e
00000340: e1a9 0f3e f42f de3d 517f 813c c673 483e
00000350: 636a d73d c240 d43d cfe4 b4bc 7602 4c3c
00000360: 6030 5abd 4db3 96bd 78a6 b13d c6be e3ba
00000370: 58d0 fb3d 33ed fe3d 85e6 5a3d 6238 9dbb
00000380: 774e e4bb d883 04be f067 b8bd 5e43 063e
00000390: f8d3 933c 2aa4 043d 2a40 a13d ccbb cebc
000003a0: 5d24 a8bd e469 c5bc ded1 c83c dae6 c4bd
000003b0: 22ae 90bd 870f 91bd bde0 923c 6f4a cdbc
000003c0: 978d b2bd 14dd 88bd 17c2 e2bd b95f 50bd
000003d0: 6124 32bd b99a b83d 559b a23d f9c4 84bb
000003e0: c972 c6bc 1fc2 593c 2315 fe3d ad03 643d
000003f0: 420f 453b dd9a f73d 13b6 a7bd c96b e93d

model.decoder.blocks.0.upsample.bias f4 [16]
0.15461443 0.14516579 -0.15983674 0.03884228 0.11470623 -0.07812553 0.054677967 0.11535138
-0.04132461 0.08362287 -0.075235985 0.060633924 -0.12466287 -0.11679184 0.07887021 0.13601318
00000000: 3f53 1e3e 57a6 143e 3eac 23be 1519 1f3d
00000010: 1aeb ea3d 4700 a0bd 01f6 5f3d 583d ec3d
00000020: ff43 29bd 7842 ab3d 5315 9abd 475b 783d
00000030: 3f4f ffbd 8f30 efbd b486 a13d 0a47 0b3e

model.decoder.blocks.1.layer.weight f4 [16, 16, 3, 3]
0.10910389 0.065762006 0.13996488 0.035772104 0.06068159 0.04375255 -0.017190715 0.054986693
0.13572124 -0.05502009 -0.043078095 0.06661182 0.068975456 0.029183965 0.060042918 0.02638124
-0.022443358 0.06308093 -0.027428303 0.046920612 -0.054595426 -0.06427301 0.032978795 -0.013289419
-0.08288254 -0.07634127 -0.07651203 -0.0057777697 0.07780057 -0.008446957 0.056882866 -0.006429535
-0.048938844 0.050369956 -0.022258889 0.013223746 0.03185712 0.028820727 0.019807238 0.107442975
0.08449029 0.03713827 0.058153227 0.034690782 0.090968 0.011496811 -0.015348662 0.058947913
0.12957336 -0.0653395 0.018885992 -0.07607767 -0.013167049 -0.0836429 0.012535608 0.022072034
0.023598274 0.10729937 0.09161219 0.086766936 -0.07174195 0.022489619 0.09461252 0.056875207
-0.05338664 -0.0063723247 0.0043138443 0.024886137 -0.04254117 -0.027959362 0.03600862 0.0123572415
0.024547057 0.0682752 -0.08847478 -0.00052579184 0.03384103 -0.012303056 0.0538674 -0.004124008
0.022272779 0.07372084 -0.059111845 0.030001534 -0.04485785 0.096546106 0.05319199 0.0608333
0.05307239 0.043860722 -0.0036460739 -0.02858963 0.039872065 0.050818853 -0.10666352 0.06127958
0.01040277 -0.023375725 -0.09885678 -0.0011721579 -0.04163947 0.090251885 0.038279705 0.08283017
0.057087246 0.008180509 0.04653664 -0.041891593 -0.07327823 -0.051308833 0.050327197 -0.10165185
-0.09371527 -0.008844444 0.034291513 0.047935236 -0.030626358 -0.08730374 0.049510125 0.023950908
-0.08616975 -0.10164029 -0.03717043 0.036945157 0.006057613 -0.088464886 0.022514733 0.099166356
0.06918548 0.07664331 -0.026803114 0.059955716 0.09817539 0.0094820885 0.015105381 0.1613272
0.078192286 0.12371922 0.20971802 0.19314398 0.16283627 0.14766939 -0.0011122723 -0.02567951
-0.020401943 -0.05110611 0.09378531 0.032882754 -0.014593138 -0.02785039 0.028613362 -0.018673545
0.18064119 -0.11188821 -0.032787368 0.06071727 0.09646211 0.056340687 0.053065773 -0.04743699
0.029571706 0.028567584 -0.023441296 0.066414125 -0.09303525 0.029105743 0.05744381 -0.07795032
0.029157436 0.07691934 -0.0067225094 -0.036475502 0.08700773 -0.04877361 -0.095516615 0.1391222
-0.071580335 0.0010236233 0.02792332 -0.10006201 0.05117259 -0.020574188 0.024811309 0.02408445
0.0940817 0.04510843 -0.0065775095 -0.07277103 0.042175338 0.02202163 0.22288473 -0.004189209
0.10529746 -0.06394685 -0.084366694 0.0037851098 0.03919832 0.04441262 0.022695664 0.045248687
0.0045551723 0.030531926 0.03241543 0.04113337 -0.04371578 -0.06201301 -0.062894545 -0.042862903
0.019292962 -0.081058875 -0.020215997 -0.018276852 0.03161142 -0.059833642 -0.02585899 -0.066529825
-0.05199572 -0.07021207 0.084744476 -0.06298013 -0.07788307 0.026971443 -0.05614095 0.031688694
0.018764574 -0.046263475 0.0711543 -0.078499496 0.06539756 -0.108588934 -0.032801848 -0.0736823
-0.054112297 -0.03753347 0.0443945 -0.04288342 -0.009593485 -0.076869465 0.04070191 -0.08269124
-0.053742886 -0.016664386 0.18421903 0.038303155 0.061209273 -0.099751815 -0.017312631 -0.0323107
-0.058109313 0.049261104 0.006572475 -0.001629969 0.00017732353 0.08667102 -0.0065150494 -0.08761674
00000000: dc71 df3d 3bae 863d f452 0f3e c585 123d
00000010: 428d 783d e035 333d 8bd3 8cbc ba39 613d
00000020: 82fa 0a3e bf5c 61bd a872 30bd c76b 883d
00000030: 0143 8d3d 3613 ef3c 90ef 753d 781d d83c
00000040: 22db b7bc 9330 813d 52b1 e0bc d42f 403d
00000050: 749f 5fbd 91a1 83bd c614 073d ddbb 59bc
00000060: 52be a9bd d058 9cbd 57b2 9cbd 7253 bdbb
00000070: e855 9f3d 1b65 0abc 02fe 683d d9ae d2bb
00000080: 1974 48bd ba50 4e3d 4658 b6bc 69a8 583c
00000090: 9d7c 023d 7219 ec3c ca42 a23c 100b dc3d
000000a0: 3f09 ad3d 4c1e 183d 1432 6e3d ec17 0e3d
000000b0: 6e4d ba3d 1f5d 3c3c f478 7bbc 5e73 713d
000000c0: e1ae 043e b7d0 85bd ccb6 9a3c 9cce 9bbd
000000d0: 9bba 57bc f84c abbd 2762 4d3c 69d0 b43c
000000e0: 2b51 c13c c6bf db3d 2c9f bb3d ddb2 b13d
000000f0: 72ed 92bd 263c b83c 35c4 c13d faf5 683d
00000100: f3ab 5abd efce d0bb 265b 8d3b 03de cb3c
00000110: a63f 2ebd 080b e5bc c67d 133d 0776 4a3c
00000120: e916 c93c ded3 8b3d 4432 b5bd 4bd5 09ba
00000130: e49c 0a3d c292 49bc 10a4 5c3d b022 87bb
00000140: 6775 b63c f4fa 963d 431f 72bd c7c5 f53c
00000150: ddbc 37bd f7b9 c53d d8df 593d 572c 793d
00000160: 6f62 593d 4da7 333d f8f2 6ebb cd34 eabc
00000170: e450 233d 6e27 503d 6772 dabd 4c00 7b3d
00000180: 6170 2a3c 737e bfbc 6c75 cabd 18a3 99ba
00000190: 268e 2abd fbd5 b83d 2ecb 1c3d dda2 a93d
000001a0: 51d4 693d 8b07 063c 349d 3e3d 8596 2bbd
000001b0: e612 96bd 3629 52bd e423 4e3d d82e d0bd
000001c0: cbed bfbd 49e8 10bc 4275 0c3d bd57 443d
000001d0: 21e4 fabc 4ecc b2bd 21cb 4a3d b234 c43c
000001e0: c479 b0bd c928 d0bd 0540 18bd ce53 173d
000001f0: f17e c63b 142d b5bd d170 b83c bb17 cb3d
00000200: 1eb1 8d3d 2bf7 9c3d 3492 dbbc 2094 753d
00000210: 2e10 c93d c35a 1b3c 8f7c 773c f532 253e
00000220: 4723 a03d 8160 fd3d 52c0 563e 89c7 453e
00000230: 8dbe 263e a536 173e aac9 91ba d65d d2bc
00000240: fa21 a7bc a454 51bd 8312 c03d 11b0 063d
00000250: 0f18 6fbc 8026 e4bc 9266 ea3c 43f9 98bc
00000260: 01fa 383e a525 e5bd 0c4c 06bd acb2 783d
00000270: ed8d c53d 7ec5 663d 7f5b 593d 4a4d 42bd
00000280: 5d40 f23c 9106 ea3c f607 c0bc 2104 883d
00000290: 4489 bebd 2b6f ee3c 334a 6b3d 6ba4 9fbd
000002a0: 93db ee3c e387 9d3d 7f48 dcbb 5667 15bd
000002b0: 1c31 b23d d6c6 47bd 379e c3bd 0d76 0e3e
000002c0: b698 92bd 192b 863a 72bf e43c 50ed ccbd
000002d0: 5a9a 513d 338b a8bc 1641 cb3c c14c c53c
000002e0: e8ad c03d 9ec3 383d 2688 d7bb fa08 95bd
000002f0: 0cc0 2c3d b566 b43c e53b 643e a245 89bb
00000300: 32a6 d73d 91f6 82bd 72c8 acbd 9b0f 783b
00000310: 6b8e 203d 02ea 353d 42ec b93c b056 393d
00000320: 8e43 953b 171e fa3c 0bc6 043d 777b 283d
00000330: 510f 33bd 5b01 7ebd dbce 80bd 0391 2fbd
00000340: 460c 9e3c 3202 a6bd 059c a5bc 56b9 95bc
00000350: fa7a 013d 1f14 75bd 3cd6 d3bc ca40 88bd
00000360: 77f9 54bd 59cb 8fbd 838e ad3d bafb 80bd
00000370: 2981 9fbd 37f3 dc3c 0ef4 65bd 01cc 013d
00000380: 2ab8 993c c57e 3dbd 58b9 913d 58c4 a0bd
00000390: 28ef 853d e063 debd 3b5b 06bd bfe6 96bd
000003a0: dba4 5dbd b2bc 19bd 02d7 353d 86a6 2fbd
000003b0: fe2d 1dbc bd6d 9dbd 0cb7 263d 065a a9bd
000003c0: 8021 5cbd c083 88bc eaa3 3c3e c5e3 1c3d
000003d0: 93b6 7a3d ae4a ccbd 38d3 8dbc 3958 04bd
000003e0: 0804 6ebd 03c6 493d eb5d d73b afa4 d5ba
000003f0: ecef 3939 9380 b13d 327c d5bb 6870 b3bd

model.decoder.blocks.1.layer.bias f4 [16]
0.056450147 -0.09359505 0.087402314 -0.06862178 0.046237975 0.08754212 0.033171136 0.031572897
-0.101513945 0.096381366 -0.07084939 -0.023128819 -0.021542367 0.025925605 0.12102239 0.1060317
00000000: 4538 673d c3ae bfbd fcff b23d 9389 8cbd
00000010: 0864 3d3d 4849 b33d 75de 073d 9552 013d
00000020: 8be6 cfbd 9863 c53d 7c19 91bd a678 bdbc
00000030: 9e79 b0bc ef61 d43c 96da f73d 2627 d93d

model.decoder.blocks.1.upsample.weight f4 [16, 16, 2, 2]
0.05256145 0.1329685 -0.04574742 0.10648669 0.0136810625 -0.010032452 0.07341603 -0.14837903
-0.095755324 -0.06610473 -0.0049064513 -0.09694099 -0.054669064 -0.01778218 0.034707114 0.027770966
-0.08449441 -0.07262 0.08577595 0.026105799 -0.07906675 0.025161874 -0.06244348 0.038740203
-0.1338082 0.0034175967 0.06242779 -0.08772717 -0.060236353 -0.08353042 0.07291951 0.09517537
0.10557936 0.061690833 0.07546825 0.021759368 -0.12298193 -0.074158825 0.059339352 0.049257763
0.1767767 -0.020647474 -0.028095916 -0.066204645 0.08502973 0.015953224 0.039896633 -0.22369869
-0.015237403 -0.04537536 -0.013665208 -0.07075623 -0.06251439 0.029060058 0.011460047 -0.09984901
0.060886487 -0.06366416 -0.091869555 -0.13931286 0.07279772 -0.14435364 -0.016546953 -0.08627528
-0.18774983 -0.21584423 -0.12839998 -0.0067699323 0.2232908 0.18807791 0.059109643 0.042062353
0.11781012 0.060475916 0.20650291 0.16372128 -0.09149051 -0.18856044 -0.0710263 -0.2351911
0.072861016 0.3295695 0.117071345 -0.056679934 0.07571311 0.019463051 0.19888532 0.17929986
0.2611371 0.0017816175 0.14121106 0.10346962 -0.15448466 -0.24050848 -0.06271953 -0.10159302
-0.27303308 -0.23763232 -0.16691343 -0.25753498 0.1642501 0.2720823 0.036692377 0.20734197
0.12471213 0.22917822 0.0038951202 0.13564178 0.10971446 0.11730102 0.0287842 0.2662097
0.13239324 0.07492449 0.18360744 0.061270457 -0.26827577 -0.2116372 -0.06131513 -0.16067053
-0.14490485 -0.008990281 -0.073610686 -0.053469956 0.038642265 0.018516092 0.15798931 0.11215967
0.19853371 0.06301497 0.25196394 -0.102721915 -0.19202481 0.06171503 -0.27090085 -0.12091428
-0.30307934 0.03872893 -0.10596723 0.019818934 0.10463919 0.034041747 0.16478525 0.09528216
-0.01478618 0.021685354 0.048043054 0.042988315 -0.4234548 -0.1977224 -0.10670154 -0.23786332
-0.09033393 0.1023944 -0.21543941 -0.11604286 0.059371084 0.19647738 0.075662225 0.25756046
0.19648038 -0.21658222 0.20188275 -0.10258081 -0.022797788 0.113735385 -0.052890744 -0.23863076
-0.5006581 -0.17169236 -0.39824194 -0.2939883 0.010510063 0.11972365 -0.12137634 0.07958267
0.038270988 0.023588937 0.06006829 -0.013787909 0.046732508 -0.051629305 -0.093490526 -0.032522637
0.028518748 0.121647716 0.12954353 0.2156556 -0.07706068 0.10543256 -0.296974 -0.14427029
0.13637343 0.0707415 0.0069147777 -0.10942626 -0.09776 -0.0033616682 0.042440616 -0.06054092
-0.064364426 -0.20014408 0.065372735 0.09365598 0.04148275 0.0050630197 0.030880824 -0.05421501
0.035125542 -0.17409159 0.012253732 -0.006679269 0.04274506 -0.033874586 0.080692664 0.12245349
0.046227958 0.075651586 -0.0046129054 0.09692475 -0.08234338 0.11734477 -0.031741798 -0.055826075
0.0754561 0.19250713 0.0059822467 0.06286703 0.048805274 -0.15297426 -0.11135378 -0.1172252
-0.059240673 0.08455883 0.111167386 0.09435002 -0.32664055 -0.11974144 -0.4324216 -0.19993576
-0.08166522 -0.12922686 0.0284955 -0.03370464 0.025894152 0.06312971 -0.0038985314 0.0015380933
0.045835886 0.14651844 -0.043545846 -0.16189882 -0.08595794 0.0021308074 0.093821056 0.013109601
00000000: ad4a 573d e528 083e a661 3bbd b215 da3d
00000010: 8926 603c 275f 24bc 255b 963d acf0 17be
00000020: 5e1b c4bd eb61 87bd 4cc6 a0bb ff88 c6bd
00000030: abec 5fbd efab 91bc 0c29 0e3d f07f e33c
00000040: 680b adbd cbb9 94bd 4dab af3d d4db d53c
00000050: c0ed a1bd 4620 ce3c bcc4 7fbd 0cae 1e3d
00000060: 0405 09be c2f9 5f3b 48b4 7f3d 4daa b3bd
00000070: 65ba 76bd ff11 abbd d356 953d 4eeb c23d
00000080: fe39 d83d 87af 7c3d 198f 9a3d b440 b23c
00000090: f3dd fbbd 95e0 97bd d20d 733d 82c2 493d
000000a0: f404 353e e424 a9bc 6829 e6bc 4d96 87bd
000000b0: 1124 ae3d 56b0 823c a76a 233d 4511 65be
000000c0: 4da6 79bc 83db 39bd 09e4 5fbc a4e8 90bd
000000d0: 8b07 80bd 5c0f ee3c ecc2 3b3c a37d ccbd
000000e0: 1c64 793d 5b62 82bd 1b26 bcbd 08a8 0ebe
000000f0: f916 953d 71d1 13be 7a8d 87bc 18b1 b0bd
00000100: 7e41 40be 4506 5dbe 497b 03be 4fd6 ddbb
00000110: 58a6 643e 7f97 403e f41c 723d 9349 2c3d
00000120: 6f46 f13d 98b5 773d 8075 533e 8da6 273e
00000130: 605f bbbd fd15 41be 3d76 91bd f0d5 70be
00000140: 2838 953d 55bd a83e 1ac3 ef3d 3829 68bd
00000150: 7a0f 9b3d fa70 9f3c 98a8 4b3e 629a 373e
00000160: c3b3 853e 2a85 e93a a299 103e e1e7 d33d
00000170: 3a31 1ebe db47 76be 1973 80bd 0010 d0bd
00000180: feca 8bbe e355 73be 5beb 2abe a0db 83be
00000190: 2e31 283e 5f4e 8b3e bf4a 163d 7451 543e
000001a0: 1369 ff3d b2ad 6a3e 4645 7f3b aee5 0a3e
000001b0: fab1 e03d 843b f03d d8cc eb3c a34c 883e
000001c0: 1892 073e 0372 993d 9703 3c3e bbf6 7a3d
000001d0: 715b 89be 6cb7 58be 9325 7bbd d186 24be
000001e0: f061 14be f94b 13bc 33c1 96bd 5003 5bbd
000001f0: 5a47 1e3d 0faf 973c f3c7 213e f8b3 e53d
00000200: 6c4c 4b3e fe0d 813d 6b01 813e de5f d2bd
00000210: 27a2 44be e6c8 7c3d 84b3 8abe e8a1 f7bd
00000220: 372d 9bbe 3aa2 1e3d 5905 d9bd 515b a23c
00000230: 124d d63d 5c6f 0b3d 77bd 283e 4b23 c33d
00000240: bc41 72bc 7ca5 b13c cbc8 443d 8414 303d
00000250: 11cf d8be be77 4abe 5686 dabd 7192 73be
00000260: ff00 b9bd 28b4 d13d 269c 5cbe e1a7 edbd
00000270: 182f 733d 5e31 493e ccf4 9a3d f7de 833e
00000280: 2732 493e bbc7 5dbe 5aba 4e3e e315 d2bd
00000290: 6dc2 babc 19ee e83d f7a3 58bd 9f5b 74be
000002a0: 212b 00bf 1fd0 2fbe 5ee6 cbbe a285 96be
000002b0: 6632 2c3c ac31 f53d 2994 f8bd 3dfc a23d
000002c0: 0ac2 1c3d 963d c13c 2b0a 763d afe6 61bc
000002d0: 966a 3f3d 4079 53bd f677 bfbd 7536 05bd
000002e0: 26a0 e93c 7022 f93d 0fa7 043e d2d4 5c3e
000002f0: fdd1 9dbd 07ed d73d fa0c 98be 97bb 13be
00000300: 7aa5 0b3e ebe0 903d 5c95 e23b e01a e0bd
00000310: 6536 c8bd 6f4f 5cbb 36d6 2d3d c1f9 77bd
00000320: 7fd1 83bd 92f2 4cbe 24e2 853d b5ce bf3d
00000330: d1e9 293d b0e7 a53b c8f9 fc3c 8f10 5ebd
00000340: cddf 0f3d 1145 32be e1c3 483c c5dd dabb
00000350: 7215 2f3d 14c0 0abd 3242 a53d e5c8 fa3d
00000360: 8759 3d3d 38ef 9a3d db27 97bb 7c80 c63d
00000370: a5a3 a8bd 7452 f03d b003 02bd e2a9 64bd
00000380: ba88 9a3d 9720 453e b906 c43b 6ec0 803d
00000390: 0ae8 473d 49a5 1cbe 730d e4bd c413 f0bd
000003a0: 59a6 72bd 2e2d ad3d baab e33d 953a c13d
000003b0: 6e3d a7be 003b f5bd 5d66 ddbe f6bb 4cbe
000003c0: 1840 a7bd 0c54 04be 656f e93c e00d 0abd
000003d0: f91f d43c 264a 813d 817e 7fbb d999 c93a
000003e0: 69be 3b3d ee08 163e 215d 32bd cec8 25be
000003f0: b70a b0bd 04a5 0b3b 4125 c03d a7c9 563c

model.decoder.blocks.1.upsample.bias f4 [16]
0.09763504 -0.14324683 -0.044465814 0.07516239 -0.10305225 -0.11912128 0.0019826216 0.13535759
0.085015215 -0.09138653 -0.008601116 0.022715451 -0.14521083 0.08452661 0.065957375 -0.018006263
00000000: e1f4 c73d 4caf 12be c921 36bd bdee 993d
00000010: 0f0d d3bd dcf5 f3bd dfee 013b 2e9b 0a3e
00000020: 751c ae3d dc28 bbbd b2eb 0cbc c115 ba3c
00000030: 26b2 14be 4a1c ad3d a914 873d df81 93bc

model.decoder.blocks.2.layer.weight f4 [1, 16, 3, 3]
0.063563086 0.08269423 0.0573255 0.018858971 0.07192114 0.04413443 0.07817004 0.11454339
-0.024092063 0.028521892 -0.06786611 0.04816753 -0.0727414 -0.097779706 -0.052374028 0.008462948
-0.101931594 -0.06844631 0.04887101 -0.1004626 -0.04277378 0.027132694 -0.0867186 -0.113239065
-0.0538033 -0.121509045 -0.10386166 0.12423093 0.10942609 -0.031803265 0.106517516 -0.023554191
0.077760965 0.04390367 0.015375886 0.03637731 -0.087209746 -0.037516367 -0.03745434 -0.08745993
-0.033720195 0.022724971 -0.112775646 -0.022373766 -0.057592195 -0.012323155 -0.058744524 -0.108274095
0.022133688 0.0035800117 -0.024270874 0.0046115527 -0.0069850334 -0.090236716 -0.004595709 0.007886956
-0.050903104 0.08097718 -0.04882496 -0.068859294 -0.058462396 -0.01756613 0.067749105 0.05091876
-0.021704208 0.11279022 0.008018099 0.09961739 0.04277129 0.0384723 -0.015399256 0.017279178
-0.012217058 0.0826806 0.012832557 0.024378307 0.08175242 0.015760997 0.10265763 0.062164128
-0.025228798 -0.0013575153 0.011054548 -0.08571702 -0.06634837 -0.1184933 -0.083960466 -0.10243898
-0.039886337 0.018142445 -0.020126384 -0.05346615 -0.09665964 0.008418323 0.015099235 -0.074217685
0.055065166 -0.017697897 -0.10729136 0.12978303 -0.016123403 0.04563588 0.019954253 0.03501889
-0.045445368 -0.00023894708 -0.082231045 -0.07544391 0.038897477 -0.061994452 -0.07574118 -0.10425509
0.023623835 -0.035872478 -0.103288546 -0.04287168 -0.09899721 0.04945416 -0.02058035 0.0060213143
0.0351144 -0.019749107 0.00461996 0.01421088 0.07987521 0.0041709566 -0.0049294345 0.005962697
0.08644189 0.08217571 0.026068881 0.07846494 0.04141073 0.020927629 -0.014579562 -0.07886889
0.031897295 0.018719615 -0.07257047 -0.08562626 -0.07274319 0.021681763 -0.06024959 -0.0031477956
00000000: 5d2d 823d 985b a93d 25ce 6a3d 217e 9a3c
00000010: 644b 933d 4ec6 343d 9d17 a03d ba95 ea3d
00000020: b85c c5bc bea6 e93c 63fd 8abd 514b 453d
00000030: 71f9 94bd ba40 c8bd 2686 56bd 2da8 0a3c
00000040: 83c1 d0bd 942d 8cbd f82c 483d 56bf cdbd
00000050: 8f33 2fbd 6245 de3c 8599 b1bd e2e9 e7bd
00000060: d960 5cbd bcd9 f8bd 6cb5 d4bd c96c fe3d
00000070: c91a e03d 2444 02bd db25 da3d b8f4 c0bc
00000080: 2441 9f3d 56d4 333d 24eb 7b3c 6000 153d
00000090: 069b b2bd c3aa 19bd b969 19bd 311e b3bd
000000a0: 301e 0abd b829 ba3c ebf6 e6bd 3049 b7bc
000000b0: cbe5 6bbd 0fe7 49bc 199e 70bd cfbe ddbd
000000c0: b551 b53c a19e 6a3b b6d3 c6bc 821c 973b
000000d0: b5e2 e4bb 07ce b8bd 9a97 96bb 4b38 013c
000000e0: c67f 50bd 5dd7 a53d aefc 47bd 1a06 8dbd
000000f0: 4476 6fbd d8e6 8fbc 0bc0 8a3d 3190 503d
00000100: 06cd b1bc 8ffe e63d 585e 033c 3404 cc3d
00000110: f330 2f3d 2195 1d3d 294d 7cbc 108d 8d3c
00000120: 0e2a 48bc 7254 a93d a53f 523c 04b5 c73c
00000130: d06d a73d 351d 813c 2a3e d23d d09f 7e3d
00000140: a0ac cebc a8ee b1ba 231e 353c 688c afbd
00000150: a7e1 87bd 9eac f2bd 77f3 abbd 87cb d1bd
00000160: db5f 23bd 779f 943c 16e0 a4bc 52ff 5abd
00000170: 7df5 c5bd 01ed 093c c862 773c 71ff 97bd
00000180: 038c 613d 2efb 90bc 93bb dbbd d8e5 043e
00000190: 3a15 84bc b0ec 3a3d 1a77 a33c f86f 0f3d
000001a0: ec24 3abd de8d 7ab9 c068 a8bd 5682 9abd
000001b0: f652 1f3d e5ed 7dbd 311e 9bbd b183 d5bd
000001c0: c686 c13c 05ef 12bd f288 d3bd 379a 2fbd
000001d0: 0dbf cabd 7290 4a3d 1f98 a8bc 724e c53b
000001e0: 1ed4 0f3d e1c8 a1bc 0963 973b c0d4 683c
000001f0: 9d95 a33d 85ac 883b 1887 a1bb ba62 c33b
00000200: 7208 b13d bd4b a83d 688e d53c 3ab2 a03d
00000210: 4c9e 293d 6b70 ab3c 1ddf 6ebc 0386 a1bd
00000220: bda6 023d e159 993c d49f 94bd d25c afbd
00000230: 62fa 94bd f49d b13c 46c8 76bd 3f4b 4ebb
