03_Workshops/01_Convolutional_Neural_Networks_for_Image_Analysis/Code_Examples/lightning_logs/version_1/checkpoints/epoch=4-step=3445.ckpt (torch, 143767 bytes, 18 tensors)

model.0.blocks.0.layer.weight f4 [16, 3, 3, 3]
0.13834365 0.20820166 -0.055719234 0.030473216 -0.048331983 -0.07779987 0.043141365 -0.18732114
0.0860595 -0.23212607 -0.033625968 -0.0881356 -0.23423018 -0.11943362 -0.12719566 0.17799503
-0.016637692 0.031773925 0.039963417 -0.049623 0.04729087 0.11806905 0.044107664 -0.03050671
0.18215908 0.06444847 -0.0021953867 0.15398987 -0.018051619 -0.13313025 0.1744986 -0.10080312
-0.19686116 0.034253497 -0.15709217 -0.2749667 -0.078576475 0.024899913 -0.058082797 0.25547218
0.14732476 -0.012259701 0.13950813 0.008616653 -0.06290884 -0.15388536 0.01042038 0.035126958
0.17491142 -0.12366467 0.041434705 -0.17726578 -0.0071268845 -0.24343725 0.049323775 0.058308143
0.08579565 -0.040231463 -0.20766038 -0.20715488 0.15116724 -0.14234723 0.022598282 -0.06873546
0.04541711 0.12527093 0.24143764 -0.017963022 0.1739403 0.26787227 0.028294591 -0.1557568
0.040473394 -0.099999554 -0.13558725 0.029602375 0.045455586 0.16430068 -0.18335819 0.118791424
-0.0632764 -0.02213265 0.112238966 0.15324068 -0.046340268 -0.05087624 0.063669614 0.011442063
-0.145711 0.039335415 -0.10489976 -0.15958178 0.1053113 -0.18447255 0.12658899 0.14768665
0.04535763 0.16112025 0.27238917 -0.14883368 0.06193023 0.06678676 -0.06627688 -0.19872399
-0.02579218 0.019630887 0.0871555 -0.12015455 0.1431447 -0.10862083 0.035024717 0.16087332
0.10415551 0.032321237 -0.03046784 0.034304876 0.18936539 -0.024025783 0.0629591 0.017516216
0.14849083 -0.08262531 -0.3525227 -0.12509984 -0.20536496 -0.3171239 -0.020145155 0.14312811
0.12503722 -0.020579085 -0.12241526 0.023979925 -0.07880388 0.10848944 -0.15489206 0.048762713
0.16924775 0.23215471 -0.32178584 -0.055259462 -0.15220992 -0.004946415 -0.1393242 -0.20720182
-0.024607943 0.26717663 -0.007866592 -0.023440113 0.009751531 -0.027562317 -0.069065526 -0.072057225
-0.10666797 -0.17487279 -0.064359955 0.31786987 -0.1299807 -0.11345421 -0.051042072 -0.0012004997
-0.12611045 -0.22757247 0.016971242 0.09326617 0.09410095 0.11036608 0.06028237 0.13084011
-0.18280195 0.1749744 -0.1273132 -0.19600444 -0.15334147 0.09230277 -0.26303238 -0.10390433
0.050980657 -0.075183585 -0.045920197 -0.1870789 0.08384116 -0.080637805 -0.13062628 0.052285217
-0.16977802 0.20703253 0.1917973 -0.13690048 0.09983767 0.050911166 -0.18783423 -0.09301527
0.06481132 0.08896849 -0.18195178 -0.12610886 -0.14906225 0.08837619 0.13100357 -0.027869478
0.16815503 0.10271758 -0.038428634 0.022559276 0.09389758 0.07290714 -0.040066563 -0.21456298
-0.095481314 0.15586191 0.13780029 0.057114795 -0.074477404 0.06286879 0.13944103 0.09636336
-0.28608182 0.023191832 -0.21569346 -0.18064256 0.107610375 0.082412474 0.13540591 0.0117580155
0.1272996 -0.015796186 -0.10954783 -0.033258546 0.046969723 0.18910946 -0.10081607 -0.010021315
0.123482816 0.2242464 -0.1316995 0.117465094 -0.15874174 0.0014026958 -0.14064786 0.0028811288
0.06553376 -0.018795088 0.047343783 0.14347002 -0.11491926 0.039786305 0.07459128 0.1843984
-0.017980963 0.04274465 -0.18821491 -0.38008657 0.22426602 0.2851044 -0.24348202 0.3908497
00000000: f5a9 0d3e d132 553e da39 64bd f7a2 f93c
00000010: c2f7 45bd 8a55 9fbd 00b5 303d 1dd1 3fbe
00000020: f73f b03d 75b2 6dbe 62bb 09bd 7080 b4bd
00000030: 09da 6fbe 9d99 f4bd 943f 02be 5444 363e
00000040: c54b 88bc 6025 023d aeb0 233d 7d41 4bbd
00000050: 12b4 413d 30ce f13d 3daa 343d 35e9 f9bc
00000060: e987 3a3e 8ffd 833d 7ae0 0fbb 85af 1d3e
00000070: fde0 93bc 4c53 08be c3af 323e de71 cebd
00000080: f995 49be 654d 0c3d c5dc 20be 6fc8 8cbe
00000090: b4ec a0bd e7fa cb3c 3ae8 6dbd 40cd 823e
000000a0: 4ddc 163e eadc 48bc 38db 0e3e dd2c 0d3c
000000b0: 5ad6 80bd 2094 1dbe 3eba 2a3c 49e1 0f3d
000000c0: fb1b 333e e743 fdbd 70b7 293d 2985 35be
000000d0: a488 e9bb 9d47 79be ba07 4a3d 85d4 6e3d
000000e0: a1b5 af3d bfc9 24bd eca4 54be 6920 54be
000000f0: 96cb 1a3e 79c3 11be 0820 b93c 2dc5 8cbd
00000100: 4b07 3a3d 0647 003e 6e3b 773e 3027 93bc
00000110: 681d 323e 8e26 893e 0fca e73c b67e 1fbe
00000120: 6ec7 253d 91cc ccbd 62d7 0abe ae80 f23c
00000130: a32f 3a3d 703e 283e 40c2 3bbe eb48 f33d
00000140: 0f97 81bd 884f b5bc 8bdd e53d 20eb 1c3e
00000150: 4bcf 3dbd 9b63 50bd 3765 823d 7e77 3b3c
00000160: 4435 15be 2c1e 213d afd5 d6bd 6869 23be
00000170: 73ad d73d 5fe6 3cbe 8ba0 013e 2b3b 173e
00000180: ecc8 393d b5fc 243e 9876 8b3e db67 18be
00000190: 8eaa 7d3d 7fc7 883d 2cbc 87bd 4d7e 4bbe
000001a0: 1f4a d3bc f4d0 a03c 957e b23d 9713 f6bd
000001b0: 8694 123e 9974 debd 1476 0f3d fabb 243e
000001c0: 7c4f d53d 4663 043d b197 f9bc 4583 0c3d
000001d0: 00e9 413e b8d1 c4bc b3f0 803d 2b7e 8f3c
000001e0: fb0d 183e 7537 a9bd db7d b4be 2c1a 00be
000001f0: 314b 52be 105e a2be 7407 a5bc 2d90 123e
00000200: c209 003e 7895 a8bc dab4 fabd 8c71 c43c
00000210: ee63 a1bd b62f de3d 069c 1ebe 69bb 473d
00000220: 484f 2d3e f7b9 6d3e 1dc1 a4be bf57 62bd
00000230: ebdc 1bbe 8915 a2bb 01ab 0ebe b72c 54be
00000240: 9996 c9bc 60cb 883e e1e2 00bc 7b05 c0bc
00000250: e3c4 1f3c 5eca e1bc 3a72 8dbd bd92 93bd
00000260: bd74 dabd da11 33be 27cf 83bd d7bf a23e
00000270: a919 05be ae5a e8bd 7e11 51bd 165a 9dba
00000280: 1923 01be c208 69be 4607 8b3c 5502 bf3d
00000290: 00b8 c03d 9d07 e23d a5ea 763d f3fa 053e
000002a0: 6f30 3bbe 7d2c 333e 645e 02be 63b5 48be
000002b0: 8c05 1dbe 3c09 bd3d 2eac 86be cbcb d4bd
000002c0: 18d1 503d daf9 99bd d116 3cbd 9c91 3fbe
000002d0: eab4 ab3d 6f25 a5bd e5c2 05be 0629 563d
000002e0: 4ada 2dbe 5600 543e 8366 443e a42f 0cbe
000002f0: b177 cc3d 3a88 503d 9e57 40be ca7e bebd
00000300: ccbb 843d 1d35 b63d 9151 3abe ae22 01be
00000310: c6a3 18be 93fe b43d cd25 063e 884e e4bc
00000320: d530 2c3e 985d d23d 5867 1dbd 3bce b83c
00000330: 604d c03d 5750 953d d61c 24bd 66b6 5bbe
00000340: b58b c3bd 449a 1f3e 851b 0d3e 34f1 693d
00000350: 9c87 98bd 5ac1 803d a1c9 0e3e 275a c53d
00000360: 5179 92be ccfc bd3c bfde 5cbe 5dfa 38be
00000370: d462 dc3d dfc7 a83d d9a7 0a3e b1a4 403c
00000380: d45a 023e 0167 81bc 9d5a e0bd 1d3a 08bd
00000390: 5363 403d e9a5 413e a878 cebd 7130 24bc
000003a0: 8fe4 fc3d d9a0 653e 3cdc 06be 8a91 f03d
000003b0: 328d 22be a9da b73a fe05 10be 52d1 3c3b
000003c0: 9036 863d 28f8 99bc 8eeb 413d cee9 123e
000003d0: ca5a ebbd f7f6 223d 50c3 983d efd2 3c3e
000003e0: d04c 93bc 0415 2f3d 69bb 40be b59a c2be
000003f0: fea5 653e 34f9 913e 5a53 79be 741d c83e

model.0.blocks.0.layer.bias f4 [16]
0.09487468 -0.09507765 -0.11185607 0.085765116 0.17036384 0.21539024 0.021994181 -0.20842707
0.055033423 0.08952612 -0.16713475 0.11941492 0.12838258 0.15866351 -0.037867058 -0.06800092
00000000: a84d c23d 12b8 c2bd cc14 e5bd 9fa5 af3d
00000010: dc73 2e3e 428f 5c3e 242d b43c e86d 55be
00000020: ba6a 613d 7859 b73d 5f25 2bbe cf8f f43d
00000030: b976 033e b078 223e 7d1a 1bbd 1144 8bbd

model.0.blocks.1.layer.weight f4 [16, 16, 3, 3]
-0.18720551 -0.002874729 -0.06640426 -0.15251471 0.07027985 -0.07992195 -0.095644616 0.0757516
-0.0812648 0.051939785 -0.042564522 0.038805906 0.09295387 -0.0031877635 -0.10189985 -0.07836983
0.11105949 -0.06713919 0.050107066 0.074590884 -0.19862832 -0.030736929 0.031575356 -0.1850903
0.06917346 0.05857405 -0.08883753 0.22457004 -0.11283287 0.02321631 0.09914052 -0.14488107
-0.06560912 0.18681632 -0.12033957 -0.050941087 0.04333821 0.061394125 -0.11249797 0.040644895
0.06266422 0.017640166 -0.072229564 0.149878 -0.03721665 -0.10873731 -0.07364901 -0.04914628
0.044641547 -0.0023925519 0.004892698 -0.21875846 -0.10672623 -0.032225717 0.024673948 -0.109637745
-0.056462485 -0.074188106 -0.16263272 0.06427811 0.0036467048 -0.11291659 0.02371381 0.04279034
0.04608386 -0.1315885 0.07508283 0.060898036 -0.14582214 0.105293505 0.13268067 -0.1309632
-0.22349814 0.05863428 -0.08971693 -0.02366981 0.14547472 -0.085360825 0.030287435 0.09618342
-0.07596362 -0.10465361 0.014817595 -0.1123892 -0.12342829 0.0024392426 -0.07832616 -0.10827917
-0.048621926 -0.028606208 -0.17437279 -0.5185295 0.009938726 -0.092867516 -0.3648233 -0.0675201
0.00055386993 -0.014496171 -0.051199306 -0.09381907 0.046997424 -0.06942304 -0.20865537 0.040872864
-0.13086568 -0.19624914 -0.024529813 -0.043558717 -0.090352416 -0.12942517 -0.044924155 0.0015686027
-0.06421819 -0.077225626 -0.06259782 -0.13678595 -0.08663872 -0.12780252 0.047938854 -0.106022514
-0.16955473 -0.12226545 -0.055625863 -0.3156128 -0.25179732 -0.08604905 -0.13752007 0.15180683
-0.068282574 -0.065949805 0.13212068 -0.04503227 -0.059850533 0.14773661 -0.108435534 0.11338911
-0.06611872 -0.054603357 0.03231846 0.05285891 -0.030093621 0.15498401 -0.007469328 0.043123703
-0.13541874 0.10942377 -0.06905141 -0.09588499 -0.017439907 -0.06859546 0.010414731 -0.09357693
-0.017091837 0.0071721436 -0.063122205 -0.03644499 -0.047465622 0.0050267084 -0.016175594 0.043382507
0.036171257 0.10496628 -0.18662944 -0.14349134 0.13019659 -0.1920666 -0.2239855 0.036556836
-0.09543221 -0.1770969 -0.04023565 -0.1505652 0.012609639 0.07783153 -0.0942473 0.07881796
0.04993278 -0.17431714 0.029796591 0.055691496 -0.08876505 -0.12993091 -0.14727004 -0.13684638
-0.061566565 -0.14746672 -0.11702366 -0.29303423 -0.11202686 -0.00076480716 -0.105903715 -0.2410966
-0.07245169 -0.1273672 -0.1697934 0.030404782 -0.053730518 -0.11139967 -0.17421053 0.12838258
0.12476837 -0.081828065 0.07412954 0.073199816 -0.17917177 0.07939206 0.08828939 -0.16095315
-0.002467065 0.12621547 -0.13563523 -0.12938426 -0.0559162 -0.077674694 -0.0419651 -0.035564505
-0.10972343 0.024909992 -0.23701505 -0.022549728 -0.07181282 -0.31512243 -0.14222759 -0.18532018
-0.08855117 0.021796267 0.09124773 -0.1649062 -0.09096352 -0.048129555 -0.13576204 -0.013155162
0.040041916 -0.092808776 -0.089213714 0.108218424 -0.0057532587 -0.10222091 0.07560107 0.012889922
-0.07839057 0.091309994 0.10581323 -0.069513544 0.13388562 -0.06063477 -0.017447114 0.09399617
0.023668237 0.011178388 0.013130061 0.025235781 -0.08273631 0.00917109 -0.12191477 -0.151422
00000000: cdb2 3fbe f365 3cbb f5fe 87bd d12c 1cbe
00000010: e2ee 8f3d 1fae a3bd 53e1 c3bd a823 9b3d
00000020: 296e a6bd d0be 543d 2358 2ebd f1f2 1e3d
00000030: 995e be3d cce9 50bb deb0 d0bd 5d80 a0bd
00000040: 2873 e33d 4680 89bd 113d 4d3d 1bc3 983d
00000050: 3965 4bbe 03cc fbbc 2955 013d 5088 3dbe
00000060: d1aa 8d3d 58eb 6f3d 73f0 b5bd b0f5 653e
00000070: eb14 e7bd 2230 be3c 2f0a cb3d b45b 14be
00000080: 135e 86bd c74c 3f3e 9874 f6bd 9aa7 50bd
00000090: 6883 313d 6878 7b3d 5665 e6bd 437b 263d
000000a0: 1956 803d 1c82 903c 18ed 93bd 9e79 193e
000000b0: 7c70 18bd abb1 debd 4bd5 96bd 9c4d 49bd
000000c0: 0eda 363d 5ccc 1cbb ed52 a03b 3802 60be
000000d0: 4893 dabd 1dff 03bd 0521 ca3c c189 e0bd
000000e0: 3545 67bd efef 97bd 3189 26be 3ea4 833d
000000f0: 8efd 6e3b d040 e7bd 7743 c23c ec44 2f3d
00000100: 6ec2 3c3d 23bf 06be 07c5 993d 3870 793d
00000110: 6652 15be 1fa4 d73d 71dd 073e 381b 06be
00000120: b2dc 64be 802a 703d 83bd b7bd 30e7 c1bc
00000130: 53f7 143e a8d1 aebd 5b1d f83c d0fb c43d
00000140: d092 9bbd a254 d6bd 7fc5 723c 4f2c e6bd
00000150: f9c7 fcbd b3db 1f3b 7769 a0bd 78c1 ddbd
00000160: c927 47bd 9157 eabc c88e 32be 59be 04bf
00000170: 0ad6 223c 5331 bebd 1fca babe fa47 8abd
00000180: 9531 113a 5981 6dbc 5db6 51bd 3624 c0bd
00000190: 5f80 403d ab2d 8ebd c1a9 55be 4e6a 273d
000001a0: a701 06be 89f5 48be bff2 c8bc a06a 32bd
000001b0: b00a b9bd 0888 04be 6402 38bd 9399 cd3a
000001c0: d484 83bd 7828 9ebd 4933 80bd 9e11 0cbe
000001d0: a46f b1bd aade 02be 885b 443d 5522 d9bd
000001e0: c19f 2dbe 4f66 fabd f2d7 63bd 0098 a1be
000001f0: 94eb 80be 7c3a b0bd 10d2 0cbe 4073 1b3e
00000200: bcd7 8bbd b110 87bd a54a 073e c273 38bd
00000210: d525 75bd 4448 173e 7313 debd 8d38 e83d
00000220: 4069 87bd c5a7 5fbd 5d60 043d 9682 583d
00000230: e686 f6bc 21b4 1e3e 44c1 f4bb 7ba2 303d
00000240: 36ab 0abe 9219 e03d d36a 8dbd 5a5f c4bd
00000250: 23de 8ebc c77b 8cbd 8ca2 2a3c 43a5 bfbd
00000260: 2e04 8cbc 4d04 eb3b 3746 81bd 5847 15bd
00000270: 506b 42bd 16b7 a43b ae82 84bc dbb1 313d
00000280: 5028 143d 90f8 d63d ca1b 3fbe 65ef 12be
00000290: 4152 053e 1bad 44be 745c 65be 9fbc 153d
000002a0: f671 c3bd e458 35be 23ce 24bd c42d 1abe
000002b0: a998 4e3c 2366 9f3d ba04 c1bd 506b a13d
000002c0: 5186 4c3d 3180 32be fb17 f43c c41c 643d
000002d0: 73ca b5bd 9c0c 05be f5cd 16be 7521 0cbe
000002e0: 392d 7cbd 8401 17be 1aaa efbd 9508 96be
000002f0: 576e e5bd 577d 48ba 0ce4 d8bd 07e2 76be
00000300: 8d61 94bd 8c6c 02be 52de 2dbe 7313 f93c
00000310: 8814 5cbd 8325 e4bd 3f64 32be b976 033e
00000320: 8f86 ff3d 7995 a7bd 3ad1 973d c9e9 953d
00000330: ce78 37be 4e98 a23d 11d1 b43d e7d0 24be
00000340: 7bae 21bb a13e 013e f6e3 0abe 4f7d 04be
00000350: 6308 65bd e913 9fbd 99e3 2bbd 16ac 11bd
00000360: adb6 e0bd 0a10 cc3c 13b4 72be 35ba b8bc
00000370: 9a12 93bd ba57 a1be 1ca4 11be 93c4 3dbe
00000380: 515a b5bd 168e b23c 17e0 ba3d 2cdd 28be
00000390: 154b babd 7f23 45bd 3405 0bbe c088 57bc
000003a0: fe02 243d 8712 bebd aeb5 b6bd 9fa1 dd3d
000003b0: d585 bcbb 3259 d1bd bcd4 9a3d 4030 533c
000003c0: 3c8b a0bd bc00 bb3d 9bb4 d83d 1e5d 8ebd
000003d0: 5019 093e 2a5c 78bd 40ed 8ebc 1081 c03d
000003e0: e4e3 c13c 8f25 373c 781f 573c 45bb ce3c
000003f0: a871 a9bd 5742 163c 73ae f9bd 5e0e 1bbe

model.0.blocks.1.layer.bias f4 [16]
-0.0071932804 0.071324304 0.056241505 0.015311222 0.0045680846 -0.08560929 0.007173385 -0.0781788
-0.015141756 -0.06727805 -0.07410035 -0.0026677721 0.042373735 -0.04107924 -0.08835692 -0.032386046
00000000: 9cb5 ebbb 7a12 923d 7e5d 663d ebdb 7a3c
00000010: dfaf 953b ec53 afbd b70e eb3b 351c a0bd
00000020: 2115 78bc 13c9 89bd edc1 97bd cad5 2ebb
00000030: 1590 2d3d b542 28bd 79f4 b4bd 3ba7 04bd

model.0.blocks.2.layer.weight f4 [32, 16, 3, 3]
-0.0057941596 -0.014994488 -0.06944064 -0.089808196 -0.12573305 -0.11142211 0.061091427 -0.16169171
-0.10643107 0.1339042 0.14342439 -0.09168459 -0.010305441 0.049878478 -0.086368866 -0.011249759
-0.037043367 -0.00034498362 0.012559388 -0.10626008 -0.029655682 0.07565362 0.055435915 -0.060558088
0.115295924 0.08900194 -0.05954386 0.040836137 0.0027639365 0.08330766 0.021204362 -0.005001445
0.03218863 -0.008125311 -0.03262103 -0.06446151 -0.030646686 -0.13472272 -0.2484372 -0.10796052
-0.1217881 -0.20454572 -0.13954608 -0.13994972 -0.15991567 -0.21102992 -0.0228048 -0.070147924
-0.10272351 0.027572773 0.004460377 -0.117104426 -0.03874727 0.053932887 0.124529004 0.08985131
-0.023866316 0.028667167 -0.00073174766 0.042515043 -0.08198473 -0.0674571 -0.09020777 -0.11385482
-0.10477244 -0.21413322 0.03440712 0.018306497 0.09439587 -0.011878135 -0.11372672 -0.104202196
-0.12130804 -0.21524194 -0.15111439 -0.15970951 -0.20518406 -0.087227106 -0.122891195 -0.12389845
-0.094182104 -0.22784065 -0.23470716 -0.19515236 -0.013987151 -0.24505985 -0.24315651 -0.054045808
-0.009185529 -0.24951513 0.012484353 0.0746893 0.077634156 0.014418149 -0.03831116 -0.016385317
0.04567889 0.008207354 0.027334344 0.057245366 -0.05156746 -0.020461112 -0.07684987 -0.06607657
0.046173148 -0.015062375 0.010701451 -0.00066044275 -0.005403134 -0.0028046642 0.0024884408 -0.05887505
-0.014520011 -0.098170936 -0.042423233 -0.035396636 -0.10154089 0.06424623 -0.016068097 -0.03211116
0.14830086 0.06777 -0.032973588 0.081397064 -0.07236837 -0.020775426 -0.00873867 -0.0067466255
-0.15034872 0.08359125 -0.037035305 -0.00029150033 -0.098059595 -0.13745312 -0.008230013 -0.088194616
-0.11214371 0.017813286 0.015400277 0.004825527 -0.009122908 -0.07317018 0.048206735 -0.005561848
0.13389187 -0.022432156 -0.12112682 0.034285393 -0.0969465 -0.07409265 0.035734978 -0.048850384
-0.044985466 0.061851133 0.021548562 0.08940433 0.018696161 -0.12882464 0.02938743 -0.17130096
-0.028871391 0.056415062 -0.023331149 0.0035955799 -0.15630461 -0.033114735 -0.091224246 0.0642548
-0.06489373 -0.10340914 -0.028958084 0.016786335 0.009186675 -0.094095066 -0.052435365 0.060740992
-0.021256983 -0.013279215 -0.0006627311 0.13683426 -0.07179623 0.10517043 0.024120266 -0.045864023
-0.010707038 -0.010212031 -0.11912617 -0.033573393 -0.07045881 0.22678214 0.25640512 0.24975954
0.20507692 0.28492218 0.29196522 0.36278996 0.469702 0.5325085 0.3335763 0.16071376
0.015748367 0.36993748 0.18190254 0.23731785 0.24163945 0.25559354 0.2282061 -0.1479806
-0.11447012 0.018679276 -0.013247701 0.035013676 0.023008415 -0.032215565 -0.000825248 -0.016498541
0.41423827 0.29632303 0.14564283 0.32606164 0.36355153 0.34556064 0.49403274 0.47379383
0.52668524 0.029079724 0.094326764 -0.05028785 -0.10773085 -0.039219975 -0.14869243 0.0412211
0.09239984 -0.06014571 -0.04884307 0.08167398 -0.05768091 0.07722354 0.052301846 0.020435102
-0.07430802 0.06374113 0.03388302 0.052965812 -0.02737441 0.027857948 0.005607007 -0.04623288
-0.019840699 -0.033296525 -0.076892056 0.009379608 0.08951431 0.023083003 -0.14937523 -0.052194286
00000000: efdc bdbb 71ab 75bc e536 8ebd 5ced b7bd
00000010: 2ac0 00be 4631 e4bd 013b 7a3d 8392 25be
00000020: 88f8 d9bd 2f1e 093e d8dd 123e 21c5 bbbd
00000030: 27d8 28bc 604d 4c3d 29e2 b0bd e950 38bc
00000040: c9ba 17bd ebde b4b9 e4c5 4d3c e39e d9bd
00000050: 79f0 f2bc 49f0 9a3d c510 633d c20b 78bd
00000060: 4520 ec3d a646 b63d 43e4 73bd cb43 273d
00000070: 2923 353b 359d aa3d c5b4 ad3c 29e3 a3bb
00000080: 3ad8 033d 0620 05bc a19d 05bd 6504 84bd
00000090: c20e fbbc c1f4 09be 5266 7ebe 681a ddbd
000000a0: 0a6c f9bd 6f74 51be 2be5 0ebe fb4e 0fbe
000000b0: efc0 23be 3a18 58be 22d1 babc b7a9 8fbd
000000c0: b460 d2bd 4ce0 e13c 5b28 923b 72d4 efbd
000000d0: 75b5 1ebd bbe8 5c3d 1009 ff3d f703 b83d
000000e0: 4b83 c3bc 68d7 ea3c c1d2 3fba 4124 2e3d
000000f0: 9ce7 a7bd f326 8abd dabe b8bd b72c e9bd
00000100: ef92 d6bd bd45 5bbe 7bee 0c3d 82f7 953c
00000110: 9f52 c13d 829c 42bc 8ee9 e8bd f667 d5bd
00000120: 5a70 f8bd 6268 5cbe bbbd 1abe e48a 23be
00000130: c51b 52be 20a4 b2bd 61ae fbbd 78be fdbd
00000140: 8ce2 c0bd 0f4f 69be 1357 70be 05d6 47be
00000150: 5d2a 65bc f8f0 7abe 05fe 78be 235f 5dbd
00000160: e77e 16bc e580 7fbe 2c8b 4c3c b4f6 983d
00000170: a8fe 9e3d 1a3a 6c3c 2aec 1cbd 803a 86bc
00000180: ca19 3b3d 2378 063c 46ec df3c 1e7a 6a3d
00000190: 6738 53bd 109e a7bc 7763 9dbd 2753 87bd
000001a0: 0e20 3d3d 2ec8 76bc 2455 2f3c 9021 2dba
000001b0: c60c b1bb 75ce 37bb 1c15 233b f726 71bd
000001c0: 57e5 6dbc d80d c9bd fcc3 2dbd 10fc 10bd
000001d0: acf4 cfbd 8793 833d 3ea1 83bc fe86 03bd
000001e0: 2edc 173e ffca 8a3d 500f 07bd 81b3 a63d
000001f0: de35 94bd 3a31 aabc a32c 0fbc cc12 ddbb
00000200: 04f5 19be e431 ab3d 55b2 17bd 83d4 98b9
00000210: 78d3 c8bd 83c0 0cbe 2dd7 06bc 619f b4bd
00000220: 9aab e5bd 2bed 913c 7251 7c3c 741f 9e3b
00000230: 4078 15bc 3fda 95bd 6d74 453d 2a40 b6bb
00000240: f31a 093e a4c3 b7bc 5711 f8bd d76e 0c3d
00000250: e38b c6bd e3bd 97bd d75e 123d 5717 48bd
00000260: ae42 38bd 9d57 7d3d 9c86 b03c 9e19 b73d
00000270: b128 993c 9bea 03be e8bd f03c 8569 2fbe
00000280: b283 ecbc 7b13 673d f720 bfbc d2a3 6b3b
00000290: 510e 20be 51a3 07bd c7d3 babd 0598 833d
000002a0: 01e7 84bd 2cc8 d3bd 8139 edbc 7f83 893c
000002b0: b583 163c eab4 c0bd 77c6 56bd 8ccb 783d
000002c0: 2023 aebc 1191 59bc 22bb 2dba 481e 0c3e
000002d0: e709 93bd 9863 d73d dd97 c53c eadb 3bbd
000002e0: 936c 2fbc 5d50 27bc 6cf8 f3bd 4184 09bd
000002f0: b54c 90bd 9439 683e 8847 833e f7c0 7f3e
00000300: afff 513e 52e1 913e 777c 953e 9bbf b93e
00000310: c87c f03e 7a52 083f 83ca aa3e 2692 243e
00000320: b802 813c 7268 bd3e a944 3a3e 7303 733e
00000330: 5570 773e 28dd 823e dcae 693e 3a88 17be
00000340: 4f6f eabd 4805 993c e30c 59bc 806a 0f3d
00000350: 257c bc3c 78f4 03bd 7555 58ba f327 87bc
00000360: 0a17 d43e a7b7 973e 6523 153e 8df1 a63e
00000370: 6d23 ba3e 53ed b03e dcf1 fc3e 1b95 f23e
00000380: d8d4 063f 9a38 ee3c 642e c13d a2fa 4dbd
00000390: fea1 dcbd 20a5 20bd d442 18be 75d7 283d
000003a0: 213c bd3d 595b 76bd ac0f 48bd b044 a73d
000003b0: d142 6cbd 6027 9e3d 763a 563d 8467 a73c
000003c0: ce2e 98bd b68a 823d ecc8 0a3d aef2 583d
000003d0: 4c40 e0bc 5a36 e43c fcba b73b b05e 3dbd
000003e0: f688 a2bc f061 08bd 9579 9dbd edac 193c
000003f0: 4753 b73d 9118 bd3c d2f5 18be adc9 55bd

model.0.blocks.2.layer.bias f4 [32]
0.049136057 -0.058148902 -0.061487593 -0.018121142 0.036510814 0.06868285 -0.057786077 -0.056648668
-0.01171609 0.05995964 0.08624283 -0.065589026 0.05594396 -0.01841037 -0.0731153 -0.012382365
0.045080256 -0.030397816 -0.046095807 -0.040452484 0.071168356 -0.06262182 -0.024653113 0.040088266
-0.021655532 -0.014237948 -0.0647028 0.049703334 0.011965256 0.06412119 -0.07883733 -0.051560722
00000000: e442 493d 8b2d 6ebd 6ada 7bbd ca72 94bc
00000010: 5d8c 153d 98a9 8c3d 18b1 6cbd 6f08 68bd
00000020: d8f4 3fbc 3d98 753d 15a0 b03d 8a53 86bd
00000030: 7e25 653d 58d1 96bc 79bd 95bd 67df 4abc
00000040: 13a6 383d d704 f9bc f5ce 3cbd 81b1 25bd
00000050: b7c0 913d de3f 80bd 53f5 c9bc 9833 243d
00000060: f166 b1bc 4846 69bc e782 84bd b995 4b3d
00000070: ec09 443c f851 833d 7775 a1bd 5631 53bd

model.0.blocks.3.layer.weight f4 [32, 32, 3, 3]
-0.0053441976 -0.034678146 -0.027624112 -0.041411616 -0.06624446 0.018406304 -0.053372204 -0.031186406
-0.0053374493 0.25822887 0.18891934 0.2607946 0.21434674 0.22482762 0.27162674 0.25638282
0.2074698 0.18784262 0.26264176 0.19995667 0.16887103 0.2812175 0.111692354 0.15317325
0.23915668 0.17101659 0.13657022 -0.082875386 -0.01915761 -0.03478624 -0.055567633 -0.060248785
-0.130958 -0.07083645 -0.11311663 -0.124015786 -0.120070755 -0.10103029 -0.042711608 -0.078828186
-0.117899306 -0.11003932 -0.08987919 -0.11339647 -0.11422417 -0.11759074 -0.08609375 -0.02692395
-0.029749393 -0.0628207 -0.077319704 -0.091478236 -0.085202046 -0.12056763 0.1767996 0.27427524
0.2542039 0.2315005 0.19333008 0.23599571 0.22947392 0.21076074 0.23471573 0.24247156
0.25345019 0.18357295 0.22943047 0.22237867 0.21266904 0.19366583 0.17206165 0.22026606
-0.13861963 -0.138657 -0.13065359 -0.09232961 -0.0893364 -0.10142237 -0.17033009 -0.14958316
-0.09455746 -0.13966589 -0.058006376 -0.1436779 -0.11018703 -0.096841104 -0.04680214 -0.040772203
-0.11182749 -0.058065686 -0.14022736 -0.10033898 -0.15581898 -0.12845063 -0.124188416 -0.11260764
-0.16649048 -0.116994515 -0.06386956 0.03646169 0.053218804 0.04390895 -0.033111073 -0.03986345
-0.02593254 0.055132285 -0.030879136 0.03635161 0.031606436 0.038546808 0.04992827 0.013004117
0.013840603 0.04951485 0.04025791 0.060158674 0.060931347 -0.022034878 -0.0044989577 -0.048987392
-0.03456954 -0.058639295 -0.08499361 -0.085530736 -0.053019796 -0.08290329 0.27118653 0.20084852
0.262278 0.2957506 0.2945327 0.21537322 0.3139331 0.2981453 0.26260626 -0.06202154
-0.1409367 -0.15072544 -0.11634266 -0.08629645 -0.12560484 -0.09278663 -0.1281531 -0.05814093
0.08557999 -0.0026747878 0.037351944 0.014076757 -0.003747156 0.040666696 -0.0127492 0.05647894
0.07637088 -0.09225689 -0.15918635 -0.08075707 -0.052459724 -0.124231 -0.08938663 -0.06970505
-0.15053633 -0.17033446 0.19602263 0.25830424 0.21609275 0.15798835 0.23504874 0.22816685
0.18292281 0.17007393 0.1899019 0.32685798 0.26140153 0.27650216 0.33589494 0.23972501
0.3042521 0.33720437 0.2835944 0.2766702 0.024481706 -0.002142737 0.099065 0.0600574
0.06318204 0.07359552 0.09499492 0.019013798 0.056557514 0.10661571 0.20541997 0.18397433
0.14553273 0.19307391 0.112788156 0.1981421 0.18287106 0.13157378 0.35452002 0.35342544
0.33297744 0.279648 0.29544324 0.30599096 0.3246255 0.34238794 0.32579413 -0.08094311
-0.03386976 -0.02236972 -0.02937704 -0.05906778 -0.0694859 -0.10360407 -0.119024485 -0.111097
0.22325492 0.20332792 0.14038011 0.14960122 0.100893594 0.09432213 0.19053146 0.19681688
0.1955032 0.30127862 0.3050355 0.34373596 0.2748202 0.32825816 0.2408698 0.2838302
0.2778832 0.30507103 0.1784563 0.18139146 0.13282745 0.15073042 0.1643029 0.1561755
0.18146795 0.18994607 0.16267578 -0.07419011 -0.12070443 -0.09285103 -0.102496944 -0.08583602
-0.09211142 -0.04600127 -0.12474638 -0.00837338 0.06102094 0.08068957 0.034334287 0.082126684
00000000: 611e afbb ac0a 0ebd f64b e2bc 3a9f 29bd
00000010: 2dab 87bd d1c8 963c d09c 5abd a27a ffbc
00000020: c5e5 aebb 9336 843e 1274 413e df86 853e
00000030: b67d 5b3e 3639 663e a912 8b3e 9c44 833e
00000040: f772 543e d159 403e fb78 863e 71c1 4c3e
00000050: 87ec 2c3e bdfb 8f3e f6be e43d 73d9 1c3e
00000060: 7de5 743e f91e 2f3e 10d9 0b3e 92ba a9bd
00000070: 6cf0 9cbc 047c 0ebd e39a 63bd 6ec7 76bd
00000080: db19 06be b312 91bd b1a9 e7bd fdfb fdbd
00000090: a8e7 f5bd f8e8 cebd 5ef2 2ebd ac70 a1bd
000000a0: 3175 f1bd 4c5c e1bd 9512 b8bd 693c e8bd
000000b0: 5dee e9bd 6ad3 f0bd ec51 b0bd 9e8f dcbc
000000c0: 00b5 f3bc 24a8 80bd cb59 9ebd f158 bbbd
000000d0: 697e aebd 29ec f6bd f40a 353e ce6d 8c3e
000000e0: 0327 823e 780e 6d3e 52f8 453e dca8 713e
000000f0: 36fb 6a3e aad1 573e 5259 703e 774a 783e
00000100: 39c4 813e 8cfa 3b3e d2ef 6a3e 3cb7 633e
00000110: eac5 593e 5650 463e ee30 303e 6d8d 613e
00000120: 4ef2 0dbe 1afc 0dbe 0eca 05be 4e17 bdbd
00000130: 01f6 b6bd 88b6 cfbd 036b 2ebe 542c 19be
00000140: 57a7 c1bd 9304 0fbe 1898 6dbd 4d20 13be
00000150: bda9 e1bd a154 c6bd 9ab3 3fbd c100 27bd
00000160: d005 e5bd 49d6 6dbd c397 0fbe 867e cdbd
00000170: 038f 1fbe 9088 03be 7f56 febd d69e e6bd
00000180: 7b7c 2abe d29a efbd 0bce 82bd da58 153d
00000190: f6fb 593d dfd9 333d 7a9f 07bd db47 23bd
000001a0: 7a70 d4bc 64d2 613d 3ef6 fcbc 6de5 143d
000001b0: c075 013d 42e3 1d3d 9681 4c3d 380f 553c
000001c0: b2c3 623c 15d0 4a3d 7ae5 243d f168 763d
000001d0: 2693 793d 7d82 b4bc fe6b 93bb 01a7 48bd
000001e0: ca98 0dbd c22f 70bd 2111 aebd bd2a afbd
000001f0: 492b 59bd 33c9 a9bd f6d8 8a3e 3cab 4d3e
00000200: 4d49 863e 9f6c 973e fdcc 963e cc8a 5c3e
00000210: d7bb a03e 80a6 983e 5474 863e 4c0a 7ebd
00000220: b651 10be c557 1abe 0f45 eebd 31bc b0bd
00000230: 8e9e 00be eb06 bebd 913a 03be 2f25 6ebd
00000240: 9044 af3d 7e4b 2fbb 5afe 183d 33a2 663c
00000250: d892 75bb 1f92 263d 05e2 50bc 7656 673d
00000260: 5668 9c3d 2ef1 bcbd bf01 23be f663 a5bd
00000270: 02e0 56bd d36c febd 5610 b7bd 85c1 8ebd
00000280: 3226 1abe 286c 2ebe 28ba 483e 7440 843e
00000290: 6b47 5d3e b3c7 213e 9eb0 703e 92a4 693e
000002a0: 1e50 3b3e dc27 2e3e a575 423e ee59 a73e
000002b0: 6cd6 853e b191 8d3e 6cfa ab3e 797a 753e
000002c0: eec6 9b3e 0da6 ac3e 4933 913e b7a7 8d3e
000002d0: dc8d c83c 296d 0cbb 97e2 ca3d c0fe 753d
000002e0: 9665 813d 3fb9 963d b28c c23d d3c2 9b3c
000002f0: daa8 673d 5659 da3d 9d59 523e c463 3c3e
00000300: 8806 153e 2bb5 453e 7afd e63d c3e5 4a3e
00000310: 8d42 3b3e 47bb 063e a683 b53e 2ef4 b43e
00000320: 057c aa3e 062e 8f3e 5644 973e d9aa 9c3e
00000330: 5035 a63e 794d af3e 7dce a63e 80c5 a5bd
00000340: 04bb 0abd b440 b7bc 1ea8 f0bc 0ef1 71bd
00000350: a04e 8ebd 5f2e d4bd 1cc3 f3bd d386 e3bd
00000360: f09c 643e 3235 503e cebf 0f3e 1031 193e
00000370: 4da1 ce3d f62b c13d ae1a 433e 5d8a 493e
00000380: fe31 483e 3141 9a3e 9d2d 9c3e 29fe af3e
00000390: 3cb5 8c3e 7411 a83e 93a6 763e 3152 913e
000003a0: b546 8e3e 4532 9c3e 40bd 363e afbe 393e
000003b0: eb03 083e 1359 1a3e 053f 283e 78ec 1f3e
000003c0: bcd2 393e 3981 423e 7b94 263e fcf0 97bd
000003d0: e233 f7bd ae28 bebd ebe9 d1bd ccca afbd
000003e0: eaa4 bcbd d46b 3cbd 087b ffbd 8030 09bc
000003f0: 18f1 793d 9340 a53d 1ca2 0c3d 0932 a83d

model.0.blocks.3.layer.bias f4 [32]
-0.058385275 -0.019474527 0.004948268 -0.05878277 -0.065398015 -0.008377978 -0.043353938 0.04464576
-0.0025493908 -0.024621375 -0.048261028 -0.012723806 -0.0422985 -0.058779947 -0.04024925 -0.06967035
-0.03498243 0.009991647 -0.0159351 -0.011081247 0.0043291394 -0.009918128 0.0042125653 0.048962187
-0.0015655389 -0.0063127493 -0.009715324 0.016138153 -0.00620678 0.021385942 0.059865702 -0.054702915
00000000: 6625 6fbd 0b89 9fbc 1525 a23b 34c6 70bd
00000010: 65ef 85bd c943 09bc e693 31bd 79de 363d
00000020: ae13 27bb c4b2 c9bc 5bad 45bd 8377 50bc
00000030: 3141 2dbd 3ec3 70bd 66dc 24bd 54af 8ebd
00000040: bd49 0fbd 01b4 233c 548a 82bc 1e8e 35bc
00000050: 74db 8d3b a57f 22bc 8f09 8a3b 938c 483d
00000060: c532 cdba 2edb cebb 062d 1fbc 2934 843c
00000070: 3f62 cbbb 9231 af3c bd35 753d 2a10 60bd

model.2.blocks.0.layer.weight f4 [1, 32]
0.2971462 -0.29408494 0.3632767 0.31612158 0.35886353 -0.3578349 -0.34914345 -0.31919006
-0.32064804 0.33667898 0.3178624 0.32826632 0.3643153 0.25558582 0.3503024 0.34572798
0.37043017 -0.2862141 -0.28188562 0.22931837 0.38968697 0.31217426 -0.3751089 -0.39016655
0.35464743 -0.32415494 -0.35174647 -0.38897145 -0.21115023 0.3510143 -0.3055921 0.28403527
00000000: 8c23 983e 4d92 96be 67ff b93e b0da a13e
00000010: f6bc b73e 2336 b7be eec2 b2be e16c a3be
00000020: fb2b a4be 3061 ac3e dcbe a23e 8612 a83e
00000030: 8987 ba3e 25dc 823e d65a b33e 4203 b13e
00000040: 06a9 bd3e a88a 92be 5053 90be 6fd2 6a3e
00000050: 0d85 c73e 4ed5 9f3e 460e c0be e9c3 c7be
00000060: 5994 b53e a3f7 a5be 1d18 b4be 4427 c7be
00000070: c437 58be 25b8 b33e 9176 9cbe 126d 913e

square_avg f4 [16, 3, 3, 3]
0.001802024 0.001780804 0.0018761753 0.0017817408 0.0018292643 0.0019043735 0.0019455703 0.0019987884
0.0020184969 0.0011540746 0.0011421833 0.0011036284 0.0010335405 0.0010663483 0.0011219915 0.0011658232
0.0012817541 0.0013485674 0.0010857005 0.001095735 0.0012076778 0.0010927023 0.0011452364 0.0012309763
0.001253889 0.0013082467 0.0013272625 1.4128964e-05 9.473272e-06 1.9944348e-06 1.5662934e-05 6.2182644e-06
2.259382e-07 1.5626903e-05 5.8058235e-06 4.6595417e-08 8.291219e-06 6.274149e-06 1.316344e-06 9.587697e-06
4.2988218e-06 1.5770509e-07 9.101729e-06 3.7504321e-06 2.957999e-08 9.961415e-06 6.3467205e-06 1.2776991e-06
1.0792667e-05 4.1321537e-06 1.4537932e-07 1.039642e-05 3.7543703e-06 3.155311e-08 0.019054297 0.01924243
0.01959423 0.018732773 0.018829944 0.019126764 0.01836578 0.01869097 0.018658489 0.011011595
0.011091089 0.011313534 0.010835071 0.010854801 0.011007335 0.0106235305 0.010734827 0.010689913
0.011316509 0.011413989 0.011613 0.0111517655 0.011198249 0.011348575 0.010919991 0.011097548
0.011068996 0.16418707 0.16948327 0.17157787 0.16601545 0.17082416 0.17128335 0.16353805
0.17133777 0.1710947 0.093291745 0.09595066 0.09693741 0.094052 0.09625169 0.09635975
0.09263831 0.0967181 0.09634995 0.094890654 0.09787014 0.09908287 0.09585381 0.09863328
0.09891436 0.094448484 0.09898052 0.0988911 0.004518867 0.0045158784 0.004895964 0.004408156
0.0047651404 0.0050730156 0.0044480152 0.0049704937 0.0051632375 0.001773024 0.001863107 0.0023079508
0.0018256456 0.0021396165 0.0026342638 0.0020748274 0.0026333316 0.0029219305 0.0026365516 0.0026679484
0.0029090957 0.0026533774 0.0028151697 0.0030098513 0.002734081 0.0029481158 0.0031322483 3.398597e-05
9.614875e-05 0.00017781048 1.28494175e-05 2.404495e-05 0.000103880855 2.3420433e-05 1.5908665e-05 7.75316e-05
2.0048348e-05 5.877264e-05 0.00010837261 6.583656e-06 1.4228146e-05 6.232314e-05 1.1791693e-05 8.165614e-06
4.623768e-05 2.1464462e-05 6.0267914e-05 0.0001111685 7.932428e-06 1.5893249e-05 6.3945394e-05 1.3911143e-05
1.01939495e-05 4.846846e-05 0.049048312 0.046825144 0.046125975 0.047512908 0.045837015 0.04544558
0.04600439 0.045655284 0.045305792 0.025016276 0.02383785 0.023615584 0.024117194 0.023169063
0.023157492 0.023440871 0.023207512 0.023189064 0.024734164 0.023541791 0.023182983 0.023922337
0.022999251 0.022826621 0.023184849 0.02295365 0.022792209 0.00019775338 0.00021510707 0.000216307
0.0002024705 0.00019917439 0.00018842155 0.00020810965 0.00019216165 0.0001774058 0.000106320746 0.00011264666
0.0001074269 0.00010980498 0.000100823345 8.473578e-05 0.00011444128 9.624523e-05 7.626099e-05 0.00011148297
0.00012099588 0.000121547244 0.00011583015 0.000111424204 0.0001054185 0.00012061221 0.000109035536 9.991788e-05
0.0013113667 0.0006964958 0.0008295553 0.0011020361 0.0007076326 0.00085083814 0.001482584 0.0011776829
0.001177263 0.00048409723 0.00025040007 0.0004063908 0.00043402548 0.00030054647 0.00047530668 0.0008077217
0.0007114813 0.00079630705 0.000848128 0.0004928269 0.0005714037 0.0007399784 0.0005066303 0.0005926987
0.0009756794 0.0008029632 0.00080702413 0.00011288719 0.00011344527 9.5442476e-05 9.706108e-05 8.71898e-05
8.6934815e-05 8.626796e-05 5.3503638e-05 5.4156295e-05 6.9573645e-05 6.1692816e-05 4.674287e-05 5.6376168e-05
00000000: e431 ec3a de69 e93a ffe9 f53a 4d89 e93a
00000010: edc3 ef3a 2c9c f93a 8202 ff3a 1bfe 023b
00000020: c248 043b 5144 973a 50b5 953a a0a7 903a
00000030: dd77 873a b6c4 8b3a ca0f 933a 89ce 983a
00000040: 8800 a83a 6ac2 b03a 104e 8e3a c49e 8f3a
00000050: f14a 9e3a 0139 8f3a c21b 963a b658 a13a
00000060: 8859 a43a 7a79 ab3a 8af7 ad3a 700b 6d37
00000070: 65ef 1e37 21d8 0536 e563 8337 7ca6 d036
00000080: 6b99 7234 8516 8337 a5cf c236 3420 4833
00000090: 841a 0b37 8886 d236 3cad b035 d8da 2037
000000a0: 993e 9036 a555 2934 a1b3 1837 efaf 7b36
000000b0: 1617 fe32 f41f 2737 eaf5 d436 687d ab35
000000c0: 2712 3537 eea6 8a36 9019 1c34 496c 2e37
000000d0: 97f3 7b36 0385 0733 c217 9c3c 4da2 9d3c
000000e0: 1484 a03c 7975 993c 4141 9a3c bbaf 9c3c
000000f0: d573 963c ce1d 993c b0d9 983c fa69 343c
00000100: 66b7 353c 675c 393c 9585 313c 56d8 313c
00000110: 1c58 343c 510e 2e3c 21e1 2f3c bf24 2f3c
00000120: e168 393c bd01 3b3c 7444 3e3c e5b5 363c
00000130: dc78 373c 60ef 393c c3e9 323c 7dd2 353c
00000140: bc5a 353c a820 283e 068d 2d3e 1cb2 2f3e
00000150: f4ff 293e 87ec 2e3e e764 2f3e 8576 273e
00000160: 2b73 2f3e 7333 2f3e be0f bf3d c881 c43d
00000170: 1f87 c63d 569e c03d 9b1f c53d 4358 c53d
00000180: 27b9 bd3d 2414 c63d 1f53 c53d 0856 c23d
00000190: 2470 c83d f6eb ca3d 014f c43d 3f00 ca3d
000001a0: 9d93 ca3d 356e c13d 4db6 ca3d 6b87 ca3d
000001b0: 0113 943b eff9 933b 536e a03b 4b72 903b
000001c0: e524 9c3b 8a3b a63b a8c0 913b 86df a23b
000001d0: 6030 a93b d064 e83a 7f33 f43a fd40 173b
000001e0: 804a ef3a cf38 0c3b 9da3 2c3b d4f9 073b
000001f0: f993 2c3b dc7d 3f3b ffc9 2c3b bfd8 2e3b
00000200: 87a6 3e3b 49e4 2d3b b67e 383b ed40 453b
00000210: 442e 333b 2d35 413b 6846 4d3b 288c 0e38
00000220: 78a3 c938 a372 3a39 d493 5737 23b4 c937
00000230: 9cda d938 ff76 c437 9973 8537 7698 a238
00000240: 802d a837 a482 7638 1a46 e338 2de9 dc36
00000250: 6cb5 6e37 7bb3 8238 f0d4 4537 0cff 0837
00000260: 55ef 4138 950e b437 2ec8 7c38 2223 e938
00000270: 8515 0537 7e52 8537 6c1a 8638 e763 6937
00000280: ae06 2b37 9d4a 4b38 e2e6 483d b9cb 3f3d
00000290: 97ee 3c3d e59c 423d 98bf 3b3d 2525 3a3d
000002a0: 196f 3c3d 0901 3b3d 9192 393d efee cc3c
000002b0: 9847 c33c 7875 c13c 6c91 c53c 0ccd bd3c
000002c0: c8b4 bd3c 1207 c03c ae1d be3c fef6 bd3c
000002d0: 4d9f ca3c b7da c03c 3dea bd3c c7f8 c33c
000002e0: ed68 bc3c e5fe ba3c 27ee bd3c 4b09 bc3c
000002f0: bab6 ba3c 055c 4f39 5d8e 6139 78d0 6239
00000300: 434e 5439 78d9 5039 0693 4539 0238 5a39
00000310: 007f 4939 0206 3a39 84f8 de38 b73c ec38
00000320: 614a e138 1a47 e638 1f71 d338 2db4 b138
00000330: 3200 f038 44d7 c938 4fee 9f38 f7cb e938
00000340: 2bbf fd38 2ee7 fe38 d7e9 f238 6aac e938
00000350: 2014 dd38 30f1 fc38 02aa e438 018b d138
00000360: 2ae2 ab3a 0b95 363a 8476 593a 3272 903a
00000370: 6b80 393a c80a 5f3a 4453 c23a 7b5c 9a3a
00000380: 644e 9a3a 6ece fd39 2148 8339 da10 d539
00000390: ea8d e339 aa92 9d39 9532 f939 49bd 533a
000003a0: b482 3a3a 43bf 503a e854 5e3a 0e31 013a
000003b0: 41ca 153a 1cfb 413a 62cf 043a 565f 1b3a
000003c0: bcc4 7f3a f37d 523a 798e 533a d9bd ec38
000003d0: 77e9 ed38 4a28 c838 458d cb38 abd9 b638
000003e0: c650 b638 c2ea b438 1869 6038 e125 6338
000003f0: 11e8 9138 1461 8138 c60d 4438 7375 6c38

square_avg f4 [16]
0.0033592235 3.4839224e-05 0.031222815 0.28587222 0.010948203 0.0011788867 0.07081856 0.00031685692
0.002205133 0.00045390477 0.4664416 0.004509995 0.004000779 0.18842098 0.004805362 0.00023335747
00000000: 6b26 5c3b 5520 1238 fdc6 ff3c d85d 923e
00000010: 1760 333c e084 9a3a 5209 913d d11f a639
00000020: fe83 103b 11fa ed39 6fd1 ee3e 95c8 933b
00000030: f718 833b 6ef1 403e 4c76 9d3b 6bb1 7439

square_avg f4 [16, 16, 3, 3]
3.2566102e-06 9.915868e-06 9.8466436e-11 2.8394977e-06 1.1125537e-05 9.006454e-11 2.8910208e-06 1.2169045e-05
3.872428e-10 3.556031e-10 4.628161e-06 1.726998e-12 8.116528e-11 5.2242617e-06 2.9280156e-13 8.872864e-09
6.4862684e-06 3.510262e-13 2.57049e-06 4.2933593e-06 1.7466972e-08 3.1513205e-06 4.321197e-06 1.6080353e-08
3.880902e-06 4.2709808e-06 1.40130565e-08 3.9196866e-06 2.8159968e-09 6.648949e-10 5.113779e-06 1.835015e-09
6.870311e-10 4.8463744e-06 7.0474143e-10 1.3488411e-09 5.787612e-07 9.981608e-06 1.055215e-10 6.922722e-07
1.1150972e-05 2.89036e-10 1.4372747e-06 1.3137773e-05 1.7289563e-10 4.7811173e-09 4.502474e-09 1.6026414e-14
1.8609438e-09 1.9379975e-09 4.6439435e-14 1.2079157e-08 6.069789e-10 3.6957172e-14 6.374864e-08 1.350893e-10
7.920224e-11 6.558545e-08 1.6596038e-10 7.2491335e-10 7.918947e-08 8.008114e-11 1.6961307e-09 5.572141e-08
8.134266e-09 4.71994e-13 4.973391e-08 7.1004504e-09 2.1239956e-13 4.966247e-08 5.2376956e-09 1.7683614e-13
1.3840117e-06 1.253556e-07 2.760248e-10 7.8179596e-07 5.3062593e-08 1.3387091e-11 3.2153903e-07 2.9981326e-08
7.7132745e-12 8.2160375e-07 8.307408e-05 3.7331466e-10 4.5664828e-07 0.00010809077 2.8127882e-11 2.2864665e-06
0.00013559495 1.1610496e-11 3.820497e-06 4.565531e-08 3.8026245e-11 3.3332817e-06 1.3246201e-09 6.7314876e-11
2.4205651e-06 3.885073e-09 1.0744352e-10 6.4144416e-07 1.4507355e-05 2.191034e-09 1.2814321e-07 1.3421159e-05
9.935235e-10 7.905201e-08 1.5282281e-05 4.6182452e-10 2.0953732e-06 2.4521262e-06 1.8330118e-10 2.51592e-06
1.7640958e-06 1.2649391e-10 3.1300394e-06 2.035858e-06 2.8336136e-10 3.9360856e-07 2.0694723e-07 1.18420005e-11
7.3701796e-07 3.9302319e-07 6.988786e-12 1.8225895e-06 7.2015e-07 1.8910984e-12 9.381526e-06 0.00013769283
5.9543287e-10 1.0327537e-05 0.000154823 6.844977e-10 1.796565e-05 0.000157411 7.9876566e-10 1.3332112e-13
1.4308693e-27 4.2404663e-30 2.3304525e-12 3.5093973e-29 1.1558789e-27 1.7154037e-11 4.3193628e-29 7.9229296e-28
2.792498e-07 3.9468975e-07 5.5290036e-07 2.551925e-07 2.9487953e-07 5.92612e-07 2.32056e-07 2.5041678e-07
7.1759314e-07 1.2754386e-15 0.0 1.060768e-09 2.3905639e-19 0.0 1.0544803e-09 0.0
0.0 1.1560805e-09 1.03052614e-07 8.234281e-08 3.7784835e-07 1.1875315e-07 9.3131746e-08 5.2158026e-07
1.5633712e-07 1.3841796e-07 7.7992263e-07 8.1663654e-07 2.1864398e-05 1.6547929e-05 8.862314e-07 2.6778944e-05
1.5090625e-05 9.714087e-07 3.070965e-05 1.3520444e-05 1.0998707e-08 1.325806e-08 1.3131077e-07 5.059576e-09
1.0434342e-09 1.3925855e-07 1.5472605e-09 4.196103e-10 1.4361589e-07 8.693462e-09 1.8718858e-07 1.5270927e-09
3.5725558e-09 2.6310303e-07 8.650668e-10 6.00586e-09 4.04631e-07 7.6765616e-10 5.3671156e-09 1.1646002e-06
6.919235e-07 8.307662e-09 1.6588307e-06 4.9105114e-07 8.332262e-09 1.8841982e-06 2.6146853e-07 4.649193e-12
1.7723878e-11 3.7613774e-09 1.135368e-12 6.2417645e-12 4.4196518e-09 1.4859909e-12 1.7987669e-11 5.3655094e-09
5.0986477e-09 4.0525133e-06 2.7915387e-06 5.666877e-09 3.7116563e-06 1.9753868e-06 5.5736393e-09 3.3397685e-06
1.7380415e-06 2.539657e-10 4.025015e-11 1.0510325e-08 4.657388e-12 1.3718228e-15 1.8468919e-08 7.3006746e-11
4.3372773e-13 2.9067396e-08 6.574044e-07 6.213558e-06 9.704869e-06 6.2803633e-07 7.0925043e-06 7.876947e-06
5.683632e-07 7.879862e-06 7.0017654e-06 8.420395e-09 6.616162e-08 3.6016916e-09 5.736468e-09 5.572479e-09
2.497997e-09 3.5905072e-09 8.7320856e-10 2.8690166e-09 1.0357118e-07 6.573124e-07 8.505424e-07 8.3186116e-08
00000000: 238c 5a36 545c 2637 ad87 d82e 338e 3e36
00000010: d1a7 3a37 d40d c62e 5c03 4236 a629 4c37
00000020: 94e3 d42f b07e c32f 9a4b 9b36 a90d f32b
00000030: fe7b b22e 114c af36 27d5 a42a 456f 1832
00000040: 9fa4 d936 359c c52a af80 2c36 ad0f 9036
00000050: 470a 9632 467b 5336 cdfe 9036 1221 8a32
00000060: b238 8236 724f 8f36 13be 7032 da85 8336
00000070: 8a83 4131 d2c3 3630 0797 ab36 da33 fc30
00000080: 84d9 3c30 0a9e a236 c5b7 4130 2162 b930
00000090: 2b5c 1b35 ae76 2737 530b e82e 95d4 3935
000000a0: 0f15 3b37 33e6 9e2f 62e8 c035 4e6a 5c37
000000b0: cb19 3e2f 2747 a431 2eb4 9a31 655a 9028
000000c0: 24c4 ff30 9d2d 0531 0625 5129 b284 4f32
000000d0: 58d8 2630 b870 2629 2fe6 8833 4288 142f
000000e0: e62a ae2e fcd7 8c33 b279 362f 3e43 4730
000000f0: df0e aa33 ad19 b02e 4b1d e930 5752 6f33
00000100: e1be 0b32 c1da 042b 039b 5533 39f8 f331
00000110: 0124 6f2a 774c 5533 42f7 b331 8c19 472a
00000120: 48c2 b935 7c99 0634 09bf 972f 9cdc 5135
00000130: f0e6 6333 1982 6b2d fd9f ac34 d1c4 0033
00000140: 80b1 072d 2e8c 5c35 0f38 ae38 5e3b cd2f
00000150: 4329 f534 caae e238 5c6a f72d 3271 1936
00000160: 7e2e 0e39 0741 4c2d d231 8036 8b16 4433
00000170: bf3d 272e 58b1 5f36 ed0d b630 e806 942e
00000180: fe70 2236 777d 8531 5345 ec2e b52f 2c35
00000190: 9e64 7337 1491 1631 bd97 0934 702b 6137
000001a0: 808c 8830 4dc3 a933 7332 8037 06e4 fd2f
000001b0: 3d9e 0c36 358f 2436 b28a 492f 2dd7 2836
000001c0: dfc5 ec35 df14 0b2f ab0d 5236 c69f 0836
000001d0: 91c7 9b2f 2651 d334 3935 5e34 a153 502d
000001e0: 7dd7 4535 b200 d334 63e5 f52c b39f f435
000001f0: 5550 4135 0013 052c 5965 1d37 a361 1039
00000200: ddab 2330 6f44 2d37 fc57 2239 3e27 3c30
00000210: f1b4 9637 b20e 2539 2390 5b30 321b 162a
00000220: f4ba e212 8503 ac0e b3fd 232c 95f2 3110
00000230: 0528 b712 75e3 962d 8904 5b10 7116 7b12
00000240: cdeb 9534 bfe5 d334 066b 1435 6401 8934
00000250: ef4f 9e34 fd13 1f35 112b 7934 0571 8634
00000260: a0a0 4035 61cf b726 0000 0000 75ca 9130
00000270: 2e1d 8d20 0000 0000 3aed 9030 0000 0000
00000280: 0000 0000 f7e3 9e30 c64d dd33 70d4 b033
00000290: 15db ca34 3c05 ff33 b8ff c733 b902 0c35
000002a0: 9fdd 2734 0aa0 1434 e05b 5135 d636 5b35
000002b0: 7069 b737 68d0 8a37 5ce5 6d35 58a3 e037
000002c0: be2d 7d37 5961 8235 3cce 0038 ddd5 6237
000002d0: d3f4 3c32 91c5 6332 6efe 0c34 80d8 ad31
000002e0: 9468 8f30 1987 1534 64a7 d430 e6ae e62f
000002f0: d634 1a34 405a 1532 01fe 4834 cce1 d130
00000300: 1181 7531 9b40 8d34 aac9 6d30 1a5c ce31
00000310: 103c d934 0003 5330 a669 b831 5c4f 9c35
00000320: 9fbc 3935 7cb9 0e32 fda4 de35 c7d0 0335
00000330: ad25 0f32 8fe4 fc35 f65f 8c34 3594 a32c
00000340: a0e6 9b2d 6d3d 8131 f1c9 9f2b d19c db2c
00000350: abdb 9731 7722 d12b a138 9e2d 855b b831
00000360: 2e30 af31 d3fa 8736 4556 3b36 61b6 c231
00000370: c515 7936 e390 0436 4082 bf31 c920 6036
00000380: a746 e935 7f9e 8b2f a405 312e e690 3432
00000390: 06de a32c 54b3 c526 95a5 9e32 258b a02e
000003a0: c12a f42a e1af f932 7d78 3035 0f7e d036
000003b0: 18d2 2237 5496 2835 26fc ed36 3b27 0437
000003c0: 9f91 1835 c033 0437 b5f0 ea36 4aa9 1032
000003d0: bc14 8e33 a181 7731 821a c531 0b78 bf31
000003e0: 3aa9 2b31 dfbc 7631 9706 7030 4628 4531
000003f0: dc6a de33 2a72 3035 d450 6435 0da4 b233

square_avg f4 [16]
0.00026889294 0.00016626265 0.0010968245 0.0009825891 0.00081551564 0.07451353 3.5490346 0.000111216286
0.24573913 0.0005219752 4.950432e-20 0.0007079384 0.005008191 0.0009767538 0.009246326 1.0904232e-06
00000000: 33fa 8c39 ca56 2e39 53c3 8f3a 38ca 803a
00000010: 54c8 553a 8d9a 983d 6223 6340 ca3c e938
00000020: 0aa3 7b3e 2ad5 083a 0dc7 691f f194 393a
00000030: c01b a43b 6b06 803a e77d 173c a85a 9235

square_avg f4 [32, 16, 3, 3]
1.02299705e-11 8.6235215e-09 5.972013e-10 7.808357e-12 1.8451709e-09 6.08927e-10 5.0152027e-12 1.4424273e-09
6.7668338e-09 2.5494636e-08 1.0588615e-08 3.79539e-09 1.7629556e-08 9.511393e-09 4.017386e-09 1.1321436e-08
7.545254e-09 4.3420587e-09 2.6246916e-08 6.810924e-09 3.2865684e-09 6.348592e-08 1.9482197e-08 3.3785081e-09
7.293737e-08 4.5823608e-08 6.291431e-09 4.834053e-08 1.3099493e-07 1.5396174e-07 5.8026153e-08 1.446661e-07
1.6183863e-07 7.010611e-08 1.4889538e-07 1.4167077e-07 2.6342985e-07 3.8328196e-08 4.5489217e-09 5.4792224e-08
1.0357706e-08 4.4879824e-09 1.06940075e-08 6.2918164e-09 7.1510233e-09 3.583991e-09 2.608298e-09 4.3302957e-09
2.7259248e-09 2.5742775e-09 4.2501105e-09 2.1150963e-09 2.0184507e-09 3.646172e-09 4.3336783e-07 4.0782794e-07
3.6209764e-07 4.9152703e-07 4.5550354e-07 3.7500433e-07 4.5441283e-07 4.366173e-07 3.6487543e-07 9.953675e-10
9.716316e-10 9.2023805e-10 2.46926e-08 1.4416371e-08 1.3340275e-08 1.0941239e-08 2.1012618e-09 2.413659e-09
2.6469917e-09 1.7618342e-09 3.0771932e-09 1.9586395e-09 2.438305e-09 3.4019612e-09 2.1012623e-09 2.717135e-09
4.1334505e-09 1.5616378e-09 7.1677095e-11 3.7634945e-10 1.5405799e-07 5.727245e-10 5.066974e-11 7.5092464e-07
1.8720638e-07 9.0219265e-10 1.6006033e-28 2.4302699e-29 1.1621643e-28 9.525498e-28 1.0241952e-27 1.05380425e-27
1.4374983e-28 2.342071e-28 1.9010554e-28 2.0496993e-08 1.981869e-08 1.990849e-08 2.2029589e-08 2.2619464e-08
2.1034635e-08 2.1845654e-08 2.2392584e-08 2.115889e-08 2.0167192e-06 3.7119958e-06 2.829889e-06 2.6988134e-06
4.377097e-06 2.982767e-06 1.8133486e-06 2.6178266e-06 2.4231229e-06 2.2694781e-08 2.958078e-08 1.1636851e-08
1.1354843e-07 4.5550422e-08 1.328935e-08 1.3432506e-07 8.881752e-08 4.2825558e-08 3.532537e-07 2.2654683e-07
1.2599038e-07 2.7557542e-07 1.9116429e-07 1.3185246e-07 1.847242e-07 1.435818e-07 1.2419191e-07 3.81746e-11
3.6405087e-11 3.2766567e-11 4.2547074e-11 4.1681124e-11 3.5623785e-11 4.436625e-11 4.363911e-11 3.653933e-11
1.0744531e-10 3.748125e-08 8.258234e-08 1.0900007e-10 3.5908208e-08 8.144402e-08 1.05276406e-10 2.768541e-08
7.139089e-08 1.00770826e-07 8.75947e-09 1.9068345e-09 9.654724e-08 1.2168877e-08 1.6233257e-09 7.3433796e-08
1.3556808e-08 1.6092171e-09 4.91247e-07 7.358649e-08 8.079182e-09 1.0829708e-06 2.5538972e-07 2.6167047e-08
1.159152e-06 3.7901376e-07 5.980764e-08 4.915156e-07 4.6555985e-07 2.9969374e-07 4.842461e-07 5.4277706e-07
4.9512033e-07 3.7794038e-07 4.94908e-07 6.065089e-07 1.1226533e-06 8.5201543e-07 2.9625235e-07 6.1223574e-07
2.4502484e-07 1.02649665e-07 1.4374433e-07 7.814606e-08 3.694196e-08 3.7339547e-07 4.7941074e-07 2.9543332e-07
3.085348e-07 4.1306666e-07 3.7041522e-07 2.7242749e-07 3.5275391e-07 3.4320053e-07 1.2858519e-05 1.2939354e-05
1.1412284e-05 1.47005485e-05 1.4899375e-05 1.2412858e-05 1.2490673e-05 1.2509479e-05 1.089567e-05 2.9730125e-09
3.325816e-09 2.410961e-09 7.0488704e-09 1.3329421e-08 2.529575e-08 1.14458125e-07 1.9498917e-07 1.3085743e-07
3.1119933e-07 3.0956397e-07 2.0345578e-07 3.561524e-07 3.7177253e-07 2.7031905e-07 3.247641e-07 3.484042e-07
2.7732716e-07 2.9275682e-07 6.645225e-08 1.0250257e-09 1.7266474e-06 2.2146146e-07 1.7189528e-09 6.541051e-06
2.8271158e-06 2.402367e-07 5.595637e-23 5.297553e-23 4.840617e-23 0.0 8.234225e-23 2.8162236e-23
0.0 2.7561422e-22 6.1936076e-23 5.0567985e-07 5.1781444e-07 5.1748515e-07 5.656678e-07 5.9091064e-07
5.5101015e-07 5.200624e-07 5.370189e-07 5.2862526e-07 1.9512702e-06 1.4464537e-06 8.159462e-07 1.4602017e-06
00000000: b1f7 332d a626 1432 4e28 2430 b75d 092d
00000010: 2e99 fd30 6e61 2730 ee74 b02c e63e c630
00000020: b381 e831 4cff da32 39e9 3532 9a68 8231
00000030: ce6f 9732 8c67 2332 4d09 8a31 3480 4232
00000040: 61a0 0132 2731 9531 9475 e132 8505 ea31
00000050: ecd9 6131 c155 8833 ce59 a732 582b 6831
00000060: bea1 9c33 97cf 4433 032c d831 fa9e 4f33
00000070: 9da7 0c34 ae50 2534 6e38 7933 8455 1b34
00000080: ddc5 2d34 3e8d 9633 0de0 1f34 2a1e 1834
00000090: 866d 8d34 4c9e 2433 bd4c 9c31 b054 6b33
000000a0: acf1 3132 b634 9a31 beb8 3732 672f d831
000000b0: 11b5 f531 3d4a 7631 aa3d 3331 afc9 9431
000000c0: fa52 3b31 2be7 3031 5e08 9231 2b59 1131
000000d0: f6b4 0a31 2390 7a31 9fa9 e834 72f3 da34
000000e0: 5266 c234 7bf1 0335 ee8b f434 3454 c934
000000f0: 06f6 f334 3a68 ea34 19e4 c334 61cd 8830
00000100: 3f8a 8530 fff3 7c30 9a1b d432 dfab 7732
00000110: 262f 6532 14f8 3b32 ca65 1031 8add 2531
00000120: 5fe6 3531 0825 f230 8e76 5331 c098 0631
00000130: 1d8f 2731 efc7 6931 cc65 1031 58b8 3a31
00000140: 3706 8e31 3fa1 d630 9e9e 9d2e 7ae6 ce2f
00000150: 236b 2534 e76d 1d30 0ed9 5e2e 2693 4935
00000160: e602 4934 2afe 7730 8ce6 4a11 6a75 f60f
00000170: 6352 1311 03f0 9612 4b4a a212 61fb a612
00000180: 7d39 3611 4672 9411 c6fc 7011 5d11 b032
00000190: c33d aa32 3c03 ab32 943b bd32 ba4c c232
000001a0: a7af b432 1aa7 bb32 d059 c032 e4c0 b532
000001b0: f956 0736 9a1b 7936 1fe9 3d36 431d 3536
000001c0: fade 9236 8c2b 4836 2f62 f335 ebad 2f36
000001d0: ef9c 2236 5af2 c232 d318 fe32 69eb 4732
000001e0: e9d7 f333 38a3 4333 2e4f 6432 fe3a 1034
000001f0: f3bb be33 33ef 3733 d2a6 bd34 b840 7334
00000200: f947 0734 ccf2 9334 d742 4d34 5493 0d34
00000210: 9a58 4634 772b 1a34 9d59 0534 c7e4 272e
00000220: 7c1c 202e e01b 102e bf1f 3b2e c650 372e
00000230: d1ac 1c2e f51f 432e 45ed 3f2e a1b3 202e
00000240: 5546 ec2e 12fb 2033 1f58 b133 96b1 ef2e
00000250: 7e39 1a33 53e6 ae33 5981 e72e dcd0 ed32
00000260: 8f4f 9933 5967 d833 8e7c 1632 6309 0331
00000270: 6855 cf33 490f 5132 b21b df30 a8b2 9d33
00000280: 79e7 6832 4b2b dd30 3dde 0335 9a06 9e33
00000290: 9ecc 0a32 985a 9135 7f1c 8934 f2c5 e032
000002a0: 2994 9b35 417b cb34 996f 8033 b2f0 0335
000002b0: 0ff2 f934 98e5 a034 23fd 0135 5bb3 1135
000002c0: 69e8 0435 bbe7 ca34 d2d9 0435 f9ce 2235
000002d0: 13ae 9635 0eb6 6435 9d0c 9f34 8558 2435
000002e0: f58b 8334 4070 dc33 2458 1a34 40d1 a733
000002f0: 1daa 1e33 1577 c834 dbb0 0035 0c9c 9e34
00000300: b3a4 a534 73c3 dd34 7bdd c634 2642 9234
00000310: 2162 bd34 1f41 b834 ebba 5737 1a16 5937
00000320: 6377 3f37 60a2 7637 54f8 7937 d240 5037
00000330: 088f 5137 cedf 5137 8ccc 3637 ca4d 4c31
00000340: 608c 6431 13ae 2531 8532 f231 6aff 6432
00000350: f149 d932 05cc f533 375e 5134 d181 0c34
00000360: e912 a734 2632 a634 8075 5a34 3735 bf34
00000370: 0798 c734 5e20 9134 3d5b ae34 4f0c bb34
00000380: 8ee3 9434 312c 9d34 83b4 8e33 e3e0 8c30
00000390: 27bf e735 ddca 6d34 4640 ec30 337b db36
000003a0: 7bb9 3d36 e1f9 8034 514b 871a 4416 801a
000003b0: f013 6a1a 0000 0000 6217 c71a 292f 081a
000003c0: 0000 0000 3c99 a61b 93c0 951a 0ebe 0735
000003d0: f0ff 0a35 4fe9 0a35 65d8 1735 129f 1e35
000003e0: 21e9 1335 6a9a 0b35 a827 1035 dae6 0d35
000003f0: 91f2 0236 c523 c235 6507 5b35 26fc c335

square_avg f4 [32]
0.0028235794 0.008353769 0.0045000864 0.00025567345 0.0045283954 0.0040618754 0.007042061 0.0054300153
0.012669167 0.007728017 0.010214292 2.5252668e-11 0.0028519428 4.9565413e-05 0.009522743 0.00024056993
0.0024503842 0.006288246 0.0060078134 0.012441649 0.004952647 0.003673619 0.012525924 0.003975832
0.0051106852 0.013446927 0.004267314 0.004333713 0.005807313 0.004241797 0.009569288 0.009261783
00000000: cd0b 393b 3fde 083c 7675 933b e90b 8639
00000010: ef62 943b 7b19 853b 17c1 e63b 45ee b13b
00000020: 5692 4f3c 4e3b fd3b d959 273c f41f de2d
00000030: a9e7 3a3b 75e4 4f38 4705 1c3c 8041 7c39
00000040: a096 203b a10d ce3b 31dd c43b 0fd8 4b3c
00000050: d049 a23b 19c1 703b 8839 4d3c b247 823b
00000060: 8977 a73b 8050 5c3c d3d4 8b3b d201 8e3b
00000070: 464b be3b c6fe 8a3b 81c8 1c3c bcbe 173c
