03_Workshops/03_Encoder-Decoders for Latent Space Manipulation/Denoising/lightning_logs/version_0/checkpoints/epoch=99-step=3200.ckpt (torch, 166227 bytes, 60 tensors)

model.encoder.blocks.0.layer.weight f4 [16, 1, 3, 3]
000000 bc e5 01 be b7 56 07 bd 1f 18 99 3e 27 eb 79 3e
       -0.12685293 -0.033041682 0.29901215 0.2440611
000010 61 18 90 3d 9f 55 18 3f 87 98 c7 3b af 9a de 3e
       0.070359 0.5950565 0.0060911807 0.4347739
000020 c6 18 7f 3e 7c fa 65 be 13 ad 3a 3e 2e 53 b6 3e
       0.24911794 -0.22458833 0.18230085 0.35610336
000030 81 9d 39 3d 2e 34 40 3d c9 d3 33 bc 20 34 37 3e
       0.045316223 0.046924762 -0.0109757865 0.17890978
000040 a4 f8 50 3d 7a c9 7b 3e 20 e7 0d be 16 13 4e 3e
       0.051018372 0.24588576 -0.13857698 0.20124468
000050 d1 3d aa bc 52 ca 7f 3e 6a 5e 06 3e 5d 6d 94 3e
       -0.02078143 0.24979523 0.13121954 0.28989688
000060 3d ba 5c 3e 9b 66 b7 3e 1d fe 11 bd d0 02 02 3e
       0.2155542 0.3582047 -0.035642732 0.12696385
000070 5e 9d 68 bd dd 2f 28 be ba c3 39 bd 56 74 47 be
       -0.056790702 -0.16424508 -0.045352675 -0.19477972
000080 5b 4f a4 bd d6 0f 38 bd 4a 74 4c be 9c 25 e0 bd
       -0.08022948 -0.044936977 -0.19966236 -0.109446734
000090 0b b1 30 3e ba 8f 77 be 41 0c 66 bd 97 3b 1f be
       0.17255037 -0.24175921 -0.05616403 -0.15550075
0000a0 6c 95 1b 3e 3b 69 3b 3e 5b 83 98 bd 6c 8f a2 bd
       0.15193719 0.18301861 -0.07446929 -0.07937512
0000b0 ee 51 f3 3d a4 6d c5 bd 50 b3 85 be 1f 61 c6 3d
       0.11880861 -0.09640053 -0.26113367 0.09686493
0000c0 5a fd 8b 3d b3 12 11 3e 23 28 c2 be 2d 4c aa bd
       0.06835432 0.1416729 -0.37921247 -0.083153106
0000d0 e7 06 7c be 9d 68 36 bd f5 2e 8f 3e 0c cf 1f 3e
       -0.24612008 -0.04453336 0.27965513 0.15606326
0000e0 ee 9b 5e be 6c 3d 29 3e 72 be 43 be 50 df d1 3d
       -0.2173917 0.16527337 -0.19115618 0.102476716
0000f0 a2 f6 82 bc b0 ca 8e 3e 8e e2 80 be ff 51 83 be
       -0.015986744 0.27889013 -0.25172848 -0.25648496
000100 60 6c 1a bd c3 e5 a5 be f0 ad a8 be 20 cc 8d 3d
       -0.03770101 -0.32401857 -0.32945204 0.069236994
000110 f0 c8 48 3e 90 68 7c be c7 09 bb 3d f3 76 9c be
       0.19607902 -0.24649262 0.09132724 -0.305595
000120 a9 eb 96 be 05 de 30 be 37 ff 10 3e 21 85 45 3e
       -0.2947667 -0.17272194 0.14159857 0.19289066
000130 c9 67 4e 3e 77 d1 82 3e 2a 3a 01 bd 64 f2 c9 bd
       0.20156778 0.25550434 -0.03154961 -0.098606855
000140 eb dc 3a bc 9f 61 04 3e f9 02 81 3e 19 85 8c be
       -0.01140521 0.12927864 0.2519758 -0.27445295
000150 07 0d 9c 3e 2f 76 3a 3e 2f 8c cc bd 41 50 4d 3e
       0.3047869 0.18209146 -0.099876754 0.20050146
000160 65 f0 af 3d ce 0e 88 bd 4b 39 a8 be 52 ec 80 be
       0.085907735 -0.06643449 -0.3285621 -0.25180298
000170 ad 9c 80 be a1 4e 23 be 1f 19 81 be 19 75 49 3e
       -0.25119534 -0.15947963 -0.25214478 0.19673575
000180 15 8f 15 3e e3 7d cc 3d c1 f0 c0 bc 6a 0b 0f 3e
       0.14605363 0.099849485 -0.0235523 0.13969198
000190 07 03 b9 bc be 91 1c be 63 fe d8 bd e1 6d 93 bd
       -0.022584451 -0.15289971 -0.105953954 -0.07198692
0001a0 4e ef 4a 3e 79 76 98 3c 2e 41 bf 3d 26 bb 62 3e
       0.1981785 0.01861118 0.09338604 0.22141704
0001b0 00 f4 a0 3b 1e 2f 69 be 2b 29 03 3c 50 45 16 3e
       0.0049118996 -0.2277188 0.008005421 0.14674878
0001c0 1e 82 55 be 90 2f 2a be ab 2a 43 b9 d6 83 7d bc
       -0.20850417 -0.16619706 -0.00018612544 -0.015473327
0001d0 0b cc 04 3e 05 7a 47 be 86 82 48 3e f5 95 04 be
       0.12968461 -0.1948014 0.1958104 -0.12947829
0001e0 66 0b d0 ba 13 fc a9 3e 2e c6 da 3d 03 5a 27 be
       -0.0015872538 0.3320013 0.10682331 -0.1634293
0001f0 2d cb 18 be 3b b9 7d 3e ba cd 4d 3d 8e 3d 9a bd
       -0.14921255 0.24777691 0.050245024 -0.07531272
000200 46 1c 84 3d fc 7f 37 3e ce 0a 7b 3e 6d 80 45 3e
       0.06450705 0.17919916 0.2451584 0.19287272
000210 08 b2 7e be 70 4d 8c 3d 85 1f 46 bb 14 3c 02 3e
       -0.24872601 0.068507075 -0.003023119 0.1271823
000220 28 90 b0 3d 96 76 99 3e 04 d9 4a 3e 42 28 33 bd
       0.086212456 0.29973286 0.19809347 -0.043739565
000230 72 8c 7f 3e 5e 19 96 3e d6 c4 9f 3e a7 d0 14 be
       0.2495592 0.2931623 0.3120486 -0.1453272

model.encoder.blocks.0.layer.bias f4 [16]
000000 9c ce 91 be 08 1b 28 be 52 d2 2a be 26 05 72 3e
       -0.28477943 -0.16416562 -0.16681793 0.23634776
000010 98 70 95 3e 24 8f 6a 3e 1e 71 b5 3e dd 25 42 be
       0.29187465 0.22906166 0.35437864 -0.18959756
000020 7e 31 9b 3d 4f b6 31 be 95 59 75 3e 99 3c 96 3e
       0.07577799 -0.17354701 0.23959954 0.29343107
000030 83 ad 99 be 93 22 07 3e 67 7e 67 3e d9 5b d4 3d
       -0.3001519 0.13196783 0.22606812 0.10369081

model.encoder.blocks.1.layer.weight f4 [16, 16, 3, 3]
000000 b9 79 ab 3d e2 4e c2 bd 04 3b eb bd 0f d4 2a 3e
       0.08372826 -0.09487702 -0.11485866 0.16682456
000010 36 30 db 3b 04 1f 39 bd 7f bb 97 3b 37 99 08 3e
       0.006689097 -0.045195594 0.0046305056 0.13339697
000020 bf fc 6a bc ea f1 44 bc d8 61 1e bd 18 5f 7b bd
       -0.014342486 -0.012020567 -0.03866753 -0.061369985
000030 0a d4 f4 bc f8 c3 11 bd 71 80 76 bc 37 b2 9a 3d
       -0.029886264 -0.03558728 -0.015045271 0.07553523
000040 72 4d 16 3d e7 bd 70 3c 0f 3d af 3d 50 60 a7 3d
       0.03669495 0.014693714 0.08556568 0.08172667
000050 fb 67 10 bd 44 da 5a 3c f7 0e ba 3d 9d ee 9e bc
       -0.035255414 0.013357703 0.090848856 -0.019400889
000060 e5 51 98 bd e4 81 8b 3c 91 fe 9b 3d 52 b6 06 3a
       -0.07437495 0.01702971 0.07616914 0.0005138862
000070 8c e9 14 bc 99 dc 9c bd aa 8b 26 bd 48 09 18 be
       -0.009088885 -0.07659263 -0.040660538 -0.1484729
000080 e3 bf 02 be 06 ae 2b 3d 4c f4 5e 3c 7b 41 d3 bc
       -0.12768511 0.04191401 0.01360805 -0.02578806
000090 56 58 88 3c 0d 01 1c 3d 7a a7 ca 3d a7 09 8c 3d
       0.016643684 0.03808694 0.09895225 0.068377785
0000a0 78 3e 9b 3c ba 0b 81 bd af 9b ce 3d f3 d8 6b bb
       0.018950686 -0.06301065 0.10088288 -0.0035987466
0000b0 0c 9f a6 3d 6d d3 9b 3c 3f 90 9f bd d2 db 00 bd
       0.081358045 0.019021714 -0.07791185 -0.031459637
0000c0 34 01 90 3d b0 fa 19 3c 58 79 48 3d 50 26 1d bd
       0.070314795 0.009398147 0.048943847 -0.038366616
0000d0 18 88 8b 3c 7b 3d ed 3b 4f b8 5b 3d 0b 11 19 bc
       0.017032668 0.007239995 0.053642567 -0.009342442
0000e0 94 fa 8e 3d 8f c1 04 bd 5d 02 0a 3b 7f fb c5 3d
       0.06981388 -0.032411154 0.0021058538 0.0966711
0000f0 c6 8e 67 3d 18 a2 5c 3d 2c 80 ad 3d b6 c4 e5 bc
       0.056532644 0.053865522 0.084717125 -0.0280479
000100 f7 ef 91 bd b3 13 a3 3d 9c 90 76 bd 76 04 24 3d
       -0.07125848 0.07962742 -0.060196504 0.040043317
000110 c6 55 b7 bc f6 fe 5b bc 9f 6d a1 3d 8e 36 73 3d
       -0.022379767 -0.013427487 0.07882237 0.0593782
000120 fe bb 98 3c 90 15 92 3c 48 74 6c bd 86 14 d2 3d
       0.01864433 0.017832547 -0.057728082 0.10257821
000130 fa ba 3e 3d 66 5e 89 3d 95 49 cb bc 42 68 54 3d
       0.046565033 0.06707458 -0.02481536 0.05185724
000140 30 b3 9a 3c 7e cb d2 bd 1b 3f 90 bc 53 63 f8 bb
       0.018884271 -0.10292719 -0.017608216 -0.0075801997
000150 bd 3d a5 bd a9 86 3e b9 02 78 34 3c 5e 27 45 be
       -0.08068416 -0.00018169977 0.01101494 -0.19253299
000160 10 b1 ab ba a3 9b 27 3e 38 d3 6a bb 4f ea ae bd
       -0.0013099033 0.16367964 -0.0035831463 -0.085407846
000170 11 b5 60 3c 31 8f a0 bd bc 9c 15 be d6 69 12 be
       0.013715045 -0.078398116 -0.1461057 -0.14298186
000180 d0 4e ff 3c 98 4c 94 be ab a9 8c be 72 13 c7 3d
       0.03116551 -0.28964686 -0.27473196 0.09720506
000190 df 2e 02 bc 5c e2 bc 3d fb 0c 5d bd ae c0 40 3d
       -0.007945745 0.09222862 -0.053967457 0.047058754
0001a0 11 4a 34 bd 2d 3d e9 ba 3d 5e 51 3d 6e cf d5 bc
       -0.044015948 -0.0017794721 0.051115263 -0.026099887
0001b0 ff 70 96 3d 00 66 7c 3d cb 82 3b 3c ab 27 8f 3b
       0.07345771 0.061620712 0.011444758 0.0043687425
0001c0 76 0c 5a bc db b0 e6 bc 0b 57 92 bc c8 3b a5 bd
       -0.013308635 -0.028160503 -0.017863771 -0.08068043
0001d0 c0 da 6f 3c 65 7b 3c bb 76 55 ac bd 26 b5 0d bd
       0.014639556 -0.0028760072 -0.08414738 -0.034596585
0001e0 cc cd fb bc a6 20 8f 3c db 31 a5 bd 99 4f cc bb
       -0.03073778 0.017471623 -0.0806615 -0.0062350747
0001f0 a0 2a 24 3b b1 0b b3 3c 37 6f 95 3d ff ea b2 3c
       0.002504982 0.02185616 0.07296603 0.02184057
000200 aa 70 c1 3d 8a 9a af 3d 8a 1b 4c 3d f7 eb 7e 3d
       0.09445317 0.08574398 0.04983095 0.062236752
000210 90 6b 3d bd 99 4f 93 bc c3 b9 ad 3d 8d a7 9e bc
       -0.046245158 -0.017982291 0.08482697 -0.019367004
000220 c7 6a 78 3d 2e fc 99 3d 8e 8a b1 3b 1f cb aa 3d
       0.060648706 0.075188026 0.0054181283 0.083395235
000230 85 c3 31 bd ba 88 8b 3a 1d 21 a1 3c 1e a8 99 3d
       -0.043399353 0.0010645606 0.01966911 0.07502769
000240 ad 58 f1 3c 08 96 7a bd 26 70 20 bd 5c 6a 1f be
       0.02946123 -0.061178237 -0.039169453 -0.15567917
000250 93 88 07 bd 17 98 14 3d c5 36 03 be 8b 22 57 3c
       -0.03308923 0.036277857 -0.12813862 0.013130794
000260 b1 02 0f 3e 5b 59 e7 3c 35 90 7f 3d 1c ff 5f 3d
       0.1396587 0.02824085 0.062393386 0.05468665
000270 2f 7e 02 bd 91 e9 8e bc e3 fb 55 3d b4 35 a6 bc
       -0.03185862 -0.017445358 0.05224217 -0.02028928
000280 6f ed f0 39 df 21 28 3d 51 18 14 3d 53 ce 0d 3c
       0.0004595327 0.041047927 0.036156002 0.008655149
000290 d6 42 b3 3d e0 22 44 bd a4 3e 34 bd 62 a3 8c bc
       0.08752982 -0.047884822 -0.04400505 -0.01716775
0002a0 62 5f 9a bd 7f 40 44 3c 38 07 62 bd 27 0d 44 3d
       -0.07537724 0.011978268 -0.055182666 0.047864106
0002b0 6e 75 4c bd 6e c9 c1 bd 1d 4f 23 3d a5 40 88 bd
       -0.049916677 -0.09462248 0.03987037 -0.06652955
0002c0 c5 ad b5 bd 27 84 0a 3d ab 9b 00 bd 33 f4 08 bc
       -0.088710345 0.033817437 -0.031398457 -0.008359003
0002d0 cd 92 ef ba 89 6e 42 3d 07 46 43 3d 59 6c a2 3c
       -0.0018278003 0.047468696 0.047674205 0.019827055
0002e0 38 05 5e bb bb e3 6f 3d 76 84 ae 3d 66 b4 82 bd
       -0.0033877622 0.05856679 0.08521359 -0.063820645
0002f0 5c 10 96 3d 5c a3 a3 3d 88 c9 a0 bd cd bd 98 bd
       0.07327339 0.07990143 -0.07850939 -0.074580766
000300 f1 b7 77 bd 73 25 a6 bd 2b 06 72 3d f6 1f 81 3d
       -0.060478155 -0.081126116 0.059087913 0.06304924
000310 c0 10 8e 3d 93 4e d5 bc af 43 ac 3c 25 70 a6 3d
       0.069367886 -0.026038444 0.021028368 0.081268586
000320 c7 1d d1 3c 1f 29 78 3d aa 7a 0f ba ef c6 87 3c
       0.025526894 0.06058609 -0.00054732955 0.016574351
000330 32 50 d0 bc 1e ea 38 3d b1 be 22 3d d5 df 1e bd
       -0.025428865 0.045145147 0.03973264 -0.03878768
000340 34 9f bc 3c 6b af 98 bc 74 9b 92 3d e0 81 3e 3c
       0.023025133 -0.018638333 0.071585566 0.011627644
000350 70 50 2d bd 36 2c 7e 3d 00 12 84 3d ce 08 a0 3d
       -0.04231304 0.06205388 0.06448746 0.07814179
000360 72 d4 61 bd 0a 00 4d 3d 42 81 36 3d e4 d9 1f 3c
       -0.055134244 0.050048865 0.044556864 0.009756539
000370 9c 97 20 bd f2 5f 46 bd e7 67 95 3d 53 1f 2e bc
       -0.039207086 -0.048431344 0.072952084 -0.010627585
000380 86 70 e8 bc 26 ca c8 bd 0e fd 60 bd 7b c9 86 3d
       -0.028373968 -0.09804182 -0.05492883 0.06581398
000390 61 ac 08 be bd de 8e bd 2b 8c 90 bc a6 cc ac bd
       -0.13347007 -0.06976078 -0.017644962 -0.08437471
0003a0 c8 13 92 bd a1 f2 2e ba 80 69 f8 bd 1f 0d 7f bd
       -0.07132679 -0.0006673728 -0.121294975 -0.062268373
0003b0 4a fb e3 bd ce 26 60 bd fb 17 1c 3d ee bc 12 be
       -0.11131914 -0.054724507 0.038108807 -0.14329883
0003c0 78 9f 89 3a 0e 93 6b bd 61 d2 af bc 33 2a 81 3d
       0.0010499796 -0.05751329 -0.021462621 0.06306877
0003d0 e6 3e 4c bd 78 48 64 bc cb f9 33 bd 27 d6 99 3d
       -0.049864672 -0.0139332935 -0.043939393 0.075115494
0003e0 a7 aa c4 3c 6d 30 59 bd 7d f0 d1 39 27 e3 96 3b
       0.024007155 -0.053024698 0.00040042764 0.0046047154
0003f0 a0 6f 1d 3c 86 17 e4 3c d6 67 b6 3c d0 32 d0 bc
       0.009609133 0.027843248 0.02226631 -0.025414854

model.encoder.blocks.1.layer.bias f4 [16]
000000 9e e4 8b 3c 18 47 3e bd a5 92 3a bd 2a da ee bc
       0.017076787 -0.04645452 -0.045550007 -0.029156763
000010 b4 14 47 bd b5 d2 02 3e e0 f7 d9 3d 96 7c a1 3d
       -0.04860373 0.12775691 0.106429815 0.07885091
000020 e8 2a 96 bd 3b 62 27 3d cc d8 9f 3d 18 13 69 bc
       -0.073324025 0.040865164 0.078050226 -0.014225744
000030 c6 b6 97 3d 6a d7 9d 3d 12 dd 6b 3e 5a 07 93 3c
       0.07407908 0.077071026 0.2303355 0.017947841

model.encoder.blocks.2.layer.weight f4 [16, 16, 3, 3]
000000 39 3c 1f bd af 8a 72 3c 0c bf 69 3d 75 ab 1a bb
       -0.038875792 0.014803573 0.057066962 -0.0023600732
000010 8c 1c d8 3d 31 25 90 3d 1a aa 38 3c a9 18 54 bd
       0.1055232 0.07038344 0.011271024 -0.05178133
000020 1c b2 53 bd 5a 5c 47 bd fb 3a 9c 3d 71 f4 52 3d
       -0.05168353 -0.048672058 0.07628437 0.05150265
000030 12 8f 0f bd 68 e2 b3 3d f4 f0 8a 3d d7 c2 09 bd
       -0.03504855 0.08783418 0.067842394 -0.03363308
000040 81 09 f2 bd c9 49 82 bd b5 9c 5b be 3a 0b 19 3e
       -0.11818219 -0.0636173 -0.21446498 0.14945689
000050 d0 fe 54 3e 68 b2 d0 bd f8 5d 83 3c ac 84 db bc
       0.20800328 -0.10190278 0.016036019 -0.026796661
000060 a0 1d d9 bc 13 59 16 be 46 e6 17 bd 81 c0 10 bd
       -0.026503384 -0.14682417 -0.03708484 -0.035339836
000070 fd 4c 4c 3d 98 4a c6 3d e8 2e cf bd 1a fa be 3d
       0.04987811 0.096821964 -0.101163685 0.09325047
000080 48 95 a1 3d 29 16 8f 3d da 80 a9 3c 31 cd 1c bd
       0.07889801 0.069866486 0.020691324 -0.038281623
000090 36 59 9f be 35 ec 80 bd 64 93 a7 be 32 c5 21 3e
       -0.3112275 -0.06295053 -0.32729638 0.1579788
0000a0 c8 ee 44 3d 88 9a 51 bd d0 33 dd bd 09 a0 5b be
       0.048079282 -0.051172763 -0.10800898 -0.21447767
0000b0 62 50 be 3e 22 fb 4d 3d c2 d3 81 3d 62 9f 9f 3d
       0.37170702 0.050288327 0.06339218 0.07794072
0000c0 ab 4b 80 ba b9 32 d0 3c 36 7b a1 bd 72 ba c2 bb
       -0.0009788176 0.025414811 -0.07884829 -0.005942636
0000d0 2c 66 b1 3d 96 b1 38 3e 33 2f 4e 3c b1 2c d3 3c
       0.08662066 0.18036494 0.012584495 0.025778146
0000e0 b4 25 26 3e c8 7c 1d bd 8e c1 7e 3c 70 cc ef 3d
       0.1622532 -0.03844908 0.015549077 0.11708915
0000f0 3a 09 f0 bd 29 2f 66 bd 53 b9 bd bd 54 99 47 bd
       -0.1172051 -0.05619732 -0.092638634 -0.04873021
000100 18 f8 00 3e 5b 92 3f be 54 7e 01 3e 8e b9 44 3e
       0.1259464 -0.18708174 0.12645847 0.19211408
000110 c7 24 2f 3e 95 9a 16 bc f8 34 28 be 8e 19 17 be
       0.17103873 -0.009192129 -0.16426456 -0.14755842
000120 2b 90 19 bb fb 74 18 bd 80 ad 04 bc ce 99 6c bd
       -0.0023431878 -0.037220936 -0.008098006 -0.057763867
000130 eb c9 fc bb f4 9b a4 bd 30 6d b6 3c 74 fc 84 3d
       -0.0077145 -0.08037558 0.022268862 0.06493464
000140 db 8d 9d bd 10 66 1f be cf 31 87 3d c7 d3 2d 3e
       -0.076930724 -0.15566278 0.06601297 0.16975318
000150 b6 94 f6 bd 4a 00 8d 3d 68 d0 ac 3d eb 13 1c bd
       -0.12040083 0.06884821 0.08438188 -0.038104933
000160 d6 dc 9b bd af 14 33 3c 1a 06 08 3e 0b 03 b8 bd
       -0.076104805 0.010930224 0.13283578 -0.089849554
000170 af 93 d8 bc e4 8d d1 3c c4 31 a0 3d b4 fa 0a 3e
       -0.026437609 0.025580354 0.07821992 0.13572198
000180 ce e3 52 ba 2a 0c c8 3b fb 31 10 3e 65 d2 e4 bd
       -0.000804481 0.0061049657 0.14081566 -0.11172942
000190 61 4e f1 3d b8 d0 1f 3e dd ed ba bd d9 8b a9 3d
       0.11782528 0.15606964 -0.091274 0.08278627
0001a0 dd f0 19 3e c9 c0 87 3b f0 14 7b bc 9c cd fa bd
       0.15033288 0.004142855 -0.015324816 -0.12246248
0001b0 ec 73 1b be a9 c6 1f 3d 02 3c 41 3e 2c aa 2e be
       -0.1518094 0.039007816 0.18870547 -0.17057103
0001c0 d1 6e 91 3d 94 d2 79 3d 03 5b 26 bd 9c 6b df bd
       0.07101215 0.06099184 -0.04061414 -0.10909197
0001d0 2c 70 d0 bd 06 7d 8e bd 7a 45 97 3d 53 da 20 3e
       -0.10177645 -0.0695744 0.073862985 0.15708284
0001e0 79 1a 1d 3d 9d 20 59 3d 30 b2 43 bb 22 50 d9 bd
       0.038355324 0.053009618 -0.0029860847 -0.10610987
0001f0 9c 63 b6 bd 48 33 d0 bd c9 be d1 3e 96 88 2c bf
       -0.08905718 -0.10166031 0.4096587 -0.67395914
000200 18 53 31 bf 5b 25 b6 3e a2 cc aa be d1 ea 94 be
       -0.69267416 0.35575375 -0.33359247 -0.290854
000210 0c 67 96 3e 44 89 a7 3c 89 cc 52 3e 6e 3f 82 3d
       0.29375494 0.020451196 0.20585836 0.063597545
000220 99 4b d3 3c 0f 73 15 bd 7c 70 55 bd 60 ad 0d 3e
       0.025792884 -0.03648668 -0.052109227 0.13835669
000230 3a ff a7 3d a4 7b da 3d e6 c0 ff bd 04 86 e8 bd
       0.082029775 0.10668114 -0.12487964 -0.113536865
000240 21 f7 50 bd 1a a7 8b bc ce 13 ac 3c 06 f0 5c bd
       -0.05101693 -0.017047454 0.021005537 -0.05393984
000250 5a a0 19 3d 4c b6 8b 3d 6b 97 55 bc ed 9e 65 3d
       0.03750644 0.0682188 -0.013036589 0.056059767
000260 c0 5a a9 bc 6f 99 c9 3b fd 14 3b 3d 77 45 8c 3d
       -0.020673156 0.006152324 0.045674313 0.06849187
000270 d3 93 b3 3d 0f 44 04 bc 7f 89 e8 bb 85 c9 49 3d
       0.087684296 -0.008072867 -0.007096469 0.04926445
000280 e6 a4 59 3d 28 a8 4d 3d 0e 2a 55 3d 75 53 2c 3c
       0.053135775 0.050209194 0.05204206 0.010517945
000290 ee a5 44 3e 5b a2 fc be 2d 24 a7 bd f7 21 63 3e
       0.19203922 -0.49342617 -0.08161197 0.22180925
0002a0 45 ef 06 bf 79 93 51 be 37 47 fe 3e 3b a5 86 3d
       -0.52708846 -0.20466413 0.49663708 0.06574484
0002b0 af f7 b0 3c 01 a3 5c 3d b8 7e 7d 3d 9a 58 ba bc
       0.02160248 0.05386639 0.061888427 -0.022747327
0002c0 49 fa b8 3d 2f 05 52 bd 9f 93 82 3d 8d c7 33 bd
       0.09032113 -0.051274475 0.06375813 -0.04389148
0002d0 62 04 ca bd 9b 0f bd bc 80 d8 fd 3d 4f 7a 94 be
       -0.09864117 -0.02307873 0.1239481 -0.28999564
0002e0 f3 7e e8 bd 37 32 1e 3e 38 8c ad bd 49 32 90 bd
       -0.11352339 0.15448843 -0.0847401 -0.07040841
0002f0 58 4a 9e 3d 62 99 7b 3d 82 92 fd bd ca 14 c6 3e
       0.07729024 0.061425574 -0.1238146 0.38687736
000300 f8 66 63 3c 7e 30 02 be cd 2f 45 3e 30 e2 ad 3d
       0.01387953 -0.12713811 0.19256516 0.084904075
000310 57 45 0a be 34 2a 16 3e bc 70 05 3d f4 c9 92 3d
       -0.13503014 0.14664537 0.032578215 0.07167426
000320 b1 a6 56 bd e2 92 4a bd 9d c1 ef 3a ee 41 84 3d
       -0.052405063 -0.049456485 0.0018291954 0.064578876
000330 6a 33 b2 3d 05 43 19 3c a5 11 a9 3d d2 22 6f 3d
       0.08701213 0.009354358 0.082553186 0.058382817
000340 ac e4 1b bc ae 4d 8b bb 53 41 a1 3d 32 e2 3a 3b
       -0.009514969 -0.0042512035 0.07873788 0.002851617
000350 60 d0 7c bd 4b 18 c9 3c e7 07 58 3d 19 32 a5 3c
       -0.06172216 0.024547717 0.05274191 0.02016549
000360 1a 6d 56 3d 96 b0 52 bd 0e 52 42 bc d1 77 cb 3a
       0.05235014 -0.051437937 -0.011860384 0.0015523379
000370 cd 48 26 3d 6f f4 5b 3d ca d2 07 3d 55 f7 96 bd
       0.040596772 0.053699907 0.03316001 -0.073713936
000380 ff 48 d9 bc c8 36 eb 3a c3 d2 c8 3c 14 77 e9 3d
       -0.026524065 0.0017945403 0.024514562 0.113996655
000390 14 b4 61 3d 9f c1 3f 3c 70 eb 98 3d 92 bf 29 bd
       0.055103377 0.011703878 0.07466781 -0.04144246
0003a0 27 10 55 bd ee ff 34 3b 44 7e fb bb 6f 49 48 bc
       -0.052017357 0.0027618366 -0.007674964 -0.012224539
0003b0 9d 10 28 bd fc 4e 15 be 9e 67 9b bd ad 4b e7 bd
       -0.04103147 -0.14580911 -0.07588123 -0.11293731
0003c0 56 ae 87 bd 9b c0 e2 bb f8 5b 48 bd 89 db 59 3d
       -0.06625049 -0.006919933 -0.048915833 0.05318788
0003d0 8d 0d 56 3d 7d 75 4d bd d1 7d 61 3d 27 ff 1e 3d
       0.052259017 -0.050160874 0.05505163 0.03881755
0003e0 e1 93 90 3d db 49 c6 3d b2 95 a4 3d e6 50 00 bd
       0.07059456 0.096820556 0.080363646 -0.03132715
0003f0 5d 8b d9 3d 7e db bd 3d 22 32 c2 3d 44 95 5e 3d
       0.106222846 0.092703804 0.09482218 0.05434157

model.encoder.blocks.2.layer.bias f4 [16]
000000 26 82 93 3d 7b 09 9a 3d 3b 27 7f bb 4c e2 b0 b8
       0.07202558 0.075213395 -0.0038933295 -8.434485e-05
000010 1a 56 ac 3d cd 92 79 3d 39 14 1a bd f4 d7 bc bd
       0.0841486 0.060931016 -0.037616942 -0.09220877
000020 8d 2e ce 3d 3b 0c 46 3d 8e 94 4e bd 39 09 ce bc
       0.100674726 0.048351508 -0.05043464 -0.025150882
000030 32 92 47 bb dd d2 8b bb f0 8a d7 bd f8 db af bc
       -0.003045213 -0.00426708 -0.10524547 -0.021467194

model.decoder.blocks.0.layer.weight f4 [16, 16, 3, 3]
000000 04 1d 3e 3c db eb b9 bc 45 58 be 3d d9 a0 a4 be
       0.011603598 -0.022695472 0.0929418 -0.32153967
000010 50 96 6e be c0 e7 6e be 95 f5 5d 3e 71 ca 22 3e
       -0.23299527 -0.23330593 0.21675713 0.15897538
000020 d8 01 ab be 69 49 2c be aa 19 0d be 58 d7 26 3d
       -0.33399844 -0.16824879 -0.13779321 0.04073271
000030 be a9 53 be 42 6e f3 3c ab ec 25 3e ce 7a 53 be
       -0.2067022 0.029715661 0.16203563 -0.20652315
000040 31 c2 4e 3b 54 a6 b2 3d 8b ce 43 3e 38 3e 84 3d
       0.0031548853 0.08723131 0.19121759 0.0645718
000050 59 9d 08 3e 93 58 d9 3b 10 b0 0f be 46 9b d8 bc
       0.13341273 0.0066328733 -0.14032006 -0.026441228
000060 87 8f 90 3d 9d fd 94 bd 1c f1 03 3e b7 d5 68 bd
       0.07058626 -0.072749354 0.12884945 -0.05684444
000070 11 71 80 bd f8 a8 1f 3d 92 6f a5 bd 04 14 23 3e
       -0.06271566 0.0389795 -0.08077921 0.15925604
000080 2f 5c 59 3e 77 61 4b bc 23 00 89 3d 4c 70 14 3e
       0.21226572 -0.012413374 0.06689479 0.14495963
000090 81 49 0b 3d df e3 9e bd 2c c0 6e bd 27 46 66 bb
       0.034005646 -0.07758307 -0.058288738 -0.003513703
0000a0 ea 95 1b be d0 cc d0 be d2 d7 d1 3c f8 d8 82 3c
       -0.15193906 -0.4078126 0.025615606 0.0159726
0000b0 d0 32 5a be e4 d6 1a 3d 22 9f 6a bc 3b 58 a7 bd
       -0.21308446 0.037802592 -0.014320167 -0.081711255
0000c0 08 54 85 3d af c5 01 bd fa 01 b6 be 57 72 06 bd
       0.06510168 -0.031682666 -0.35548383 -0.032823887
0000d0 bb 76 2d bc 2f ec 8d be 52 f7 16 3d 55 12 37 3d
       -0.01058739 -0.27719256 0.036856957 0.044695217
0000e0 d9 cd 0e 3e 90 9e 39 3e da 8f 79 3e 35 7a 48 3e
       0.13945712 0.18126893 0.24371281 0.19577868
0000f0 43 76 95 3d 83 93 dc 3d 99 f3 12 bb 1f 8e 95 bd
       0.07297947 0.10770323 -0.0022423028 -0.07302498
000100 2e d5 86 3d e5 8c 82 bd f3 3a 82 3d 80 2e bb bd
       0.065836295 -0.0637453 0.063589 -0.091397285
000110 75 35 e8 bc c0 be 7f bd db 66 83 bd b0 fa 55 3d
       -0.028345803 -0.062437773 -0.064161025 0.052241027
000120 6a 4d f8 bc fa c8 e7 bd 0d 98 05 bd 06 a5 c2 bd
       -0.030310351 -0.1131763 -0.03261571 -0.09504132
000130 5b 2b 29 be a8 34 be be e8 77 9c bc ba b8 6c bd
       -0.16520445 -0.3714955 -0.019100145 -0.057793356
000140 ec 38 4a be 62 33 8a 3d dc bb 5d 3d e1 7d ec bc
       -0.19748276 0.06748082 0.054134235 -0.028868617
000150 ee 24 b0 bd e6 64 c6 bd 2a 18 88 3c 5a 03 00 bb
       -0.08600794 -0.096872136 0.016613085 -0.0019533248
000160 27 54 c7 bc 94 a9 94 3d 89 fe b4 bd d5 c9 3f 3d
       -0.02433212 0.07258907 -0.08837611 0.04682334
000170 19 00 c6 bd 4c e5 93 bd 05 8f 19 bb b1 5e 7d 3d
       -0.096679874 -0.07221469 -0.0023431194 0.061857883
000180 6a 8b d8 bd 6e 3d 55 bd 78 3d 14 3d 51 0d 51 3d
       -0.10573466 -0.052060537 0.036191434 0.05103809
000190 18 b9 b0 39 4f 7f 5a bd a4 5b 8e 3d 8c b5 ec 3c
       0.00033707242 -0.053344067 0.06951073 0.028895162
0001a0 58 15 97 3d bc c1 a0 bd a3 db 32 bd 44 59 4c 3d
       0.07377118 -0.07849452 -0.043666493 0.049889818
0001b0 8d 47 41 3e ac a3 b6 3d 47 31 93 3d 12 ef dd 3d
       0.1887495 0.08917937 0.07187133 0.10836615
0001c0 9d 98 8b 3d 7c a7 0e 3e 38 96 92 3d a6 5a bc bd
       0.06816218 0.13931078 0.07157558 -0.09196977
0001d0 b8 b6 e7 3d e7 49 9e 3d 62 a4 aa 3d 03 e5 50 3d
       0.11314148 0.077289395 0.08332135 0.050999653
0001e0 c0 b1 85 3d ae c9 2e bd 10 60 1d bd 80 5d 2e 3b
       0.06528044 -0.042672805 -0.03842169 0.0026606023
0001f0 dc de a0 bd e3 f4 4c bd 41 65 56 3d 9b 94 45 3e
       -0.07855007 -0.05003823 0.052342657 0.1929497
000200 c3 ba 4c 3e cd b2 3f be 35 de 63 3e 7e 42 a5 3e
       0.19993119 -0.18720551 0.22252734 0.32277292
000210 47 ef 6c be 14 ac 7a 3e 60 85 54 3e 2e e8 16 bd
       -0.23138152 0.24479705 0.20754004 -0.036842518
000220 3b 0e b0 bc 30 66 5e 3d 76 3c 1b 3d cb c0 8f 3d
       -0.02149116 0.054296672 0.037899457 0.07019194
000230 1c 10 95 bd d0 02 4a bd 42 88 92 bd 56 e2 e5 bb
       -0.07278463 -0.04931909 -0.07154895 -0.0070155067
000240 6a c6 90 bd 2b 43 0e 3e 07 02 00 bd 90 37 a1 be
       -0.070690945 0.1389281 -0.031251933 -0.31487703
000250 5c d1 d9 bd 8c a8 70 be 74 50 93 be 62 ae 1b 3d
       -0.10635635 -0.23501796 -0.28772318 0.0380081
000260 d8 7c 3a be c4 f6 58 3c 5a 05 3d bd 46 ed a9 3d
       -0.18211687 0.013242427 -0.04614768 0.082972094
000270 36 db 25 3d e1 a2 96 3c 64 5b 5c 3d 12 e2 8a 3c
       0.04049226 0.018388214 0.053798094 0.016953502
000280 a2 9c c4 bc 7a 37 ce 3d 0f ba 88 bd 94 35 6f bd
       -0.02400047 0.10069175 -0.06676113 -0.058400705
000290 bb 70 8d 3d be d1 7f 3d 4e bd 9d bd 28 64 34 bd
       0.06906267 0.062455885 -0.07702123 -0.04404083
0002a0 bb 38 82 3b 7c 48 80 bd 35 48 9c bd 4d 84 1f 3d
       0.003974048 -0.06263825 -0.0763096 0.03894453
0002b0 2a 6c 90 3d 04 0a d5 3d eb 62 6d 3c a9 c5 f0 3d
       0.07051881 0.10402301 0.014488916 0.11756451
0002c0 64 40 6a 3c 3f 8d fb 3d fe e4 5c 3d e0 31 19 3c
       0.0142975785 0.122828 0.05392932 0.00935027
0002d0 81 14 13 be 3b ed 6c bd f4 88 d0 bd b9 d2 07 be
       -0.1436329 -0.057843428 -0.10182372 -0.13263978
0002e0 70 b8 8f bd d2 4c ef bc e6 3a 42 be b4 e1 75 3d
       -0.070176005 -0.029211435 -0.1896778 0.0600297
0002f0 a9 f5 37 bd bb 3a 55 3c 8d 51 14 bc 9d 1c 27 3d
       -0.044912014 0.013014491 -0.009052646 0.040798772
000300 eb 2c b1 bd ee 20 92 bd 88 1b 33 bd a6 70 e9 bc
       -0.086511455 -0.07135187 -0.043727428 -0.028496098
000310 df ab f9 3b f2 d4 90 3d a5 e4 c7 3d ec a4 e5 3c
       0.0076193656 0.07071866 0.09760407 0.028032742
000320 b3 88 7b 3d 90 12 12 3d 8d a0 7f 3d 12 0d d2 3d
       0.061409663 0.035662234 0.062408973 0.10256399
000330 ac b3 c7 3d 62 af 8e 3a 0d 92 37 3d 8e 95 2e bd
       0.097510666 0.0010886008 0.04481702 -0.042623095
000340 62 f1 1d bd b0 ca 74 bd 3e 7b 44 bd 01 3a 75 bc
       -0.03856028 -0.05976361 -0.047969095 -0.0149674425
000350 60 ab ae 3c 4b 5d 68 bd b2 45 30 bd d0 95 ad bc
       0.021321952 -0.056729596 -0.043035217 -0.0211896
000360 5a 62 3c bd 48 64 de bc e0 17 2c ba aa 59 2d 3a
       -0.045992233 -0.027147427 -0.0006564837 0.0006612787
000370 77 09 ab bc 43 ec 9a bc 0d 15 64 bc 8c b7 97 3d
       -0.020878537 -0.018911486 -0.0139210345 0.07408056
000380 96 bd b3 bc e0 60 0e be 60 7e b7 3d 38 8c e3 bb
       -0.021940988 -0.13904142 0.08959651 -0.0069442056
000390 e1 46 f4 bd de 5d 89 3d 2c 17 91 ba a3 6d 1b bd
       -0.119275816 0.06707357 -0.0011069528 -0.037946355
0003a0 36 ce e5 3c d0 4a 03 bd 03 d0 3d bd cd 4c 5a bc
       0.02805243 -0.03205377 -0.046340954 -0.013323975
0003b0 f8 0b 08 bd 95 ae bd 3c c2 53 30 3d 6b f6 45 3d
       -0.03321454 0.023154536 0.043048628 0.048330706
0003c0 21 f1 25 3d ab 25 5f bc 34 34 87 3d a0 d3 27 3d
       0.04051316 -0.013619821 0.06601754 0.040973306
0003d0 80 8a 78 3d 0f 4a ee 3c 94 54 81 bd 76 03 a5 3d
       0.06067896 0.029088048 -0.0631496 0.08057301
0003e0 84 d5 5c 3d 38 1c d6 3c 54 88 82 3b e5 18 3c 3d
       0.053914562 0.026136503 0.0039835367 0.04592218
0003f0 3b 03 24 bb 0d 97 cb 3d 28 22 cd 3b bb 2b e3 bb
       -0.002502634 0.0994092 0.0062601753 -0.0069327033

model.decoder.blocks.0.layer.bias f4 [16]
000000 f8 cc ad bd ef 13 c5 3d ae b0 72 3d 80 2a b7 3d
       -0.0848636 0.09622943 0.059250526 0.08943653
000010 42 6e 40 bd cb fd 84 3d 4d 87 46 3d ce f8 f4 3d
       -0.04698015 0.0649372 0.048468877 0.11961518
000020 39 41 d8 3d 00 a3 2f 3d b4 b1 0b 3d 2c 20 61 3d
       0.10559315 0.04288006 0.034105018 0.054962322
000030 4c b2 83 bd 01 8c d7 3d 83 aa f7 3d 00 5c d1 3d
       -0.06430492 0.105247505 0.120930694 0.10222626

model.decoder.blocks.0.upsample.weight f4 [16, 16, 2, 2]
000000 bc 1b 8e bb 23 5c f6 be a8 c6 ee 3d cd 4c 02 bd
       -0.0043368023 -0.4811717 0.116589844 -0.031811524
000010 55 05 64 be d3 7f f1 be 63 23 e7 3d 7a 5c ae 3e
       -0.22267659 -0.47167835 0.11286046 0.3405493
000020 70 09 30 be 70 fd 4f 3c 0b 7b 93 3d f2 f8 6a 3e
       -0.171911 0.012694702 0.07201203 0.22946528
000030 7e 8e 04 3e db 39 b0 3d 5c cd 9a be 74 bf 73 be
       0.12944981 0.08604785 -0.30234802 -0.23803502
000040 e1 67 40 bd 09 be 62 be 80 57 af 3d ef 7f 7b 3e
       -0.046974067 -0.22142805 0.08561611 0.24560522
000050 3b f3 49 bd 7e 2f 25 be 7d 86 a3 3e 68 fe 37 be
       -0.04930423 -0.16131398 0.31938544 -0.17968142
000060 cc d3 07 3d 04 11 e4 3e 1b ca 0b 3e d2 a2 85 bc
       0.03316097 0.44544232 0.13651316 -0.01631299
000070 a7 69 56 bd 05 12 05 bf e4 78 ba bd b1 1f f9 3c
       -0.05234685 -0.5198062 -0.09105089 0.03041062
000080 65 bb 2d 3c ad 3f 11 bc 6b c1 0a be d2 5c 42 be
       0.01060376 -0.008865279 -0.13550346 -0.1898072
000090 8b ce e9 3c 12 cf 09 3e 54 ba 6e be 9a 24 e7 be
       0.02854087 0.13457897 -0.23313266 -0.45145112
0000a0 95 32 dd 3e e4 bf 62 3e 10 0e 1e 3f 4c 8b 17 3f
       0.43202654 0.22143513 0.6174021 0.59196925
0000b0 ca 03 05 3e 76 bf 16 be 66 4c e0 3e be 5b 6c 3e
       0.12989727 -0.14721474 0.43808287 0.23081872
0000c0 bc 71 20 3d d3 6c c9 bd 09 f6 d7 3e 56 c0 38 3f
       0.039170966 -0.0983521 0.42179897 0.7216848
0000d0 da ed 5d 3e f5 81 8e bc 3a 7a 08 bf 5b 84 27 bf
       0.21672764 -0.017395953 -0.533115 -0.65436333
0000e0 f8 6a bd bd 3b e6 36 3e 5e e8 08 be 82 2d 3e be
       -0.09248918 0.17861263 -0.13369891 -0.18572047
0000f0 29 cb 1c 3e 7e 68 4c 3d 58 7c 00 3b c6 de 69 3e
       0.15311874 0.04990434 0.0019605365 0.22838888
000100 e3 f1 73 bd f3 a4 c1 3d 8c 04 98 bd 8c e7 40 3d
       -0.059556853 0.0945529 -0.07422742 0.04709582
000110 9b fd 67 3d c5 8a c0 3d 19 b2 72 3d 61 af ee 3c
       0.05663834 0.09401468 0.05925188 0.029136362
000120 d5 bf aa 3d f6 b6 32 3d c8 84 ef 3b a2 d7 a9 bd
       0.0833737 0.043631516 0.00730953 -0.08293082
000130 72 77 81 bc ac 61 15 3e 61 c7 cf 3d ec 3d ea 3d
       -0.015804026 0.1458804 0.101454504 0.11437592
000140 f2 5d 04 3d 5e dd 03 bd ff b5 16 be 97 af 18 bd
       0.032316156 -0.032193534 -0.14717864 -0.03727683
000150 f3 42 9f bc 5b b3 d3 3b 0f f4 00 3e 22 e5 a8 bd
       -0.019441104 0.00646059 0.12593101 -0.082468286
000160 ce 2d 7b 3d f4 1a b1 3d 31 b6 19 bd fe 08 08 bd
       0.06132298 0.08647719 -0.037527267 -0.0332117
000170 df a0 49 bc ae f1 9c bd 4d 41 02 be 59 82 99 bd
       -0.012306421 -0.07663284 -0.12720223 -0.07495565
000180 bd 22 16 3d e9 7f 51 3d 42 b4 8f 39 bb 61 d6 3d
       0.036654223 0.051147375 0.00027409388 0.10467859
000190 e4 c3 a6 3d 55 27 b8 3d cd 13 17 3d 14 55 96 bd
       0.08142832 0.08991877 0.036884118 -0.07340446
0001a0 c5 da 7d 3c e7 ce 60 3d 8f 64 2a 3c 8e 99 8d bd
       0.015494053 0.054884817 0.010399952 -0.06914054
0001b0 12 3a 1b be a7 2f e5 bb 20 16 2d be 01 30 59 bd
       -0.15158871 -0.006994206 -0.16902971 -0.053024296
0001c0 1b 93 02 bd 74 0b a5 bd 40 0b d8 3c a5 42 af 3c
       -0.031878572 -0.08058825 0.026372552 0.021394083
0001d0 29 3e 43 bd aa 67 72 3d 93 5b e9 3d 0d 44 57 3b
       -0.047666702 0.059180893 0.113944195 0.0032846958
0001e0 87 2c 06 3d 6b 5c bb 3d 9c 76 af 3c f7 91 dc bd
       0.03275731 0.09148487 0.021418862 -0.10770028
0001f0 1e 9a ca bd 41 6e ab bc 77 e2 a4 bd 7a 53 23 3d
       -0.09892677 -0.020926597 -0.08051007 0.03987453
000200 da 32 e2 3c f9 17 df 3c 76 e9 c4 3d ac 08 8f bd
       0.027612139 0.02723311 0.09614842 -0.06984076
000210 f6 3d b4 bd 15 e8 48 3c 19 12 bc 3d a0 61 e7 3b
       -0.088008806 0.012262364 0.09183139 0.0070611984
000220 54 25 fd 3d 2c 93 8f bc a9 8c 7b 3d 1b db 2a bd
       0.123606354 -0.017526232 0.06141344 -0.04171286
000230 a3 04 b2 3c d9 44 f5 3d 8a 3d 05 3e a3 3c b8 3d
       0.021730727 0.11976022 0.13011757 0.089959405
000240 db 7f 42 bd c9 2a ff 3c 5a 24 e8 3c a8 20 36 bc
       -0.047485214 0.031148331 0.028337646 -0.011116184
000250 22 ff ef 3a 6e 5b 1b bd d4 ec de 3c 68 fc ef 3d
       0.0018310288 -0.03792899 0.027212538 0.117180645
000260 44 5d 41 bd 41 7b 5c 3d 67 60 49 3d 4a 04 ca 3c
       -0.047208086 0.05382848 0.049164202 0.024660248
000270 60 9f 95 bd 59 92 96 bd 7f 6e ca 3c 83 db 96 bc
       -0.07305789 -0.07352132 0.024710892 -0.018415218
000280 3e 55 31 bd ae 0d bd bd 0e ce f6 bc 01 99 d9 3d
       -0.043294184 -0.09231125 -0.030127551 0.10624886
000290 5e 78 44 3b 39 1b 13 bd f2 4b 5e bc 31 d2 bb 3d
       0.002997897 -0.035914633 -0.013567911 0.0917095
0002a0 b5 c6 4e 3c 9c fe 73 bd ff 7d 96 bd 7f d1 e7 3d
       0.012620618 -0.059568986 -0.073482506 0.11319255
0002b0 56 f3 7c bd 03 89 fa 3c 45 05 0a bd 9e 42 d3 3d
       -0.0617555 0.03058291 -0.03369643 0.103154406
0002c0 09 7a 92 3d 17 89 aa bc 46 41 68 3d b4 5f cf 3d
       0.071521826 -0.020817323 0.056702875 0.10125676
0002d0 54 21 64 bc c1 c0 61 3c d2 50 bf 3c 17 97 6e bd
       -0.013923962 0.013778866 0.023353968 -0.05824956
0002e0 ab ad 1c bd 22 d1 b6 bd 46 9b 1e 3b a6 d0 db bd
       -0.03825156 -0.08926608 0.0024201437 -0.10733156
0002f0 59 a7 f0 bd 02 7c 98 bd 64 81 8f 3d 85 34 ac 3d
       -0.11750669 -0.074455276 0.07007101 0.08408455
000300 3b 69 9f bc 37 e2 61 3e ab d4 ec 3c c4 12 9c 3d
       -0.019459357 0.2205895 0.028910002 0.07620767
000310 c5 70 69 be be b6 58 3a 9b 0d 16 be 99 de 83 be
       -0.22796924 0.0008266977 -0.14653628 -0.25755766
000320 e0 3b 18 be 41 ce f1 bb 1a 96 d1 bd a7 5a 5e 3d
       -0.1486659 -0.0073793237 -0.10233708 0.05428567
000330 3c 1f d2 bc 63 f4 4c 3e e8 6a 1c 3d 78 24 23 bb
       -0.02564966 0.20015101 0.03818789 -0.0024893563
000340 2b 1a d6 be 0a ad 8c bd 68 57 94 bc f2 8a 48 be
       -0.4181684 -0.06868942 -0.018108085 -0.19584253
000350 d2 13 c7 3d f5 a0 68 bd 62 db 6d 3d 54 18 29 3c
       0.09720577 -0.056794126 0.058070548 0.010320742
000360 68 8b a2 be da df 23 3c f1 42 13 be 4d 86 51 be
       -0.31746984 0.010002101 -0.14381005 -0.20461388
000370 6d a4 e1 bd eb 60 87 3d b4 4e a0 be dc 44 02 be
       -0.1101769 0.066102825 -0.31310046 -0.1272158
000380 08 b1 6c 3e 93 05 b2 3d ca 7f 0d 3e c1 2f 11 be
       0.23114407 0.086924694 0.13818279 -0.14178373
000390 39 d9 48 3e 8a 56 9b 3d f6 94 02 bd 32 a0 f9 3d
       0.19614114 0.075848654 -0.03188034 0.12188758
0003a0 8d d1 56 be 97 be f7 3d b6 f7 32 3e 62 7a 86 bd
       -0.20978375 0.12096899 0.17477307 -0.065663114
0003b0 58 64 19 be dc bb 4d be f5 f5 6c bd 00 18 15 bd
       -0.14979684 -0.20091194 -0.05785175 -0.03639984
0003c0 04 1e 0d bd 83 85 97 bd 94 81 ae 3c 0f 94 f4 3c
       -0.034452453 -0.07398512 0.021302022 0.029855756
0003d0 5f 2f d6 bd 1c ca e7 bd bf 42 b1 bc 7a a3 ad bc
       -0.10458254 -0.11317846 -0.021638272 -0.021196116
0003e0 e1 a6 68 3d fb d2 6b 3e 56 c0 0a 3e 53 9d 12 bd
       0.056799773 0.23029701 0.13549933 -0.035794567
0003f0 67 15 a5 bd 28 28 1f be 41 8f 03 be 4b 28 04 3d
       -0.08060723 -0.15542662 -0.12847616 0.03226499

model.decoder.blocks.0.upsample.bias f4 [16]
000000 ae 09 bc 3d 59 8c 07 bd 30 8e 01 be 91 d1 8b 3d
       0.09181534 -0.03309283 -0.12651896 0.06827081
000010 01 32 f2 bd e7 37 08 3e 20 83 ca bd fe 18 31 bd
       -0.11825944 0.13302575 -0.09888291 -0.043236725
000020 f5 d7 00 3e b8 82 fd 3b b8 9d d2 bd 9f f4 c5 3d
       0.12582381 0.00773653 -0.10283989 0.096657984
000030 d1 14 53 bd 4b d3 a5 bd 34 af d6 3d 54 db cb bd
       -0.051533524 -0.080969416 0.10482636 -0.09953943

model.decoder.blocks.1.layer.weight f4 [16, 16, 3, 3]
000000 48 db e9 3c 24 24 e7 bc 81 1d 56 3d 24 00 e4 bc
       0.028546944 -0.028215475 0.05227423 -0.027832098
000010 9a 6d 14 bd 4b 0e 94 3d fe 55 ee bc 3e 29 8e 3d
       -0.036237337 0.07229289 -0.029093739 0.0694146
000020 53 87 94 3d 72 62 a9 bc ae 42 2d 3d 88 25 4a 3d
       0.072523735 -0.020676825 0.04229992 0.0493522
000030 32 fc 75 3d d5 7d f1 3a 91 ca 70 bd 01 f3 11 3d
       0.060054965 0.0018424342 -0.058786932 0.035632137
000040 9c 66 3b bd 41 b0 82 bd d8 ce f3 3c f3 b7 0b bd
       -0.045752153 -0.06381274 0.029761717 -0.034110975
000050 e9 33 00 bd 55 73 61 3b ef ac ac bc b7 bc a4 ba
       -0.031299505 0.0034401019 -0.021078555 -0.0012568448
000060 07 71 9f 3c eb 7e 87 3d 86 72 96 bd 62 08 61 3c
       0.019463075 0.066160046 -0.07346062 0.013734909
000070 d7 21 ac 3d 82 79 f6 3c a8 98 a9 3d d5 0c 26 bd
       0.08404892 0.030087236 0.0828107 -0.04053958
000080 92 25 ef 3c b0 bb 48 bd 06 e1 87 bd d5 07 52 3d
       0.02919272 -0.049007118 -0.06634717 0.051277
000090 08 44 da bc c6 5a 2a bd 8d a3 0f 3d 53 96 ad bd
       -0.026643768 -0.041590475 0.035068084 -0.08475938
0000a0 66 15 a0 bd 28 6b 9f 3c 4a f6 1f 3d 59 19 84 bc
       -0.078165814 0.019460276 0.03905324 -0.016125368
0000b0 5d 70 29 bd 46 d1 d5 bc 50 1c 97 bc 00 0e 82 3d
       -0.041366924 -0.026100766 -0.018446118 0.063503265
0000c0 33 36 a7 3d fd b9 ae 3d 82 ee a0 3d 76 35 e8 3c
       0.081646346 0.08531568 0.07857992 0.028345805
0000d0 07 dc d0 bc fc a3 bb 3d be 3b 80 3c 43 e6 85 bd
       -0.025495542 0.09162137 0.015653487 -0.065380596
0000e0 99 45 4d 3d 14 76 8d bd 61 26 a2 bd cd 57 b1 bc
       0.0501152 -0.06907287 -0.079174764 -0.021648312
0000f0 3e 62 6b 3d 74 b4 43 bd 28 92 64 bd 7e aa 1f bd
       0.057466738 -0.047779515 -0.055803448 -0.038980953
000100 e3 46 a8 bd 88 f6 25 bd 22 29 4c bd 7d 47 cb bc
       -0.082166456 -0.040518314 -0.049843915 -0.024814362
000110 49 3f 01 be 80 b7 ee bc 37 84 4c bc 15 cf 7f 3b
       -0.12621798 -0.029140234 -0.012482694 0.0039033343
000120 1b 7f 52 bb 89 9a 6d 3d f4 5f dd 3d 02 da 85 3d
       -0.0032119218 0.058008704 0.10809317 0.06535722
000130 db e8 a7 bc b6 4f a4 3d e7 ac 41 3d 29 56 c5 bc
       -0.020496776 0.08023016 0.047284033 -0.024088936
000140 54 4a 8e 3d f9 44 00 3d 24 ab 82 3d 7a f5 73 ba
       0.06947771 0.031315777 0.06380299 -0.0009306293
000150 c1 9d 7b 3d 81 3b b2 bb 9d 81 32 bd 16 b2 5d 3d
       0.061429743 -0.0054392223 -0.04358064 0.054124914
000160 ce 2f 25 bd ef 14 2f 3d 13 6c 58 bb 41 c5 10 3d
       -0.040328793 0.042744573 -0.0033023402 0.035344366
000170 f9 00 85 bd 97 69 5e 39 65 db 27 bd 3d 50 04 bd
       -0.06494326 0.00021210905 -0.040980715 -0.032303084
000180 06 34 a5 bd 0e 17 91 bc 5a 7a 33 bd bf e9 c4 3c
       -0.08066563 -0.017711189 -0.043817855 0.02403724
000190 57 09 0a 3b b6 12 26 3a 83 1e 0c bb b0 79 dc 3c
       0.0021062696 0.00063351856 -0.002138049 0.026913494
0001a0 23 c6 46 3d 7f 28 7d 3d 63 9a 85 3d 70 22 af 3d
       0.0485288 0.0618062 0.065235876 0.0855149
0001b0 4a 3d b0 bc c7 26 f0 bc 8e 76 33 3d f4 a1 20 bd
       -0.0215136 -0.029315365 0.043814234 -0.03921695
0001c0 90 e6 43 3d cf a9 5c 3d 3d 8b f7 ba 0a 42 1e bc
       0.047827303 0.05387288 -0.0018886101 -0.0096593
0001d0 5c e1 b1 bd 32 2f 32 bd f1 f4 4a 3d 29 b2 d9 bb
       -0.08685562 -0.04350204 0.04955 -0.006643553
0001e0 c3 1e 98 3c 2e c3 52 bd 37 61 98 3c 60 0a 9d 3c
       0.018569356 -0.05145567 0.018601043 0.019169986
0001f0 de 50 7e 3c ed 84 42 3c 71 a1 f9 3a 1a 1e 8b 3d
       0.01552221 0.011872512 0.0019045306 0.06792851
000200 58 a2 88 3d c2 be d6 bc e4 66 b1 3d ff 3d cf bb
       0.066715896 -0.026214007 0.08662203 -0.006324529
000210 0f cc 6f 3d 99 89 18 bd 65 de 10 bd fa 67 b2 bd
       0.058544215 -0.0372406 -0.035368342 -0.08711238
000220 66 3a 4e 3c 96 6d 00 3d 43 8c cf 3c a8 b3 b0 bd
       0.012587165 0.03135451 0.025335437 -0.08628017
000230 73 42 de bd e4 51 08 bd 55 df 0d bd 3e 26 8d 3c
       -0.10852518 -0.033281222 -0.034636814 0.01723015
000240 d3 47 1b be 5a 16 4f be f8 6a ad 3a 11 59 b1 3d
       -0.15164118 -0.2022337 0.0013230732 0.08659566
000250 3b b5 0e bd 59 14 c3 3d 48 36 9e bb e7 01 6d bd
       -0.034840804 0.095253654 -0.004828248 -0.057863142
000260 b8 57 91 3c b2 98 aa 3e ae 32 d1 3e a0 6a 83 3e
       0.017742023 0.33319622 0.40858978 0.25667286
000270 8e 48 bd bd 1f d5 ee 3c 57 0c 2c be c6 52 5d 3e
       -0.09242354 0.029154358 -0.16801582 0.21613607
000280 b5 c9 26 3e 12 8d e1 3d 8a 42 f3 3c 2d ce 1a 3d
       0.16287883 0.11013235 0.029694814 0.03779428
000290 91 22 a6 3d 6e 3e 69 3d ce d7 c2 bc d9 60 9f 3c
       0.08112062 0.056944303 -0.023784544 0.01945536
0002a0 24 49 d8 bd 45 ff 33 3d 31 90 14 be 61 ab 39 be
       -0.105608255 0.043944616 -0.1450813 -0.18131782
0002b0 e5 8e 4d be 7f 70 97 bd 68 b2 27 be 44 42 ce bd
       -0.20074041 -0.07394504 -0.1637665 -0.10071233
0002c0 de 28 5f bc 9f 93 02 3d 90 27 04 3d 21 7c 8a bd
       -0.013620583 0.031879064 0.032264292 -0.06761957
0002d0 9b fa f9 3c 1c 70 22 3d 14 db e5 3d 07 3b 7d 3d
       0.030515006 0.039657697 0.112234265 0.06182387
0002e0 ff 9c 0c 3e 68 3f 61 bd c1 f0 4e 3d 77 48 86 3d
       0.13731764 -0.05499211 0.05052257 0.0655679
0002f0 81 88 bf 3d 4a 8d 19 3b 14 75 95 bd 69 1d 1d be
       0.09352208 0.0023430162 -0.072977215 -0.1534325
000300 9f 85 aa 3d 49 9c b8 3c 66 36 18 bc d4 09 a5 3d
       0.083262675 0.02253546 -0.009290313 0.08058515
000310 bf 2e ef bc c4 08 12 bd 6b eb 33 3e f7 69 3f 3e
       -0.029197095 -0.03565289 0.17570274 0.18692766
000320 5d 28 3b bc 9d a3 1d 3e 4a 84 13 be a7 e7 eb 3c
       -0.011423198 0.15394445 -0.14405933 0.028796984
000330 da 63 e4 3c d3 c6 20 bd 2b 23 39 3c 11 89 76 bd
       0.027879644 -0.039252114 0.011299889 -0.06018931
000340 b1 e0 10 be 7c ea e5 3e 06 98 0b 3e 7c 03 be bd
       -0.14148213 0.4490546 0.13632211 -0.09278008
000350 fa 14 9e 3e ad 60 50 be 4c 66 50 bd 3a 77 ae be
       0.3087538 -0.20349379 -0.050878808 -0.34075338
000360 98 dd af bc 55 a5 c3 bd 11 7d 5d bc 59 d4 49 bd
       -0.021467969 -0.09553019 -0.013518588 -0.049274776
000370 39 3b de bd 58 dd 87 bd a1 88 c6 bc 6c 71 a2 bd
       -0.108511396 -0.06634015 -0.024235072 -0.0793179
000380 fe a0 60 3d f8 82 3d be d0 b6 51 bd 99 e9 db be
       0.054841034 -0.18506992 -0.051199734 -0.42951658
000390 c5 cf 4f be 61 ad 2c 3e 2e 47 0e be 94 6a 1c 3e
       -0.20294102 0.16863014 -0.1389434 0.15275031
0003a0 db 2b d2 3d 23 b4 52 3d 76 72 e0 3d 76 c5 51 3c
       0.10262271 0.051441323 0.10959332 0.012803426
0003b0 03 22 f2 3c 46 62 04 bc 0c 06 75 3d 63 95 80 bd
       0.029557234 -0.008080071 0.05982022 -0.06278493
0003c0 75 98 08 3d f6 d6 ec bc 71 53 df 3d cd 1b bd 3c
       0.03334852 -0.028911095 0.10904587 0.023084546
0003d0 16 1d 3c 3e 08 e6 54 3d 87 21 eb 3c c2 7a eb bc
       0.1837047 0.051977187 0.02870251 -0.028745059
0003e0 2b 4b b2 3d ec 50 75 bd b4 4c 20 bd 28 d1 19 be
       0.087057434 -0.059891626 -0.03913565 -0.15021193
0003f0 d6 05 d3 3d 86 57 d4 3d 42 e5 32 3c b2 9a fe 3d
       0.103038475 0.10368256 0.010918917 0.124318495

model.decoder.blocks.1.layer.bias f4 [16]
000000 4b 5f b9 3d 16 a9 02 bd 80 aa bf 3d 5c 03 b4 bd
       0.09051379 -0.031899534 0.09358692 -0.08789703
000010 0f f7 69 bd 18 c3 0d 3e f7 6b d8 bd 45 dd c7 3d
       -0.05712038 0.13843954 -0.10567468 0.09759001
000020 d6 bb bd 3c bb 8c 70 bc a4 53 fa 3d fe 27 a7 3d
       0.023160856 -0.01468199 0.122229844 0.08161925
000030 8b 08 37 3c 8b 53 18 bd 90 fb 1c bd 9e 46 2b 3d
       0.01117147 -0.037189048 -0.038325846 0.041815393

model.decoder.blocks.1.upsample.weight f4 [16, 16, 2, 2]
000000 dc 94 cd 3d 66 0b 87 bc 8b bf c5 3b 78 34 9d 3b
       0.10038158 -0.016484927 0.0060347966 0.0047975145
000010 e7 23 9b bd ab e6 71 3d d5 f6 06 be d5 d3 e0 3c
       -0.07575207 0.059057873 -0.13180096 0.02744476
000020 7d 6f 0f 3e ad 3f 69 3d 69 6a 44 3d f0 a0 9b bd
       0.14007373 0.05694549 0.047953043 -0.07599056
000030 2d 1d fe bc e7 ea 0e 3d b1 66 9e bd e2 5b 8d bd
       -0.031019771 0.03489199 -0.077344306 -0.06902291
000040 fc 3b 77 3d 72 ad 3c bd 2e cf 99 3d 44 6a 40 3d
       0.06035994 -0.046063848 0.075102195 0.046976343
000050 18 3c 92 bd dc 49 d2 3d 9f 6d e4 bd 23 3a 10 3e
       -0.07140368 0.10267994 -0.11153721 0.14084677
000060 d3 39 02 3e 2b d1 c3 bd 2a 99 a2 3d 5d 93 78 39
       0.1271737 -0.0956138 0.0793937 0.0002370602
000070 28 d6 d2 bd 94 b7 78 bd b4 f8 c5 3d 6e d7 ab bd
       -0.10294753 -0.06072195 0.09666577 -0.08390699
000080 a0 11 d3 3d 02 1c 2e 3d 46 38 b1 3d 7e a8 67 bc
       0.10306096 0.04250718 0.086533114 -0.014139293
000090 62 bd 29 bd fe 79 cd 3d 41 68 8b bd 01 8e 7a 3d
       -0.041440375 0.10033034 -0.06806994 0.06117058
0000a0 ac 18 a8 3d 2b be c4 bd fb 2d b9 3d ff 3f df 3d
       0.08207831 -0.09606584 0.09041973 0.10900878
0000b0 dd d5 3d bd 38 66 2c bd d6 59 13 bd 20 26 ba bc
       -0.046346534 -0.04208967 -0.035974346 -0.022723258
0000c0 8b 8c a6 3d f6 cc fa bc 43 dd 23 3c 10 6f 72 bd
       0.08132275 -0.030615311 0.010001483 -0.05918795
0000d0 18 2c a4 3d cc c0 8f 3d fb 5d 39 bc 91 c2 c1 3d
       0.08016223 0.07019195 -0.011313911 0.09460939
0000e0 b3 ff c5 3d 1b fd 4b bd 38 af 85 bd fa bb c3 bc
       0.096679114 -0.049801927 -0.06527561 -0.023893345
0000f0 79 20 a7 3d 28 95 00 3e 4c 8c 9f 3d 42 10 51 bb
       0.081604905 0.12556899 0.077904314 -0.003190056
000100 05 e7 8d 3d 72 93 4d 3e c8 37 86 3d 3d 11 34 3e
       0.06928829 0.20075777 0.06553608 0.17584701
000110 71 c4 2b bc 2f b6 20 be 2f df ec bd b3 1d e2 bd
       -0.010483847 -0.15694498 -0.115660064 -0.11040821
000120 b5 5c c9 bd 2f e3 96 bd 82 1f 55 bc 6e d2 3e 3d
       -0.098321356 -0.073675506 -0.013008 0.0465874
000130 9c a3 27 3e 4f 93 e7 3d 6d ea fc 3d 08 82 98 3c
       0.16371006 0.11307394 0.12349401 0.018616691
000140 40 93 8a 3d a6 b3 45 bc d6 a8 93 3d ee 9d 75 3d
       0.06766367 -0.012066757 0.07209937 0.059965067
000150 e7 fc 12 be 6e b2 bd 3e d5 a3 03 3e 28 db d3 3e
       -0.14354287 0.37050194 0.12855466 0.4137814
000160 68 eb 03 3e 52 15 e5 3d 69 23 44 3e 40 52 3e 3e
       0.12882769 0.11185707 0.19154133 0.18586063
000170 29 8d 82 bc cf 3b 79 bc 0b 86 a5 bd d9 c1 6e 3c
       -0.015936451 -0.015212013 -0.08082207 0.014572584
000180 10 ba 88 bb 7f e7 0e 3d 49 f1 62 3e f1 1f c0 3d
       -0.004172571 0.03488874 0.22162355 0.09381092
000190 f1 3b 18 be 86 b7 62 bc 3e b4 8d be e3 58 ba bd
       -0.14866616 -0.013837701 -0.27676576 -0.09098985
0001a0 51 e6 77 bb a8 ee de bd d4 b0 1c 3e 22 e7 4b bd
       -0.0037826488 -0.10885364 0.1530183 -0.049780972
0001b0 80 5a 49 3d a8 f6 20 3e aa 08 c6 3d 15 39 0e bd
       0.049158573 0.15719092 0.09669621 -0.034722406
0001c0 62 61 35 3e 9a c3 32 3d 29 f7 b3 3e dd 0e 4e 3e
       0.1771293 0.04364357 0.35149506 0.20122857
0001d0 c0 78 78 3d 87 75 fb bd b1 af 35 be 22 24 61 be
       0.06066203 -0.12278276 -0.17742802 -0.2198644
0001e0 c8 9e 79 bd c7 7a 8d be 12 c5 6a be 88 10 d6 be
       -0.06094244 -0.27632734 -0.22926739 -0.41809487
0001f0 c0 ff de 3d a4 45 b0 3b 52 e1 58 3d f3 21 17 3e
       0.10888624 0.0053793956 0.052949257 0.14759044
000200 68 e0 83 bd 42 dc 23 bb fa 07 ec 3c 2f 40 5e bc
       -0.064392865 -0.002500311 0.028812397 -0.013565107
000210 66 7d a7 bd 15 57 bf bb 62 39 14 bd 08 1e f6 3c
       -0.08178215 -0.0058392384 -0.036187537 0.030043617
000220 07 cd da 3d 1b ac 66 bc ed 14 7d 3d 82 89 9e bc
       0.10683637 -0.014079119 0.061787535 -0.019352678
000230 0d 95 b5 bc 53 51 83 bc 86 86 3f 3d 03 2f 18 3e
       -0.0221658 -0.01602999 0.04675915 0.14861684
000240 61 99 fd bc 49 9f 08 3e 49 78 6f bc ff d5 95 bd
       -0.030956926 0.13342012 -0.014616081 -0.07316207
000250 ab cd a8 bd f1 17 f2 3d 73 b3 02 3e 53 33 8a bd
       -0.08242353 0.11820973 0.12763767 -0.067480706
000260 a5 06 a9 bd 6a cb 13 3e 65 49 31 3d b4 41 8b 3d
       -0.082532205 0.14433065 0.043282885 0.06799641
000270 99 a0 8c 3d 70 bc 93 3d 5a 94 dd 3c 1b b1 9d bc
       0.06866569 0.07213676 0.027048279 -0.01924949
000280 3d 9f 4c bd 00 44 9d bd 4e fc c2 3d b1 8a c3 3b
       -0.04995655 -0.076789856 0.095207796 0.005967461
000290 3e f3 bf bd ed c8 14 be f2 00 e4 bd 3e d8 77 bd
       -0.09372567 -0.14529772 -0.11132993 -0.06050896
0002a0 79 0f a9 bc 2a 84 ff 3d 7a af 18 bd 62 ea 6b bc
       -0.02063726 0.1247638 -0.037276722 -0.014399143
0002b0 73 5c 82 bd fd 0f 0b 3e c9 af 3f bd ed 07 b3 3d
       -0.063652895 0.13580318 -0.0467985 0.08741746
0002c0 b2 0e fc 3d a4 eb 3b 3d 2e 57 7f bc a4 a9 e2 3d
       0.123074904 0.04587902 -0.01558475 0.11067513
0002d0 47 be a4 3d 03 25 8a bd fe 40 4b bb 93 e0 c2 3b
       0.08044105 -0.06745341 -0.003101408 0.0059471815
0002e0 e9 70 23 bd b6 33 0a be 9f 6f 8c 3d c3 02 81 bd
       -0.0399026 -0.13496289 0.068572275 -0.06299355
0002f0 35 a3 59 3c 55 04 a1 3c c3 e1 91 3d 89 10 97 3c
       0.0132835405 0.019655386 0.07123139 0.018440502
000300 04 28 42 3e ca 02 29 3e 92 7f 65 3e 17 22 5b 3e
       0.18960577 0.1650497 0.22411945 0.21399723
000310 e4 89 72 be c5 bd 15 bd c3 f6 3b be af 80 28 3d
       -0.23685414 -0.03655793 -0.18355851 0.041138347
000320 4a 10 12 bd 3e f5 cd bd ce 17 58 3e 51 91 ed 3d
       -0.035660066 -0.10056542 0.21102831 0.115999825
000330 36 56 95 3c 14 42 93 bc ea c1 ab 3d 2a 0d 23 3d
       0.018229585 -0.017975844 0.083865955 0.039807476
000340 33 e6 70 3e 8f c7 b4 3d 5f 81 18 3e a4 d6 af bd
       0.23525314 0.08827125 0.14893101 -0.08585861
000350 15 0e 8f 3e cb ea c5 3d f8 77 80 3e 22 7c 2f 3e
       0.2794043 0.09663924 0.2509153 0.17137197
000360 e2 0f a5 b9 a1 79 1d bd e2 99 5c 3e 47 b6 74 bd
       -0.00031483086 -0.038446072 0.21543077 -0.059744146
000370 1a 13 d6 bc d1 82 5d bc 4e a7 8e be a1 85 46 bd
       -0.026132155 -0.013519959 -0.27862018 -0.048467282
000380 64 68 9d 3c ed 89 8c 3d c2 38 46 3e 07 c7 23 3e
       0.019214816 0.06862245 0.19357589 0.15993892
000390 79 76 28 be 60 8b 03 3d 10 77 70 be ee 67 23 be
       -0.16451444 0.03211534 -0.23482919 -0.15957615
0003a0 68 85 82 bd 18 ea 3e bd b7 da 18 3e 72 c7 5a 3c
       -0.063731015 -0.046609968 0.14927183 0.0133532155
0003b0 69 b4 81 bd 7d dc f3 bd 38 53 a2 3d 8e f9 e1 3d
       -0.06333239 -0.11907289 0.07926029 0.11033927
0003c0 4e 4c fd 3d 1e 38 4a bd 64 fb 50 3e c2 7a b3 3d
       0.123680696 -0.049369924 0.20408398 0.087636486
0003d0 20 77 c4 be f0 d0 6f be c8 4f 0f bf 46 e7 75 be
       -0.38372135 -0.23419547 -0.5598111 -0.24014005
0003e0 5b 37 a0 be ff 19 84 bd 3d b2 8f be c2 40 da bd
       -0.31292233 -0.06450271 -0.28065673 -0.10656883
0003f0 bb 8b 1c 3e cb 86 4b bd ec 20 1f be c1 8c 94 bd
       0.15287678 -0.049689095 -0.15539902 -0.07253409

model.decoder.blocks.1.upsample.bias f4 [16]
000000 61 fe 14 3e b6 41 ef bd b3 d2 b0 3d 63 bd 9d 3d
       0.14550163 -0.11682455 0.08633938 0.07702138
000010 cf 3e fa 3d 90 dd 05 3e 5a db 9e 3d a9 7e a6 bc
       0.12219011 0.130728 0.07756682 -0.020324068
000020 9d 2f ae 3d 60 fa f5 bd b7 2a 0e 3d cc 88 1b 3e
       0.08505175 -0.12010646 0.034708705 0.15188903
000030 0a ba 0f 3e 62 4a 88 bd 23 11 54 bd 72 ca 01 bc
       0.14035812 -0.066548124 -0.051774155 -0.007921802
